soil_salinity_multi_sensor/outputs/models/stage1/best_model.pth (torch, 72098 bytes, 20 tensors)

network.0.weight f4 [128, 36]
000000 ea 00 44 3e c3 ed 1b 3e f8 fd 15 3f a6 e4 99 3e
       0.19140974 0.15227418 0.5859065 0.30057257
000010 55 73 5d 3d 3f 0a 2b 3d df fd c8 3d 4d 06 c1 bd
       0.054065067 0.04175782 0.09814047 -0.0942503
000020 7a 94 b0 3d 0a fe 8a be 1e 16 59 3e 06 da d6 3d
       0.0862207 -0.2714694 0.21199843 0.104908034
000030 50 a4 4a 3e 80 9b ea 3d 1a 7a 22 3d 45 03 3a be
       0.19789243 0.114554405 0.039667226 -0.1816531
000040 94 87 a5 3e 86 bc 5f 3e d0 6d f5 3e 75 de 2d 3f
       0.3233 0.2184926 0.47935343 0.6791757
000050 af 5c f1 3d 6e 4c fc bd bf b2 21 bd 3c 67 a5 3d
       0.11785256 -0.12319265 -0.039477106 0.08076331
000060 9b b9 c1 3e 62 59 95 3e 92 7b 05 bd 66 90 d6 bc
       0.37836918 0.29169756 -0.03258855 -0.026191901
000070 db 77 31 be 66 dd 1c 3e 8c 60 e8 be 6c 12 fa 3e
       -0.17330877 0.15318832 -0.4538616 0.4884218
000080 67 6f 35 3e 23 62 2b be ad cc d9 be 4b e5 1f 3d
       0.17718278 -0.16736655 -0.42538968 0.03903703
000090 94 f5 49 3e d7 af 5a 3d cd d5 a9 3d be 0a 6a 3e
       0.19722587 0.05339035 0.082927324 0.2285566
0000a0 70 05 5d 3b 51 6a 17 3d fe 2a 99 3d 11 aa be 3d
       0.0033725165 0.036966626 0.07478903 0.09309781
0000b0 e8 e6 25 be 8d b6 9b 3d 34 bd ed bc 7e e4 f3 bd
       -0.16201365 0.07603178 -0.029020883 -0.11908816
0000c0 2d ca bc bd dc 1b 4c be e0 a0 c8 3d fb 9c 27 bd
       -0.092182495 -0.19932503 0.097963095 -0.040921193
0000d0 c7 bb 6f 3e 8e 3d 29 3e 5e 59 5f 3d 5b 2c 2c 3d
       0.23411475 0.16527387 0.054528587 0.04203449
0000e0 87 63 c9 bb 6f be da bc 27 44 54 3e cb 86 a2 3d
       -0.006145898 -0.026702134 0.20729123 0.07935866
0000f0 05 21 af 3d 1b 25 f4 3d c7 84 9a be a5 de 70 3e
       0.0855122 0.1192114 -0.30179426 0.23522432
000100 e0 70 f6 bb bc 87 88 bd 5b 76 e9 be 82 92 b5 3e
       -0.00752078 -0.06666514 -0.4559811 0.3546334
000110 57 10 43 3e eb bd fb bc 48 65 f2 be d8 c7 8e 3d
       0.19049202 -0.030730208 -0.47342896 0.06971711
000120 bb 5f ed 3e 6c 5b e0 3e 7f 37 aa 3e 3d 07 02 3f
       0.463621 0.4381975 0.33245465 0.50792295
000130 51 a7 8d be 3f 0f b5 3b 51 90 f1 bd 76 0f 53 bc
       -0.27666715 0.005525499 -0.11795104 -0.012882104
000140 a8 ef b0 3b a4 7a 35 3e 21 bd 8f 3e b0 ed 97 3e
       0.005399663 0.17722565 0.2807398 0.2967353
000150 da fa 6c 3e 02 15 37 3e e5 06 d0 bc bf b3 a4 3d
       0.23142567 0.17879108 -0.025393913 0.08042096
000160 d2 fb f0 3e ee 5b 20 3f df 0a a9 3e 7a 20 1e 3f
       0.47067124 0.62640274 0.33016106 0.61768305
000170 2c 15 f7 3c 9d ef 76 bd 30 8b 48 bc 71 cb 5a 3d
       0.030161463 -0.060287107 -0.012240216 0.053416673
000180 fa 3f 89 3a a1 32 fb bd e0 28 25 be 01 47 ed bc
       0.0010471337 -0.12265516 -0.16128874 -0.028964521
000190 08 84 cc 3d 7e 82 6f 3e e0 62 3f bf 73 d6 19 3f
       0.099861205 0.23389623 -0.74760246 0.6009285
0001a0 8d b6 11 3d a6 95 a3 3d bb e5 07 bf 75 54 c2 bd
       0.035574485 0.079875275 -0.53084916 -0.09488765
0001b0 1b 0d c8 3e dc 91 07 3f 26 54 d7 3e 39 3a 1b 3f
       0.390725 0.5295694 0.42056388 0.60635716
0001c0 59 7f 1b 3d dc d9 26 3c 26 29 03 be 5b 01 f8 bd
       0.037963245 0.010183778 -0.12808666 -0.121096335
0001d0 42 57 15 3e f3 a6 06 3f 85 eb e0 3e 48 ca d6 3e
       0.14584067 0.52598494 0.43929687 0.41951203
0001e0 9f a5 b3 3e 42 70 c1 3e 6d b2 9f 3d ce 1b bc bd
       0.35087296 0.37780958 0.07797704 -0.09184991
0001f0 5f ef 17 3f d2 3f cc 3e 6e 63 47 3f c4 35 2c 3f
       0.59349626 0.3989244 0.7788609 0.6726954
000200 e1 36 2e 3e aa 46 3f be 96 96 95 bd 7e 07 b4 bd
       0.17013122 -0.186793 -0.073041126 -0.087904915
000210 59 61 dc 3e ed a9 dc 3e 4f 82 2e be 03 f5 01 3d
       0.4304302 0.43098393 -0.17041896 0.031727802
000220 ee 4a d6 bd 05 ce c2 bd 98 11 5d 3d 55 eb 7d 3e
       -0.104635105 -0.09511951 0.053971857 0.24796803
000230 95 ea a1 3c c9 57 3a 3e 7b da 88 be f4 24 f6 bd
       0.019765178 0.1819755 -0.26729187 -0.12018767
000240 3e e0 52 bd c7 ec 38 3e 02 f9 99 3e 42 1a f0 3d
       -0.051483385 0.18059073 0.3007279 0.11723758
000250 53 3b ca 3d ca 78 ee 3d 52 27 0f be 2c 03 4f 3c
       0.098745964 0.116441324 -0.13979843 0.012635034
000260 7d 28 35 bf db 2e 36 be e5 09 01 be 09 50 91 be
       -0.70764905 -0.17791311 -0.1260143 -0.28381374
000270 2f 54 18 bf be c9 a0 be 29 e1 43 be 27 51 16 3d
       -0.59503454 -0.31403917 -0.1912886 0.036698487
000280 78 2f 7c 3e fd b0 52 3e cc a6 03 3e c0 61 9f 3d
       0.24627483 0.20575328 0.12856597 0.07782316
000290 9f 68 2d 3d d1 0d 24 3d e9 c0 9f bd 0c c2 8a 3c
       0.042336103 0.04005224 -0.078004666 0.016938232
0002a0 bf ae 35 bd c9 48 ba bd 81 5e b7 3d 16 ab 07 3c
       -0.044356104 -0.09095914 0.08953572 0.008280536
0002b0 92 e3 12 be 0a ea c5 3d 69 d6 c4 3e 13 f4 02 be
       -0.14344624 0.0966378 0.38444832 -0.1278842
0002c0 58 1c 2e be e1 5e e5 bd ba 77 48 3e 3a 70 c3 bd
       -0.17003 -0.11199737 0.19576922 -0.0954289
0002d0 68 1e e6 bc 9f 9a 04 3e c1 9d 39 bd cb bd d7 bb
       -0.02809067 0.12949608 -0.04531646 -0.0065839044
0002e0 59 d2 c7 bb 16 66 ee bd 46 33 f5 bd 4b 15 41 bd
       -0.0060980734 -0.11640565 -0.1197267 -0.047139447
0002f0 bd 4d 10 3e 4c df 08 bd 63 2d 14 bd e2 f4 04 be
       0.14092155 -0.033416077 -0.036176097 -0.1298404
000300 ea e0 e0 bd ad 8f 50 3d c1 3e 2f 3e 22 8c 25 3e
       -0.10980399 0.05091827 0.17113782 0.16166738
000310 e6 82 3d bd dd 99 9e 3e 54 0e b8 3b 06 aa 3d 3d
       -0.046267413 0.30976763 0.0056169424 0.046304725
000320 76 57 d9 3c e2 88 18 3d 78 d5 e2 bd 23 47 70 bd
       0.026530962 0.037239917 -0.11075872 -0.05866159
000330 8c 3d 79 bc bd 0d 89 bc f7 00 94 3d f6 4f 5c bd
       -0.015212428 -0.016730184 0.072267465 -0.053787194
000340 0d 21 6f 3d e2 c7 49 be 3b 44 58 be db 42 08 3e
       0.05838113 -0.19705155 -0.21119778 0.13306753
000350 49 1d 41 3e 49 f9 25 3e 7f f9 88 be a4 a4 8b 3d
       0.18858828 0.16208376 -0.2675285 0.06818512
000360 64 19 04 3f 6f cb f3 3e c8 90 f3 3e 99 ba bf 3e
       0.51601243 0.47616145 0.47571397 0.3744705
000370 04 1d 7f be a9 19 36 3e 33 e0 10 be d1 86 a8 3c
       -0.24913412 0.17783226 -0.14148025 0.020572098
000380 3b 81 62 bc 00 41 97 3d 32 fa 61 3e 69 03 99 3e
       -0.013824756 0.07385445 0.22068098 0.29885414
000390 38 82 0d 3e 77 42 83 3e 36 f5 0a 3e 56 4d ae bd
       0.13819206 0.25636646 0.13570103 -0.085108444
0003a0 1b fa d8 3e 15 d2 80 3e 7a 88 1b 3f f2 44 a9 3e
       0.42378315 0.2516028 0.6075512 0.33060414
0003b0 86 38 0a 3e 57 dc 26 bd ff 6f f8 bd ec 39 96 bd
       0.13498124 -0.040737476 -0.121307366 -0.073352665
0003c0 46 d3 d0 3e 04 8b a8 3e d2 05 84 bc 21 28 e2 bd
       0.4078619 0.3291856 -0.016116057 -0.1104281
0003d0 c7 fc e6 bd 11 4c 2e 3e 9d 8f 52 be 10 7e c7 3e
       -0.11278682 0.17021205 -0.20562597 0.38963366
0003e0 81 d2 99 3d 79 f0 27 be 7c 36 86 be 3d c2 0e be
       0.075108536 -0.16400327 -0.26213443 -0.13941284
0003f0 84 d3 e4 be 81 0d e1 be e9 53 f2 be 05 18 38 bf
       -0.44692624 -0.43955615 -0.47329643 -0.7191165

network.0.bias f4 [128]
000000 4d 3a 9b b9 95 9e 55 38 f8 fd 56 b7 22 d3 1b ba
       -0.0002960734 5.093085e-05 -1.2814526e-05 -0.0005944242
000010 4b bc 06 b8 ab 95 6f b7 fe 61 b0 39 6f 56 8d b7
       -3.212345e-05 -1.4280357e-05 0.00033642346 -1.6848759e-05
000020 dc 4e a3 b8 c3 d5 af 38 86 a7 29 b9 4a 21 94 39
       -7.7871344e-05 8.3844665e-05 -0.00016179503 0.00028253562
000030 62 4d b1 b9 1b 5a 69 39 5e 1b 03 b6 35 fb d6 39
       -0.00033817725 0.00022254178 -1.953645e-06 0.00041004425
000040 ca 11 e3 b7 7d 2c 7a b9 fe c4 18 38 51 65 4f b8
       -2.7068792e-05 -0.00023858431 3.6423087e-05 -4.9447004e-05
000050 b1 e2 4f 39 11 5d 5d 38 87 1a 5c b9 57 43 eb 38
       0.00019825507 5.277718e-05 -0.00020990717 0.00011218216
000060 d8 a1 28 b9 fb c8 9d b9 77 b0 3f bb cc d0 ea b8
       -0.0001608202 -0.00030095116 -0.0029249468 -0.00011196881
000070 6b eb a8 38 8f d8 d4 b9 a5 a7 07 38 72 5a 95 b9
       8.054714e-05 -0.0004059714 3.234264e-05 -0.00028486882
000080 d9 b2 5d 38 58 51 e2 b9 f1 04 19 b9 6d d2 c8 38
       5.285707e-05 -0.00043166685 -0.00014593058 9.575938e-05
000090 16 45 73 ba ec 50 d0 b8 3a cc 55 b9 2b 67 e0 38
       -0.0009280009 -9.933286e-05 -0.00020389343 0.00010700369
0000a0 56 91 04 39 58 db b0 39 9b ae 69 b8 dc b9 de b8
       0.00012642643 0.0003373276 -5.5714143e-05 -0.00010620404
0000b0 4a 71 b8 37 b6 6c a3 37 68 01 0f 37 c6 9a 64 b8
       2.1987264e-05 1.9481737e-05 8.523792e-06 -5.450358e-05
0000c0 8c bb 90 b9 3b a5 61 36 6b 3a 69 b9 db a0 4c b8
       -0.00027605554 3.362379e-06 -0.00022242374 -4.87872e-05
0000d0 b9 58 76 b7 ad d2 9e ba aa b1 b2 b9 8d 4b 5d b9
       -1.46834e-05 -0.001211723 -0.00034083176 -0.00021104347
0000e0 78 ae dc 39 61 22 b4 b8 39 8c 77 39 c8 a8 59 3a
       0.0004209166 -8.5894724e-05 0.00023607993 0.00083030434
0000f0 cc da a8 39 7a ab ed 38 47 58 3c b9 99 51 55 38
       0.00032206473 0.00011332981 -0.00017961963 5.085915e-05
000100 a1 97 68 b8 10 36 4b 39 c3 69 29 ba 32 18 3a ba
       -5.5454326e-05 0.00019379728 -0.0006462598 -0.00070989423
000110 57 dd 95 39 6f 7d e1 38 b7 20 42 b9 f6 92 4d 39
       0.00028584406 0.000107522 -0.00018513469 0.0001960507
000120 a6 13 da 39 70 99 4d b9 fb 35 eb 36 f2 e2 e4 39
       0.0004159484 -0.00019607483 7.00983e-06 0.00043656636
000130 6b a5 e7 39 7b 07 19 38 4a 99 e7 38 3a a2 07 b9
       0.00044183 3.648501e-05 0.00011043491 -0.00012935037
000140 27 40 8a 38 03 2a d9 b9 27 de a2 b9 9d 75 58 b9
       6.592302e-05 -0.00041420767 -0.00031064564 -0.0002064318
000150 5d c4 fd 39 eb f0 37 b7 24 97 44 3a 95 58 4b ba
       0.00048402222 -1.0963743e-05 0.00074993283 -0.0007757035
000160 7a cf f3 b9 e3 56 8d 3a 3a d4 98 b8 e6 aa 4a b8
       -0.00046503154 0.001078334 -7.287455e-05 -4.8319715e-05
000170 d0 0b 11 39 a3 f0 0c 39 0f 6f 44 39 30 33 be b6
       0.00013832678 0.00013441085 0.00018733389 -5.6684003e-06
000180 48 f3 03 3a 80 17 53 3a ac c2 d7 37 3d d8 97 b8
       0.0005033505 0.0008052513 2.5720648e-05 -7.2405186e-05
000190 01 50 35 38 2c da fb 38 9d 55 bb b6 dd 5d d0 39
       4.3228272e-05 0.0001200925 -5.583001e-06 0.00039742785
0001a0 39 e8 67 3a af 99 c2 38 45 e0 d7 38 07 5c 92 38
       0.00088465546 9.279267e-05 0.00010293772 6.978964e-05
0001b0 b1 0e 99 39 39 83 85 38 08 2c e5 b8 cc cd 48 37
       0.0002919338 6.366376e-05 -0.000109277724 1.1968845e-05
0001c0 4f 66 ab b8 82 d7 93 39 22 d3 41 39 7e a1 e2 38
       -8.172972e-05 0.0002819859 0.00018484567 0.000108066
0001d0 d7 50 b3 b8 26 b0 81 b8 6d c6 9b b9 43 36 25 b8
       -8.550443e-05 -6.1840095e-05 -0.00029711743 -3.93896e-05
0001e0 70 1f e6 38 2d fc 12 b5 99 82 8e b9 4c c8 01 b9
       0.0001097311 -5.47562e-07 -0.00027181653 -0.00012377015
0001f0 98 3c 06 3a eb 12 9d b9 23 fa 45 b9 87 9b 32 39
       0.00051207235 -0.00029959469 -0.00018880567 0.00017033341

network.1.weight f4 [128]
000000 77 e3 82 3f f8 ad 6e 3f 88 d6 71 3f 40 fa 6c 3f
       1.0225667 0.93234205 0.94467974 0.9256935
000010 6a d3 80 3f 08 be 81 3f 42 b4 6a 3f cc 15 8d 3f
       1.0064518 1.0136118 0.916813 1.1022277
000020 24 25 65 3f fb e2 84 3f 8f f9 90 3f 21 9a 7e 3f
       0.895098 1.0381769 1.1326159 0.9945393
000030 10 70 86 3f 12 94 8c 3f 4e 24 93 3f 26 c9 79 3f
       1.0502949 1.0982687 1.1495454 0.97572553
000040 10 d1 7b 3f ed cf 67 3f 9a 95 7c 3f 55 28 86 3f
       0.9836588 0.90551645 0.98665774 1.0481058
000050 7b 7e 81 3f 25 a1 83 3f 51 d6 88 3f ab bc 85 3f
       1.0116724 1.0283552 1.0690404 1.0448202
000060 ca e0 77 3f 16 72 83 3f 3b b5 8a 3f b5 d3 75 3f
       0.96827376 1.0269191 1.0836557 0.96026164
000070 29 c7 87 3f db 0c 7f 3f ca 94 70 3f 61 0a 73 3f
       1.0607654 0.9962899 0.93977034 0.9493771
000080 47 05 72 3f a5 d7 7e 3f 76 c8 72 3f 52 30 80 3f
       0.945393 0.995478 0.9483713 1.0014746
000090 b5 94 8e 3f 8b cd 78 3f 4a 02 8a 3f 06 92 6a 3f
       1.1139132 0.97188634 1.0781949 0.91629064
0000a0 28 86 88 3f 94 01 88 3f f6 f6 80 3f c8 fc 8b 3f
       1.0665941 1.0625482 1.0075366 1.0936518
0000b0 b4 48 73 3f 74 92 83 3f 7a fd 6d 3f f8 91 6c 3f
       0.9503281 1.0279069 0.929649 0.9241023
0000c0 ab 7d 7d 3f 16 18 8b 3f 97 8d 65 3f 98 a9 63 3f
       0.9901988 1.0866725 0.89669174 0.88930655
0000d0 5c 85 73 3f ea 23 92 3f 49 14 8f 3f c2 20 8a 3f
       0.95125365 1.141721 1.1178066 1.0791247
0000e0 e5 ef 6e 3f f3 b1 7f 3f 62 97 82 3f d3 8d 88 3f
       0.933348 0.99880904 1.0202448 1.0668281
0000f0 6a 4f 72 3f 50 34 7b 3f 30 4a 90 3f b2 a6 81 3f
       0.94652426 0.981267 1.127264 1.0128996
000100 f1 c5 6d 3f 8b 29 8d 3f 8f 66 7c 3f 71 7b 90 3f
       0.9288016 1.1028303 0.9859399 1.1287671
000110 d9 ea 7f 3f 32 26 7d 3f 0e 02 76 3f a3 ed 7b 3f
       0.99967724 0.98886406 0.96096885 0.9840948
000120 91 26 6b 3f ca a5 86 3f d2 6e 7a 3f bd 68 81 3f
       0.9185572 1.0519345 0.9782535 1.0110089
000130 c4 0a 74 3f e3 fb 87 3f 20 a3 83 3f 21 28 8b 3f
       0.9532893 1.0623745 1.0284157 1.0871621
000140 3d b2 88 3f df 97 7b 3f 79 25 60 3f a3 ae 6d 3f
       1.0679394 0.9827861 0.8755718 0.928446
000150 a0 00 74 3f 31 25 83 3f 41 a8 92 3f 68 4b 8d 3f
       0.95313454 1.0245725 1.1457597 1.1038637
000160 7c d3 94 3f d2 96 87 3f b4 7c 80 3f 2d 32 70 3f
       1.162704 1.0592902 1.0038056 0.9382656
000170 2b 2a 77 3f 75 34 76 3f 64 b8 63 3f ca e6 82 3f
       0.9654872 0.96173793 0.8895323 1.0226681
000180 a6 6d 74 3f 87 8c 7b 3f 2d 9e 89 3f d4 65 74 3f
       0.9547981 0.982613 1.0751396 0.9546788
000190 07 77 6f 3f f0 ff 7a 3f 08 94 71 3f 49 e7 8f 3f
       0.93540996 0.9804678 0.943665 1.1242458
0001a0 af f8 67 3f 92 2b 82 3f ea 96 7f 3f 3e ec 86 3f
       0.90613836 1.0169547 0.9983965 1.0540845
0001b0 51 f4 81 3f 25 47 76 3f ec 72 83 3f cb 35 85 3f
       1.0152684 0.9620231 1.0269446 1.0407041
0001c0 7d e4 70 3f ce f0 82 3f 48 d9 75 3f 59 af 78 3f
       0.94098645 1.0229738 0.9603467 0.9714256
0001d0 35 0d 92 3f d7 70 76 3f 44 c2 80 3f ad 70 85 3f
       1.141028 0.9626593 1.0059285 1.0425011
0001e0 d1 87 67 3f c5 8d 69 3f 12 d9 78 3f 54 b3 66 3f
       0.90441614 0.9123195 0.97206223 0.90117383
0001f0 c4 75 73 3f ff 19 7d 3f 29 77 7e 3f 8a 57 65 3f
       0.9510157 0.9886779 0.99400574 0.895867

network.1.bias f4 [128]
000000 66 a1 d7 bd 19 6f ae bd c2 94 41 bb 0e 35 4b 3d
       -0.10528831 -0.08517284 -0.002953813 0.049611144
000010 9b c2 72 3c 90 01 83 bc d8 e4 cf 3c 39 f0 28 be
       0.014816905 -0.015991956 0.025377676 -0.16497888
000020 ef 7e 6a be 71 55 9b 3d 99 28 bc 3d 5f cf cd 3c
       -0.22899984 0.07584656 0.09187431 0.025123296
000030 55 42 81 bd 98 f2 dc 3c 51 04 73 3d 10 ff 72 bd
       -0.0631148 0.026971146 0.05933029 -0.059325278
000040 7d 77 4a be 94 f9 5e bd 22 b2 15 bd 95 b0 89 3c
       -0.19772144 -0.054437235 -0.036546834 0.016807834
000050 77 90 9a 3d 75 ba ff bd 3e e4 a8 3d 9a 91 0c bd
       0.07547086 -0.12486736 0.08246659 -0.034318544
000060 1e 2e 56 be fd 8f 47 bd 01 99 45 3d 2e 76 01 be
       -0.2091603 -0.048721302 0.04824162 -0.12642738
000070 31 c6 83 bd 30 79 c5 bc df 10 70 bd 31 09 55 be
       -0.064342864 -0.024105638 -0.05860984 -0.20804287
000080 0b 0a 43 be 7a f0 bf bd 65 47 27 bd e0 fd 60 bd
       -0.190468 -0.09372039 -0.04083957 -0.054929614
000090 03 68 42 bd 9f 4d 8d 3d 50 98 76 3d 08 e1 07 be
       -0.047462475 0.06899571 0.06020385 -0.13269436
0000a0 21 94 b1 3d db 1b bf bd cc 56 d1 bd 27 b2 b6 bd
       0.086708315 -0.09331485 -0.10221633 -0.089206986
0000b0 b0 f7 3e bd d7 8c 19 bd 55 bf 6a be d7 54 2e bd
       -0.046622932 -0.03748783 -0.2292455 -0.04256138
0000c0 61 43 8d bd 0c ff b8 bd 69 5d 4d be ae f7 cf 3c
       -0.06897617 -0.09033021 -0.20055164 0.025386658
0000d0 42 82 10 be bb 8d 35 bd 77 a8 f9 3d 90 1a ec bd
       -0.1411219 -0.044324618 0.12190335 -0.11528504
0000e0 29 13 17 be 75 fc c6 3d f0 4e 79 bd 0e 86 88 3e
       -0.14753403 0.09716121 -0.060866296 0.26664776
0000f0 94 c2 98 3d 3c 54 ef 3d 08 fa 65 bd 70 7c ef bd
       0.07458988 0.11685988 -0.05614665 -0.116936564
000100 e8 55 9c bd 1f 5b b5 bd 10 76 e9 bc a6 f5 04 3e
       -0.07633573 -0.088552706 -0.02849868 0.12984332
000110 46 6a 1a bd d7 b5 3b 3c c1 92 c6 3b ee ef 6e bc
       -0.037699006 0.011456928 0.006059975 -0.014583571
000120 31 f9 2f 3e a8 34 bc bd 17 5f 41 be 4d 26 cd bd
       0.17184903 -0.09189731 -0.1888393 -0.10017071
000130 3f 03 a2 bd eb e1 58 bd 7c 88 f9 bd 4f d6 b0 3c
       -0.079107754 -0.052949827 -0.121842355 0.021586565
000140 76 29 5a 3c bd dc cd bb 6a 17 fa bb 33 68 00 bd
       0.013315549 -0.0062824176 -0.0076321857 -0.031349372
000150 fb a9 70 bd 4d 39 c2 3d 13 28 b3 3d 5e bc 09 3e
       -0.058755856 0.094835855 0.08747878 0.13450763
000160 10 11 00 3d d7 00 1e be be 2d ba 3c 7f c4 5b 3d
       0.031266272 -0.15430008 0.02272689 0.05365419
000170 ff 5b 5a bd d0 22 50 be 24 69 cd 3d 15 1a 55 3d
       -0.05331039 -0.2032578 0.100298196 0.052026827
000180 b3 b2 ab 3d 19 b6 8d bd 97 48 29 bd f9 57 af bc
       0.083836935 -0.06919498 -0.041328993 -0.021404253
000190 52 77 97 3c 5f 01 02 3d 91 f2 cc bd 3e e6 22 3e
       0.018489514 0.03173959 -0.10007203 0.15908143
0001a0 b1 1f 88 3d e6 36 95 bd fb d4 98 3d ea aa 71 be
       0.0664667 -0.07285862 0.07462498 -0.23600355
0001b0 d4 30 67 bd 58 52 16 bd d1 2c 8e 3c d8 0c 96 bb
       -0.05644305 -0.036699623 0.017355355 -0.004579168
0001c0 06 2d a6 bd 2d c0 c8 3c 4f bf 14 bd 59 5a 29 be
       -0.08114056 0.024505699 -0.03631526 -0.16538371
0001d0 fa 97 ae 3d 84 a0 b1 bd 68 03 80 bd cc fd 88 3d
       0.08525081 -0.08673194 -0.0625065 0.06689033
0001e0 c7 e2 29 be c9 d8 95 3c 0a 9b a3 3c 8e 5e a6 3d
       -0.16590415 0.018291848 0.01997139 0.081235036
0001f0 3b 13 02 bd 6f b6 7f bd 60 db 8a bb f0 63 5c be
       -0.03175662 -0.06242984 -0.0042375773 -0.21522498

network.1.running_mean f4 [128]
000000 e7 ae 73 3f 28 e9 8f be 3d eb 2d 3f 0a 0f 15 40
       0.95188755 -0.28107572 0.6793707 2.329043
000010 5e 8d 10 c0 b5 ea ae 3e 15 28 92 3f f0 2c 98 bf
       -2.2586284 0.34163442 1.1418482 -1.1888714
000020 18 d2 db 3e ae 4c 0d c0 fc 90 18 3e a2 75 82 bf
       0.42933726 -2.2078052 0.14899057 -1.0192149
000030 b9 5a f8 bf 09 7c 40 c0 cd a1 41 c0 c6 9b 81 3f
       -1.9402686 -3.0075705 -3.0255005 1.0125663
000040 df 15 5d 3f 0e 70 66 bf 28 f8 f8 3e ee 06 fb bf
       0.863615 -0.9001473 0.48626828 -1.961149
000050 0a 9a bb bf 20 16 d6 bf f6 f9 f3 3f 6c a1 21 c0
       -1.4656384 -1.6725502 1.9060657 -2.5254774
000060 a9 13 21 be cb 8b ac bf 7d 70 a4 bf e0 1b 71 3f
       -0.15730156 -1.3480161 -1.2846829 0.9418316
000070 b4 cd 24 c0 a7 07 10 40 3e 10 fe be 3b ff bb 3f
       -2.5750551 2.250467 -0.49621767 1.4687265
000080 2c d5 0b 40 04 92 ad be 9c 47 87 3d f7 e8 59 bf
       2.184886 -0.33900464 0.06605455 -0.851211
000090 1d ba c7 bf f2 d3 f5 3e d2 48 dc bf 38 62 6b be
       -1.5603672 0.48013264 -1.7209723 -0.22986686
0000a0 9d dd e7 bf 7c 34 78 3f ad f4 1c 3f 42 64 4f bf
       -1.8114506 0.96955085 0.61310846 -0.81012356
0000b0 7a 73 43 3f 0a bb 30 bf 55 82 12 3f 80 d2 8b 3d
       0.7634808 -0.690354 0.5723012 0.06827259
0000c0 1f f8 1f c0 e8 d2 e9 bf 1d b5 c6 3f 4a 02 12 be
       -2.499519 -1.8267488 1.5524021 -0.14258686
0000d0 20 3a 91 bf 08 7c 91 bf c5 a0 c0 3f 95 9b fb bf
       -1.1345863 -1.1365976 1.5049063 -1.9656855
0000e0 02 1b 14 40 71 e7 22 c0 93 05 d0 bf 8d 64 cc 3f
       2.3141484 -2.545376 -1.6251701 1.5968186
0000f0 dc 9d d9 3f a4 09 b3 bf 4f 6d a3 bf b3 98 4d bf
       1.70013 -1.3987317 -1.2767733 -0.80311126
000100 36 c6 b7 3f 87 5c ec bf 45 41 1a 3f 29 b9 1c 40
       1.4357364 -1.8465737 0.60255843 2.4488013
000110 f9 f3 74 bf b3 5f af bf 7c c2 53 bf f9 36 27 3f
       -0.9568477 -1.370108 -0.82718635 0.65318257
000120 f3 df 23 40 86 bc 29 3f 57 df 30 bf b6 d8 3c 3f
       2.5605438 0.6630329 -0.6909079 0.73768175
000130 6a 4a a4 bd 7f 17 2b bf cb d6 4e 3f 25 39 d3 bf
       -0.08022006 -0.6683273 0.807965 -1.6501814
000140 e7 07 ef be 9f 8a 09 bf ab 52 0d 3f 23 ff ae 3f
       -0.46685717 -0.53727144 0.55204266 1.3671612
000150 ec ed 08 c0 05 db 46 c0 72 a7 a7 bf c1 80 62 c0
       -2.1395216 -3.107118 -1.3097975 -3.5391085
000160 55 f1 c2 bf 8f e1 24 40 b8 c7 16 40 8f 13 a7 3c
       -1.5229899 2.576267 2.3559399 0.020395068
000170 89 b4 89 3f d0 d2 14 c0 5a 7f 90 3e a8 81 46 bf
       1.075822 -2.325367 0.28222162 -0.7754159
000180 21 51 9d 3f f8 a9 2f bf 39 7d a6 bd 57 fc 65 3f
       1.2290384 -0.68618727 -0.08129353 0.89838165
000190 b3 0a 0c c0 60 75 1c c0 af 44 2e 3f 1d 31 00 c0
       -2.188153 -2.444664 0.6807355 -2.0029976
0001a0 64 24 ab 3f 91 35 c4 3e a8 c7 0c c0 3c 03 80 bf
       1.337048 0.38322118 -2.199686 -1.0000987
0001b0 ab 54 f9 bf 24 c1 01 c0 b6 90 04 c0 a9 29 f6 3f
       -1.9478964 -2.0274134 -2.0713325 1.9231464
0001c0 19 68 35 3f bb ab fe bf 7b ee b0 be a8 96 db be
       0.70861965 -1.9896158 -0.34556946 -0.4288838
0001d0 91 17 20 c0 c3 25 1e bf e5 d8 a7 bf 89 43 05 c0
       -2.5014384 -0.6177637 -1.3113066 -2.082247
0001e0 56 ce 91 3f 26 cb 47 be 45 f0 8a 3e 6e 14 73 3f
       1.1391094 -0.19511089 0.27136436 0.9495305
0001f0 ea 8c 1f 3f fb 32 26 3e b3 4c d8 be ce 1b da be
       0.6232439 0.16230385 -0.42246017 -0.42599338

network.1.running_var f4 [128]
000000 ad 40 9d 43 a2 e4 63 43 24 f8 99 42 3d 0c d0 42
       314.50528 227.8931 76.98465 104.0239
000010 55 c6 3d 44 86 6b 19 45 52 58 81 43 be 65 bd 44
       759.09894 2454.7202 258.69 1515.1794
000020 ba 5b ab 42 0f 9e 89 44 20 30 5e 42 71 c1 87 41
       85.67915 1100.9393 55.546997 16.969454
000030 76 0b ec 42 6e 59 b6 43 a4 c8 b8 42 a5 80 29 43
       118.022385 364.69867 92.39188 169.50252
000040 1a 08 c5 43 d6 11 0d 43 35 c8 de 42 42 a5 82 44
       394.0633 141.06967 111.39103 1045.1643
000050 6d c6 e8 42 2b b2 67 44 0f c7 27 42 d1 a9 72 44
       116.38755 926.7839 41.944393 970.6534
000060 7e c4 84 44 02 68 73 44 fd 7c a0 42 8c 00 d6 43
       1062.1404 973.6251 80.24412 428.00427
000070 d8 b2 fe 43 c6 f1 fe 41 cf e2 45 45 e2 bd 8c 43
       509.39722 31.868053 3166.1755 281.48346
000080 a1 41 e9 42 d4 42 d1 42 83 67 b5 44 29 63 12 43
       116.62818 104.63052 1451.2347 146.38734
000090 2b 2f 90 42 39 6b 53 43 f9 34 fe 41 d0 97 2b 43
       72.092125 211.41884 31.775866 171.59302
0000a0 5e 8d 6f 42 9a b3 1a 43 16 78 e9 43 9e 8b bc 42
       59.888054 154.70157 466.93817 94.27269
0000b0 2f 17 a1 44 5c f5 dc 44 4a dd 25 43 d9 6b 12 44
       1288.7245 1767.6675 165.86441 585.6851
0000c0 f2 16 95 42 6d da d2 43 b0 73 e9 43 67 69 8d 44
       74.544815 421.70645 466.9038 1131.2938
0000d0 04 99 1d 45 7b af a0 42 3b 87 d4 41 fd 01 a2 43
       2521.5635 80.342735 26.56603 324.01553
0000e0 35 a0 5c 42 6b 14 86 42 73 aa 8d 43 75 20 24 42
       55.156452 67.03988 283.33163 41.031696
0000f0 d1 34 0a 43 07 a1 53 43 05 2d b4 44 4c cc 91 44
       138.20631 211.62901 1441.4069 1166.3843
000100 6e e0 4a 45 bb 50 de 43 c4 a2 d9 42 cc cb 02 42
       3246.0269 444.6307 108.8179 32.69902
000110 98 d3 14 43 1d c5 37 44 52 39 63 43 91 a8 98 43
       148.82654 735.0799 227.2239 305.31693
000120 21 58 94 42 98 d5 41 43 4c 07 7d 43 2a a4 03 43
       74.17213 193.83435 253.0285 131.64127
000130 a7 3b c5 42 90 2e 61 43 96 8b 0a 43 fa 27 55 43
       98.61651 225.18188 138.54526 213.15616
000140 fd 67 d3 42 a9 d8 9d 42 8a db 2d 44 36 72 c6 43
       105.7031 78.923164 695.4303 396.89227
000150 0b f3 3d 43 5d aa 08 43 24 4c d2 42 3a 61 39 42
       189.94939 136.66548 105.14871 46.344948
000160 59 42 a1 42 dc b7 43 42 34 25 0b 42 22 42 ff 44
       80.629585 48.92955 34.78633 2042.0667
000170 85 55 c8 42 72 7f d6 44 f6 88 9c 42 52 a4 58 42
       100.16703 1715.9827 78.2675 54.16047
000180 25 b8 5e 43 20 04 88 43 94 b0 ce 42 13 9c 09 45
       222.71931 272.03223 103.34488 2201.7546
000190 55 8f ea 42 1f 03 54 43 a3 6f dd 44 49 be 73 42
       117.279945 212.01219 1771.4886 60.935825
0001a0 0f 05 fe 42 d7 c9 8f 43 c0 96 08 44 2e 3f 93 43
       127.00988 287.57687 546.35547 294.4936
0001b0 d1 70 86 43 e5 de db 43 d5 4f 56 42 c0 dc ff 42
       268.88138 439.74136 53.57796 127.93115
0001c0 98 8d 3c 45 85 56 fc 43 10 21 4e 44 89 83 f9 43
       3016.8496 504.67593 824.5166 499.02762
0001d0 59 ef 5c 42 f4 23 84 43 f0 fc b8 42 93 18 aa 42
       55.233738 264.28088 92.49402 85.048
0001e0 8e 58 b0 43 b6 10 32 44 6d 08 59 43 9c bd 1a 43
       352.69183 712.2611 217.03291 154.74066
0001f0 85 3f a4 43 7e 21 7c 43 0c 13 ce 42 3d a2 2f 44
       328.49625 252.13083 103.0372 702.535

network.4.weight f4 [64, 128]
000000 bc 12 93 bd 11 a5 a5 bd 17 b2 fc 3d e9 79 20 be
       -0.07181308 -0.080881245 0.123386554 -0.15671505
000010 b1 e0 18 be 93 09 c0 bd 4b d3 63 3d b8 27 9a bd
       -0.14929463 -0.09376826 0.055621427 -0.07527107
000020 a9 a5 a9 3c 30 62 7a be 52 40 e4 bd e2 cc 46 3c
       0.020708876 -0.24451518 -0.111450806 0.012133809
000030 02 96 94 bc e2 a0 96 bd 42 8b 73 3d 2e bb db bd
       -0.018137936 -0.07354905 0.05945898 -0.10729061
000040 6d 21 9f bd 7e c5 87 3c 03 9e a3 bd 0d a5 e3 bd
       -0.07770047 0.016573664 -0.07989123 -0.11115465
000050 68 7d 3d be 11 36 54 be c9 03 51 3e eb de 31 be
       -0.1850487 -0.2072375 0.204116 -0.17370193
000060 79 15 9a bd eb 25 f1 3c a0 7b b4 bc f0 5d 9f 3d
       -0.07523627 0.029437026 -0.022031605 0.07781589
000070 a1 0c ff bd eb 5a 47 3d 6f e4 7e 3c 32 82 84 3d
       -0.12453581 0.04867069 0.0155573925 0.06470145
000080 9c 8e 16 3e e4 0a d6 bd 15 2b 1f 3d 2e d7 a6 bd
       0.14702839 -0.10451296 0.038859446 -0.08146511
000090 c7 d1 d4 bd 34 ee 91 3d 2b ab be bd b3 e2 a5 3d
       -0.10391574 0.07125512 -0.093099914 0.0809988
0000a0 af 79 c6 bd c0 a1 cf 3d 9c a2 ee 3d a0 96 4c be
       -0.09691178 0.10138273 0.11652109 -0.19979334
0000b0 b9 f4 a5 3d 10 37 f0 3c 0f e8 24 be d4 30 52 be
       0.08103318 0.02932313 -0.16104148 -0.20526439
0000c0 e4 e3 0c bd 3a ac e5 bd a0 79 ca bd bf d5 16 be
       -0.03439702 -0.1121449 -0.098864794 -0.14729975
0000d0 c1 1e df bc c9 24 26 3e 45 6e 8c 3e cf 01 a5 bd
       -0.027236344 0.1622497 0.2742788 -0.080569856
0000e0 73 90 59 3d e9 ed a0 3d 66 cf 58 be bf da 7c bb
       0.053116273 0.07857878 -0.21172866 -0.0038582531
0000f0 e5 7b b6 bd af 7f 09 bd cc 20 cb bd 08 20 b2 bd
       -0.0891035 -0.033569034 -0.09918365 -0.08697516
000100 0e 45 c7 3d 4c 5e 53 be db 17 af bc 16 8e de 3d
       0.09729968 -0.2064144 -0.02137368 0.108669445
000110 23 46 8a bd 21 4c ac bd 27 81 2f be d8 58 fe bd
       -0.06751659 -0.08412958 -0.17139111 -0.12419289
000120 df 54 1d 3e 57 9b 43 bd 1f f4 d2 bd d7 f9 a7 3c
       0.15364407 -0.047755565 -0.10300469 0.020504875
000130 35 92 16 be ce 53 b7 bd 88 a7 ca 3c 57 ba af bd
       -0.14704211 -0.08951531 0.024738088 -0.085804634
000140 38 26 8a bc 97 a1 bc bc 0e 26 8d bc ba 3c a5 bd
       -0.016863927 -0.02302627 -0.01723006 -0.08068223
000150 4f 2c c6 bd 8f 03 e5 bc bf c9 80 bd 72 18 b4 bd
       -0.0967642 -0.027955798 -0.0628848 -0.08793725
000160 7b fb b5 bd f7 12 e9 3d 05 7d 65 3d ed 4c 20 bb
       -0.08885857 0.113805704 0.05602743 -0.0024459914
000170 7c 10 9f 3c fa 83 41 be e1 d5 8c bd 91 d1 56 3d
       0.01941704 -0.18898001 -0.06876732 0.05244595
000180 3e 6a 14 bd 28 c8 4d be 88 8d 08 3d e2 a2 6f bd
       -0.036234133 -0.20095885 0.0333381 -0.058504947
000190 ea 49 7c bc 9a b7 00 3d 11 ef 3c bd 54 82 b2 3d
       -0.015398482 0.031425096 -0.04612643 0.08716264
0001a0 06 97 6f 3d 0c c3 e3 bc c3 25 bb bd c7 b5 81 bd
       0.058493637 -0.027802967 -0.09138062 -0.063334994
0001b0 1b 30 71 bd 72 d2 64 3d 25 d0 ae 3d 74 40 d1 bd
       -0.058883768 0.05586476 0.08535794 -0.102173716
0001c0 a5 9f e3 3d 15 95 fb bd 87 03 af bb 73 cf 1a be
       0.11114434 -0.122842945 -0.0053409967 -0.15118198
0001d0 3b 5e 0e be e4 ae 2e bd 08 dd b1 bd 72 ad 32 be
       -0.13903134 -0.042647257 -0.086847365 -0.17448977
0001e0 18 ec 84 3d f7 e8 7e bd 9a 69 d4 bd 75 f2 dc 3d
       0.06490344 -0.06223389 -0.103717044 0.107884325
0001f0 e1 b2 60 3d 58 6d 0e bc 24 bf b9 bc f5 23 19 be
       0.054858092 -0.008693062 -0.02267415 -0.14955123
000200 42 2a 3f 3e e8 e1 2c bc 02 a8 dc 3d d5 c2 52 3c
       0.18668464 -0.010551907 0.107742324 0.012863834
000210 8b 87 42 bd c6 25 a2 bd 0a af 2f bd 1e 1e ed bb
       -0.047492545 -0.07917361 -0.04289154 -0.0072362563
000220 2f e5 03 3c 28 b1 d6 3c 49 e9 fe bd 02 aa c9 3d
       0.008050247 0.026207522 -0.12446839 0.098468795
000230 64 c6 09 be 0d 76 24 be ae 0a 36 be 8a 02 27 3d
       -0.13454586 -0.16060658 -0.17777511 0.040773906
000240 0d 23 ac 3d 22 a4 ad 3d 58 ed 6c be a3 43 cc bc
       0.08405123 0.084785715 -0.23137414 -0.024934595
000250 b9 bd f3 bc d6 48 94 bd 9e 55 02 3e 83 2c 7d 3d
       -0.029753553 -0.07240455 0.12727973 0.061810028
000260 6a e5 72 3c 99 e3 f3 3c 4b 90 14 be f1 c9 f3 bc
       0.014825204 0.029771613 -0.14508168 -0.02975938
000270 69 b0 16 3d fa 3d 88 bc 15 d6 c5 bd 4e 5e 14 3e
       0.03678933 -0.016631115 -0.096599735 0.144891
000280 86 e2 28 3e e8 39 32 3e 00 e9 00 be 91 fc 82 3d
       0.16492662 0.17404902 -0.12588882 0.063958295
000290 33 c9 90 be 52 8d d1 3d 61 f4 95 3d ad 77 c3 bd
       -0.28278503 0.10232033 0.07322002 -0.09544311
0002a0 ea 2c 1c bb 40 a4 e6 3d 06 52 be 3c 9f 15 3b be
       -0.0023830482 0.11261797 0.023232471 -0.18269967
0002b0 9f 34 03 bd 59 2e 25 be 22 0c 91 3d e1 0b c7 bc
       -0.032032605 -0.16130961 0.07082392 -0.024297656
0002c0 6a 05 9e bb e0 fb 8c bd 6f 9e 81 3d ca 13 2b 3d
       -0.0048224228 -0.06883979 0.06329047 0.04176692
0002d0 7c 56 02 3e 2d 7a 4d 3d a5 71 ee bd 82 93 f0 bd
       0.12728304 0.050165344 -0.1164277 -0.11746885
0002e0 94 6f eb bc a8 3e 88 bd 2e 92 8d 3c f8 75 da 3a
       -0.028739728 -0.06652576 0.017281618 0.0016667238
0002f0 ef 5a 5f 3c 53 c9 16 be 4d 51 ce bc b6 88 22 be
       0.01363252 -0.14725237 -0.025185252 -0.15872464
000300 15 c1 59 bb 3f e4 02 bc 5b 4f d5 3d e9 7e 16 3e
       -0.0033226658 -0.007988988 0.104155265 0.1469685
000310 c1 ed 7c 3d ec 96 f9 bd f5 78 2c bb 9d e4 da 3c
       0.061750177 -0.12186989 -0.0026317213 0.02672034
000320 26 2a 0a 3e a7 9b 88 3d 37 39 28 3d 74 a2 68 3d
       0.13492641 0.06670313 0.04107019 0.056795552
000330 40 50 33 3e 9f e6 c3 bd b6 5c 2a bd 9f f2 71 be
       0.17511082 -0.09565472 -0.041592322 -0.23627709
000340 7a 5b 19 be 21 c3 af 3d 13 3c 99 bd 06 92 b8 3d
       -0.14976302 0.0858214 -0.074821614 0.09012227
000350 9e f1 0a be 20 cb f8 bc a6 5d a6 bd f8 9e 87 bd
       -0.13568732 -0.030370295 -0.08123331 -0.06622118
000360 f7 c8 00 bd eb b9 90 be f3 89 0e 3e 40 db 3d bd
       -0.031441655 -0.28266844 0.13919811 -0.04635167
000370 9f 69 20 be d7 30 0e be 27 a3 a5 3d a9 4b 63 3d
       -0.15665291 -0.13885818 0.080877595 0.055492077
000380 17 97 9b bd bf 9e 16 3e 27 50 1e 3e d9 b6 76 bd
       -0.075971775 0.14708994 0.15460263 -0.06023297
000390 06 0f 98 3d 9e f9 1c be 08 5a 26 be 27 b4 d6 3d
       0.074247405 -0.15329596 -0.16245282 0.1048358
0003a0 6a 77 c6 3d 15 c5 42 3e b3 14 7b 3c d8 df 35 bd
       0.09690745 0.19020493 0.015324759 -0.044402927
0003b0 42 3a 11 3e b2 32 2d be fb b8 46 3e 7d 57 36 3d
       0.1418238 -0.1691387 0.19406502 0.04451703
0003c0 58 1c 2a 3c 0c 21 ee bd de d5 98 3d 20 61 18 be
       0.010382734 -0.11627397 0.07462667 -0.148808
0003d0 67 e4 24 bd 1a 38 23 3d e9 5a b8 3d 4e f0 17 3d
       -0.040256884 0.039848424 0.09001715 0.037094407
0003e0 f7 1e 2a be a1 73 7c bd b5 12 36 bd 13 1d 93 3d
       -0.16613375 -0.06163371 -0.044451434 0.0718328
0003f0 1d 3c 07 3e e3 73 cc bc 41 92 46 3e 58 93 32 bd
       0.13206525 -0.024957603 0.19391729 -0.04359755

network.4.bias f4 [64]
000000 e9 5d c5 3b 1a e9 18 3c dc 39 ab bb 53 07 29 bb
       0.006023158 0.0093329195 -0.0052254032 -0.002579172
000010 48 ec c6 3b d8 55 e3 3a 13 37 45 3b 19 d3 1c 3b
       0.0060706474 0.0017344309 0.0030092641 0.0023929535
000020 a5 0a ca ba ad fc 02 bb e9 d7 09 bb 49 4b 12 3c
       -0.0015414549 -0.0019987032 -0.0021033233 0.008929082
000030 74 1c 5f 3a 44 85 b1 3b 01 e5 aa ba 72 99 ab 3b
       0.0008511015 0.005417498 -0.0013038219 0.005236798
000040 69 ee 1d bb a2 be c2 ba 57 61 1e 3a a3 bf 8d 3b
       -0.0024098402 -0.0014857838 0.00060417264 0.0043258234
000050 58 54 85 39 3e 1e 6e 3b c6 0b d0 3a bf 8e a8 ba
       0.00025430578 0.0036333944 0.0015872649 -0.0012859924
000060 80 cc 82 3a e3 49 98 b9 d5 92 a3 bb 07 ef 56 bc
       0.0009979159 -0.0002904675 -0.004991869 -0.013118512
000070 8b 6a 06 3b f0 5f ad ba f8 4d b0 3a 08 c4 a3 3b
       0.0020510282 -0.0013227444 0.0013450971 0.004997734
000080 ec 8a 00 bb b7 94 89 b8 e2 9a db bb b1 fa 3e bb
       -0.0019614054 -6.5603694e-05 -0.006701813 -0.0029141123
000090 0d d5 8c 3a 44 3b c9 b9 d8 f0 7e 3b f7 7e 56 3b
       0.0010744646 -0.00038381864 0.0038900878 0.0032729486
0000a0 77 02 e2 3b 64 cf 1a 3c 74 3b 9e 3a 7b d6 bd ba
       0.0068972665 0.00944886 0.0012072162 -0.0014483476
0000b0 7a 0c 30 3a 19 4e 02 b9 8a db 33 bb 63 3d e0 bb
       0.00067157263 -0.0001242686 -0.0027444088 -0.0068432554
0000c0 a2 28 21 3b 95 1f d4 ba d1 ae e5 3b cb 18 06 3b
       0.002459087 -0.0016183729 0.007009365 0.0020461555
0000d0 b8 75 8c 3a c0 65 91 3b 23 18 33 3b 28 8e 83 3a
       0.0010716235 0.0044371784 0.002732762 0.0010036873
0000e0 26 f3 dd 3b 91 68 98 3b 37 44 da 3a 4f 4f 05 3b
       0.0067733703 0.004651137 0.001665241 0.002034146
0000f0 1d 9a af bb c2 49 17 3a ed 16 0c 3a 6c d9 5c bb
       -0.005358948 0.00057711836 0.00053439924 -0.003369893

network.5.weight f4 [64]
000000 f2 a4 6d 3f 3a a0 66 3f 4b c3 7a 3f 07 6c 85 3f
       0.9282981 0.90088236 0.97954243 1.0423592
000010 42 f9 70 3f 02 55 5f 3f 1d ef 7e 3f 0a 46 9a 3f
       0.9413034 0.87239087 0.9958361 1.2052624
000020 0c ff 7d 3f 0e ed 70 3f 2a 08 8a 3f 6c 49 6c 3f
       0.99217296 0.94111717 1.0783741 0.9229953
000030 9f 0f 65 3f 1f 9a 6e 3f a3 88 7e 3f 84 e8 83 3f
       0.8947696 0.9320392 0.9942724 1.0305333
000040 5b 31 6b 3f 73 9b 76 3f a5 5b 82 3f a5 4e 94 3f
       0.91872185 0.96330947 1.0184218 1.15865
000050 ee f1 7c 3f 4f 8a 7f 3f 92 ea 6a 3f b1 d5 7f 3f
       0.98806655 0.9982042 0.91764176 0.9993544
000060 07 e3 88 3f 5a 8a 85 3f b1 11 77 3f a9 b6 79 3f
       1.0694283 1.0432847 0.9651137 0.9754434
000070 f6 5f 96 3f 51 5e 63 3f 36 cc 8e 3f 28 8b 7a 3f
       1.1748035 0.8881579 1.115607 0.97868586
000080 01 2d 91 3f d3 21 5d 3f fd 06 7d 3f b0 87 79 3f
       1.1341859 0.86379737 0.9883879 0.9747267
000090 88 20 5c 3f 00 f0 87 3f 5f a6 7e 3f f4 73 70 3f
       0.8598714 1.0620117 0.9947261 0.9392693
0000a0 1a 00 76 3f 9b 94 95 3f 03 be 80 3f 80 24 9a 3f
       0.96093905 1.1685976 1.0057987 1.2042389
0000b0 9e c4 7f 3f dd b6 83 3f 8d 80 6c 3f 46 bb 6d 3f
       0.9990939 1.029018 0.9238365 0.9286388
0000c0 36 ea 75 3f 37 bd 7a 3f eb 48 7c 3f 7a b3 85 3f
       0.960605 0.9794497 0.98548764 1.0445397
0000d0 04 2c 9e 3f 3f 0e 68 3f 95 ee 5c 3f 39 70 6b 3f
       1.2357183 0.9064674 0.8630155 0.91968113
0000e0 6f 5d 7d 3f 62 52 60 3f 13 2c 7c 3f 7f 6b 78 3f
       0.98970693 0.87625706 0.9850475 0.97039026
0000f0 38 2d 80 3f 00 f0 8f 3f f5 a7 92 3f 79 45 88 3f
       1.00138 1.1245117 1.1457506 1.0646201

network.5.bias f4 [64]
000000 10 5f a8 bb cc 03 97 bc 24 03 d6 bd cd 21 e5 bd
       -0.0051382855 -0.018434428 -0.10449818 -0.111880876
000010 34 23 d6 3c 7f 62 b3 bd 59 40 12 3c 07 23 02 3e
       0.026139833 -0.08759021 0.0089264745 0.12708674
000020 66 9c 81 3d e2 a4 a3 bd 1b 8a f9 3d d0 0f 30 bd
       0.06328659 -0.07990433 0.12184545 -0.04298383
000030 16 71 fd bd 4d 37 67 bd 80 be c4 3c 04 8b ef bc
       -0.12375085 -0.056449223 0.024016619 -0.029241093
000040 a8 61 ae bd 01 61 ff bd 6c a9 19 bd 45 bd 78 3e
       -0.0851472 -0.12469674 -0.03751509 0.2429095
000050 d7 2d 1a 3e 99 9d 9d be ae 66 5b bd 03 0f 98 bd
       0.15056549 -0.307843 -0.05356472 -0.07424738
000060 79 d8 e6 3d d0 0d fa 3d 5f 17 d3 bd ab bc bb 3d
       0.11271758 0.12209666 -0.10307192 0.09166845
000070 63 d0 94 3e 61 41 51 bd 61 61 b5 3d 1c ca 65 bc
       0.29065236 -0.05108774 0.08856464 -0.014025237
000080 e7 3e 62 bd 52 53 ed bd ad 3e c9 3d b1 42 2c bd
       -0.05523577 -0.11588158 0.098264076 -0.04205579
000090 42 57 98 bd f0 35 1f 3e 05 16 cd 3c 15 1b 1c bd
       -0.07438518 0.1554792 0.025034914 -0.038111765
0000a0 fb a0 bd bd f5 1b e2 3d 4d cb 84 bd c8 63 a3 3e
       -0.0925922 0.11040489 -0.06484089 0.31912065
0000b0 c9 9c dc bd 36 20 4e bc 37 cc ae bd e0 c2 42 be
       -0.10772092 -0.012580922 -0.08535045 -0.19019651
0000c0 31 6e ad bd 51 6e eb bb 18 8d 7a bd 2c e5 3a 3d
       -0.08468283 -0.0071847816 -0.061169714 0.04562871
0000d0 49 1e 3e 3e 94 58 b1 bd 6f da 53 bd e1 5f 1b bd
       0.1856624 -0.08659473 -0.051721986 -0.037933234
0000e0 06 5c 14 bd 32 38 08 be 90 3a 01 bd cd 55 a3 bd
       -0.036220573 -0.13302687 -0.03154999 -0.079753496
0000f0 6b f6 9e bd 30 99 a7 3d 9e 77 5c 3e 45 4f 23 bd
       -0.07761844 0.08183515 0.21530005 -0.03987052

network.5.running_mean f4 [64]
000000 f8 f9 ca bf 5a c3 ac be ac 84 57 bf cc 29 cd bf
       -1.5857534 -0.3374279 -0.84186816 -1.602838
000010 cb 3a 98 be 8f c7 37 bf c6 b7 e9 3e f9 4e 60 3f
       -0.29732355 -0.7178888 0.4564802 0.876205
000020 ca b8 a0 bf 5c c3 83 bf 3d 0c 16 3f 4f 10 1e bf
       -1.2556393 -1.0293994 0.58612424 -0.61743635
000030 c3 0b 19 bf de d9 1e 3f d6 2e 3f 3e cf eb 5d 3f
       -0.5978357 0.6205119 0.1867021 0.8668794
000040 3c b6 57 3d 4c 5d a3 bf b0 37 aa bf b6 b8 04 bf
       0.052664027 -1.2762847 -1.3298244 -0.51844347
000050 42 ba 46 be a1 25 da 3f e4 b0 e8 3e 18 0e ba 3f
       -0.19406989 1.7042733 0.45447457 1.4535551
000060 d6 35 4a 3f b0 65 04 3f c3 6a f7 3e 9e 57 b9 3d
       0.789884 0.5171766 0.4832364 0.09049915
000070 f8 f8 88 3e 3c 04 ae 3d c2 31 f2 3e a2 26 11 bf
       0.26752448 0.084969014 0.47303587 -0.56699574
000080 e9 98 bf 3f 4d 0c ed 3d 75 d7 d4 be 9c 3f 31 bf
       1.496854 0.11574612 -0.4157063 -0.69237685
000090 7b 93 0d bf 44 0a 50 3e 05 cb d1 bf 9e 3a 02 bf
       -0.5530316 0.20316416 -1.6390082 -0.5087069
0000a0 46 99 2d bf 09 2c 63 be be aa 2d bf 18 ef f4 3e
       -0.67812 -0.22184767 -0.67838657 0.47838664
0000b0 73 d2 88 bf 9c ef ca 3e b1 89 01 3f 7c 22 69 3e
       -1.0689224 0.39635932 0.50600725 0.22767061
0000c0 b0 41 30 3f 8b 75 4f 3f 66 ee 2a bd 3c aa 9e bf
       0.6885023 0.8103873 -0.04173126 -1.2395701
0000d0 46 de 82 3f 78 64 98 be 38 d2 97 bf ab 71 c4 bf
       1.0224082 -0.29764152 -1.1861029 -1.5347189
0000e0 1d 04 a7 bf ab db 5a bf 31 a5 2f bc 6a d3 68 bf
       -1.304813 -0.85491437 -0.010720537 -0.9094759
0000f0 98 e0 64 3f 70 d1 c6 3d ee 4e 3e 3f 37 25 c2 3c
       0.894052 0.09707916 0.7433919 0.023699386

network.5.running_var f4 [64]
000000 e6 31 5c 40 c7 e4 af 3f 3b da 0a 40 ed 94 a9 40
       3.4405456 1.3741692 2.1695697 5.2994294
000010 d3 9b b3 40 cb 51 8c 3f 81 bc 4f 40 a1 72 d1 40
       5.6127715 1.0962461 3.2458804 6.545243
000020 ac 84 75 40 f0 75 e9 3f 78 03 37 40 ca 87 bd 40
       3.8362226 1.8239117 2.8595867 5.922826
000030 05 c3 c3 40 6a 54 21 40 19 3d 7a 40 7f 57 b5 40
       6.117556 2.5207772 3.909979 5.6669307
000040 98 b7 f5 3f e0 bf 46 40 c6 7e cc 3f 67 0d 1d 41
       1.9196653 3.1054611 1.5976188 9.815772
000050 39 b7 35 40 4e 46 0f 41 e8 3d 87 40 38 03 24 40
       2.839308 8.954664 4.226307 2.5626965
000060 cb 30 92 40 cb 91 27 40 e3 d7 52 40 73 2f 22 40
       4.568456 2.6182735 3.2944267 2.534146
000070 94 24 d5 40 d0 2a 79 3f 11 c5 a2 40 4a 89 72 40
       6.660715 0.9733095 5.086556 3.7896295
000080 be f5 df 40 c4 09 1d 40 6a f7 0c 40 10 e5 2a 40
       6.998748 2.453721 2.202601 2.6702309
000090 c2 e2 ab 3f fd ca 7d 40 b4 5d a7 40 89 33 50 40
       1.3428576 3.9655144 5.2301884 3.2531455
0000a0 48 32 2e 40 fa 0d 10 40 a0 7d 09 40 6b 4b ce 40
       2.721819 2.250853 2.1482925 6.4467063
0000b0 01 2b 4d 40 07 49 55 40 92 b5 17 40 55 8b 62 40
       3.2057498 3.3325822 2.3704572 3.5397542
0000c0 cb fb 8c 40 21 57 93 40 a3 0f 99 40 b9 57 c5 40
       4.4057364 4.604386 4.783159 6.1669583
0000d0 9c e7 90 40 1c 20 5a 40 64 30 9a 40 21 c5 93 40
       4.5282726 3.4082098 4.818407 4.6178136
0000e0 59 c3 d4 3f 29 76 f1 3f a1 f2 46 40 22 f1 90 3f
       1.6622115 1.8864185 3.108559 1.1323588
0000f0 68 9d 55 40 d0 de 88 40 8a cd 9b 40 d8 bf 49 40
       3.3377323 4.277199 4.86884 3.1523342

network.8.weight f4 [32, 64]
000000 fe 38 31 3e 12 c9 32 be f4 98 9c bd 24 c6 4d 3d
       0.17306897 -0.17459515 -0.07646361 0.05023779
000010 b9 d6 2f bc 84 5f 3e be 28 c5 39 be 46 c3 41 3e
       -0.010732346 -0.18591124 -0.18141615 0.18922147
000020 d7 f9 2b bd d4 e6 c2 bd 0f ef 13 be 48 2b 75 3c
       -0.041986313 -0.09516683 -0.14446662 0.014963932
000030 fb a2 cf bd 7f 64 25 be 76 38 81 3e 55 4e 80 be
       -0.10138508 -0.16151617 0.2523839 -0.25059763
000040 d0 69 52 bd 48 68 a2 3d e5 81 29 3d ce bc 65 be
       -0.051370442 0.07930046 0.041383643 -0.22435305
000050 1b 1b ef bd 0f eb e7 3d 8b 1d 88 3b 57 a4 20 be
       -0.11675092 0.11324131 0.0041539124 -0.1568769
000060 45 0b 6b be 01 52 c8 be 77 df 24 be 7e b8 6e be
       -0.22953518 -0.39125064 -0.1610087 -0.23312566
000070 3d 58 a9 be 79 9c e0 bb 3b 38 8b be 32 05 17 be
       -0.33075133 -0.0068545905 -0.27191338 -0.14748076
000080 f6 a1 8e be 06 7b 0c be 5e a4 08 be 4a 40 ca 3d
       -0.2785794 -0.13718805 -0.13343951 0.098755434
000090 0a 12 04 be 91 1b b8 bd 2d 5c a7 bd 57 c2 1e bc
       -0.12897506 -0.08989633 -0.08171878 -0.009689889
0000a0 6b 9c 9f bd df 06 8c be a9 3a 9f 3d 72 e1 1d be
       -0.07793506 -0.27348992 0.077748604 -0.15418032
0000b0 8f 0a b6 bd 30 f4 09 be 8a 35 17 be 9d ab 8c 3d
       -0.08888733 -0.13472056 -0.14766517 0.0686867
0000c0 c4 8c 1e 3d 32 77 f4 3a a2 68 73 be 99 86 89 bd
       0.038708463 0.0018651246 -0.23770383 -0.067151256
0000d0 81 47 52 3d ad 8a cd 3d fb f4 ef 3c a5 43 2d be
       0.051337723 0.10036216 0.02929162 -0.16920336
0000e0 95 b1 6f be 3a 60 75 be 3a ba b0 bd c5 38 97 bd
       -0.23407586 -0.23962489 -0.0862927 -0.07383875
0000f0 2e ea 0b be d2 ba 22 be 6c ce 57 3e 17 eb 48 3d
       -0.13663551 -0.15891579 0.21074837 0.049052324
000100 7d e9 c1 3c 52 98 41 bc 5c 4f 32 3e 40 a3 51 3c
       0.023670906 -0.011816101 0.17413086 0.0127952695
000110 6e 16 eb bd 95 4e 6d bc 54 86 3b 3b 45 36 98 bd
       -0.114788875 -0.014484067 0.0028614001 -0.07432226
000120 40 d7 bc 3c ee fa ae bb e9 92 1e 3e ca b7 24 3d
       0.023051858 -0.0053399717 0.1548573 0.040214337
000130 1d 6b 15 3e 7b 6f 1a 3e af dc f7 ba 86 06 37 be
       0.14591642 0.15081589 -0.0018910373 -0.17873582
000140 69 6e 1a bd f6 01 86 3d fe 1b 68 be ff f5 04 3c
       -0.03770295 0.06543343 -0.22666928 0.008115291
000150 dd 50 7e bc 7f ef 94 be 76 61 4a 3e 95 5b 32 bc
       -0.015522209 -0.2908897 0.19763741 -0.010886093
000160 e7 1c b3 3c 20 8b e7 3d 29 1c aa 3d c7 70 6a bd
       0.021864368 0.11305833 0.083061524 -0.05723646
000170 b4 9a d8 bd 26 37 17 bd 3a 21 4d be 9e 1f d4 bd
       -0.10576382 -0.036917828 -0.20032206 -0.10357593
000180 5b cb 8c be 1b b6 1d 3e 3b 66 1e 3e 7b 58 fb 3c
       -0.27498898 0.15401499 0.15468685 0.03068184
000190 d0 5f 99 3d 39 58 06 be 14 fc fe bd 57 70 06 3e
       0.07488978 -0.13119592 -0.12450424 0.13128792
0001a0 c3 85 99 bd 26 84 86 be 5e 64 72 be 81 2f 9e be
       -0.07496216 -0.26272696 -0.236711 -0.30895618
0001b0 91 62 03 bd 05 57 75 3e 06 37 d7 3c 6f 96 81 3e
       -0.032076422 0.23958977 0.026271354 0.25310084
0001c0 83 f9 d7 3c 4b 9f bf 3d 69 f3 92 bc 6f c6 ec bc
       0.026364094 0.093565546 -0.017938333 -0.028903214
0001d0 23 ee df be a7 f8 b2 bc 2d d4 43 3e 41 62 0c be
       -0.4373637 -0.021847082 0.19123907 -0.13709356
0001e0 07 73 ef bd d0 33 0f be 9e f3 27 3d 35 af 9c bd
       -0.116918616 -0.13984609 0.041003816 -0.076506056
0001f0 0a e3 67 3e d9 8f f4 3d f1 8a 7a 3d f4 69 e2 bd
       0.22645202 0.11941499 0.06116766 -0.11055365
000200 65 ed 64 3c c3 bc 40 bd 75 a5 ba bd f5 28 42 3d
       0.013972615 -0.047055017 -0.0911359 0.04740234
000210 7d a5 8e ba 6d 87 58 3d 07 1d 8b bd 48 14 02 3c
       -0.001088306 0.052863527 -0.06792646 0.007939406
000220 dc a9 4f bc 08 67 87 bd 78 08 b8 bd 9a fe 89 bd
       -0.012674775 -0.066114485 -0.0898599 -0.067380145
000230 1b c5 58 be ce 67 02 3e 29 64 1c be 80 0a 5d 3d
       -0.2116894 0.12734911 -0.15272583 0.05396509
000240 37 a7 2d 3e b2 d1 13 3e 96 f6 77 3e 9b 17 d7 3d
       0.16958319 0.14435461 0.24215159 0.10502549
000250 9d 53 a3 3d 25 20 4f bc 64 e9 86 3d 78 d2 45 3c
       0.07974932 -0.012641941 0.065874845 0.012074105
000260 a6 07 91 3c 28 72 31 3e 8f 79 56 3e 4f 04 72 3e
       0.017703842 0.17328703 0.20944808 0.23634456
000270 37 b8 8c 3d 6a 11 25 3d 3f ba 2a bd 5a 29 f2 bd
       0.06871074 0.04029981 -0.041681524 -0.118242934
000280 fe 2e be 3d 7b 3e 72 3d 08 fa 36 3e 16 d5 23 be
       0.09286307 0.059141617 0.17868817 -0.15999255
000290 c9 d4 25 3d c0 75 4f 3e fa c6 e0 3d eb 26 30 3e
       0.04048613 0.20259762 0.10975452 0.17202346
0002a0 8f de 96 3e 64 b2 0e 3e b1 9c 81 3e 13 b8 29 be
       0.29466674 0.13935238 0.2531486 -0.16574125
0002b0 8f b6 d3 be 53 2d 64 be 75 a7 98 3e b3 9b a3 3d
       -0.4135022 -0.22282915 0.2981526 0.07988682
0002c0 aa 76 32 3a 4e a6 37 bd 6d 2d d2 3c d0 11 38 be
       0.00068078435 -0.044836335 0.025656426 -0.17975545
0002d0 54 1b fa 3c 5e c0 86 bd 58 f6 1d 3e c1 52 b8 3d
       0.03053061 -0.0657966 0.15426004 0.09000159
0002e0 eb 6d a7 3e 8f 58 11 bd 38 26 5d 3e ee cc a1 3d
       0.32701048 -0.035484847 0.2159661 0.07900415
0002f0 32 e1 6c 3c 22 7c d8 3d 2e 58 c3 ba 62 3f 79 3e
       0.014457988 0.105705515 -0.0014903599 0.24340585
000300 32 7c 4e be 1d bf 4e be 41 b4 78 3d 25 27 16 3e
       -0.20164564 -0.20190091 0.06071878 0.1466337
000310 5d f6 22 3e b2 5f 2e be 78 ae 3e be d3 b7 69 3e
       0.15914293 -0.17028692 -0.18621242 0.2282403
000320 9d b7 f0 3d e6 6f 43 be ec 3b 8a 3e fe 45 4c bc
       0.117537715 -0.19085655 0.26998842 -0.012467859
000330 0e 04 48 be b7 60 cc bd b1 f2 92 be e9 e5 e5 bd
       -0.19532797 -0.099793844 -0.28700784 -0.112254925
000340 ef 1d 12 3e be 07 87 3c ae 36 c5 bd f5 07 da bd
       0.14269231 0.016483184 -0.0962957 -0.10646049
000350 f7 e5 e1 bc da 0d ff bd e3 c8 07 3e 08 9b c7 bd
       -0.027575476 -0.12453814 0.13260226 -0.09746367
000360 8f 4e fb 3c a2 9d 46 bd b5 e9 84 3e 11 95 90 be
       0.030677108 -0.048490174 0.25959554 -0.2823873
000370 49 ad d3 bd 13 26 49 be 6d e1 1d be 42 1d 5a 3e
       -0.10335786 -0.1964343 -0.15418024 0.21300223
000380 02 fe 8f be 39 b5 80 3d ca 8e 46 be e9 34 13 be
       -0.2812348 0.062845655 -0.19390407 -0.14375652
000390 f3 c4 3f bd 13 ea b8 3b 0f 3e b4 bb 70 28 6c be
       -0.046818685 0.005643138 -0.005500562 -0.230623
0003a0 73 5b c4 bd 8e f7 be be 89 4f 9d 3d c6 9d fc 3d
       -0.09587755 -0.37298244 0.07681186 0.123347804
0003b0 aa 78 4e 3e 1b 1e 54 be ac 4f 67 3d f8 cc 8e 3d
       0.20163217 -0.2071461 0.056472465 0.069726884
0003c0 29 12 be bd 57 62 2a be aa 26 29 3b e5 5e 45 3e
       -0.092808075 -0.16639076 0.00258104 0.1927448
0003d0 03 9c ee 3d 7e 83 a2 3d 27 0c ae bd 76 59 0a 3d
       0.116508506 0.079352364 -0.084984116 0.033776723
0003e0 9a e1 1e bd 27 da 43 be 12 f5 00 be 11 fb 0f be
       -0.03878937 -0.19126187 -0.12593487 -0.14060618
0003f0 1f 0e b9 3d 75 48 59 be 78 dc fb bd 07 20 5c be
       0.090358965 -0.21219046 -0.122979105 -0.21496592

network.8.bias f4 [32]
000000 10 9c 6e 3c fb 49 31 ba 5b b2 79 bb d4 ee 82 bb
       0.014563575 -0.0006763038 -0.0038100693 -0.0039957557
000010 4d b4 a0 3b bc da d4 bb 5c 8b 1c bc d1 e3 96 39
       0.004904306 -0.0064958017 -0.00955471 0.00028779966
000020 78 3e 04 bb a6 c7 f1 3b 5d 89 69 3c f0 d3 d7 bb
       -0.0020178836 0.0073785363 0.014253941 -0.006586544
000030 31 01 f9 ba 8d 3a 91 bb 2c 26 49 bb b0 20 65 3b
       -0.0018997547 -0.0044320286 -0.0030692918 0.003496211
000040 6c a6 e2 3b 74 7a 87 3c 38 4c 4d 3a b8 9c d0 3b
       0.0069168117 0.016537882 0.0007831487 0.0063663386
000050 1d 96 14 3c 84 fa bf ba 2d 09 26 bb 2d 6c 00 bc
       0.009068993 -0.0014646803 -0.002533506 -0.007838291
000060 97 00 0d 3b 72 07 fd 3b 42 34 92 ba ea 42 f4 bb
       0.0021515244 0.007721835 -0.001115449 -0.007454266
000070 6e 61 25 bb d3 41 d7 3b 5f e8 26 bc 09 f8 fa 3b
       -0.0025235075 0.006569126 -0.0101872375 0.0076589626

network.9.weight f4 [32]
000000 fa 7c 43 3f 36 fc 3b 3f 4d e1 50 3f f0 f2 3d 3f
       0.76362574 0.7343172 0.8159378 0.7419882
000010 d8 71 4a 3f 2d 09 28 3f df 3b 43 3f ce ef 40 3f
       0.7907996 0.65639 0.7626323 0.7536591
000020 5f c2 39 3f 79 52 53 3f b9 9d 4d 3f e3 13 5c 3f
       0.7256221 0.8254772 0.8031879 0.85967845
000030 00 dd 29 3f fd 1d 45 3f 5e b7 4e 3f 55 90 3e 3f
       0.66352844 0.76998883 0.80748546 0.74438983
000040 03 09 43 3f d6 87 5a 3f 67 4f 41 3f 76 a4 40 3f
       0.76185626 0.8536352 0.75511783 0.7525095
000050 f4 df 5a 3f c5 5c 49 3f 31 76 33 3f 77 e6 44 3f
       0.85497975 0.7865718 0.7010222 0.7691416
000060 37 29 54 3f 65 ca 44 3f f4 48 6b 3f 4b 14 40 3f
       0.8287539 0.7687133 0.9190819 0.75030965
000070 a5 eb 34 3f 91 56 3d 3f f1 a4 45 3f a1 2c 32 3f
       0.70672065 0.73960215 0.77204806 0.6959935

network.9.bias f4 [32]
000000 d4 24 0f be be 4d 23 be 4e bb cb 3d 55 9a f4 bc
       -0.13978893 -0.15947625 0.09947835 -0.029858747
000010 96 f9 6c bd 7a 4a 88 be a5 de 83 be e3 82 37 be
       -0.05785521 -0.2661932 -0.25755802 -0.17921023
000020 df d5 59 be 58 74 d8 bd ee 41 80 be a8 00 11 be
       -0.21272992 -0.10569066 -0.250503 -0.14160407
000030 f7 ec 42 be 8b 8f 85 bd 96 f4 c3 ba 62 77 93 bd
       -0.19035707 -0.06521519 -0.0014950212 -0.07200505
000040 8f 24 09 be 08 4b 88 3d e6 3f 7d be c1 bd 2b bd
       -0.13392852 0.06654936 -0.24731407 -0.04192901
000050 81 ca 05 be d9 0f 93 bd 8a a5 29 3c 4c ab 2a be
       -0.1306553 -0.07180757 0.010354409 -0.16666907
000060 55 6e 5f be 9d d2 37 be 31 e1 94 bd c0 4a cb be
       -0.21819432 -0.17951436 -0.07269514 -0.39705467
000070 be 8f 39 be ab a3 47 3c 7e f2 a8 be a3 99 d6 bd
       -0.1812124 0.012185018 -0.32997507 -0.10478523
