soil_salinity_multi_sensor/outputs/models/stage1/best_model.pth (torch, 72098 bytes, 20 tensors)

network.0.weight f4 [128, 36]
0	0xbf2f8881	-0.68567663
1	0xbee4bad1	-0.4467378
2	0xbf6c7740	-0.9236946
3	0xbf21b742	-0.63170254
4	0xbd8f94db	-0.07010814
5	0x3d263ec9	0.04058722
6	0x3e0513da	0.12995854
7	0x3d9d5984	0.076830894
8	0x3e21bcb9	0.15794648
9	0x3d194eaa	0.037428536
10	0xbe84fe0d	-0.25975075
11	0xbe1058a1	-0.14096309
12	0x3e03d181	0.12872888
13	0x3dd16d84	0.102259666
14	0x3d1395a3	0.036031377
15	0xbd34a08e	-0.04409843
16	0xbeda2f38	-0.4261415
17	0xbf6d7217	-0.9275221
18	0xbf0f2b78	-0.55925703
19	0xbf669360	-0.90068626
20	0x3d8cd213	0.06876006
21	0xbcaa8b6c	-0.020818435
22	0x3d288c77	0.041149583
23	0x3d90a190	0.070620656
24	0xbe97b888	-0.29632974
25	0xbe3b8e19	-0.18315925
26	0x3e14e848	0.14541733
27	0x3c623d6c	0.013808589
28	0xbdc25759	-0.094893165
29	0xbe581839	-0.2110299
30	0x3d90e101	0.07074166
31	0xbdf0d040	-0.117584705
32	0x3d3e57f8	0.046470612
33	0x3d661428	0.056171566
34	0x3db9e6b6	0.09077208
35	0x3e3511a1	0.17682506
36	0xbd80b488	-0.062844336
37	0xbd82ac7f	-0.06380557
38	0x3da82b41	0.08211375
39	0xbd1bec0e	-0.038066916
40	0xbdb87128	-0.09005958
41	0xbddd127a	-0.1079454
42	0x3d5be580	0.053685665
43	0xbddae72f	-0.10688626
44	0xbd042d12	-0.032269545
45	0xbd8cdd3e	-0.06878136
46	0xbe0f28a7	-0.13980351
47	0x3d5824f8	0.05276963
48	0xbdbd8337	-0.09253543
49	0x3cdda4f0	0.027056187
50	0xbe10c48a	-0.14137474
51	0x3d13ba75	0.03606649
52	0xbd361208	-0.04445079
53	0xbdb70ec7	-0.089383654
54	0x3e6d6be7	0.23185693
55	0x3e5976ed	0.21236773
56	0x3e382028	0.17981017
57	0x3da51701	0.08061028
58	0x3dba7eb9	0.09106202
59	0x3e3e6cb0	0.18596148
60	0xbdb4c97e	-0.08827494
61	0xbd97c6d5	-0.07410971
62	0xbd04d960	-0.032433867
63	0xbd170795	-0.036872465
64	0xbda48954	-0.08034006
65	0x3e4365d7	0.19081818
66	0x3d96dd23	0.07366397
67	0x3ceb671e	0.028735694
68	0x3e1282fc	0.14307779
69	0xbe3b33d7	-0.18281494
70	0xbddd36cc	-0.10801467
71	0xbe39256d	-0.18080683
72	0x3e7ded15	0.24797471
73	0x3e85ba93	0.26118907
74	0xbdbc2f35	-0.091886915
75	0xbdf294ce	-0.118447885
76	0xbe582c86	-0.21110734
77	0xbe0b1567	-0.13582383
78	0xbdb73b86	-0.089469
79	0x3e2bf85b	0.16793959
80	0x3e079ae2	0.13242677
81	0x3e3d5364	0.18488842
82	0x3db70c31	0.08937872
83	0x3e4a797f	0.1977291
84	0xbe23a779	-0.15981854
85	0x3c7a63f7	0.015282623
86	0x3e51bec0	0.20482922
87	0xbd8d0e7d	-0.06887529
88	0xbd4aa389	-0.049472366
89	0x3dc207b5	0.09474126
90	0xbd677695	-0.056509573
91	0x3e5b8a08	0.21439373
92	0x3dab825b	0.08374473
93	0x3d232c3d	0.03983711
94	0xbdf13713	-0.11778083
95	0x3dc425b5	0.095775045
96	0xbca06021	-0.019577088
97	0xbdcedc60	-0.10100627
98	0xbddb7e3e	-0.10717438
99	0xbe5134c9	-0.20430292
100	0xbbeb24ac	-0.0071760025
101	0xbdfd6fca	-0.12374838
102	0xbcedf448	-0.029047146
103	0x3e3d7a53	0.18503694
104	0xbe3be070	-0.18347335
105	0x3bca33c1	0.0061707203
106	0xbd87b12c	-0.0662559
107	0xbe0afb52	-0.13572434
108	0x3ce26810	0.027637511
109	0x3e06e8f0	0.13174796
110	0x3d1f247d	0.038853157
111	0x3d3580cd	0.044312287
112	0x3e0ee87e	0.13955876
113	0x3e4c58f8	0.19955814
114	0x3e1fcaa6	0.15604648
115	0x3dedca05	0.11610798
116	0x3e5e9675	0.21737082
117	0x3e23f974	0.16013128
118	0x3d3af138	0.0456402
119	0xbd9b7b47	-0.07591873
120	0x3e72303f	0.23651217
121	0xbd8838aa	-0.06651433
122	0xbd42826e	-0.04748767
123	0x3e3ba550	0.1832478
124	0x3c557bcd	0.013030005
125	0x3e100d11	0.14067484
126	0x3e3d5415	0.18489106
127	0x3d648e91	0.055800024
128	0xbe217290	-0.15766358
129	0xbd4d1394	-0.0500675
130	0xbe3c9fb3	-0.18420295
131	0xbe0a197b	-0.13486283
132	0x3cb62cde	0.022238191
133	0xbd84f798	-0.06492537
134	0x3e0b4a1f	0.13602494
135	0xbdfd2903	-0.12361338
136	0xbd66ae54	-0.056318596
137	0x3e1a5a23	0.15073447
138	0xbea14862	-0.31500536
139	0x3e8efcd5	0.2792727
140	0xbdd65cbb	-0.10466906
141	0x3cdc9a53	0.026929056
142	0x3d3ef398	0.046619028
143	0x3df0aea6	0.117520615
144	0x3ebff889	0.37494305
145	0x3ea90482	0.33011252
146	0x3ebd215b	0.3693951
147	0x3eca202a	0.39477664
148	0x3d94c068	0.07263261
149	0x3d7f0cd7	0.062268104
150	0x3e369b4e	0.17832682
151	0x3d044926	0.032296322
152	0x3d671e75	0.05642553
153	0x3e330b2f	0.17484735
154	0x3e9e1180	0.30872726
155	0x3e7d7c00	0.24754333
156	0x3db2eb98	0.08736342
157	0x3cc90bc0	0.024541736
158	0x3dc865f9	0.09785075
159	0xbddb45f8	-0.10706705
160	0x3e2f6f1d	0.1713223
161	0x3e2a6068	0.16638339
162	0x3eeed2ab	0.46645102
163	0x3e8226bc	0.25420177
164	0xbddcba5f	-0.10777735
165	0xbdf12b74	-0.11775866
166	0x3d231c2c	0.03982179
167	0xbd47d31e	-0.04878532
168	0x3dd257ed	0.10270677
169	0x3de2c0cd	0.1107193
170	0xbce28dde	-0.027655538
171	0x3d2c427b	0.04205559
172	0x3e732467	0.23744355
173	0xbdd88fa8	-0.10574275
174	0xbe9e621e	-0.30934232
175	0x3e582915	0.21109422
176	0xbcc17ed7	-0.023620052
177	0x3d59542c	0.05305879
178	0xbe66c9c5	-0.22537906
179	0xbdd86579	-0.105662294
180	0xbe85c1bd	-0.26124373
181	0xbe8d03d0	-0.2754197
182	0xbe5ae6f2	-0.21377161
183	0xbeaf1543	-0.3419591
184	0xbe0689da	-0.13138524
185	0xbdb34f64	-0.08755377
186	0xb9979142	-0.0002890919
187	0xbdfa5c25	-0.122246064
188	0xbedac119	-0.42725447
189	0x3c9be1b1	0.019028516
190	0xbe965b8c	-0.2936672
191	0xbe9f7348	-0.3114264
192	0xbf1484dc	-0.5801523
193	0xbe5d7423	-0.21626334
194	0xbe3788c2	-0.17923263
195	0x3d0bb7a1	0.03411067
196	0xbe6b7679	-0.22994412
197	0xbe84989b	-0.2589768
198	0xbeb5c738	-0.35503554
199	0xbf11f485	-0.5701373
200	0x3e0ebe40	0.13939762
201	0xbd194b1c	-0.037425146
202	0xbcbc2b7c	-0.022969954
203	0x3ac642f4	0.0015126155
204	0xbf063b97	-0.52434677
205	0xbe81e128	-0.25367093
206	0xbe7cc227	-0.24683438
207	0x3e054a9b	0.13016741
208	0xbdc17e54	-0.09447923
209	0xbdff7504	-0.12473491
210	0x3e8df3b4	0.27724993
211	0xbca801aa	-0.020508606
212	0xbafa4997	-0.0019095418
213	0xbdd49581	-0.10380078
214	0x3e5e0678	0.21682155
215	0x3e022af1	0.12711693
216	0x3ce35ee0	0.0277552
217	0x3cc7385b	0.024318865
218	0xbc49bc7d	-0.0123130055
219	0xbdda2f16	-0.10653512
220	0xbdb27122	-0.087129846
221	0xbda84e6e	-0.08218084
222	0xbe2a1b15	-0.16611893
223	0xbd3e9338	-0.046527117
224	0x3e0fb0f1	0.14032342
225	0x3d4ac779	0.04950664
226	0x3dda28b4	0.10652295
227	0x3d2b85e0	0.04187572
228	0x3e100c90	0.14067292
229	0x3e4aee39	0.19817437
230	0xbd7fb282	-0.062426098
231	0x3c129bdd	0.0089482935
232	0xbdc53c83	-0.09630682
233	0xbe6bee6a	-0.23040166
234	0xbd086c31	-0.033306304
235	0xbe99d0c2	-0.30042082
236	0xbde0161e	-0.109417185
237	0x3cef7e9d	0.029235179
238	0x3de22ff4	0.110443026
239	0x3db0b287	0.086278014
240	0xbe1fe2b1	-0.1561382
241	0x3d3d9ff9	0.04629514
242	0xbd81e876	-0.063431665
243	0x3cdf8477	0.027284844
244	0xbd809cb5	-0.062798895
245	0xbe19eb5b	-0.15031187
246	0x3e044d85	0.12920196
247	0xbe3ec0c1	-0.18628217
248	0xbe42394f	-0.18967174
249	0xbe30bb16	-0.17258868
250	0xbd175ed6	-0.036955677
251	0xbe2b1001	-0.16705324
252	0xbe83f951	-0.2577615
253	0xbdb94309	-0.09045989
254	0xbe9bbdcd	-0.30418244
255	0xbe7b24cb	-0.24525754

network.0.bias f4 [128]
0	0x3a58d24a	0.00082710816
1	0xb9181f06	-0.00014507407
2	0x382ff6da	4.195315e-05
3	0x3956ce48	0.00020485476
4	0x39448528	0.00018741621
5	0x394dcdbd	0.00019626967
6	0x3a95e200	0.0011435151
7	0x38982f53	7.2567396e-05
8	0x3792db15	1.7506574e-05
9	0x395ed164	0.00021249574
10	0x38e35bce	0.000108413034
11	0x386dce11	5.6697118e-05
12	0xb7eb1441	-2.8023615e-05
13	0x39fa1cf7	0.00047705296
14	0x39a762cc	0.00031926332
15	0xb94a3b2b	-0.00019286263
16	0xb78cb7fc	-1.6774975e-05
17	0x38deccbb	0.00010623919
18	0xb891aa45	-6.945854e-05
19	0x39375c02	0.00017486516
20	0x397b0377	0.00023938516
21	0x3870a592	5.737466e-05
22	0x3908b294	0.00013036496
23	0xb7f55dc7	-2.9249944e-05
24	0xbb19f300	-0.0023490787
25	0x38e683d3	0.00010991809
26	0x391332c4	0.00014037924
27	0x36b9edca	5.541112e-06
28	0x3964c134	0.00021815748
29	0xb8f6d021	-0.00011768961
30	0x39353512	0.00017281275
31	0xb916be12	-0.00014375921
32	0xb6dc96bc	-6.5740587e-06
33	0xba05127c	-0.0005076302
34	0xb7788011	-1.481177e-05
35	0xb89b5874	-7.4074516e-05
36	0x36b0e994	5.272401e-06
37	0x39923545	0.0002788698
38	0xb7f06d44	-2.866111e-05
39	0x3900c4ac	0.00012280297
40	0x3aa7fa48	0.0012815678
41	0xb7e1095e	-2.6826452e-05
42	0xb84a8c54	-4.8291244e-05
43	0x36eafa67	7.002894e-06
44	0xb9c09974	-0.00036735425
45	0xb89fcf52	-7.620327e-05
46	0x39794a83	0.00023774248
47	0x36460b7b	2.9510982e-06
48	0x36a9ac35	5.05664e-06
49	0x3980d29b	0.00024570976
50	0x3958dedd	0.00020682388
51	0x38aebb9e	8.331913e-05
52	0x3985d960	0.00025529694
53	0xba4fec7f	-0.0007931664
54	0x38e3afa0	0.00010856916
55	0x39a3c86e	0.00031239114
56	0x38cee173	9.864839e-05
57	0xb893f983	-7.0559814e-05
58	0xb745952c	-1.1776847e-05
59	0xba4e90c3	-0.00078798475
60	0xb919b07d	-0.00014656964
61	0xb90bb79e	-0.00013324476
62	0xb8923eb6	-6.973503e-05
63	0x3a86bd1f	0.0010279751
64	0xb876e43e	-5.8863538e-05
65	0xb980100e	-0.00024426024
66	0xb91f4a58	-0.00015191117
67	0x3a0f57a3	0.0005468076
68	0xb9c030f2	-0.0003665756
69	0x38aa0f94	8.109133e-05
70	0x3a80a69d	0.000981528
71	0xb80c2739	-3.341513e-05
72	0x3987d294	0.000259061
73	0xba3ea339	-0.0007272247
74	0xba8ea1b4	-0.0010881932
75	0x3a3bfd74	0.00071712513
76	0xb795fe06	-1.7880473e-05
77	0xb7caae54	-2.4161454e-05
78	0x3886efa9	6.434258e-05
79	0xb96069e3	-0.0002140175
80	0xb89f24db	-7.588576e-05
81	0x39e98ee3	0.00044547682
82	0x384dbb69	4.9050348e-05
83	0xb9887d41	-0.00026033263
84	0x3a4f3ef3	0.00079058035
85	0xb85f69e7	-5.3265972e-05
86	0x39baf624	0.00035660074
87	0x38840d68	6.2967476e-05
88	0xb8872895	-6.4448606e-05
89	0x3887c3af	6.4737505e-05
90	0x381b7e56	3.707254e-05
91	0xb6d615f6	-6.3802536e-06
92	0xb867b74c	-5.52454e-05
93	0x39a447d3	0.0003133403
94	0xb983ac6b	-0.00025114728
95	0x3a5a5135	0.0008328141
96	0x39644219	0.00021768398
97	0xbab501f9	-0.0013809792
98	0x39ba5833	0.00035542398
99	0xb747fce3	-1.1920204e-05
100	0x382f7e4d	4.1840878e-05
101	0xb9e29845	-0.0004321953
102	0xba066516	-0.00051267573
103	0x37e9a2a3	2.7851498e-05
104	0xb9014e84	-0.00012331648
105	0x397831ed	0.00023669722
106	0xba2475bd	-0.0006273648
107	0xb904b17b	-0.00012654618
108	0x395f1b2c	0.0002127706
109	0xb8a44066	-7.8321245e-05
110	0xb901f172	-0.00012392344
111	0xba2bf644	-0.0006559829
112	0x38d3570b	0.00010077477
113	0x3805b58a	3.1878742e-05
114	0x392f259a	0.00016703308
115	0x39994a18	0.00029237638
116	0x38b88400	8.7983906e-05
117	0xb88765e4	-6.45628e-05
118	0xb912609c	-0.00013959635
119	0xbabb5caa	-0.0014294584
120	0x3811b3a5	3.4738e-05
121	0x38ba6c0c	8.8892964e-05
122	0x3800350c	3.0566982e-05
123	0x3984c88b	0.00025326418
124	0xb8c07316	-9.17671e-05
125	0xb8341093	-4.293078e-05
126	0x383fd68f	4.5737772e-05
127	0x394bfaba	0.00019452992

network.1.weight f4 [128]
0	0x3f870fda	1.0551713
1	0x3f77045a	0.96491015
2	0x3f724bd0	0.9464693
3	0x3f882367	1.0635804
4	0x3f7d7087	0.9899983
5	0x3f8682b2	1.0508635
6	0x3f6b50a3	0.91919917
7	0x3f8051f7	1.0025014
8	0x3f81024a	1.0078824
9	0x3f784d63	0.9699308
10	0x3f9a0327	1.2032212
11	0x3f6ec042	0.9326211
12	0x3f81900a	1.0122082
13	0x3f88fac2	1.0701525
14	0x3f6e1c2d	0.9301174
15	0x3f73bbc2	0.9520837
16	0x3f6f9744	0.9359019
17	0x3f745c34	0.9545319
18	0x3f7d237d	0.98882276
19	0x3f80be6e	1.0058115
20	0x3f68b650	0.90903187
21	0x3f7f9c0d	0.9984749
22	0x3f7e58c7	0.99354213
23	0x3f6c1cb3	0.9223129
24	0x3f90ad76	1.1302936
25	0x3f7b8543	0.98250216
26	0x3f7b9a9f	0.9828281
27	0x3f7f32d3	0.99686927
28	0x3f823c37	1.0174626
29	0x3f7d47ad	0.98937494
30	0x3f83107d	1.0239407
31	0x3f8bb61c	1.091495
32	0x3f843065	1.0327269
33	0x3f7fc3fb	0.9990842
34	0x3f75fe83	0.9609148
35	0x3f6d62e5	0.92729026
36	0x3f83f0dc	1.030788
37	0x3f91e2bd	1.139732
38	0x3f8a9428	1.0826464
39	0x3f82b71b	1.0212129
40	0x3f7bd172	0.98366463
41	0x3f7823e5	0.9692977
42	0x3f7b117c	0.98073554
43	0x3f7c8da5	0.9865363
44	0x3f805518	1.0025969
45	0x3f758306	0.9590305
46	0x3f7b228e	0.980996
47	0x3f727e56	0.94724023
48	0x3f83a3ac	1.0284324
49	0x3f8858f9	1.0652152
50	0x3f84d536	1.0377567
51	0x3f7ab423	0.97931117
52	0x3f677540	0.90413284
53	0x3f77bade	0.9676951
54	0x3f8853be	1.0650556
55	0x3f6fae2a	0.9362513
56	0x3f7d90dc	0.9904916
57	0x3f7cee28	0.988009
58	0x3f735079	0.95044667
59	0x3f7ef44a	0.99591506
60	0x3f7cc483	0.98737353
61	0x3f85262f	1.0402278
62	0x3f79c694	0.9756863
63	0x3f9062aa	1.128011
64	0x3f735996	0.9505857
65	0x3f6b8bb5	0.9201005
66	0x3f74d3a2	0.95635426
67	0x3f738693	0.9512722
68	0x3f825d44	1.0184712
69	0x3f7b0db7	0.980678
70	0x3f7db2d4	0.99100995
71	0x3f873af8	1.0564871
72	0x3f80b018	1.005374
73	0x3f93c9cc	1.1545959
74	0x3f8b2a8e	1.0872362
75	0x3f7629ea	0.96157706
76	0x3f805df5	1.0028673
77	0x3f794f96	0.97387064
78	0x3f7c658b	0.9859244
79	0x3f73f095	0.95288974
80	0x3f76c838	0.9639926
81	0x3f8069ba	1.0032265
82	0x3f7893df	0.97100633
83	0x3f73746e	0.9509953
84	0x3f936c0a	1.1517346
85	0x3f7baebc	0.983135
86	0x3f7b2767	0.98107
87	0x3f802254	1.0010476
88	0x3f7cfe1b	0.98825234
89	0x3f7cc045	0.9873088
90	0x3f8509ed	1.0393654
91	0x3f6c987e	0.92420185
92	0x3f7bc0ed	0.98341256
93	0x3f8148ca	1.0100338
94	0x3f6c6742	0.9234506
95	0x3f6d7cfd	0.9276884
96	0x3f770aff	0.96501154
97	0x3f997099	1.1987487
98	0x3f760fac	0.96117663
99	0x3f71f9e1	0.9452191
100	0x3f82882f	1.019781
101	0x3f7e3cf5	0.99311763
102	0x3f7185d4	0.9434483
103	0x3f767d06	0.9628452
104	0x3f86abc2	1.0521166
105	0x3f80fccb	1.0077146
106	0x3f71656f	0.942954
107	0x3f6f47d6	0.9346899
108	0x3f8c01b7	1.0938023
109	0x3f7da81b	0.99084634
110	0x3f728267	0.9473023
111	0x3f741644	0.95346475
112	0x3f717afd	0.9432829
113	0x3f7827dd	0.96935827
114	0x3f6c713f	0.923603
115	0x3f7921c1	0.9731713
116	0x3f7b36d4	0.98130536
117	0x3f825c4b	1.0184416
118	0x3f845a1b	1.0339998
119	0x3f8f0c8c	1.1175704
120	0x3f81f758	1.0153608
121	0x3f8327cf	1.0246524
122	0x3f78a9f3	0.9713432
123	0x3f6effd8	0.93359137
124	0x3f75f6ae	0.9607953
125	0x3f6dc266	0.92874753
126	0x3f802023	1.0009807
127	0x3f74a6b7	0.95566887

network.1.bias f4 [128]
0	0x3e10bc85	0.14134414
1	0xbcd12948	-0.02553238
2	0xbce15aff	-0.02750921
3	0xbcbbae1a	-0.022910167
4	0x3d4ec48b	0.050480407
5	0xbc80bb3e	-0.015714284
6	0xbd2a3810	-0.04155737
7	0xbdbda3b9	-0.09259743
8	0xbdb7923a	-0.089634374
9	0xbdd061ec	-0.10174927
10	0x3dc725cd	0.09724007
11	0xbe140ded	-0.14458437
12	0xbe54cab0	-0.20780444
13	0xbd6d1a7c	-0.057886586
14	0xbddb3047	-0.107025675
15	0xbe0893d2	-0.13337639
16	0xbe1a6c6f	-0.15080427
17	0x3c8ff44f	0.01757255
18	0xbdb6b2ab	-0.08920797
19	0x3c1b1b2f	0.00946693
20	0xbd06848f	-0.03284126
21	0x3d326c49	0.0435603
22	0xbdea2b1a	-0.11434002
23	0xbdbf548a	-0.093422964
24	0x3e0d5054	0.13800174
25	0xbd50f68c	-0.051016375
26	0x3d538c63	0.051647555
27	0x3c5c02e3	0.013428423
28	0x3e0e68c2	0.1390715
29	0x3cdf17f6	0.027233105
30	0xbe386a57	-0.18009315
31	0xbd11c8b8	-0.03559181
32	0xbde54ce7	-0.111963086
33	0x3c086632	0.0083251465
34	0xbd9ffbed	-0.07811723
35	0xbe10d191	-0.14142443
36	0xbd9143ce	-0.07093011
37	0x3d989963	0.07451131
38	0xbd1e15c8	-0.03859499
39	0xbd1c7fee	-0.03820794
40	0xbd502954	-0.050820664
41	0x3d061cf9	0.032742474
42	0xbd272e76	-0.040815793
43	0xbddcdd4e	-0.10784398
44	0xbd0bed4d	-0.034161855
45	0xbbcbc8d3	-0.0062190085
46	0xbd54f51d	-0.05199157
47	0xbd65932d	-0.05604856
48	0xbde299d3	-0.11064496
49	0x3e4cf299	0.20014419
50	0xbd40c144	-0.047059312
51	0x3be73893	0.0070563047
52	0xbdb6fb57	-0.08934658
53	0x3b5aa065	0.0033359763
54	0x3cf03f11	0.029326947
55	0xbba089e8	-0.004899252
56	0xbd10cff0	-0.035354555
57	0xbc17a49d	-0.009255555
58	0x3a6157dd	0.00085961615
59	0xbd5ffccd	-0.05468445
60	0xbd2f3906	-0.04277899
61	0x3b3e8430	0.002907049
62	0xbb6c01d5	-0.0036011834
63	0x3c97e56c	0.018542014
64	0xbc8f4b6c	-0.017492019
65	0xbe030d3a	-0.12798014
66	0xbd4acc49	-0.049511228
67	0xbdbc2abb	-0.09187838
68	0xbdad0fce	-0.0845028
69	0x3bc000c0	0.0058594644
70	0xbd3f2888	-0.046669513
71	0xbda59117	-0.08084314
72	0x3e0afcdb	0.13573019
73	0x3e6223eb	0.22084014
74	0x3d5eed0b	0.05442528
75	0xbd96a2c8	-0.07355267
76	0xbd110e32	-0.03541393
77	0xbd88ba6d	-0.06676183
78	0xbd84deb2	-0.06487788
79	0x3dbfa445	0.09357504
80	0xbd22e427	-0.039768364
81	0x3c16c284	0.00920165
82	0x3c2ee670	0.010675058
83	0xbd7e1509	-0.06203178
84	0x3e4af6b3	0.19820671
85	0xbcc701fe	-0.024292942
86	0x3d2dd8de	0.04244315
87	0xbd01e29f	-0.031710263
88	0xbcce8ce9	-0.025213676
89	0x3a17b916	0.0005787773
90	0xbdbd29a1	-0.09236456
91	0xbd753918	-0.059868902
92	0xbdad22c2	-0.08453895
93	0x3c9fcf50	0.019508034
94	0xbdec792b	-0.115465485
95	0x3d1441c6	0.03619554
96	0xbd3e8f60	-0.04652345
97	0x3e2543aa	0.16139093
98	0xbda7bec2	-0.08190681
99	0x3d69d86a	0.057091154
100	0xbd67794d	-0.056512166
101	0x3c9d00d4	0.019165434
102	0x3d500c1b	0.050792795
103	0xbd19e7b7	-0.037574496
104	0xbdd39d6c	-0.1033276
105	0x3c5e551c	0.013570096
106	0xbdb0e999	-0.08638305
107	0xbc3cce49	-0.011523792
108	0xbd4aa9db	-0.049478393
109	0xbd07df32	-0.03317184
110	0xbd91b7c2	-0.07115127
111	0xbde5a68d	-0.11213408
112	0xbd7b22ef	-0.061312612
113	0xbd149020	-0.03627026
114	0xbd14615d	-0.036225665
115	0xbcd40d50	-0.025885254
116	0xbd357979	-0.0443053
117	0x3c662d17	0.014048836
118	0xbd8a1f54	-0.067442566
119	0x3dbf87bc	0.09352061
120	0xbda461fb	-0.08026501
121	0xbd984585	-0.07435135
122	0xbd91e4af	-0.07123696
123	0xbd4f0cb9	-0.050549243
124	0x3d7c3be0	0.06158054
125	0xbd83d6d1	-0.06437457
126	0xbdf8a06a	-0.121399716
127	0xbdcc800f	-0.09985363

network.1.running_mean f4 [128]
0	0x3c15758d	0.009122265
1	0x3fa8aedb	1.3178362
2	0xc01c92be	-2.4464564
3	0xbf952e89	-1.1654826
4	0x3f326160	0.6967983
5	0xbef81444	-0.4845296
6	0x3f35e977	0.71059364
7	0x3fbfa596	1.4972408
8	0xbf3228e5	-0.6959365
9	0xbc862bd3	-0.016378319
10	0x400c4a88	2.192049
11	0xbfa5cd48	-1.2953272
12	0x3fa8470d	1.3146683
13	0xc05ff9fa	-3.4996324
14	0x3eca727f	0.3954048
15	0x3c685fe7	0.014183021
16	0xbefab3d4	-0.48965323
17	0xc005e384	-2.0920115
18	0xc071bbc2	-3.7770848
19	0x3fa34dcc	1.2758117
20	0xc071ff6a	-3.7812142
21	0x3f7accde	0.9796885
22	0x3fb2f9e8	1.3982515
23	0xc02acdb3	-2.668805
24	0xbf9466ca	-1.1593869
25	0x3efe3a61	0.49653915
26	0xc07e7a60	-3.9762192
27	0x404e0b7c	3.219451
28	0x4042067d	3.031646
29	0xc090537f	-4.5101924
30	0x403044f2	2.754208
31	0x3e414683	0.18874554
32	0x402f54b7	2.7395456
33	0x3fc699e6	1.5515716
34	0x3eb6a769	0.356746
35	0x3fccf9da	1.6013749
36	0x3f88e9a0	1.0696297
37	0xbf99ba5f	-1.2010001
38	0x3e847456	0.25870007
39	0x4055b4a5	3.3391507
40	0x3f2c6e97	0.67356247
41	0xbf1785d4	-0.5918858
42	0xbff80228	-1.9375658
43	0x4040164b	3.0013607
44	0x400f31be	2.237411
45	0xbcca2a04	-0.024678238
46	0x402000db	2.5000522
47	0x3fd60c8a	1.6722577
48	0x4014e25b	2.3263156
49	0x40358b0f	2.8366125
50	0xbe39f79a	-0.18160859
51	0x401949b3	2.3951232
52	0xc0208b99	-2.5085204
53	0x3e57be71	0.21068741
54	0x406573db	3.5851963
55	0xbeddcb23	-0.43319044
56	0x406fe491	3.7483256
57	0x4008d1f4	2.1378145
58	0xbfbc8012	-1.4726584
59	0x405af712	3.42133
60	0x3cb03620	0.021510184
61	0x3ddd07ec	0.107925266
62	0x401d0a78	2.453764
63	0xbf2de570	-0.6792822
64	0x3f709d84	0.9399035
65	0xc03343cb	-2.8010128
66	0x3f2498c6	0.64295614
67	0xbf23de9a	-0.6401154
68	0x3fad15d7	1.352229
69	0x4013577e	2.302215
70	0x3ea06624	0.31327927
71	0x40755e1c	3.833869
72	0xc0194a96	-2.3951774
73	0xc007baf2	-2.1207852
74	0x402d15ba	2.704451
75	0xbf9aa809	-1.208253
76	0x3f78a9cc	0.9713409
77	0x4009d9ed	2.1539261
78	0x3f6a5585	0.9153674
79	0x3f7df5bd	0.9920309
80	0x3e65faf2	0.2245901
81	0x3f9be414	1.2178979
82	0x3c769acc	0.015051555
83	0x4044ee0f	3.07703
84	0xbfd99104	-1.699738
85	0xc051d995	-3.2789052
86	0x3fd7decd	1.6864868
87	0xbf311531	-0.6917296
88	0xbf8f5e61	-1.1200677
89	0x3f9ccd28	1.2250109
90	0x40446b5f	3.0690534
91	0xbffdb37e	-1.9820402
92	0x3f9730c1	1.1811754
93	0x3ff65a07	1.9246224
94	0xbdade7ae	-0.08491455
95	0x3e4288f4	0.18997556
96	0x3fb3d756	1.405009
97	0xbe94907f	-0.29016492
98	0x400421ae	2.0645556
99	0xbf00aa8d	-0.5026024
100	0x3e837890	0.2567792
101	0xbfdb4c03	-1.7132572
102	0x4055ecd6	3.3425803
103	0xbec64113	-0.38721523
104	0x3fe552be	1.7915876
105	0x3f7ad741	0.979847
106	0xc013fe86	-2.3124099
107	0xc01dee47	-2.4676683
108	0xc01057a8	-2.25535
109	0x3fa97035	1.3237368
110	0xc010db21	-2.2633746
111	0xbf43cf0c	-0.76487803
112	0xc0a32f36	-5.099513
113	0xbcf88146	-0.03033508
114	0xc02e8fd5	-2.7275288
115	0xbfc7d798	-1.5612669
116	0x3efa99c2	0.48945433
117	0x3fdf6177	1.7451619
118	0xbec98dea	-0.39366084
119	0x404a23bf	3.1584318
120	0x3fb486f1	1.4103681
121	0x3f8c0f84	1.0942235
122	0x3fa5f03a	1.2963936
123	0xbf162a70	-0.58658504
124	0xbe8be74c	-0.27324903
125	0x4047c7f2	3.1215787
126	0x401148cc	2.2700682
127	0x3f236165	0.6382049

network.1.running_var f4 [128]
0	0x41f1c18e	30.21951
1	0x43dc2697	440.30148
2	0x444b7770	813.8662
3	0x43dceee3	441.8663
4	0x43117353	145.45049
5	0x443b55f5	749.3431
6	0x42d424b9	106.071724
7	0x43e74a28	462.57935
8	0x4336a19a	182.63126
9	0x43b27e59	356.9871
10	0x41a8b9b4	21.090675
11	0x448e9c40	1140.8828
12	0x4405ab64	534.678
13	0x43893e36	274.48602
14	0x435e9669	222.58754
15	0x43aacbab	341.59116
16	0x43f4f7fb	489.93735
17	0x4430b94f	706.89545
18	0x4517f011	2431.0042
19	0x43a7686d	334.81583
20	0x44bbb3f5	1501.6237
21	0x4307c3b3	135.76445
22	0x430e795b	142.47404
23	0x43bd47f1	378.56204
24	0x4269f0fd	58.48534
25	0x42fc4884	126.14163
26	0x44863b5e	1073.8552
27	0x44acc208	1382.0635
28	0x42b2c0db	89.37667
29	0x441308c0	588.1367
30	0x440a38ca	552.8873
31	0x43e5f273	459.89413
32	0x4509e013	2206.0046
33	0x43098d8d	137.55293
34	0x42b51ec1	90.56007
35	0x44105456	577.31775
36	0x44900fb3	1152.4906
37	0x43840a9f	264.08298
38	0x43d22efe	420.36713
39	0x4507e736	2174.4507
40	0x4293340e	73.60167
41	0x43900ab2	288.08356
42	0x43edc010	475.5005
43	0x44e8d24b	1862.5717
44	0x4143be1e	12.233915
45	0x436e9db5	238.61604
46	0x4455f414	855.8137
47	0x4464af85	914.7425
48	0x444d9d2c	822.4558
49	0x42917483	72.72756
50	0x43354ae8	181.2926
51	0x440ac684	555.1018
52	0x44154fc2	597.2462
53	0x42cf6bb2	103.71034
54	0x42243a52	41.056953
55	0x43877783	270.9337
56	0x4531fdbc	2847.8584
57	0x444d997d	822.39825
58	0x4419dd7a	615.4606
59	0x439ea971	317.32376
60	0x4397b7a6	303.43475
61	0x435fc3fd	223.76558
62	0x444bce34	815.2219
63	0x4293a512	73.8224
64	0x43f66a86	492.8322
65	0x4473bdb0	974.96387
66	0x42a28ec8	81.27887
67	0x43c2b4d7	389.4128
68	0x430b3e47	139.24327
69	0x443e0aa4	760.16626
70	0x4288db79	68.42866
71	0x44ca8775	1620.233
72	0x423858e8	46.086823
73	0x41c75d1b	24.920462
74	0x421ba13f	38.907467
75	0x42df4990	111.64368
76	0x43d17115	418.88345
77	0x449ded63	1263.4183
78	0x441e33c1	632.80865
79	0x4232174f	44.522762
80	0x437bdc64	251.8609
81	0x429ed59a	79.41719
82	0x42abed84	85.9639
83	0x44460193	792.0246
84	0x432da6d5	173.65169
85	0x4455143f	852.31635
86	0x4315ed08	149.9259
87	0x44442b44	784.676
88	0x441cd5cf	627.34076
89	0x437379ed	243.47627
90	0x45013cf2	2067.809
91	0x448cba83	1125.8285
92	0x4354c4c9	212.76869
93	0x4324741c	164.45355
94	0x4372e701	242.90236
95	0x42df610b	111.68954
96	0x4402278d	520.618
97	0x412f591f	10.959258
98	0x4397cb5e	303.5888
99	0x4413ee03	591.71893
100	0x43f6bdc3	493.4825
101	0x42b1045c	88.508514
102	0x42ce4336	103.13127
103	0x435ca5d4	220.64777
104	0x445b1738	876.3628
105	0x4383ce88	263.61353
106	0x436e6632	238.3992
107	0x441a947e	618.3202
108	0x4221f109	40.485386
109	0x42f50a8a	122.520584
110	0x44873654	1081.6978
111	0x42e3aaf0	113.83386
112	0x4500c5fa	2060.3735
113	0x43cdde11	411.7349
114	0x42ceb0b0	103.34509
115	0x42ebc118	117.87714
116	0x439f5e56	318.737
117	0x4401753e	517.8319
118	0x42964afb	75.14645
119	0x4242f6d9	48.741062
120	0x43e1044e	450.03363
121	0x4413d8b3	591.3859
122	0x433829c3	184.16313
123	0x42c18ec4	96.77884
124	0x4339cc7e	185.7988
125	0x43463db7	198.24107
126	0x4370dd8a	240.86539
127	0x4318eba2	152.92044

network.4.weight f4 [64, 128]
0	0x3ddc853e	0.107676014
1	0x3db6c3d8	0.08924073
2	0x3d53f900	0.051751137
3	0xbe71395f	-0.23557042
4	0xbe174d33	-0.14775543
5	0x3cdc8da0	0.026923
6	0xbd9598c7	-0.073045306
7	0xbda4d82c	-0.08049044
8	0x3e04e034	0.12976152
9	0xbdafe8a8	-0.085892975
10	0x3d9309ee	0.07179628
11	0x3da72a95	0.08162419
12	0xbdf9d23f	-0.121983044
13	0xbdb46677	-0.08808606
14	0x3e22addc	0.15886635
15	0x3cbdedfc	0.023184769
16	0x3d045fdc	0.03231798
17	0x3ad612e2	0.0016332532
18	0xbe51dd5f	-0.20494603
19	0x3e18f46c	0.1493699
20	0xbd9d2257	-0.076725654
21	0xbcf0834d	-0.029359484
22	0x3e27c458	0.16383493
23	0xbe1e305d	-0.15448137
24	0x3d36d14c	0.044633195
25	0x3dab3c93	0.08361163
26	0xbafbbf8a	-0.0019206863
27	0x3e22d9e8	0.15903437
28	0x3d837d5c	0.06420395
29	0xbdae0506	-0.08497052
30	0x3dc3842c	0.09546694
31	0x3de7f5a8	0.11326152
32	0x3da99493	0.082802914
33	0x3d0c790c	0.034295127
34	0x3deb2a2e	0.114826545
35	0x3d752cab	0.05985705
36	0x3daca1c0	0.08429289
37	0xbcfdb60f	-0.030970601
38	0xbe210a77	-0.15726648
39	0x3db2f6cb	0.08738478
40	0xbde0b8fa	-0.109727815
41	0x3d94097f	0.07228374
42	0xbdc50d39	-0.09621663
43	0xbda5f6f1	-0.08103741
44	0x3ddac8b9	0.10682816
45	0xbcf2a5a1	-0.029619994
46	0x3c02fef9	0.0079953605
47	0x3d967b43	0.07347729
48	0xbe061665	-0.1309448
49	0x3dc50e81	0.09621907
50	0x3ddf2dd0	0.1089741
51	0x3e2bf52a	0.16792741
52	0xbe474306	-0.19459161
53	0x3d5a1464	0.053242102
54	0xbde030ed	-0.10946832
55	0x3e3650d3	0.1780427
56	0xbdda6084	-0.1066294
57	0xbc6f5faa	-0.01461021
58	0x3e0cc6d2	0.13747719
59	0x3dd14b09	0.1021939
60	0xbe1174f1	-0.14204766
61	0x3de7503f	0.112946026
62	0x3e18551e	0.1487622
63	0xbe4f6765	-0.20254286
64	0xbc105c63	-0.008811089
65	0xbd50037e	-0.05078458
66	0xbe1beef6	-0.15227875
67	0xbe3419c9	-0.17587961
68	0x3d8c393a	0.068468526
69	0x3d659f6c	0.05606024
70	0xbe60c537	-0.21950231
71	0x3b2eae1e	0.0026654075
72	0x3d92250b	0.07135972
73	0xbe0ed75e	-0.13949344
74	0xbd86db32	-0.06584777
75	0x3d28f2c0	0.04124713
76	0xbdc3aee0	-0.09554839
77	0x3e1ebd5e	0.15501925
78	0xbe146822	-0.14492849
79	0x3db99466	0.09061508
80	0xbd7da3d3	-0.061923813
81	0x3d20958a	0.03920511
82	0x3bed71e5	0.0072462433
83	0xbe20acaf	-0.15690874
84	0xbe1e096f	-0.15433286
85	0xbe6101d0	-0.21973348
86	0xbc995a32	-0.018719766
87	0xbd81a69a	-0.06330605
88	0xbd9f4f1a	-0.07778759
89	0xbc9ce0df	-0.019150196
90	0x3dcf7626	0.10129957
91	0x3d8c4d78	0.068507135
92	0x3df6505d	0.12027047
93	0x3d757c92	0.059933253
94	0x3e1a60f1	0.15076043
95	0x3e05c282	0.1306248
96	0xbc36c6e6	-0.0111558195
97	0x3d5836cf	0.052786645
98	0x3bdec87f	0.0067988033
99	0xbe28dc55	-0.164903
100	0xbcb1241e	-0.021623667
101	0x3e0d9d50	0.13829541
102	0x3d89f4ec	0.06736168
103	0xbe181ca8	-0.14854681
104	0x3e0c6805	0.13711555
105	0xbd47afee	-0.048751764
106	0xbe01e319	-0.12684287
107	0x3d9a4c0f	0.07534038
108	0xbda89984	-0.08232406
109	0x3e3f80c7	0.18701468
110	0x3dc4af1f	0.09603714
111	0xbdf21118	-0.118196666
112	0x3d29e602	0.04147912
113	0x3d720e7d	0.05909585
114	0xbc18854a	-0.009309122
115	0xbda66474	-0.08124629
116	0x3da9d6ea	0.08292945
117	0xbdea50a3	-0.114411615
118	0x3e082c77	0.13298212
119	0x3d45a0eb	0.048249166
120	0xbe44963a	-0.19197932
121	0x3e0e6d5f	0.1390891
122	0xbd4ae361	-0.04953325
123	0x3e000987	0.12503634
124	0x3c13198a	0.008978257
125	0xbcbc54fe	-0.022989746
126	0x3cca1040	0.024665952
127	0xbe29fd4d	-0.16600533
128	0x3ded5669	0.11588747
129	0x3c896f5b	0.016776731
130	0xbda930e9	-0.08261282
131	0xbd8baa20	-0.06819558
132	0xbd969f30	-0.07354581
133	0x3e37e029	0.17956604
134	0xbbed9a2d	-0.007251045
135	0xbc08eeb6	-0.008357694
136	0xbde31889	-0.11088664
137	0xbdb9a221	-0.09064127
138	0x3d207a35	0.039179046
139	0xbd3cd612	-0.04610259
140	0xbc5a1043	-0.013309541
141	0xbe363020	-0.17791796
142	0xbdc21e59	-0.094784446
143	0x3dd02ece	0.10165177
144	0xbd467198	-0.048448175
145	0xbe1be0fb	-0.15222542
146	0x3d9538b2	0.072862044
147	0x3d32d1a4	0.04365696
148	0xbe08a656	-0.13344702
149	0xbe22497a	-0.15848342
150	0xbdeecfd7	-0.11660736
151	0xbd775293	-0.060381483
152	0xbb158305	-0.002281369
153	0x3e199dd8	0.15001619
154	0xbdee1cc9	-0.11626584
155	0x3e0dad0d	0.13835545
156	0x3d9666ec	0.073438495
157	0x3cbad919	0.022808598
158	0x3de3c053	0.11120667
159	0x3b552a91	0.0032526592
160	0xbd5cb7af	-0.05388611
161	0xbe39c523	-0.18141608
162	0x3cdf440c	0.027254127
163	0x3cc2b6a7	0.023768736
164	0x3e121c44	0.14268595
165	0x3e0d2163	0.13782267
166	0x39d13be5	0.0003990821
167	0xbcc80a80	-0.02441907
168	0x3dbd1073	0.09231653
169	0x3e3b2d82	0.18279079
170	0xbca1288a	-0.01967265
171	0xbd42cd88	-0.04755929
172	0xbd02b19d	-0.031907666
173	0xbde7d776	-0.11320393
174	0xbdc87a9a	-0.097890094
175	0x3d3b249b	0.045689207
176	0xbd59827d	-0.05310296
177	0x3d0f4cb9	0.034985278
178	0x3d96b85e	0.07359384
179	0xbd2b1951	-0.04177219
180	0xbd5c0900	-0.05371952
181	0x3d33b591	0.043874327
182	0xbdf04efa	-0.117338136
183	0xbc804d41	-0.015661838
184	0xbe03e6f4	-0.1288107
185	0x3e0cdb3f	0.13755511
186	0xbdb49302	-0.08817102
187	0x3e4f79d1	0.20261313
188	0x3d5f6ff9	0.054550145
189	0xbda34832	-0.079727545
190	0x3e3d559d	0.1848969
191	0xbe8096c0	-0.25115013
192	0x3b513278	0.003192095
193	0xbe449e13	-0.19200926
194	0xbcfbfa9f	-0.030759154
195	0xbe0ef8bb	-0.1396207
196	0x3def3e69	0.11681826
197	0xbdca6761	-0.09882999
198	0xbdcc8b54	-0.09987512
199	0x3d86c169	0.06579859
200	0xbdaef8d0	-0.08543551
201	0x3d896e77	0.067105226
202	0xbde6a634	-0.112621695
203	0x3da49f2a	0.08038171
204	0x3e29f730	0.16598201
205	0x3e0e81e7	0.13916741
206	0xbd6f10df	-0.0583657
207	0xbd9f7220	-0.077854395
208	0xbcbe8cd8	-0.023260519
209	0x3daa905c	0.083283156
210	0xbdf3bf49	-0.11901719
211	0xbc1b2530	-0.009469315
212	0xbe537c57	-0.206529
213	0xbdf02700	-0.11726189
214	0xbd80685f	-0.06269907
215	0x3e16fbb6	0.14744458
216	0x3e388097	0.18017803
217	0xbdd81beb	-0.105522
218	0xbccec0ec	-0.025238477
219	0xbe09a83a	-0.1344308
220	0xbe12fce4	-0.14354283
221	0xbdfbdc0d	-0.12297831
222	0x3d6d9e89	0.05801252
223	0xbcf4fbae	-0.029905166
224	0x3dffd855	0.12492434
225	0x3e192b99	0.14958037
226	0xbde5bdcb	-0.11217841
227	0xbd2849f2	-0.041086145
228	0x3e4d9d47	0.20079528
229	0x3dcb9a80	0.09941578
230	0x3dbf78ee	0.093492374
231	0x3df2d5f8	0.118572176
232	0x3dd30fa2	0.10305716
233	0xbd5e3b31	-0.054255668
234	0x3d64118b	0.055680793
235	0x3ca1cdb7	0.019751413
236	0xbda206e7	-0.07911473
237	0x3db2449d	0.08704493
238	0x3b821f82	0.003971041
239	0x3dc9b883	0.09849646
240	0xbe3200a0	-0.17383051
241	0x3e0271c9	0.12738718
242	0x3d9cad79	0.07650275
243	0x3dd12ee0	0.10214019
244	0xbdbadf61	-0.091246374
245	0x3e1997b2	0.14999273
246	0xbccceb5c	-0.025014572
247	0x3e0beeb6	0.1366528
248	0x3d871b2c	0.065969795
249	0x3d013fcb	0.03155498
250	0x3df8e790	0.12153542
251	0xbd822a8f	-0.06355774
252	0xbdbcdb3f	-0.092215054
253	0x3c948d22	0.018133704
254	0x3cd3ef50	0.025870949
255	0xbe2d5bdb	-0.16929571

network.4.bias f4 [64]
0	0x3904d8c0	0.00012669247
1	0xbb05232e	-0.0020315158
2	0x3c193e41	0.009353221
3	0xba656b31	-0.00087516295
4	0x3b419191	0.0029536227
5	0x3548fc04	7.4872537e-07
6	0x3b88df73	0.004177028
7	0x3b4c9996	0.0031219474
8	0x3b0e8362	0.002174579
9	0x3b641b4c	0.003480631
10	0xba2f9c6e	-0.000669903
11	0x3b5d3eeb	0.0033759426
12	0x3b760f0a	0.0037545585
13	0x3b55f152	0.0032645059
14	0x3b26f6e2	0.0025476743
15	0xb9f8b541	-0.0004743729
16	0x3c3f7951	0.011686639
17	0xbb413aca	-0.0029484504
18	0xbb8addaf	-0.0042378525
19	0xbb802c92	-0.003911563
20	0xbb32bbcd	-0.0027272583
21	0xba80e017	-0.0009832409
22	0x3b297682	0.002585799
23	0xbc1b802e	-0.00949101
24	0xbbaf4290	-0.005348511
25	0x3a9bf8c2	0.0011899697
26	0x39fc6014	0.0004813677
27	0xbb87d136	-0.004144813
28	0x3b81fc92	0.0039668763
29	0xbbcfd62f	-0.0063426713
30	0x3b49385a	0.0030703754
31	0x3b819285	0.003954234
32	0xbadf161e	-0.0017020141
33	0x3af5205d	0.0018701662
34	0xb9e67485	-0.00043955832
35	0x3999a609	0.0002930614
36	0x3b7c5c10	0.0038507022
37	0x3b710109	0.0036774299
38	0xbb2e52a4	-0.002659955
39	0x39a7bdd3	0.00031994152
40	0xba18d384	-0.0005829858
41	0xba9143a5	-0.0011082782
42	0x3b08fafc	0.0020901551
43	0xbac2154f	-0.0014807376
44	0xbac8ffbd	-0.0015335005
45	0x3bd149be	0.0063869646
46	0x3bd47f5b	0.0064849085
47	0xbb918f28	-0.0044421144
48	0x3c09be37	0.008407167
49	0x3b3fc701	0.0029262903
50	0x3bb0ea2f	0.0053990106
51	0x3b1224c9	0.0022299758
52	0xbbba76fa	-0.0056904526
53	0xbbac1875	-0.005251939
54	0x3a891a36	0.0010460082
55	0x3a17aab8	0.0005785632
56	0x3b9e5d6f	0.0048329155
57	0x3b89058b	0.004181569
58	0xbc24a6ec	-0.010049563
59	0x3b1f88ff	0.002434313
60	0xba996a49	-0.0011704649
61	0x3b35783f	0.002769008
62	0x3c07f796	0.008298775
63	0xbbda854b	-0.006668722

network.5.weight f4 [64]
0	0x3f805922	1.0027201
1	0x3f6a1600	0.9143982
2	0x3f8c6fef	1.097166
3	0x3f869faf	1.0517482
4	0x3f873a24	1.0564618
5	0x3f878edb	1.0590471
6	0x3f8a9e65	1.0829588
7	0x3f81a691	1.0128957
8	0x3f831f63	1.0243953
9	0x3f87f6e5	1.0622221
10	0x3f78631a	0.97026217
11	0x3f7f1f2a	0.9965693
12	0x3f794c7d	0.97382337
13	0x3f8260f7	1.0185841
14	0x3f821fe7	1.0165986
15	0x3f67dcab	0.9057109
16	0x3f868bc1	1.05114
17	0x3f78ad86	0.97139776
18	0x3f71daa7	0.9447426
19	0x3f7acab0	0.97965527
20	0x3f7c3608	0.98519945
21	0x3f71c4c8	0.9444089
22	0x3f9203b0	1.1407375
23	0x3f76c238	0.96390104
24	0x3f890a74	1.0706315
25	0x3f5efe0c	0.87106395
26	0x3f57390f	0.8407144
27	0x3f7a097d	0.9767073
28	0x3f867dc4	1.0507131
29	0x3f80a150	1.0049229
30	0x3f874799	1.0568725
31	0x3f7aa733	0.97911376
32	0x3f819cdb	1.0125993
33	0x3f832be2	1.0247767
34	0x3f619532	0.8811828
35	0x3f7b01a3	0.9804937
36	0x3f607ea3	0.8769323
37	0x3f8fd1b4	1.1235871
38	0x3f7e6d1c	0.9938524
39	0x3f6d9662	0.9280759
40	0x3f7afe55	0.9804433
41	0x3f77fd4f	0.96870893
42	0x3f711891	0.9417811
43	0x3f8d1b1e	1.10239
44	0x3f8656d2	1.0495245
45	0x3f79fd75	0.9765237
46	0x3f68474f	0.9073381
47	0x3f6d2bc8	0.9264493
48	0x3f6d89ec	0.9278858
49	0x3f8ee3aa	1.1163228
50	0x3f68ca2f	0.9093351
51	0x3f888fd2	1.066889
52	0x3f7d91a0	0.9905033
53	0x3f8265e4	1.0187345
54	0x3f6c1edc	0.9223459
55	0x3f725f87	0.94677013
56	0x3f76b10d	0.9636391
57	0x3f887752	1.0661414
58	0x3f80cd34	1.0062623
59	0x3f8976ac	1.0739341
60	0x3f935a06	1.1511848
61	0x3f692ade	0.91081035
62	0x3f77e036	0.96826494
63	0x3f834fe0	1.0258751

network.5.bias f4 [64]
0	0x3d17a31f	0.0370208
1	0xbcc11c39	-0.023573028
2	0x3dbdddbe	0.092708096
3	0x3c220639	0.009889179
4	0x3d975fd6	0.07391326
5	0x3ca52c5d	0.020162756
6	0xbd942b62	-0.07234837
7	0x3d77ba6b	0.060480516
8	0x3ca7176c	0.02039691
9	0x3e2d7629	0.16939606
10	0xbd539c35	-0.051662643
11	0x3cb8c6d6	0.02255575
12	0xbc94b98a	-0.018154878
13	0xbe0e4338	-0.1389283
14	0xbc950438	-0.018190488
15	0xbdf08529	-0.11744148
16	0x3d8b07bf	0.06788587
17	0x3b8580be	0.004074185
18	0xbdb26058	-0.08709782
19	0xbd65e165	-0.056123156
20	0xbdef611c	-0.11688444
21	0xbd206583	-0.03915931
22	0x3dd03f8f	0.10168373
23	0xbc8c4824	-0.017124243
24	0xbe00eaf3	-0.12589626
25	0xbe013709	-0.1261865
26	0xbde8b925	-0.113634385
27	0xbcf1b03f	-0.029502986
28	0x3a8e89e8	0.001087484
29	0x3c9efba1	0.019407095
30	0xbd550393	-0.05200536
31	0xbacde008	-0.0015707025
32	0x3d8ea47a	0.06964965
33	0xbcc0229b	-0.023454001
34	0xbdd7c3dc	-0.10535404
35	0xbce20737	-0.02759133
36	0xbdcaa29d	-0.09894297
37	0xbb31a613	-0.0027107045
38	0xbbdbc4ba	-0.0067068012
39	0xbc9fb021	-0.019493164
40	0xbb3700b8	-0.0027924012
41	0xbd41bf8c	-0.047301814
42	0x3caf6a35	0.021412948
43	0xbb427366	-0.0029670834
44	0x3ddbff7a	0.10742088
45	0xbd189711	-0.037253443
46	0xbd2cf620	-0.04222691
47	0xbd335cc1	-0.04378963
48	0xbe0103a3	-0.12599044
49	0x3d8e9cb0	0.069634795
50	0xbda71430	-0.08158147
51	0x3d969d45	0.073542155
52	0x3c2811f3	0.010258186
53	0x3c42d8b3	0.011892485
54	0x3bb816b4	0.005617941
55	0xbda473a1	-0.08029867
56	0xbda847a1	-0.08216787
57	0x3da9f19c	0.082980365
58	0xbc64a0e1	-0.013954372
59	0x3d50d87e	0.050987713
60	0x3e08d36c	0.13361901
61	0xbd2bb433	-0.0419199
62	0xbcac4cd7	-0.021032734
63	0xbb5320ab	-0.0032215517

network.5.running_mean f4 [64]
0	0x3d0e09ef	0.034677442
1	0xbd4692fd	-0.048480023
2	0xbeba2550	-0.36356592
3	0x3f67a50b	0.9048621
4	0x3f3eed2f	0.74580663
5	0x3f396310	0.7241678
6	0x3f995e5e	1.1981924
7	0x3f392548	0.7232251
8	0xbf069a9f	-0.52579683
9	0xbd93dd40	-0.072199345
10	0xbf327f55	-0.69725543
11	0xbf351378	-0.7073283
12	0xbea35979	-0.319042
13	0x3fcc8c5f	1.5980338
14	0xbfa033d7	-1.251582
15	0x3e2f0650	0.17092252
16	0xbd35e1f5	-0.044404943
17	0x3dd0d8ae	0.10197578
18	0x3f946188	1.1592264
19	0xbfb2eb5e	-1.3978078
20	0xbf74210e	-0.9536294
21	0xbf3971a4	-0.72439027
22	0x3e6063f8	0.21913135
23	0x3efd5e72	0.4948612
24	0x3f7071c9	0.9392362
25	0xbf8130a3	-1.0092968
26	0xbecb8757	-0.39751694
27	0x3f40501f	0.75122255
28	0x3e73b9de	0.23801371
29	0xbf309701	-0.68980414
30	0x3fd91da4	1.6962171
31	0xbee6d1a3	-0.45081815
32	0x3caa2bdf	0.020772872
33	0xbf23359b	-0.6375367
34	0xbfd5a50a	-1.6690991
35	0xbfda8f5a	-1.7074997
36	0xbf6e6128	-0.93117
37	0xbf2445e3	-0.6416914
38	0xbf92c06e	-1.1464975
39	0xbf8c0720	-1.0939674
40	0xbf28894b	-0.6583449
41	0x3eef6521	0.46756843
42	0x3ef07b4c	0.46969068
43	0x3fbf69e9	1.4954196
44	0xbf438b97	-0.7638487
45	0xbe2dcc13	-0.1697238
46	0xbeebf5e2	-0.4608603
47	0xbf1eab69	-0.619803
48	0xbed2282a	-0.41046268
49	0x3cee9135	0.029121974
50	0xbf1d023a	-0.6133152
51	0xbf031d15	-0.5121625
52	0xbeb7ed6b	-0.35923323
53	0x3f827ff0	1.0195293
54	0x3f26cf4a	0.6516005
55	0xbd0b2bb4	-0.033977225
56	0xbeaad668	-0.33366704
57	0xbf0e613e	-0.5561713
58	0x3f4a8c0f	0.7911996
59	0x3f844fd4	1.0336862
60	0x3f147b2f	0.58000463
61	0xbf178ace	-0.59196174
62	0xbf5a6d3d	-0.85322934
63	0xbd70a417	-0.05875024

network.5.running_var f4 [64]
0	0x40739fde	3.8066325
1	0x40226c0d	2.537845
2	0x4030bdd7	2.761587
3	0x4074aa89	3.8229086
4	0x40239a64	2.5562983
5	0x40a56c7c	5.1694927
6	0x4087a073	4.238336
7	0x4070ebfe	3.7644038
8	0x40359d78	2.8377361
9	0x40c00ccc	6.001562
10	0x3fb1122a	1.3833668
11	0x40b91985	5.784365
12	0x4026edfa	2.608275
13	0x40b54282	5.6643686
14	0x405e08f0	3.4692955
15	0x406a3e26	3.6600432
16	0x401349e2	2.3013844
17	0x4010e70d	2.2641022
18	0x40166a5d	2.350242
19	0x3fe4b94f	1.7869052
20	0x3fd51289	1.6646281
21	0x3fd858c5	1.690209
22	0x406b6261	3.6778796
23	0x4064ef3f	3.5771024
24	0x4041b32b	3.0265605
25	0x3f9e4487	1.2364663
26	0x3f908f07	1.1293648
27	0x400dfb92	2.2184796
28	0x406532ff	3.5812376
29	0x40e7372f	7.2254863
30	0x40e0a8e5	7.020617
31	0x4029a986	2.650972
32	0x40ae3959	5.4445004
33	0x3fe6a851	1.8020116
34	0x4036479f	2.8481214
35	0x40819d81	4.0504766
36	0x405fdc46	3.4978194
37	0x40284a6b	2.629542
38	0x40754e69	3.8329108
39	0x40187f9c	2.3827887
40	0x40206706	2.506288
41	0x4050241c	3.252204
42	0x40578265	3.3673337
43	0x40e28231	7.0783925
44	0x406cedc3	3.7020118
45	0x400f50e3	2.239312
46	0x405dc07e	3.4648738
47	0x40484118	3.128973
48	0x3f9cd99d	1.225391
49	0x3fda2fb9	1.7045814
50	0x3fa47a0b	1.2849745
51	0x3fc58641	1.5431596
52	0x4066e06d	3.6074479
53	0x400ae4c8	2.1702137
54	0x40445b78	3.0680828
55	0x40373b84	2.8630075
56	0x3fc0887a	1.5041649
57	0x4034bc45	2.823991
58	0x40632d05	3.5496228
59	0x4085e95c	4.1847363
60	0x40aac507	5.336551
61	0x41117cfd	9.093015
62	0x3fd23da4	1.6425061
63	0x3fd18d90	1.6371326

network.8.weight f4 [32, 64]
0	0xbe851aaa	-0.25996906
1	0x3e13f45f	0.14448689
2	0xbe42bc40	-0.19017124
3	0x3df1e9bc	0.118121594
4	0x3dad6c3a	0.08467908
5	0xbe3b51a9	-0.1829287
6	0xbdb8ada1	-0.09017492
7	0x3d4f56ff	0.050620075
8	0xbe43891d	-0.19095273
9	0xbe8acf31	-0.271112
10	0xbc8f3bf0	-0.017484635
11	0xbe3fb5d7	-0.1872171
12	0xbd1358ef	-0.035973486
13	0x3e39bd11	0.1813853
14	0x3e35543c	0.17707914
15	0x3de33f0e	0.11096011
16	0xbdb3677f	-0.08759975
17	0xbe9e620d	-0.30934182
18	0x3d9303c9	0.07178456
19	0x3dc23dcb	0.09484442
20	0xbde2f2c0	-0.11081457
21	0xbd161f57	-0.03665098
22	0xbe6eb6d2	-0.23311928
23	0x3ce88af2	0.028386567
24	0xbc885826	-0.016643595
25	0x3dff46e4	0.12464693
26	0x3ddf348e	0.10898696
27	0x3e558c2d	0.20854254
28	0xbdb94d7c	-0.09047982
29	0x3d92cc7e	0.0716791
30	0xbe4e1ab5	-0.20127375
31	0xbd26be81	-0.040709022
32	0xbe351c1a	-0.17686501
33	0xbe691eb8	-0.22765625
34	0xbda035e3	-0.07822778
35	0x3d9744b2	0.073861495
36	0x3dedafc1	0.11605788
37	0xbe2df938	-0.169896
38	0xbe0cbb78	-0.13743389
39	0xbd89ab42	-0.06722118
40	0xbdf219b4	-0.11821309
41	0xbdee7eb6	-0.11645262
42	0x3d97760b	0.07395562
43	0xbe0bdfbb	-0.13659565
44	0x3d6f91ff	0.058488842
45	0xbdd9c5b5	-0.10633413
46	0x3e1566e2	0.14590028
47	0xbdc34a52	-0.0953566
48	0xbe3addb1	-0.18248631
49	0xbde71731	-0.1128372
50	0x3e0eb0fe	0.13934705
51	0xbe223ea7	-0.15844212
52	0x3cb4fb77	0.022092564
53	0x3ccb673a	0.024829496
54	0x3c8a257d	0.016863579
55	0x3db835f0	0.08994663
56	0x3d7b147c	0.061298832
57	0x3e031421	0.12800647
58	0xbe34b1e5	-0.17645986
59	0x3e65bd7a	0.22435561
60	0xbe1e154e	-0.15437815
61	0x3dfb6787	0.12275606
62	0x3ddaa4f7	0.10675996
63	0xbe519a3c	-0.20468992
64	0x3de5a43a	0.11212964
65	0xbe624c6d	-0.22099467
66	0xbeb0a5fd	-0.3450164
67	0x3db41340	0.08792734
68	0xbc7cf956	-0.015440306
69	0xbea0f5a7	-0.31437418
70	0xbd84ed74	-0.06490603
71	0xbe8d0064	-0.2753936
72	0x3e5c82ff	0.21534346
73	0x3d221461	0.039570216
74	0xbdd57eaf	-0.104245536
75	0xbe6d6620	-0.23183489
76	0x3d88da60	0.06682277
77	0x3d8d2282	0.068913475
78	0x3abd7fc5	0.0014457634
79	0x3d1ed943	0.038781416
80	0x3e31b7ba	0.17355242
81	0xbe0f7722	-0.1401029
82	0x3ce84297	0.028352065
83	0x3c789035	0.0151711
84	0x3d24260b	0.040075343
85	0xbe04a6e6	-0.12954292
86	0x3e3c5e22	0.18395284
87	0x3d5c021e	0.053712957
88	0xbe62a954	-0.22134906
89	0x3cc04988	0.023472562
90	0x3d689652	0.05678398
91	0x3e368223	0.1782308
92	0xbe8131f1	-0.25233415
93	0x3e05d211	0.13068415
94	0xbe9812f0	-0.29701948
95	0x3df5ecd9	0.12008066
96	0x3d3b9714	0.045798376
97	0x3dc2efa8	0.09518367
98	0xbdb0afee	-0.08627306
99	0xbe1e10c0	-0.15436077
100	0xbe70a25a	-0.23499432
101	0x3e8e178a	0.27752334
102	0xbd9f7dd7	-0.07787674
103	0xbca09982	-0.019604448
104	0x3e323b38	0.17405403
105	0xbe0cd4ec	-0.13753098
106	0xbdbbf009	-0.091766424
107	0x3c2fe923	0.0107367365
108	0x3df5fea8	0.120114625
109	0x3d131bdf	0.03591525
110	0x3e20750a	0.15669647
111	0x3d628745	0.055304784
112	0x3da7b382	0.08188535
113	0xbe4d3d11	-0.20042826
114	0x3e242c85	0.16032608
115	0x3dd61f85	0.104552306
116	0xbe092b80	-0.133955
117	0xbd3afd23	-0.045651566
118	0x3e3608b6	0.1777676
119	0x3dba7443	0.091042064
120	0xbe242270	-0.16028762
121	0x3e1b5f7b	0.15173142
122	0xbd9fd36e	-0.07803999
123	0x3d2a2af1	0.04154486
124	0x393992b1	0.00017697622
125	0x3d4d9ecb	0.050200265
126	0x3daa126a	0.083042935
127	0xbd51621b	-0.05111895
128	0x3e819f53	0.25316867
129	0x3db3b82b	0.087753616
130	0x3de32f5f	0.1109302
131	0x3dfbf343	0.12302258
132	0x3e060d11	0.13090922
133	0x3e80f9f5	0.25190702
134	0x3dd21e4b	0.10259684
135	0xbc96ea16	-0.018422168
136	0xbbfd4f33	-0.0077303885
137	0x3e13a4f7	0.14418398
138	0xbe893ff4	-0.26806605
139	0x3e38d4f1	0.1804998
140	0x3def6178	0.116885126
141	0x3dae2450	0.0850302
142	0xbe056f91	-0.1303084
143	0x3dc464cc	0.09589538
144	0xbd97ca05	-0.07411579
145	0xbd979975	-0.074023165
146	0xbe09f27b	-0.13471405
147	0xbda97c4c	-0.08275661
148	0x3de254e4	0.11051348
149	0xbe1cf35e	-0.15327212
150	0x3e82cd23	0.25547132
151	0xbce4ceeb	-0.027930697
152	0x3e66e739	0.22549142
153	0x3dbca2fa	0.09210773
154	0x3e4d3f18	0.200436
155	0xbe125b7a	-0.14292708
156	0x3e1d96bc	0.15389532
157	0x3e49a3d0	0.19691396
158	0x3d6bc18b	0.057557624
159	0x3e96b8d0	0.29437876
160	0xbe3bbcab	-0.1833369
161	0x3e405ba5	0.1878496
162	0xbd33a916	-0.043862425
163	0xbd7a9c4e	-0.06118422
164	0xbdd52bce	-0.10408746
165	0x3def724e	0.11691724
166	0x3c95ac8e	0.018270757
167	0x3d8b5f68	0.06805307
168	0x3e4f71dc	0.20258278
169	0x3e6deb21	0.23234226
170	0x3d640e0e	0.055677466
171	0xbd997a3a	-0.07494016
172	0x3e294fa7	0.16534291
173	0xbd5b7176	-0.053575
174	0x3e12218e	0.14270613
175	0x3de884b5	0.11353437
176	0x3ea5f5ad	0.32413998
177	0x3e3d6f5f	0.18499516
178	0xbd947486	-0.072487876
179	0x3e92c803	0.28668222
180	0xbd12380a	-0.035697974
181	0xbde24ec4	-0.110501796
182	0x3e31f8f0	0.17380118
183	0x3dea61cf	0.11444437
184	0x3e93a1ad	0.28834286
185	0x3d7a09c5	0.061044473
186	0x3df11b3c	0.11772773
187	0xbbfb03ad	-0.0076603503
188	0xbcf849ac	-0.030308567
189	0x3de49f66	0.11163215
190	0xbe64f489	-0.22358908
191	0x3e67ef9f	0.22650002
192	0x3de83307	0.11337858
193	0xbe40f622	-0.18843892
194	0x3e1ee72e	0.15517876
195	0xbd448a94	-0.04798372
196	0xbd5c2587	-0.053746726
197	0xbd379ef5	-0.044829328
198	0x3d7733ca	0.060352124
199	0x3e47965a	0.19490948
200	0xbe4bbba0	-0.19895792
201	0x3e4b1570	0.19832397
202	0xbdd1b6f0	-0.10239971
203	0x3e003ab3	0.12522392
204	0xbe84d3f4	-0.25942957
205	0xbdfae302	-0.122503296
206	0x3d907419	0.07053394
207	0x3d70fe76	0.058836423
208	0x3dc51714	0.096235424
209	0x3d80dc35	0.06292001
210	0x3d519f61	0.051177386
211	0xbe1c7eb7	-0.15282713
212	0xbb7446e0	-0.003727369
213	0x3da06d12	0.078333035
214	0x3e58d6f1	0.21175744
215	0xbe301352	-0.1719487
216	0xbd905fed	-0.070495464
217	0xbe5eafeb	-0.21746795
218	0x3e53b45a	0.20674267
219	0x3d93cdc2	0.072169796
220	0xbc91823c	-0.017762296
221	0x3e6eeed4	0.23333293
222	0x3dd83276	0.105565
223	0xbdb9d72c	-0.09074244
224	0xbe966e60	-0.29381084
225	0xbe4c2fc3	-0.19940095
226	0xbdc0e14e	-0.094179735
227	0x3d894062	0.06701733
228	0xbe0f6a55	-0.14005406
229	0x3e26ce18	0.16289556
230	0x3d3ac871	0.045601312
231	0xbd9e6899	-0.07734794
232	0x3e63b8af	0.2223842
233	0xbd968036	-0.07348673
234	0x3da6e40a	0.08148964
235	0x3db4a2c8	0.088201106
236	0x3dac2745	0.084059276
237	0x3d350461	0.04419363
238	0x3e8247b9	0.25445345
239	0x3d94ba66	0.07262115
240	0xbd463523	-0.04839052
241	0xbd955991	-0.07292474
242	0xbd65b335	-0.05607911
243	0x3dc48704	0.09596065
244	0xbed6a927	-0.41925928
245	0xbe1e14ea	-0.15437666
246	0x3da2fb06	0.07958035
247	0xbe868142	-0.2627049
248	0x3e191706	0.14950189
249	0x3d46c904	0.048531547
250	0xbe82bdf0	-0.25535536
251	0xbe0a6842	-0.13516334
252	0xbdf59899	-0.11991996
253	0xbeacf58c	-0.33781087
254	0xbe06debe	-0.13170907
255	0xbd02ec44	-0.0319636

network.8.bias f4 [32]
0	0x3b7fcb90	0.0039031245
1	0xbbd8db33	-0.0066179275
2	0xbbd4fd6a	-0.006499936
3	0xbbce4f85	-0.0062961006
4	0xbb217c01	-0.0024640562
5	0xbb08ba57	-0.002086302
6	0x3bdbb4d2	0.006704905
7	0xbae5a03e	-0.0017519069
8	0xbb6a13c6	-0.0035717352
9	0x3c3f9b04	0.011694673
10	0x3b7fe0db	0.0039043936
11	0x3c445390	0.0119828135
12	0xbba348ae	-0.0049830293
13	0x3ab9a445	0.0014163336
14	0x3c1605db	0.0091566695
15	0x3bfb48a2	0.0076685706
16	0xba7aa4e1	-0.0009561312
17	0xbb477d76	-0.003043977
18	0xbbf5ada1	-0.007497505
19	0x3b842e27	0.004033822
20	0x3ba5d8de	0.005061253
21	0x3b6b2e84	0.003588588
22	0x3bd63dc5	0.006538125
23	0x3be41325	0.00696029
24	0xbb088fea	-0.0020837733
25	0xba43135a	-0.0007441543
26	0x3c35ddf2	0.011100279
27	0x3b9c5bea	0.004771699
28	0xbb218713	-0.002464716
29	0x3c2385fb	0.009980674
30	0xbb3598e5	-0.002770954
31	0x3b3fb972	0.002925482

network.9.weight f4 [32]
0	0x3f4cf2cd	0.80057985
1	0x3f586844	0.84534097
2	0x3f49552e	0.786456
3	0x3f3cce23	0.7375204
4	0x3f49e2f9	0.7886196
5	0x3f61893c	0.8810003
6	0x3f528204	0.8222964
7	0x3f40dbea	0.7533556
8	0x3f55fe7f	0.83591455
9	0x3f586cbb	0.8454091
10	0x3f600292	0.8750392
11	0x3f3a5976	0.72792757
12	0x3f5709aa	0.8399912
13	0x3f550b54	0.8322041
14	0x3f4449ab	0.7667491
15	0x3f3a362e	0.7273892
16	0x3f4eb589	0.8074575
17	0x3f677ca1	0.90424544
18	0x3f5646c9	0.8370176
19	0x3f409dfc	0.75241065
20	0x3f444f3b	0.76683396
21	0x3f24e1b0	0.6440687
22	0x3f498504	0.7871859
23	0x3f511019	0.8166519
24	0x3f59c7b2	0.85070336
25	0x3f4fbef4	0.81150746
26	0x3f67fd98	0.9062133
27	0x3f3e5689	0.7435079
28	0x3f32a5ec	0.69784427
29	0x3f35c814	0.7100842
30	0x3f4604a0	0.7735081
31	0x3f26d8fd	0.6517485

network.9.bias f4 [32]
0	0xbd922cd2	-0.07137455
1	0xbe36336e	-0.17793056
2	0x3dcfcb3b	0.10146185
3	0xbc862d27	-0.016378952
4	0xbc487f5f	-0.012237399
5	0xbc81e848	-0.01585783
6	0xbea243a6	-0.31692237
7	0xbdb7df2f	-0.08978116
8	0xbc6cf94a	-0.014463732
9	0x3b7f6853	0.0038972094
10	0xbe6c9675	-0.2310427
11	0xbe70f65c	-0.23531479
12	0xbd6429a4	-0.055703774
13	0xbc74e2b8	-0.014946632
14	0xbe0f65df	-0.14003704
15	0xbe4f49dc	-0.20243019
16	0xbddf712d	-0.109102584
17	0xbdad1ad7	-0.08452385
18	0xbe4829ea	-0.19547239
19	0xbd2ee0b6	-0.04269477
20	0xbe14b9c7	-0.14523993
21	0xbecc80c7	-0.39942
22	0xbd7fe652	-0.06247551
23	0xbc21a87b	-0.009866829
24	0xbe19449a	-0.14967576
25	0xbd0e6641	-0.034765486
26	0xbdb5f6d2	-0.08884968
27	0xbca19e82	-0.019728903
28	0xbdc6dd8c	-0.097102255
29	0xbe009929	-0.12558426
30	0xbdc1074d	-0.09425221
31	0xbeb84cdf	-0.35996148

network.9.running_mean f4 [32]
0	0xbf65b6ed	-0.8973225
1	0xbe6be654	-0.23037082
2	0x3fd3ebee	1.6556375
3	0xbe9ba72e	-0.30400985
4	0xbfc00517	-1.5001553
5	0xbe8e768c	-0.2782482
6	0xbf0bf5e0	-0.5467205
7	0xbe546c66	-0.20744476
8	0x3f06fa42	0.52725613
9	0xbfec89f3	-1.8479599
10	0xbf8c7c4c	-1.0975432
11	0xbf575755	-0.84117633
12	0xbf93bd3f	-1.1542128
13	0xbfbc8997	-1.4729489
14	0xbfc9d8e5	-1.5769316
15	0xbf9c7d84	-1.2225804
16	0xbf80c492	-1.0059988
17	0xbf204581	-0.62606055
18	0xbf5c86aa	-0.8614298
19	0x3d11b826	0.03557601
20	0xbf0cbb88	-0.5497365
21	0xbf7697cd	-0.9632538
22	0xbf9d392a	-1.228307
23	0xbf7a2b30	-0.9772215
24	0xbeb9f51d	-0.3631982
25	0xbfa9d744	-1.3268819
26	0xbf86f8a1	-1.0544626
27	0xbfbb6c07	-1.4642342
28	0xbfaba9bc	-1.3411174
29	0xbfbd0c29	-1.4769336
30	0xbf813f78	-1.0097494
31	0xbe8d7098	-0.27624965

network.9.running_var f4 [32]
0	0x40406402	3.006104
1	0x3fb84542	1.4396136
2	0x40e356ec	7.1043606
3	0x40608a47	3.5084398
4	0x40765577	3.8489664
5	0x40447d29	3.0701392
6	0x403917e5	2.8920834
7	0x408cc5ba	4.3991365
8	0x40536a34	3.3033571
9	0x40f47e53	7.6404204
10	0x408939ee	4.2883215
11	0x40c4dba5	6.151812
12	0x40b03702	5.506715
13	0x405cac06	3.4479995
14	0x40fe0bd7	7.9389453
15	0x4083fd34	4.1246586
16	0x40440b83	3.0632026
17	0x40a2302b	5.06838
18	0x405281db	3.2891757
19	0x40909e78	4.5193443
20	0x4050825c	3.2579565
21	0x406a52e3	3.661309
22	0x40ae87ff	5.454101
23	0x4068e610	3.639042
24	0x402c5a9e	2.6930308
25	0x409faa71	4.989556
26	0x407dcd2b	3.9656475
27	0x406b892e	3.6802478
28	0x404e2dca	3.2215447
29	0x40e94d34	7.290674
30	0x405487d3	3.32079
31	0x3feceab9	1.8509132
