soil_salinity_multi_sensor/outputs/models/stage1/stage1_epoch_60.pth (torch, 72297 bytes, 20 tensors)

network.0.weight f4 [128, 36]
00000000: f356 30bf cb59 dfbe f8df 6cbf 70cf 24bf
00000010: a59a f6bc b87d b63c d616 0f3e 373d aa3d
00000020: f74f 2f3e 6fa5 993c 4ca8 8bbe c0e6 2abe
00000030: e0eb 0f3e d600 f23d a282 4f3d 9762 12bd
00000040: 6053 d8be ca40 6ebf e01a 0fbf 74bd 68bf
00000050: 2f98 713d 4a1a debc 30a6 323d 1893 243d
00000060: fc6e a4be a0da 80be 3012 383e be2a c93a
00000070: d34d e0bd aaa7 60be 7d52 623d 7718 d1bd
00000080: 712a 3c3d a1e6 633d ed2e 9a3d 4186 343e
00000090: 163d a6bd 5c72 a6bd 0eb2 903d b715 57bd
000000a0: f8db cdbd bebf f2bd f922 993d de61 e3bd
000000b0: 9726 acbd 9f3e b4bd a5f0 36be 86ca d13c
000000c0: 5e27 13be 928b 96bb a784 0fbe 854b 203d
000000d0: 57db 7fbd 7426 d7bd c767 573e a4c9 443e
000000e0: 0e88 223e b091 ad3d 20b4 8a3d c15a 5f3e
000000f0: 8039 f5bd 7849 b3bd da38 0cbd 341f aebc
00000100: 1e09 a7bd 9b41 403e b78f d53d 6a35 f6ba
00000110: 0b87 123e c82f 3bbe 3884 9ebd 5e21 39be
00000120: 0122 753e a5c7 773e 7791 c4bd f05e 0fbe
00000130: cf44 5fbe 204f 14be 4768 bdbd 805a 213e
00000140: 8b5b f43d cddb 373e 12b6 b93d 1dd1 4d3e
00000150: bc41 2fbe 60dc 623b a8d0 543e df61 63bd
00000160: 4765 81bd a3a3 b33d 72b1 97bd c9bf 4d3e
00000170: 1caf b13d c2a3 4d3d 7b6e ebbd b148 003e
00000180: 550a 4fbc 5e3b b2bd c03a f8bd 9ac0 4bbe
00000190: 9eb0 26bc 7666 0cbe 917d 25bd 261b 493e
000001a0: 34e6 3bbe be7a c93b ecf2 9ebd 1601 0bbe
000001b0: f254 7e3d c040 173e 9621 3b3d cdb8 473d
000001c0: 360a 0c3e 328b 583e 7908 193e 3333 ef3d
000001d0: baf0 7d3e 97b8 3c3e 798e a03d 2ea2 43bd
000001e0: e25a 893e 9467 2bbd 0178 1bbd 7c22 3d3e
000001f0: 94ef 1d3d ea86 293e 4bff 543e 265c 9b3d
00000200: 63b0 1abe 07e6 4fbd 0d07 41be 15d7 15be
00000210: d602 573d b130 31bd d250 0a3e a319 fbbd
00000220: 23dc 86bd 0fdd 183e cdc6 aabe 3f7b 983e
00000230: 6942 d6bd c803 dd3c e200 e63c f8c8 f03d
00000240: 772a de3e 8b14 b43e f863 c23e 54da c73e
00000250: db36 6e3d 9e37 633d fe8b 3b3e 2cff 183d
00000260: 6bcc 8f3d 32d7 4d3e 8e51 b53e 9e2e 953e
00000270: 64ab d13d f447 bf3c 8e8c ed3d 4343 c6bd
00000280: e66b 5a3e 0158 4e3e 1764 fd3e 21f9 8e3e
00000290: cc9b e6bd 7686 fbbd 5891 c03c e2b4 3abd
000002a0: 0509 1d3e 3913 2e3e 0381 52bd 9ab8 ae3d
000002b0: 5791 603e 3892 edbd e15b b6be 530e 843e
000002c0: d183 c1bc ae51 593d ac5e 8bbe b366 d8bd
000002d0: b0ce adbe 4899 a5be bfae 8bbe 5c0b cebe
000002e0: 018d 06be 6805 dcbd b669 bb3a 67fe fbbd
000002f0: a242 f8be e0f9 c53c 5207 aebe d23a adbe
00000300: 963c 24bf b7fe 75be cc76 1ebe 76a1 253d
00000310: ce9d 96be 7e64 adbe b2bf dabe 79e5 27bf
00000320: acfb 0c3e 9806 16bd 2fd1 c8bc ac2b ddbc
00000330: e6a1 11bf e36b 87be 4e99 86be 4d44 f23d
00000340: e3a0 f3bd dd34 06be 5b54 963e a705 17bd
00000350: 785f f3ba d579 d4bd 9ec7 6e3e bd38 023e
00000360: f6cb a6bc 0833 60bc b11a 36bd d14d 0fbe
00000370: 7ba2 cdbd ac2b cbbd 18b2 2ebe 8aa8 48bc
00000380: a9c7 133e 3096 6b3d a5c1 bf3d e554 fc3c
00000390: 696b 113e c771 513e 4710 7cbd 774a 493c
000003a0: 2126 0fbe 687f 8bbe 51dd b0bd 26ad b3be
000003b0: 1ee8 d6bd 114e a5bb 89b3 d53d 0cdd 9e3d
000003c0: e37a 35be f3d4 ce3c 4cfa 8bbd 68dc d83c
000003d0: d46d 82bd 3656 1dbe 30c1 a83d c9d3 0ebe
000003e0: 3e36 42be 05b8 30be 4389 abbd f00c 2bbe
000003f0: fb9f 93be 6ef8 dfbd c430 a2be 3728 8cbe
-0.68882674 -0.43623194 -0.9252925 -0.64379025 -0.030103037 0.022276744 0.13973555 0.08312457
0.17120348 0.018755643 -0.27276838 -0.16689587 0.14054823 0.11816566 0.05066169 -0.035738554
-0.4225111 -0.9306761 -0.55900383 -0.9091408 0.058983024 -0.027112145 0.04361552 0.040179342
-0.32115924 -0.25166798 0.17975688 0.0015347821 -0.10952344 -0.21938959 0.05525445 -0.102097444
0.045938913 0.055639867 0.07528482 0.17629339 -0.0811712 -0.08127281 0.07065211 -0.052510943
-0.10051721 -0.11852978 0.07477374 -0.11102651 -0.08405798 -0.088010065 -0.17865236 0.025609266
-0.14370486 -0.004594275 -0.14015447 0.03913452 -0.06246504 -0.10505381 0.21035682 0.19217545
0.15872213 0.08475053 0.06772637 0.21811964 -0.11973858 -0.087542474 -0.034233905 -0.021255113
-0.08156036 0.18775027 0.10427802 -0.0018784229 0.14309327 -0.18279946 -0.077400625 -0.18079135
0.23938753 0.24197252 -0.09598058 -0.1400106 -0.21803592 -0.14483309 -0.09248405 0.1575718
0.11931523 0.17954941 0.0906793 0.20099302 -0.1711492 0.0034616217 0.20782721 -0.05551326
-0.06318145 0.087714456 -0.07406892 0.20092691 0.086759776 0.050205 -0.11495682 0.1252773
-0.012636741 -0.0870273 -0.12120581 -0.1989769 -0.010173945 -0.13710961 -0.040402953 0.19639263
-0.18349534 0.006148665 -0.077611774 -0.13574633 0.06209273 0.14770794 0.045686327 0.048760224
0.1367577 0.21146849 0.14944638 0.11679687 0.24798861 0.1842979 0.078396745 -0.04776209
0.2682715 -0.041846827 -0.03795624 0.18470186 0.038558558 0.16555372 0.20800512 0.07585935
-0.15106349 -0.05075648 -0.18850346 -0.14632829 0.05249294 -0.043259326 0.13507393 -0.12260749
-0.065849565 0.14928077 -0.33354798 0.2978153 -0.104618855 0.026979342 0.028076593 0.11757082
0.43391773 0.35171923 0.37966895 0.3903376 0.058157783 0.055472963 0.18315122 0.037352726
0.070214115 0.20101622 0.35413784 0.2913713 0.10237768 0.02334974 0.11599074 -0.09680798
0.21330222 0.20150758 0.49490425 0.27924445 -0.11260185 -0.12281506 0.023506805 -0.04558266
0.15335472 0.1699952 -0.051392566 0.08531304 0.21930443 -0.11600155 -0.35616973 0.2579218
-0.023622425 0.05305641 -0.27220666 -0.10566463 -0.33946753 -0.32343507 -0.27281758 -0.40243042
-0.13139726 -0.10743219 0.0014298472 -0.12304383 -0.48488337 0.024167001 -0.3398996 -0.3383394
-0.64154947 -0.24022947 -0.15475005 0.040437184 -0.2941727 -0.33865732 -0.42724377 -0.6558452
0.1376788 -0.036627382 -0.024513809 -0.026998363 -0.5688766 -0.264495 -0.26288837 0.118294336
-0.11895921 -0.13106103 0.29361233 -0.036870625 -0.0018567881 -0.103748 0.23318335 0.12716956
-0.020360928 -0.013684042 -0.04445905 -0.13994528 -0.10040756 -0.09920439 -0.17060125 -0.012247214
0.14431633 0.057516277 0.09363107 0.0308022 0.1420113 0.20453559 -0.06153896 0.01228582
-0.13979389 -0.2724564 -0.08635963 -0.3509304 -0.104934916 -0.0050447066 0.10434634 0.07757005
-0.17722659 0.025248026 -0.0683485 0.026472285 -0.06368604 -0.15364918 0.082399726 -0.13947977
-0.18966004 -0.17257698 -0.0837579 -0.16704154 -0.28832993 -0.10936056 -0.3167783 -0.27374431

network.0.bias f4 [128]
00000000: b006 2a38 4ad4 f0b8 9b86 ac38 eace 7f39
00000010: a8a3 7c39 3cc9 7e39 4703 9a3a febf 1838
00000020: a649 6538 d60e 8239 2ca0 7039 f350 7238
00000030: ad70 00b7 0fa2 0a3a 9997 a539 f0dc 4db9
00000040: 37ad 28b8 d52d 1139 fe35 8fb8 116f 0239
00000050: 330e 5f39 f7ca 73b8 b67c 4139 864d 37b8
00000060: af9d faba 04d9 6c38 0613 1739 948c 7437
00000070: 61ab 2b39 5244 69b8 3376 3739 c143 9db8
00000080: c24b b8b6 cb9f 1aba 9363 5d38 0a95 61b8
00000090: b9e1 ba37 2c8a 4638 1ab3 36b7 41d8 1a39
000000a0: 994e a03a b518 94b7 7cee 0637 6649 ba37
000000b0: a346 5a39 5790 21b9 d27c 5a39 6f96 35b7
000000c0: d739 0b38 9f87 f539 c5c1 9b39 0917 bc38
000000d0: 2f5d 7239 3468 46ba 5984 3ab9 9ebb 7d39
000000e0: 2885 b638 3d52 73b8 b253 5634 57f9 3dba
000000f0: 1f4d 06b9 ecc3 beb8 38b3 b0b8 0bfa 553a
00000100: 105d f9b7 db90 66b9 6b3e a3b9 d8d4 0d3a
00000110: 7609 a8b9 550e 9d38 d52e 643a 5479 81b7
00000120: 9bdb 8338 2603 a6ba 4c47 9fba dc88 423a
00000130: f868 f6b7 c370 0cb8 aecc 9038 7034 1bb9
00000140: 3390 b737 2052 1e3a 0552 1fb6 651e 8bb9
00000150: 9e7b d23a 6fe2 30b8 4e7b c939 f634 af38
00000160: 094f f8b7 c20f 0738 77af 2e38 6f3f 15b8
00000170: 0921 16b8 9d0e 9539 34f8 8fb9 af2a 553a
00000180: 755a 4e39 8029 5ebb 3caa 9d39 a579 01b8
00000190: 4980 0638 e6b9 03ba 5d7e 0eba b8ae bb37
000001a0: 7876 ccb8 c5b9 8f39 8fc3 1aba 944b b7b8
000001b0: 5464 4a39 d9a6 9cb8 ad87 ecb8 e46a 28ba
000001c0: acf7 ec38 2fd9 3f38 5c2f 3c39 214e da38
000001d0: 0478 7638 b4fc 4bb8 9ba0 1bb9 0c4e d2ba
000001e0: 2b42 5238 04b3 0539 2d54 11b8 77a7 5539
000001f0: 4796 98b9 fbdf 3d37 3564 4537 d0c1 a539
4.0537387e-05 -0.00011483634 8.226671e-05 0.00024395777 0.0002409356 0.00024298293 0.0011750244 3.641843e-05
5.4666445e-05 0.00024806586 0.00022947852 5.7772686e-05 -7.655629e-06 0.0005288431 0.00031584201 -0.00019632629
-4.021564e-05 0.00013845351 -6.828828e-05 0.00012439142 0.00021272227 -5.812474e-05 0.00018452373 -4.37028e-05
-0.001912048 5.6468896e-05 0.00014407569 1.4576264e-05 0.00016371674 -5.5615157e-05 0.00017496273 -7.4989635e-05
-5.4924467e-06 -0.0005898445 5.278324e-05 -5.3782984e-05 2.2278038e-05 4.733556e-05 -1.0889746e-05 0.00014767145
0.0012230455 -1.765448e-05 8.042549e-06 2.2207107e-05 0.00020816414 -0.00015407927 0.000208366 -1.0823466e-05
3.319405e-05 0.00046831087 0.00029708273 8.968829e-05 0.00023113632 -0.0007568628 -0.00017787646 0.00024197853
8.7032386e-05 -5.8012305e-05 1.9960751e-07 -0.00072469324 -0.00012807966 -9.096399e-05 -8.425716e-05 0.00081625645
-2.9726449e-05 -0.00021988472 -0.00031136288 0.00054104393 -0.00032050506 7.489013e-05 0.0008704488 -1.5434496e-05
6.2874715e-05 -0.0012665733 -0.0012151985 0.00074209063 -2.9374365e-05 -3.348362e-05 6.90458e-05 -0.00014801486
2.1882448e-05 0.0006039459 -2.3740588e-06 -0.00026534792 0.0016058569 -4.2172553e-05 0.00038429577 8.354515e-05
-2.9600707e-05 3.2201184e-05 4.1648247e-05 -3.5583445e-05 -3.5793553e-05 0.00028430382 -0.0002746001 0.00081316655
0.00019679389 -0.0033899248 0.00030072208 -3.0869287e-05 3.2067564e-05 -0.00050249544 -0.00054357 2.2373497e-05
-9.7495446e-05 0.00027413495 -0.0005903774 -8.7401975e-05 0.00019301596 -7.4697375e-05 -0.000112786285 -0.00064246194
0.000112994894 4.5740217e-05 0.0001794672 0.00010409603 5.8762744e-05 -4.863432e-05 -0.00014841782 -0.0016044988
5.0129525e-05 0.00012750557 -3.464909e-05 0.00020375648 -0.00029103665 1.1317427e-05 1.1765446e-05 0.00031615654

network.1.weight f4 [128]
00000000: ce61 893f 27a3 773f bd21 723f d153 853f
00000010: 9ad0 7b3f f341 873f 2faf 693f c290 7d3f
00000020: 5a19 833f 837e 783f dd4d 993f 0d9e 633f
00000030: 6552 7d3f c5ae 883f 17d7 6e3f 5589 743f
00000040: 5a97 713f 6ba3 713f 85dd 7a3f a384 823f
00000050: 593a 643f dd55 7e3f 1bdc 7f3f 3bd3 6b3f
00000060: a9aa 903f c17e 793f dd85 753f a652 773f
00000070: 76f4 833f f20a 803f 54b0 823f 75f6 8f3f
00000080: 9d2e 853f 1190 783f 41e4 763f 5c60 723f
00000090: bd01 823f cd33 953f 7034 8a3f 0771 813f
000000a0: ffbe 743f 0240 793f 729d 793f 6319 813f
000000b0: fb7f 813f e8b8 783f 812b 7c3f 1593 6e3f
000000c0: 4d32 843f a64d 873f 889c 853f 76d9 7c3f
000000d0: 066e 623f 5963 783f 7496 873f fa56 703f
000000e0: 231b 773f e08e 7c3f 7b9d 713f cc64 793f
000000f0: 2170 733f 59b7 843f 503a 783f 6097 913f
00000100: e5b8 6e3f 0839 703f 5f23 713f 5f01 773f
00000110: 5b5c 813f 4189 763f f452 7e3f 947b 883f
00000120: 1f79 773f 3c86 963f 7723 8a3f e695 7b3f
00000130: 80f8 803f b5ef 7c3f 3972 7c3f 77bc 7b3f
00000140: aa1e 783f baff 7e3f 6944 763f 8c50 6b3f
00000150: d2e5 963f 18c5 7c3f c866 7e3f bc44 813f
00000160: 4a31 7f3f ba88 7c3f bb21 833f 91ff 693f
00000170: 7fcf 7e3f ab24 803f 8a6a 683f 73bb 6e3f
00000180: 2839 7d3f 0d2b 9b3f f103 763f 13e1 683f
00000190: f35c 823f 265c 773f fbe3 733f b0a1 7a3f
000001a0: 2827 883f 3592 7d3f 54a2 773f 0be3 6e3f
000001b0: 8ea8 903f d9cb 743f 40aa 753f 4f3c 7b3f
000001c0: 59d2 753f 8c1d 7a3f f1db 6f3f 2d3b 783f
000001d0: 6b73 7d3f 920a 843f 4e3c 853f e338 8d3f
000001e0: 8549 813f be16 883f 7bab 763f 7aaf 6a3f
000001f0: 70d9 6d3f 6690 6f3f a624 7d3f fe18 793f
1.0732973 0.96733326 0.9458273 1.0416204 0.98365176 1.0567001 0.91282934 0.9904901
1.0242112 0.9706804 1.1976887 0.8891304 0.9895385 1.0678335 0.9329695 0.9552205
0.9437157 0.9438998 0.9799426 1.0196728 0.8915153 0.99349767 0.9994523 0.9211919
1.1302081 0.97459036 0.95907384 0.96610487 1.0308979 1.000334 1.0210061 1.1247088
1.040485 0.9709483 0.9644204 0.9467828 1.015678 1.1656433 1.0797253 1.0112618
0.95603937 0.97363293 0.9750587 1.0085872 1.0117182 0.97157145 0.9850388 0.9319318
1.032785 1.0570571 1.0438395 0.9876932 0.8844913 0.9702659 1.059279 0.93882716
0.9652578 0.9865551 0.9438092 0.9741943 0.9509297 1.0368453 0.9696398 1.1374321
0.93250877 0.9383702 0.94194597 0.9648647 1.010631 0.9630318 0.99345326 1.0662713
0.9666919 1.1759715 1.0792073 0.982756 1.0075836 0.98803264 0.9861179 0.9833445
0.9692179 0.9960896 0.96198136 0.9191978 1.1788886 0.9873824 0.9937558 1.0099101
0.99684584 0.9864613 1.0244669 0.9140559 0.99535364 1.001119 0.90787566 0.93254775
0.9891534 1.2122513 0.96099764 0.90968436 1.0184616 0.9662498 0.95269746 0.97902966
1.063695 0.9905122 0.9673207 0.9331519 1.1301439 0.95623547 0.95962906 0.981389
0.9602409 0.97701335 0.9369498 0.96965295 0.9900424 1.0315726 1.0409029 1.1032985
1.0100561 1.063194 0.9635541 0.91674006 0.9290991 0.9357971 0.98884046 0.9730376

network.1.bias f4 [128]
00000000: e80e 483e 3373 d7bb 1c3f 88bc c00c c0bd
00000010: e3fc 963d 0a7a 0ebd 79ec 5dbd dd92 05be
00000020: d2bf e9bd 7690 c6bd 7605 a93d e020 44be
00000030: 3c43 7ebe 28f4 c0bd 4b77 d6bd 3018 35be
00000040: e8f6 34be e9a3 30ba 09fe efbd 56e8 f5bb
00000050: 69b0 d6bc 28ea 3b3d 9f13 0bbe b02d 0ebe
00000060: a4bd 0b3e d51a 49bd ea8e 663d 7620 08bb
00000070: 4e96 2b3e 94f7 0c3d caae 5fbe 6cea 5fbd
00000080: 8c97 c2bd 339b a7bc 0e38 99bd 0e7b 0fbe
00000090: 1320 a3bd 50af ce3d 78ce 5dbd 04fc 34bd
000000a0: a5d9 8dbd 8396 dc3c 9216 51bd 16a2 aebd
000000b0: afd8 97bc 7b7a a03c c31d 49bd 90c5 87bd
000000c0: 0680 f4bd a338 593e 88ef 9abd 185b 1c3c
000000d0: 2101 e9bd 2e1c bf3c 729e 633c 6327 0ebc
000000e0: 3ffb 85bd 134e 843c 305f ec3c 59db 96bd
000000f0: fd4a 5dbd 5b1d 4dbb 6545 1e3a 01a7 023d
00000100: 5c27 fcbc d767 00be cbd9 5fbd f379 c8bd
00000110: 6950 debd 4512 cbbc f506 37bd 5a75 61bd
00000120: cea1 af3d 956d 743e 4f98 043d cba1 6fbd
00000130: 9455 10bd 5b1f 69bd 465d 42bd bd3f 263e
00000140: 3b21 6abd 7bfb 163c 2886 ea3b 5e74 cebd
00000150: 0224 6c3e 38a7 c7bc 76f7 0c3d 64d6 b8bc
00000160: b1b7 04bd 2deb 1bbd 2c80 c3bd 3cac dbbd
00000170: 7656 acbd 2c93 f83c 55c7 0bbe 23f6 9c3c
00000180: 9ee3 f0bc 928f 3b3e aeb2 aebd e1d9 7b3d
00000190: a0d9 92bd 55a7 30bc 044b 6c3d c5f9 51bc
000001a0: 9be6 e6bd 5940 c3bc 953b 80bd 70b9 4dbb
000001b0: c354 46bd 2ec1 3bbd 1aba 9bbd 8f34 abbd
000001c0: 0932 4ebc 984a 19bd 4339 abbc ffe4 23bd
000001d0: 68ec 97bd 6e85 123c 1c15 a2bd 557a 9a3d
000001e0: afff fcbd de2f dabd 890b c3bd 5ec1 4dbd
000001f0: 3a2d 803d 5f10 66bd e31a 15be c232 0bbe
0.19536936 -0.006575012 -0.016631655 -0.09377432 0.07372453 -0.034784354 -0.054180596 -0.13044305
-0.1141354 -0.096955225 0.08252995 -0.19153166 -0.24830335 -0.09421569 -0.10471972 -0.17685008
-0.17672312 -0.00067382917 -0.11718375 -0.0075045032 -0.026207166 0.045877606 -0.13581704 -0.13884616
0.13646561 -0.049097855 0.056288637 -0.0020771301 0.16756555 0.034415796 -0.2184402 -0.05466692
-0.095015615 -0.020459747 -0.07481395 -0.14011785 -0.07965102 0.10092032 -0.054151982 -0.044185653
-0.06926278 0.026927238 -0.051046915 -0.08527009 -0.01853594 0.019589653 -0.04910065 -0.06629479
-0.11938481 0.21213011 -0.07565218 0.009543203 -0.113771684 0.023328867 0.013892757 -0.008676383
-0.06542062 0.01615051 0.028853983 -0.07366056 -0.054026593 -0.0031298015 0.0006037562 0.03189755
-0.030780487 -0.12539612 -0.054651063 -0.09788885 -0.10855181 -0.024788985 -0.04468437 -0.055043556
0.08575784 0.23869927 0.032371815 -0.058503907 -0.035237864 -0.05691467 -0.047452234 0.16235252
-0.057160597 0.009215231 0.007157106 -0.10080789 0.23060611 -0.024371728 0.034415685 -0.022563167
-0.032401744 -0.038066078 -0.09545931 -0.107262105 -0.084149286 0.030343615 -0.13650258 0.019160336
-0.029405411 0.18316486 -0.08530174 0.061487082 -0.07170415 -0.010782083 0.057688728 -0.012815897
-0.11274453 -0.023834394 -0.06261364 -0.0031391047 -0.04842068 -0.045838527 -0.076038554 -0.08359634
-0.0125851715 -0.037424654 -0.020901328 -0.04001331 -0.07418138 0.008942945 -0.079141825 0.07542864
-0.12353455 -0.10653661 -0.095236845 -0.050233237 0.06258626 -0.056167956 -0.14561038 -0.13593581

network.1.running_mean f4 [128]
00000000: 7569 9cbf b385 c6bc 963e c13f 13fe dbbe
00000010: ae57 ce3e c0d5 18c0 4c4c e03c 8d09 a13d
00000020: 11d5 7cbf f38f 03c0 714d 0340 dd22 e93f
00000030: 3e54 a4be a498 88c0 7def d9bf c5c1 0640
00000040: a20a bd3f b1ff 023f 8f4e e83f e9de bd3e
00000050: 9108 77bf cfb3 c53e 1b37 b03e 5f1a 8fbf
00000060: fc64 05c0 a60a 01bf 5ad6 41bf f199 153f
00000070: a322 3040 7199 47c0 0ff3 2b3f 907d 4bbf
00000080: fc37 87bf e9e0 5240 8d9f b3be df79 ce3c
00000090: b718 01c0 bed7 27c0 7b3b 36bf 45d9 60bf
000000a0: 60b7 233f e162 5ebf 9451 87bf c2d3 8dbf
000000b0: c7c4 fe3f cc0b a53f f0d6 963e 21c7 f0bf
000000c0: 63de 91bf ea79 2240 4240 b73d 1cbc 1b3f
000000d0: 5c28 003f 540d 383f 59e5 4f40 a531 d33e
000000e0: a628 d7bf c33e 97bf 35a5 263f 19f8 ab3f
000000f0: 5880 2440 694e 173f 7c0d debe 733e 0cbf
00000100: 5893 47bf 3f19 dc3e 14d5 393f 55a0 2d40
00000110: 85ad 0bbf 7ae0 7a3f 4099 ca3f 6371 bc3e
00000120: 0347 3dc0 4bf9 03c0 86cd 1440 55b1 c6be
00000130: aba2 ddbf c4c0 02c0 050f 85bf 8dc3 473f
00000140: 3eba ba3f 2c1b e93f ab3b b53c 20e2 97bf
00000150: afbe 3fc0 2a73 973e 4aa2 d83f b446 0b40
00000160: 0a95 09c0 facb 903f b80c 03c0 61c7 0340
00000170: d874 93bd 3033 a43f 685b f7bf 0528 743e
00000180: c8d1 93bf 73a8 15be c804 bf3f 05c6 1840
00000190: 87ba ddbf ab7d 4d3d 4bcd 4540 f2ff 3e3f
000001a0: 541e 943f c739 963f 8ff0 413f 988e f43e
000001b0: b177 f2bf 30c0 023f ef41 ae3f 2d73 7ebf
000001c0: ccbb 763e ecc4 b5bf 9df6 4cc0 24ef b9bf
000001d0: cda5 bbbe 365a 30bf 9f82 82bf b088 2c40
000001e0: 608e c6bf d8fc d9be dbfa 673f d1ef 4cbe
000001f0: 4f01 3340 315b e03f 0894 cf3f 4591 c83f
-1.2219683 -0.024233675 1.5097225 -0.4296728 0.4030127 -2.3880463 0.027380131 0.0786315
-0.98762614 -2.055661 2.0516016 1.8213764 -0.32095522 -4.268633 -1.7026211 2.1055768
1.476887 0.51171404 1.8148974 0.3708413 -0.96497446 0.38613746 0.34417042 -1.1179923
-2.0842886 -0.50406873 -0.757177 0.5843802 2.752114 -3.1187403 0.67167753 -0.7948847
-1.056396 3.2949774 -0.35082665 0.025204597 -2.0171335 -2.6225429 -0.7118451 -0.87831527
0.63951683 -0.8686963 -1.0571771 -1.1080248 1.9903802 1.2894225 0.2946086 -1.8810769
-1.1395992 2.538691 0.08947803 0.6083391 0.50061584 0.7189534 3.2483733 0.41248813
-1.680928 -1.1816028 0.65095836 1.3435088 2.5703335 0.5910402 -0.43369663 -0.5478279
-0.77959204 0.4298801 0.72590756 2.712911 -0.54561645 0.97998774 1.5828018 0.36805257
-2.9574592 -2.0620906 2.3250442 -0.3880717 -1.7315267 -2.0430155 -1.0395209 0.7803276
1.4588087 1.8211417 0.022123178 -1.1865883 -2.9960134 0.2958005 1.6924527 2.1761904
-2.1497216 1.1312249 -2.0476513 2.0590441 -0.072000206 1.2828121 -1.932477 0.23843391
-1.1548395 -0.1461504 1.4923334 2.3870862 -1.7322549 0.050168674 3.090655 0.7460929
1.1571755 1.1736382 0.7575769 0.4776504 -1.8942777 0.51074505 1.3613871 -0.99394494
0.24095076 -1.4200721 -3.202552 -1.4526105 -0.36649933 -0.6888765 -1.0196112 2.6958427
-1.5512199 -0.42575717 0.9061715 -0.20013358 2.7969549 1.752783 1.621705 1.5669333

network.1.running_var f4 [128]
00000000: be84 e242 b406 e143 f619 9c44 73f4 1d44
00000010: 5787 6343 2822 1844 7475 ed42 bfff db43
00000020: dceb e843 34ec a243 da26 fd41 f73f a844
00000030: be30 5a44 2ff3 1144 25ec ac43 7a63 ea43
00000040: 2cf2 b143 d397 6744 950b 3945 3400 8943
00000050: 7ad9 ed44 ec9a 7d43 fdbb 4b43 ad02 1644
00000060: af58 0543 3c6d 7143 1429 8e44 90a4 ac44
00000070: 0b81 ee42 429c b643 570e 2a44 e204 0644
00000080: e81f 0c45 2fe9 4d43 bf14 3643 5437 4c44
00000090: 6670 5c44 32f2 b243 01c1 4d44 ea8c 1e45
000000a0: 2cb2 2843 2045 ec43 6a8b c543 fd19 0645
000000b0: 4a56 4e42 da8e b743 8dff 1a44 34d1 8644
000000c0: 08da 6044 d026 f442 d0c9 ab43 50d7 8544
000000d0: 0de2 5044 37aa d942 ff04 4d42 392f b043
000000e0: 9f0e 4d45 b0e1 6d44 f2c1 7c44 5cff 0144
000000f0: 595e fc43 63fc 2944 542b 5e44 0d2e e742
00000100: ed24 fd43 a78d 7644 c283 1343 1c76 3644
00000110: 4494 8343 73d1 a044 6e4b 8543 d415 0645
00000120: af9b f042 dcd7 8e42 c4c4 4842 796e 2b43
00000130: 2991 1844 4f06 be44 2c4a 3844 a563 b942
00000140: 3fa2 d343 0314 ea42 3aff 3e43 d394 9c44
00000150: 7487 8d43 abd8 6344 7e26 8543 6578 8044
00000160: f063 5144 3d1f f943 25c2 0245 1ebd 8144
00000170: ec81 8843 1583 b843 e253 c543 19df 1643
00000180: 138b d043 5c21 1442 2843 d843 028e 8244
00000190: e3c0 1f44 8ed4 1944 e5d6 0f43 367b 2843
000001a0: da0b 9644 108d fd43 0d67 1944 6395 5e44
000001b0: f9be 8042 5815 7f43 1556 7044 61cc b643
000001c0: d7ec 1d45 a56c 3144 0a89 8143 99f3 3343
000001d0: 906f cf43 73c8 c143 752e df42 b9a8 1642
000001e0: 1ec9 b243 7fd4 7843 17dd 3c43 ac69 4b43
000001f0: a599 1d44 70f1 5643 dc42 d643 4709 5743
113.25926 450.05237 1248.8113 631.8195 227.52867 608.5337 118.7294 439.99802
465.84265 325.84534 31.64397 1345.9989 872.7616 583.79974 345.84488 468.77716
355.89197 926.37225 2960.7239 274.0016 1902.7961 253.60516 203.73433 600.0418
133.34642 241.4267 1137.2837 1381.1426 119.25204 365.22076 680.22406 536.0763
2241.9941 205.91087 182.08104 816.8645 881.7562 357.89215 823.0157 2536.8071
168.69598 472.54004 395.08917 2145.6243 51.584267 367.11603 619.993 1078.5376
899.40674 122.075806 343.57666 1070.7285 835.53204 108.83245 51.25488 352.36893
3280.9138 951.52637 1011.0304 519.99 504.7371 679.94354 888.677 115.58994
506.28848 986.2133 147.51468 729.84546 263.15833 1286.5453 266.5893 2145.3643
120.30407 71.4216 50.192154 171.43153 610.2681 1520.1971 737.15894 92.69462
423.26755 117.039085 190.99698 1252.6508 283.05823 911.38544 266.30072 1027.7623
837.5615 498.24405 2092.134 1037.9099 273.015 369.02408 394.65533 150.87148
417.08652 37.032578 432.52466 1044.4377 639.01385 615.32117 143.83943 168.4813
1200.3704 507.10205 613.61017 890.33417 64.37299 255.08337 961.34503 365.5967
2526.8025 709.6976 259.07062 179.95155 414.87158 387.566 111.59074 37.66477
357.57123 248.83006 188.86363 203.41278 630.4007 214.94312 428.52234 215.03624

network.4.weight f4 [64, 128]
00000000: 476b ee3d 6dc9 c13d 93ce 533d 5cae 74be
00000010: e52a dbbd cf5c 943c 9f03 46bd f679 9cbd
00000020: 1003 063e 5c9d afbd 0115 863d a2f1 973d
00000030: c3e2 f5bd 8e72 acbd 4d1e 373e 3d6c 073d
00000040: dc74 5a3d e40c d83b 2f14 3fbe 97cb 353e
00000050: 535d 9fbd 5117 90bb a359 2e3e b5fd 16be
00000060: b6f8 093d b3a4 a23d 353f 4d3c 3eb5 0b3e
00000070: a1b1 ca3d 5b75 c3bd 5d43 8d3d 78f2 e33d
00000080: 8c37 933d d067 1e3d 04de 043e 38cd 703d
00000090: 6824 af3d 1331 29bd 7b87 30be 81cc c63d
000000a0: f077 c0bd 5bff 943d abab e4bd 6f5e 8fbd
000000b0: 2d8a fd3d 086b 07bd 22fd 7b3c 2c08 b33d
000000c0: 71a3 00be 70d4 003e 44fc b13d 278d 253e
000000d0: a71b 3ebe 9793 8f3d 446c 03be c681 493e
000000e0: 8132 d0bd 17dd c2bc b785 0d3e 746c cc3d
000000f0: 89b3 01be 8c46 fc3d 1064 123e cb2c 5bbe
00000100: 5e41 4cbc a210 1bbd bbdc 17be a9f5 25be
00000110: d48a 763d dc89 433d 1115 58be b58f 6a3b
00000120: 992e af3d d551 10be 4537 95bd dc04 913d
00000130: 176f c6bd 9614 0d3e 7959 14be f69e da3d
00000140: 2d40 6abd 5d6d f53c 20eb 7b3c 79dd 25be
00000150: cbcb 22be 3c25 56be f8da 18bc 8e50 57bd
00000160: 8b2b 87bd 5326 f63b c418 ab3d ac1a c03d
00000170: 6c9c d23d 897b 7a3d fd48 283e ffb2 003e
00000180: 24c5 c9bc 0188 963d 4f85 173d 6678 23be
00000190: f99b 09bd 0799 193e 3f8f b33d a08b e6bd
000001a0: b0d3 093e 8f75 66bd da45 cbbd 5615 9a3d
000001b0: 96db cbbd 36c2 433e ea04 e53d 38cb 05be
000001c0: e75d 5f3d 6626 7d3d d215 2ebc a519 a2bd
000001d0: 9feb b43d 0c88 ecbd 22a3 003e 648b 3d3d
000001e0: 9e61 3dbe 89d1 da3d 592d 3dbd ccdb 1f3e
000001f0: 8e16 503c 7005 81bb 26c6 283d 6268 21be
00000200: e28a f23d 7c32 5c3d 8864 c1bd 9ce6 92bd
00000210: c8ff 9bbd 8fbc 443e 138d b4bb 3032 96bb
00000220: 8f17 c5bd 8ba0 b5bd e3dc 4b3d 6c88 73bd
00000230: 5b81 283c ce72 33be a288 dcbd bbc3 a93d
00000240: fc57 57bd 255d 2ebe ed51 813d 1e30 8f3d
00000250: 9c3a 1abe 016c 18be 4120 cbbd e1a0 8cbd
00000260: 7d19 4cbc cbaa 1c3e 548d 11be 4138 143e
00000270: 445b b83d b9ba 90b8 a9c4 0f3e b6af d43c
00000280: eb07 27bd 63f2 39be 8e53 913c 9845 123d
00000290: c645 103e ae5d 033e 443b b2bc 32e1 f1bc
000002a0: 3281 d53d 3d4d 353e 1708 b0bc f2cd 01ba
000002b0: e5c0 bfbc 44c5 18be ebeb b5bd b929 7d3d
000002c0: c201 eebc f23f 2d3d d4a9 933d 3809 d2bc
000002d0: 3c73 8dbd d4ca d53c 0be8 d9bd fc69 05bd
000002e0: dc9f e0bd b6fa 1b3e 978d e7bd 0d1b 493e
000002f0: 93f7 033d 2e17 71bd a2a0 373e 88aa 75be
00000300: 23f9 ce3c a6e5 56be ae57 afbc 469e 1fbe
00000310: 90df ed3d a49e a1bd e60b c3bd 7cd0 9e3d
00000320: 95f3 80bd 05c4 8a3d 9f28 b0bd 90c0 873d
00000330: 7885 293e 6ff7 133e 9983 2dbd 6581 b6bd
00000340: 4e0a 1ebd e316 923d cc02 0abe 1138 c53c
00000350: 3c05 49be d0a5 0bbe 3edd 6cbd 8f89 123e
00000360: 05ea 453e 3e64 d3bd cd2b b6bb e093 21be
00000370: 5780 13be 7770 bbbd 535f 8c3d 74e0 b2bc
00000380: 71a5 053e 4f31 f43d 10c4 b7bd 5b9a 6bbd
00000390: 37c1 5a3e 4992 b33d 5a07 dc3d fa93 f23d
000003a0: 02be f23d 02c4 51bd e60e 353d 9008 9bba
000003b0: 5357 9cbd 9d66 d93d 7dc7 d4bb 9a3c cb3d
000003c0: 304b 47be 5e48 d53d 4d2c aa3d fa8b ca3d
000003d0: 94ba a1bd ef77 243e b4a3 bfbc aef2 0b3e
000003e0: 9e5f ad3d dba5 3b3d a5b1 e73d 1026 93bd
000003f0: db28 aabd df12 ea3c 673a 123d ec86 45be
0.11641555 0.09462247 0.051710676 -0.23894638 -0.10701541 0.01811066 -0.048343297 -0.0764045
0.13087106 -0.08574936 0.06546975 0.07419135 -0.12006142 -0.08420287 0.17882653 0.03306221
0.053334102 0.0065933336 -0.18660043 0.17753445 -0.07781472 -0.004397311 0.17026381 -0.14745219
0.033684455 0.0794157 0.012527277 0.13643357 0.09897161 -0.09543868 0.06897614 0.111302316
0.07188329 0.038673222 0.12975317 0.05878946 0.08551866 -0.041306566 -0.17239182 0.09706975
-0.09397876 0.07275268 -0.111655556 -0.07000434 0.123798706 -0.033061057 0.015380176 0.08741793
-0.12562348 0.12581038 0.08690694 0.16167127 -0.18565236 0.070105724 -0.12834269 0.19678411
-0.10165883 -0.023787064 0.1382054 0.09981623 -0.12666143 0.12318143 0.14295983 -0.21403806
-0.012466757 -0.03785766 -0.14830296 -0.16206993 0.06019099 0.047738895 -0.21101786 0.0035791222
0.0855381 -0.14093716 -0.072859325 0.07081005 -0.096891575 0.13777384 -0.14487256 0.10674851
-0.05719011 0.029959375 0.015375882 -0.16197766 -0.15898053 -0.20912641 -0.00932955 -0.052567057
-0.06600102 0.007511893 0.08354333 0.09380087 0.10283741 0.06115297 0.16434093 0.12568282
-0.024630137 0.073501594 0.036992367 -0.15963897 -0.033596013 0.14999782 0.087675564 -0.112571
0.13459659 -0.056264456 -0.099254325 0.07523601 -0.09953992 0.19117054 0.11182578 -0.13065803
0.05453291 0.061804198 -0.01062532 -0.079150476 0.08834004 -0.115493864 0.1256223 0.04627551
-0.18494269 0.10684497 -0.046185825 0.1561119 0.01270069 -0.003937416 0.041204594 -0.15762475
0.11842896 0.053759083 -0.09443003 -0.071728915 -0.07617146 0.19212554 -0.0055099814 -0.0045836195
-0.09623634 -0.08868512 0.0497712 -0.059456274 0.010284747 -0.17524263 -0.10768248 0.08289286
-0.052574143 -0.1702772 0.06314454 0.069915995 -0.1506142 -0.1488495 -0.09918261 -0.06866623
-0.012457249 0.15299527 -0.14214069 0.14474584 0.090017825 -6.901235e-05 0.14039864 0.025962692
-0.040779036 -0.1815887 0.017740037 0.0357109 0.14089116 0.12828705 -0.021756776 -0.029526327
0.10425033 0.17705245 -0.021488233 -0.0004951648 -0.023407409 -0.14919001 -0.088828884 0.061807368
-0.029053573 0.04229731 0.072101265 -0.025639161 -0.06906745 0.026097693 -0.10639962 -0.032571778
-0.10967991 0.15232357 -0.11306303 0.19639225 0.032218527 -0.058859996 0.1793237 -0.23990834
0.025265282 -0.20986041 -0.021404114 -0.1558772 0.11614907 -0.078915864 -0.09523754 0.07754609
-0.062964596 0.06775669 -0.08601498 0.06628525 0.1655482 0.14449857 -0.04236183 -0.08911399
-0.038584046 0.071332715 -0.1347763 0.024074586 -0.19630903 -0.13637471 -0.05782818 0.14310287
0.19327553 -0.10321854 -0.0055594207 -0.15779066 -0.14404427 -0.0915231 0.06854119 -0.021835543
0.13051392 0.11923467 -0.08972943 -0.05752025 0.21362768 0.08768136 0.1074359 0.118446305
0.11852647 -0.05121232 0.04420366 -0.0011828113 -0.07633843 0.10615275 -0.0064935074 0.09923668
-0.19462276 0.104141936 0.08309231 0.0988998 -0.07896915 0.16061376 -0.02339349 0.13666794
0.08465503 0.04581247 0.1131318 -0.07184994 -0.08308574 0.028573452 0.035700228 -0.1928975

network.4.bias f4 [64]
00000000: 9a2b 183a 9baf 28bb 1193 0f3c 8aaf 8fba
00000010: 94cf 8b3b 70c8 f0b8 b013 843b fe56 843b
00000020: 2868 c03a d49a 483b 5ce8 30bb 72ad 503b
00000030: b0ef 523b c184 733b 781a 5d3b 3189 873a
00000040: 657a 703c d970 76bb 296e 75bb 87c2 a1bb
00000050: 328d ffba fad1 873a e55e 773b 50e0 14bc
00000060: 8936 a8bb 7ed8 a53a 456a 283a bdd7 2dbb
00000070: 295f 733b 0401 cabb d4f6 483b 0ff4 8a3b
00000080: ddb6 d1ba 6f22 ab3a 691d 8eba 1439 89ba
00000090: cd97 7e3b c1f5 d23b 9616 04bb 229b 383a
000000a0: e02e 2838 ff0c 53ba 4495 f63a 6350 95ba
000000b0: bf7d 11bb 3dbe eb3b 2361 ca3b c6ff 70bb
000000c0: 2513 ef3b 7756 6a3b 022d 873b 50e0 553b
000000d0: 8ec8 bcbb 30c4 b4bb d2c5 db3a f162 0ab9
000000e0: a869 b93b 8837 be3b 238f 35bc a163 293b
000000f0: a0f2 87ba dbe4 383b 7cdd f93b b7df d2bb
0.0005804837 -0.0025739435 0.008763091 -0.0010962349 0.0042666886 -0.00011481426 0.0040306672 0.0040386906
0.0014679478 0.0030609863 -0.0026993966 0.0031841663 0.0032186322 0.0037157985 0.00337377 0.0010340569
0.014677619 -0.0037603884 -0.0037449694 -0.0049365195 -0.0019497036 0.001036226 0.003774577 -0.009086683
-0.005133454 0.0012653021 0.0006424527 -0.0026526295 0.0037135577 -0.006164672 0.00306647 0.00424052
-0.0015999932 0.0013056527 -0.0010842505 -0.0010469281 0.0038847805 0.0064379876 -0.0020155064 0.00070421596
4.0097977e-05 -0.0008050948 0.0018812795 -0.0011391755 -0.0022200195 0.007194309 0.0061761304 -0.0036773547
0.0072959834 0.0035757103 0.0041252384 0.0032634921 -0.0057612127 -0.0055165514 0.0016767329 -0.00013197564
0.005658347 0.0058049597 -0.01108149 0.0025846737 -0.001037199 0.002821258 0.00762528 -0.0064353603

network.5.weight f4 [64]
00000000: 5b75 7e3f 4b43 6b3f 3cc5 8b3f db0e 863f
00000010: 591b 863f 8cab 883f e3dc 8c3f 20fe 813f
00000020: d321 7b3f 1f09 883f 89a9 753f c86d 803f
00000030: eb87 763f 352c 813f 038d 843f 574f 663f
00000040: 1bd9 843f b3dd 7b3f a48d 743f b0ef 773f
00000050: 9de1 7d3f 072c 6e3f ceab 923f 4226 7a3f
00000060: 1b67 883f 9dc9 5f3f 1303 583f b6d9 753f
00000070: 12f1 863f 9bd3 863f 97f8 883f ec0c 803f
00000080: 5a26 7f3f c967 823f 7d8b 733f 791b 833f
00000090: c70d 6a3f 681a 913f 1b63 833f e7d0 6b3f
000000a0: e63c 823f 03fc 763f 9542 713f 94dd 8d3f
000000b0: 7a9e 863f 4702 733f 5413 733f f34a 6d3f
000000c0: 097f 6a3f de3d 8b3f 7284 673f 72e1 863f
000000d0: 17c5 793f a4ca 7d3f 2501 6a3f 9460 703f
000000e0: 8593 713f 9617 8d3f 5027 7b3f 6e11 8d3f
000000f0: 87ae 943f 2da6 6a3f 3758 703f d6f9 843f
0.9939782 0.91899556 1.0919566 1.0473284 1.0477096 1.0677352 1.1004909 1.0155678
0.98098487 1.0627784 0.95961815 1.0033503 0.96301144 1.0091616 1.0355533 0.89964813
1.0378755 0.9838516 0.95528626 0.9685011 0.99172384 0.9303593 1.1458681 0.97714627
1.0656465 0.8741701 0.8437969 0.96035326 1.0542319 1.0533327 1.0700864 1.0003943
0.99667895 1.0187923 0.9513472 1.0242759 0.9142727 1.1336184 1.026462 0.92115635
1.0174835 0.9647829 0.9424222 1.1083245 1.0517113 0.9492535 0.9495137 0.9269249
0.9160009 1.0878255 0.9043647 1.053755 0.9756636 0.9913733 0.91407996 0.93897367
0.9436572 1.1022823 0.9810686 1.1020944 1.1615762 0.91659814 0.93884605 1.0388744

network.5.bias f4 [64]
00000000: 35ea 073d e626 983c 23bc a73d 7dcd 263d
00000010: e020 9f3d f4b6 993c 647a b4bd 1097 e43d
00000020: 8a64 83bc cf16 513e b42c 2fbd c2e3 b53c
00000030: 6a42 023b 948d 29be bbbc e73b d7ae 1cbe
00000040: 96a1 7b3d 4807 d13c d01c 90bd ce57 85bd
00000050: bccb f1bd 434e 83bd 0e13 ed3d 3a40 a4bb
00000060: b893 27be 41ec f6bd dc7d b0bd 60a2 04bc
00000070: 26a0 083d 647d 5c3d f6a1 f1bc bfc1 373c
00000080: b354 5c3d c52e f4bc ebc7 25bd 7a84 5c3c
00000090: de11 73bd 28c3 fc3b 03e9 9d3c 21b7 1ebd
000000a0: ffdd 4a3d 93d0 47bd ad7f 203c a604 8ebb
000000b0: f417 e03d 6ca2 7bbd 5a63 c0bb a434 02bd
000000c0: 000d 0fbe 0bdc 9d3c 3c55 bbbd 7249 b93d
000000d0: 39a3 49bc 1869 2fbd 81b3 583c 949f d2bd
000000e0: d64e dcbd d462 ee3d 8d04 eebc 7700 ea3d
000000f0: 7f75 283e 395e 2dbd 6577 7abd d471 c83c
0.03318234 0.018573236 0.08190181 0.040723313 0.07769942 0.018763997 -0.08812407 0.111616254
-0.016039152 0.20418857 -0.04276724 0.02220333 0.0019876012 -0.16557914 0.007072059 -0.15301071
0.061433397 0.025516167 -0.070367455 -0.06510888 -0.118064374 -0.064114116 0.115759 -0.005012539
-0.16364944 -0.120567806 -0.08617756 -0.008095354 0.033355854 0.05383052 -0.029496174 0.011215626
0.053791713 -0.029807458 -0.04047386 0.013459319 -0.05934321 0.007713694 0.019276148 -0.038748864
0.04952812 -0.048782896 0.009796065 -0.00433405 0.10942069 -0.061434194 -0.0058712186 -0.031788483
-0.13969803 0.019269964 -0.091471165 0.09047212 -0.012306982 -0.042824835 0.013226391 -0.10284343
-0.10757224 0.11639944 -0.029054904 0.1142587 0.16451071 -0.042326186 -0.06114902 0.02446834

network.5.running_mean f4 [64]
00000000: 8cc1 763e 4e3d ba3c 6731 69be 81aa e93e
00000010: 8955 033f 2124 4d3f af1c 973f 094d 1c3f
00000020: e738 c3be 69f9 a1be 80dc 52bf 5ad8 a2be
00000030: 95bd 44bf ce43 c73f 5d33 c2bf c135 c9bd
00000040: 026a f2bd 82c4 0bbd 2426 993f eef8 bfbf
00000050: f98c 6abf 9d53 54bf d48b f8bc 11cd 393f
00000060: 9c8b 743f 5107 41bf d5d2 d9be 8cbb 983e
00000070: 65a1 89be 0c0b 60bf 752b b33f 3025 e5be
00000080: 7c82 4cbe e4c4 93be dd25 09c0 677c 08c0
00000090: abfe a8bf 48eb 49bf d281 9dbf b507 0dbf
000000a0: b770 d3be dcc9 693e 64ec 3a3f 7096 a73f
000000b0: abaf e0be 839a 32be 3ac0 c0be e30e 76bf
000000c0: 1496 09bf 8e41 e73c dc31 3ebf 791c 9cbe
000000d0: 6b72 25be 240d 8d3f d48d 103f 0f95 05be
000000e0: d9d8 17bf 51db 94be 9e62 7c3f aa1a 5d3f
000000f0: 0e5b 4b3f eb82 1dbf 2442 5abf dbec 1dbd
0.2409727 0.02273431 -0.22772752 0.45637897 0.5130239 0.80133253 1.1805629 0.61055046
-0.3812935 -0.31635597 -0.82367706 -0.31805688 -0.7685178 1.5567567 -1.5171925 -0.09824706
-0.11836626 -0.03412295 1.1964765 -1.4997842 -0.9162136 -0.82940084 -0.030340113 0.7257853
0.95525527 -0.7540179 -0.42543665 0.29830587 -0.26880947 -0.87516856 1.3997637 -0.44754934
-0.19971651 -0.28861153 -2.142936 -2.132593 -1.3202718 -0.78874636 -1.2305243 -0.55089885
-0.41296932 0.2283091 0.73016953 1.3092785 -0.43884024 -0.17441754 -0.37646657 -0.96116465
-0.53744626 0.028229501 -0.7429483 -0.30490473 -0.16156928 1.1019635 0.5646641 -0.13045143
-0.5931526 -0.29073575 0.9858798 0.8636881 0.79435813 -0.6152789 -0.8525717 -0.03855596

network.5.running_var f4 [64]
00000000: 0115 6940 aea9 6140 35ed 2140 2ff4 7b40
00000010: 9fb0 4540 6de4 a240 2446 a840 bb7c 6940
00000020: dfe6 3140 ef47 a640 e2c9 fb3f 06af da40
00000030: 9353 5840 d447 a140 9ba9 8e40 1a10 9740
00000040: 3748 2740 c93a 1440 850e 1140 12f6 0840
00000050: 4359 f63f ed29 0a40 387c 7640 f47c ed3f
00000060: 4986 1d40 9668 fe3f 7b15 823f fb24 5740
00000070: ae94 3f40 e748 cd40 6228 b540 d48c 4940
00000080: 199f a440 b393 0f40 5b7e 9a40 c366 bc40
00000090: 1fc9 9040 ef87 2140 2608 6340 ead1 5940
000000a0: 49c5 1940 c22e 8840 e02f 1240 3884 e040
000000b0: 7077 9040 62cf f93f 5c28 9c40 8e05 6a40
000000c0: edc1 e53f 55ab 2440 8701 aa3f ce75 fc3f
000000d0: 10ae 7640 dcb2 0740 d289 1540 eb7e 4040
000000e0: 9656 f33f 72dd 6140 88dc 5140 2d2b 8140
000000f0: 6c8f d540 6998 e840 814d df3f c780 0340
3.641907 3.5259814 2.530103 3.9367788 3.088905 5.090384 5.258562 3.648238
2.7797163 5.196281 1.9670985 6.833865 3.380101 5.040018 4.458204 4.7207155
2.6137826 2.316088 2.2665112 2.140019 1.924599 2.158809 3.8513317 1.8553758
2.461321 1.9875667 1.0162805 3.361632 2.9934497 6.415149 5.6611795 3.1492205
5.144421 2.2433898 4.8279243 5.887544 4.524551 2.5239217 3.5473723 3.4034371
2.4026663 4.2557077 2.284172 7.01614 4.51458 1.9516413 4.8799267 3.656589
1.7949806 2.5729573 1.3281716 1.9723451 3.854374 2.1202917 2.336537 3.0077465
1.9010799 3.529141 3.2790852 4.0365205 6.6737576 7.2686048 1.7445527 2.054735

network.8.weight f4 [32, 64]
00000000: 2eb4 84be 5df5 0b3e 340b 45be 5e76 e33d
00000010: 466c 7c3d 160e 49be 4652 b3bd 98e6 883d
00000020: 5a1f 34be 62e4 7dbe 6bde c3bc e58a 35be
00000030: d8fc 13bd 3d35 3d3e 9cf6 323e 10f5 073e
00000040: 3ce7 d8bd ac93 a2be 17de c23d e8d7 be3d
00000050: f750 f7bd 8b57 a53a e645 80be 5a26 413d
00000060: d715 5dbc ff83 c53d ce94 cf3d e846 4b3e
00000070: fcc4 d5bd 9629 8e3d 0d53 3bbe 2164 87bd
00000080: f97f 48be 8ca1 6ebe 2bf5 96bd 24ba 513d
00000090: f4a8 e53d 0321 3ebe 3cbd 15be 0909 a5bd
000000a0: 2f6e fcbd 2618 00be bb9a ac3d 0b96 03be
000000b0: 6853 a23d e175 e5bd 9e13 0b3e 4def e0bd
000000c0: 39e5 4abe bf4d fcbd db65 0b3e a50a 28be
000000d0: a807 feba 3c95 013d 376f d73c ecd2 c63d
000000e0: 373b 643d 2db2 063e 00bd 20be 9489 643e
000000f0: 9255 07be 331a 033e dcad d23d 5952 6abe
00000100: 9007 e83d 6dfc 6cbe dd40 aebe a998 c13d
00000110: eb99 8ebb 7471 a4be f663 c1bd 20f0 91be
00000120: bb2b 503e 7bc4 023d 9e50 e0bd ac1b 79be
00000130: 82b6 493d e99e 6d3d 0810 0abc 09f6 253c
00000140: b6f6 303e 8d38 eabd 340a 8e3c 6e71 bdba
00000150: d37f 333d 77cc dabd 739f 443e d086 fa3c
00000160: b137 75be 70fa 213d 8bd8 933d 5d3a 2b3e
00000170: a545 80be cf2d f73d f1f4 a1be 7432 ef3d
00000180: a906 3d3d f9d3 b03d fd30 dabd 2649 38be
00000190: ff7e 83be e902 8f3e 78d6 debd 2171 b93b
000001a0: 5694 373e 1be2 21be ac3f cdbd 8c38 b03b
000001b0: 445f e83d 2a08 033d a4bf 193e 6038 a33d
000001c0: f357 a53d cadc 4dbe 6d5d 253e 3d32 af3d
000001d0: d275 e9bd 4719 a5bd 5b55 373e 7ff8 853d
000001e0: bc6e 3abe 2a46 2a3e 78c8 b1bd ebe6 3739
000001f0: dbfa 46bc 8644 583d 78dd 8e3d c1e9 46bd
00000200: bbf4 713e 0b72 b73d a6a7 b53d 9e71 1c3e
00000210: 0ed8 183e 0fa0 813e 72f5 ba3d 1b18 29bd
00000220: 0d6a 733b bcb1 113e 1649 6abe c993 333e
00000230: 6678 ef3d 3ff3 9d3d 1a9c 2dbe 7669 a23d
00000240: c1ae 65bd bf01 41bc e067 37be ad68 4bbd
00000250: 9e94 0f3e 3d39 39be c68f 833e 3ef5 70bd
00000260: 5cd3 313e 0146 1b3e 38e9 553e f7ec 20be
00000270: 4897 cf3d 51fc 2f3e 5cec 083d bc23 a13e
00000280: de6f 18be 0a87 5a3e e0b1 94bd e49b d1bd
00000290: bf29 1ebe fccf 523e d369 85bc 2959 803d
000002a0: 5e1f 493e 17da 6d3e b906 633d d126 65bd
000002b0: c778 073e 56eb 63bd d15a 053e 17b0 df3d
000002c0: 333a 953e 563f 413e 3950 afbd d815 933e
000002d0: 3861 13bc 98b8 07be af0b 563e b486 f43d
000002e0: 730a 8b3e 3649 783d ce1c c23d 4f42 0dbc
000002f0: 2159 7abd f594 f33d 93b6 74be e619 763e
00000300: 83e2 e43d 0d40 35be a018 0c3e db14 cabc
00000310: 0288 6dbd f5c4 b7bc 7ebd 883d 62b5 433e
00000320: ed33 4bbe 5997 3a3e 8cea d4bd 5431 113e
00000330: 1084 88be 8425 f1bd 95e1 d73c d536 313d
00000340: 8901 d33d e6a1 a13d 9927 5e3d 1326 24be
00000350: 9404 2f3b 4f66 3a3d b37f 4c3e b3ec 3cbe
00000360: 86dc 5bbd 4c5e 70be b922 523e df77 753d
00000370: 37b7 6fbc c8f7 653e dd9c d03d 56a9 c6bd
00000380: ee47 9ebe ba09 39be 4fba 08be 7ca6 cf3c
00000390: 470f 1fbe c5e0 193e ae46 bf3c b349 a4bd
000003a0: 2601 6a3e b5f9 6abd 6de9 983d 2960 d43d
000003b0: eca1 8d3d 5080 4b3d 94ec 8a3e c40a 983d
000003c0: 37db ebbc f446 a5bd 49d5 54bd f498 c43d
000003d0: fd85 e1be 0eef 16be e1fc 863d 1a4e 8abe
000003e0: 1cda 103e d556 3a3d 5977 87be e4f3 fdbd
000003f0: e374 f8bd 4c52 b6be 97aa 23be 6e75 48bc
-0.25918716 0.13667817 -0.19242555 0.11106561 0.061626695 -0.1963428 -0.08755927 0.06684607
-0.17590085 -0.24794152 -0.023909768 -0.17728765 -0.036129802 0.1847734 0.17476887 0.13277078
-0.105909795 -0.3175329 0.095150165 0.093185246 -0.1207599 0.0012614591 -0.25053328 0.047155716
-0.013493977 0.09644317 0.10135804 0.19851267 -0.104379624 0.06941526 -0.182934 -0.06610895
-0.19580068 -0.23303813 -0.07370981 0.05120291 0.11213866 -0.1856728 -0.14622968 -0.08058364
-0.12325703 -0.12509212 0.0842795 -0.12850206 0.07926065 -0.11204124 0.13581702 -0.10983143
-0.19814004 -0.123195164 0.13613074 -0.1641031 -0.0019380944 0.03163646 0.026298149 0.09708199
0.055720534 0.13153906 -0.15697098 0.22318107 -0.13216236 0.12802963 0.10287067 -0.22882976
0.113295674 -0.23143168 -0.34033862 0.09452946 -0.0043518445 -0.32117808 -0.09442894 -0.28503513
0.20329182 0.03192566 -0.109528765 -0.24326962 0.04924632 0.058012877 -0.008426674 0.01012946
0.17281613 -0.114365675 0.01733885 -0.001445336 0.043823075 -0.1068353 0.1920145 0.030581862
-0.23947026 0.039545476 0.07219037 0.16721483 -0.25053135 0.12069284 -0.31632188 0.11679545
0.04614893 0.086341806 -0.10653875 -0.17996654 -0.25682828 0.27931908 -0.108807504 0.005659238
0.1792768 -0.15808909 -0.1002191 0.0053778347 0.113462955 0.031990208 0.15014511 0.07969737
0.080734156 -0.20103756 0.1614892 0.08554504 -0.113994256 -0.08061462 0.17903654 0.065415375
-0.18206304 0.16628328 -0.086808145 0.00017538264 -0.01214477 0.052799724 0.069758356 -0.04856277
0.23628514 0.08957299 0.08869867 0.15277717 0.14926168 0.25317428 0.09128846 -0.041282754
0.0037142069 0.14227957 -0.22879443 0.17536844 0.11692886 0.07712411 -0.1695408 0.07930271
-0.05607486 -0.011780201 -0.17910719 -0.049660373 0.14021537 -0.18088241 0.25695628 -0.05882763
0.17365783 0.15163423 0.20889747 -0.15715395 0.101362765 0.17186095 0.033428535 0.31472576
-0.14886424 0.21340576 -0.072604895 -0.10234812 -0.15445612 0.20587152 -0.016285812 0.06267006
0.19640872 0.23227726 0.055426333 -0.05594522 0.13229667 -0.055644356 0.13022925 0.10922258
0.29145965 0.18871817 -0.08560223 0.28727603 -0.008995347 -0.1325401 0.20902894 0.11939755
0.2715641 0.060616694 0.0947815 -0.008621766 -0.061120156 0.11893646 -0.23897772 0.24033317
0.11176016 -0.17700215 0.13681269 -0.024668148 -0.057991035 -0.022432784 0.06676768 0.19112161
-0.19844027 0.18221797 -0.10396299 0.14178973 -0.26663256 -0.11774734 0.026352683 0.043265183
0.10303027 0.07892208 0.054236982 -0.16030149 0.002670561 0.045507725 0.19970588 -0.18449669
-0.053677104 -0.23473471 0.20521058 0.05992877 -0.014631084 0.22457802 0.10186169 -0.09700267
-0.30914253 -0.18070117 -0.13352321 0.02534794 -0.15533172 0.15027149 0.023349132 -0.080218695
0.22852 -0.057367045 0.074663974 0.103699036 0.0691565 0.049682915 0.2713362 0.074239284
-0.028791053 -0.08070174 -0.051961217 0.09599486 -0.44047537 -0.1473963 0.065912016 -0.27012712
0.14145702 0.045492966 -0.26458243 -0.12400034 -0.12131669 -0.35609663 -0.15983044 -0.012235029

network.8.bias f4 [32]
00000000: a613 d33b ea96 d2bb dc8e f3bb 8983 cbbb
00000010: 778e bcbb 3d29 ceba cb01 f03b c1cb 20bb
00000020: 3203 88bb aada 433c d613 cb3b 218a 433c
00000030: 3070 debb 4ffb 3b3b fb38 e63b 5639 f93b
00000040: b2a0 0fba ed6e 9bbb 3d60 22bc 5852 843b
00000050: 0476 e93b 8dd0 653b f35a f83b e5df 953a
00000060: d515 48bb a1bb fbba ccf9 823c 240f 8b3b
00000070: 8daf 69bb a795 143c feb9 c5bb 2884 1b3b
0.0064415513 -0.0064266818 -0.0074328016 -0.0062107486 -0.005754288 -0.0015728843 0.0073244325 -0.002453551
-0.0041507715 0.011953989 0.006197433 0.011934788 -0.006788276 0.0028683727 0.0070258356 0.007605712
-0.00054789626 -0.004743448 -0.00991064 0.0040381365 0.0071246643 0.0035066933 0.0075792014 0.0011434524
-0.003053059 -0.0019205698 0.015988253 0.0042437483 -0.0035657615 0.009068883 -0.006034135 0.0023729894

network.9.weight f4 [32]
00000000: e694 483f 4b40 583f 6ce2 443f 37a1 3b3f
00000010: a716 443f 1ba0 5d3f 87bd 4f3f a6ec 3f3f
00000020: b576 4f3f 196d 543f c8ce 593f 5ad4 3c3f
00000030: eedd 583f e484 533f 2746 443f 05ef 383f
00000040: c48d 523f 8575 643f 1870 573f 6a92 3c3f
00000050: 119c 443f 066f 1e3f be85 453f 5b02 4f3f
00000060: 27d8 583f 1d77 4d3f fba3 673f c0ef 3e3f
00000070: 7d79 323f a6cd 333f 1353 483f 5dc6 283f
0.783522 0.84473103 0.7690799 0.7329287 0.76597065 0.86572427 0.8114857 0.7497047
0.8104051 0.8297897 0.8508115 0.7376152 0.8471364 0.8262465 0.76669544 0.72239715
0.8224757 0.8924182 0.84155416 0.7366091 0.7680064 0.6188816 0.771572 0.8086297
0.8470482 0.8025988 0.9048459 0.7458458 0.69716626 0.7023567 0.7825176 0.6592768

network.9.bias f4 [32]
00000000: 82e0 88bd 20f9 4bbe f923 1c3e 504a 4abc
00000010: 3385 8ebc 8e24 dfbc 0777 adbe 660d 95bd
00000020: a8eb 2f3c 5e92 303c 3e4e 7fbe 2a61 59be
00000030: 4503 57bd 0a52 bbba 482a 0abe 4791 40be
00000040: 645a afbd 2400 e0bd d832 45be ba4b 3bbd
00000050: 7e11 10be 140e d8be fba3 3fbd 23c6 bdbc
00000060: 5492 14be d707 e8bc 263c c6bd 24e1 81bb
00000070: 79a4 c2bd 3dab ebbd 303b 5bbd e332 aebe
-0.066834465 -0.19919252 0.15248097 -0.012346819 -0.017397499 -0.02723911 -0.33879873 -0.07277946
0.010737337 0.010777084 -0.24932191 -0.21228471 -0.052493352 -0.0014291417 -0.13492692 -0.18805419
-0.085621625 -0.10937527 -0.19257677 -0.045726515 -0.14069173 -0.4219824 -0.046787243 -0.023165768
-0.14508945 -0.02832405 -0.09679441 -0.0039636064 -0.09504027 -0.115072705 -0.053523242 -0.34023198

network.9.running_mean f4 [32]
00000000: 2788 66bf cbba aebe a166 c53f d685 b2be
00000010: d231 c4bf dfa7 b3be 6e8e 1fbf 85e4 c1be
00000020: c132 0c3f 566f fcbf 659b bebf 6029 88bf
00000030: 0563 a8bf 91d7 c5bf a6c6 c3bf d516 96bf
00000040: b96a 7bbf 42d5 3ebf 4f00 6ebf fa23 20be
00000050: b503 0cbf 1bc2 85bf 8c40 abbf 89d5 67bf
00000060: efd0 f1be 749a aebf 15ea a3bf 9cba d0bf
00000070: 4897 bdbf e7e0 c2bf a60f 8abf 200f ffbc
-0.900515 -0.34126887 1.5421945 -0.34867734 -1.5327704 -0.35089013 -0.62326705 -0.3786966
0.54764944 -1.9721477 -1.4891173 -1.0637627 -1.3155218 -1.5456411 -1.5294998 -1.1725718
-0.9820972 -0.74544156 -0.9296922 -0.15638724 -0.54693156 -1.0449861 -1.3379073 -0.90560204
-0.47229716 -1.3640885 -1.2805811 -1.6306949 -1.4811792 -1.5224885 -1.0786026 -0.031135142

network.9.running_var f4 [32]
00000000: 1d68 5040 7047 b23f 1a2d eb40 6015 7a40
00000010: f816 6340 79e0 7440 a84a 7a40 bf6c 9c40
00000020: 4bc3 5d40 f15a 0c41 85fe ae40 6701 cd40
00000030: f747 a540 e7f1 6840 c55b f240 687f 6c40
00000040: 30ff 3440 2f33 a940 d35e 5b40 5042 9740
00000050: a6d9 5b40 c698 4f40 683e c240 7181 5040
00000060: 6e72 4f40 02cb 9d40 e20f 6340 1e8f 3640
00000070: 8086 8040 caf0 e040 70b4 4540 d350 1e40
3.2563546 1.3928051 7.3492556 3.9075546 3.548277 3.8262007 3.9108067 4.8882747
3.4650447 8.7722025 5.4685693 6.406421 5.165035 3.6397645 7.5737023 3.6952763
2.8280754 5.287498 3.4276626 4.726845 3.4351592 3.2436996 6.070118 3.2579005
3.2413592 4.931031 3.5478444 2.8524852 4.0164185 7.029393 3.089138 2.473683

network.12.weight f4 [4, 32]
00000000: 2faa 1fbd 1529 153e a562 093d 3953 47bc
00000010: d9fa b0bd 309a 293c 8822 433e 3cac bb3b
00000020: 0e39 a83d 4c20 9dbd 6db2 453e 4aba 103e
00000030: cbbc 013e 556b c5bd 4bd5 44bd 25d5 02be
00000040: 8578 c0bd 31e4 013e 4160 133e b0cd 8f3b
00000050: 1e47 0d3e 62f1 0a3e af03 cabd b5ec c9bd
00000060: 9643 f83d c3b8 cbbd 23ba 073e 6b9a 03be
00000070: 3286 f2bd 128f 72bd 20da 0fbe 3c2a fe3c
00000080: 1659 e6bc f2b4 143e ca7b aa3a fc89 3dbd
00000090: b1fa d4bd 613f afbc 692b 343e e012 1fbd
000000a0: a50e 6e3d 032a 4abd 0474 483e 07c2 0b3e
000000b0: 354b 0c3e 2f5b bebd 550a 123d f3e1 d9bd
000000c0: 36eb c4bd 8844 073e 2b3c 153e ce22 12bd
000000d0: a2c6 1a3e 779d c0bd 3378 b0bd 0dc2 bebd
000000e0: edfd 043e 6a5c c9bd 4e73 183e 8559 07be
000000f0: a6d8 01be 40ee 403d 53d7 febd e784 0b3c
00000100: 77ac c9bd 01bb e03d 8ac7 a53d 2ff1 783c
00000110: a15c 58bd 2e78 063d 5a37 273e 59e0 4f3d
00000120: 47b3 e73d 450c adbc c056 d23d 42d9 8bbd
00000130: af64 413d fb79 58bd ac39 3dbe 8a59 e6bc
00000140: 3d3f 17be 6422 333d 4103 ae3d 8aa2 273d
00000150: ce82 903d 5b7d 60bd cf54 8bbd 3f6e 0abe
00000160: 7fe9 943d cb57 a7bd c2d9 7c3d c164 bcbd
00000170: 914d 17be 207e 0abe 5d0d afbd 5349 833d
00000180: 9f1f 1bbe 2539 98bc 6668 003e 0d4c 343e
00000190: 249e 8a3d 55f2 093e deaa 58bc 7da5 463e
000001a0: 2cf4 b53d 6398 e6bd 395c c1bd aa5c 43be
000001b0: 8c7f d7bd a53c 51bc 6173 7ebe e7ed a23c
000001c0: ba77 8d3c 3d9b 85bd af4c a6bd 1364 3d3e
000001d0: 1464 95bd 832c fb3d 84fe 14be 2225 b9bd
000001e0: 7e2c 56bd 8d8d c43b 545d bbbd 6a3b 993d
000001f0: 7d6a 9a3d 80cf 84be 3c77 c2bd 14aa 443e
-0.03898066 0.14566453 0.03354134 -0.012165838 -0.086415954 0.010351703 0.19056141 0.005727319
0.08214007 -0.07672176 0.19306345 0.14133564 0.12669675 -0.096396126 -0.048054975 -0.1277662
-0.09397987 0.12684704 0.14392187 0.0043885335 0.1379666 0.13568643 -0.09863984 -0.098596014
0.12122266 -0.0994735 0.132546 -0.12851875 -0.11842002 -0.059218474 -0.14048052 0.031025998
-0.028118651 0.1452215 0.0013006863 -0.04627417 -0.10399378 -0.021392526 0.17594685 -0.03883636
0.058119435 -0.04935647 0.19575506 0.13648234 0.13700564 -0.09294736 0.035654385 -0.106387995
-0.096151754 0.13209736 0.14573734 -0.035677724 0.15114835 -0.09405034 -0.08616676 -0.09314356
0.1298749 -0.0983208 0.14887735 -0.13217743 -0.12680301 0.047102213 -0.124434136 0.008515573
-0.09847348 0.10973168 0.080947 0.015194221 -0.052822713 0.032829456 0.16329709 0.050751064
0.11313491 -0.021124015 0.102704525 -0.06828548 0.04721516 -0.052850705 -0.18479031 -0.028118867
-0.14770217 0.04373397 0.084967144 0.040926494 0.07056199 -0.05480705 -0.06803285 -0.13518618
0.07271098 -0.08171042 0.061731108 -0.09198905 -0.14775683 -0.13524675 -0.08547471 0.0641047
-0.15148781 -0.018581936 0.12539825 0.17607136 0.06768444 0.13471349 -0.013224332 0.19399066
0.08884463 -0.11259534 -0.09441418 -0.19078317 -0.105223745 -0.012770806 -0.24848701 0.019888831
0.017269004 -0.0652375 -0.08120095 0.18495207 -0.07294479 0.12264349 -0.14550215 -0.09040286
-0.052288525 0.0059983195 -0.0914866 0.074820355 0.07539842 -0.2593956 -0.094953984 0.19205505

network.12.bias f4 [4]
00000000: 37e8 28bd f50a 33bd 751f 5d3d 2023 c13d
-0.041237082 -0.04371162 0.053985078 0.09430528
