soil_salinity_multi_sensor/outputs/models/stage1/stage1_epoch_10.pth (torch, 72297 bytes, 20 tensors)

network.0.weight f4 [128, 36]
00000000: 0816 82be 0b69 01be 308a 91be 2579 4cbe
00000010: e2d0 b9bc 5e89 b93d dd67 523e 04e4 e33d
00000020: 8e9a 863d bd55 fdbd f346 3abe a119 33bd
00000030: 67de 893d 6eb7 74bb 84b7 cebd 92de 25bd
00000040: 0a1a 3bbd dffd 99be 4f40 08bc bf5d 1bbe
00000050: b760 ddbb 795a 62bd ccb4 b83d 88c1 c53d
00000060: 823d 21be da12 f43c 8669 8c3d 0bcd bb3d
00000070: eb4e 2c3d 55c9 5bbe d777 793d 3dab dcbd
00000080: bca4 3b3d ec60 633d a5c1 a53d d264 343e
00000090: b547 b3bd 4b33 dfbd b3d7 733d 7dd0 c1bd
000000a0: 1594 d4bd 47bf eebd 4a10 e63d f119 f5bd
000000b0: 08de 243e 65e0 243d c5c6 0dbd 37be 003e
000000c0: d09b ba3d 5516 2a3e 31a3 f8bd 62e9 823d
000000d0: f565 a2bd 5c42 e9bd b634 343e f1a5 273e
000000e0: d722 f83d ee49 bf3d 8b56 253e 7298 083e
000000f0: 2772 acbc 0412 73bd 1423 e23b 324c 49bd
00000100: d86e cdbd dcdf 263e 8e49 303b a734 cc3d
00000110: 4481 123e 8f35 3bbe dd48 37be 2527 39be
00000120: e89b 323e e300 693e cb9d 0cbe 82fc 1bbe
00000130: ef19 15be eefc b3bd 5354 8abd 4589 073e
00000140: ab84 143e f09a 463e adf5 a63d c2df 433e
00000150: b423 1cbe 3811 073d 2515 4e3e 63d1 acbd
00000160: efdb d5bd 4b18 013d 260c e0bd 83e6 1c3e
00000170: 4b36 7d3d 3a74 9a3d 2ed6 33be 6bcd a63d
00000180: 3023 0ebd ceb3 01be 47f9 16bd 9244 0bbe
00000190: 63ec 6bbb 14ad ddbd 34fe 113e 2fd9 5b3c
000001a0: dff3 3bbe 9fc7 c73b 54c8 d73d c10e 0bbe
000001b0: dbc4 2dbd 4a68 cf3d f741 043d f0d6 563d
000001c0: 5496 2c3e 98c5 453e e634 4d3e a0df eb3d
000001d0: 69f9 453e 7883 213e 72ba 893b 3334 dcbd
000001e0: e047 5a3e 12d3 8cbd a8c1 a4bd d4c1 293e
000001f0: 5142 1bbd 33fc c43d 71e6 163e 2162 db3c
00000200: d0dc 4ebe 443f 49bd fcc6 14be f713 03be
00000210: 765a 07bd 5176 dabd fa84 063e ca48 a0bd
00000220: 115c bfbc 813d 2c3e 94a0 44be 6109 203e
00000230: c1a5 d6bd 3f76 db3c 18ad 2d3e a065 f03d
00000240: 28b6 033e 4706 333e adae 6a3e 02fb 643e
00000250: 31d7 523d 2e8e b73c 99f0 043e fe58 5d3d
00000260: fc42 e5bc 0e9b 913d 8375 543e 9447 1d3e
00000270: aa61 a139 a829 09bd f9c7 203e a325 a5bd
00000280: 75b9 0fbd a206 2ebd f2db 823e c441 ed3c
00000290: 6bc9 72bd d0d9 0ebe d911 24bd d44e f5bc
000002a0: 1f79 cd3c 82bd 0c3d b492 693d db22 413d
000002b0: 2690 363e da57 07be eab0 babd e05c e8bb
000002c0: b511 c1bc c58a 593d a7b9 ebbb 354a d8bd
000002d0: 9777 d73d ee55 f53c cd0b 13bc 604b 31bc
000002e0: b5c5 8fbd f4b1 7cbd a9a9 11bd e98c 2bbd
000002f0: b5fe 85bd b1b3 223e 07f2 353d b9aa 33bd
00000300: 7991 43be 8a98 f63c 4231 5dbe f9c3 93bd
00000310: 9cbb e63d eb49 bc3d 06c4 bf3c 557e 37be
00000320: e0dc 323e 743b f1bd 0e62 6abd bf03 793d
00000330: 58fe 4cbe 8128 7abd 7570 ebbd 58b0 1a3e
00000340: f762 6cbd a170 97bc 032d 323e 3e74 a93d
00000350: 2652 f8ba aa8d d4bd 3098 e83d eb2e 023e
00000360: de65 fe3d b0d2 e53d 891b 893d 2908 34bd
00000370: 202b a3bd a111 c6bd b576 3abe 06cd b5bd
00000380: 0fcd 113e 61e3 173c 8f62 253e 4b52 a83d
00000390: a4bb 183e aeea 373e d640 59bd ec49 873c
000003a0: 4d8e 65bb 1f65 0ebe 382a 9c3d edf6 47be
000003b0: e85e bfbd 0263 923d a16a cd3d 54fe d23d
000003c0: 6b42 a3bd 7192 cf3d dce4 55bd f709 fd3c
000003d0: a8d5 93bd e1aa 21be 9a2d cf3d 030a 22be
000003e0: 6057 42be 27d9 30be d71c 85bd 122e 2bbe
000003f0: 2a2f 0abe bbfe 12b9 5d80 2cbe 773c 4fbe
-0.25407434 -0.12637727 -0.2842574 -0.19968088 -0.02268261 0.09059404 0.20547433 0.11127475
0.06572448 -0.12369869 -0.18191127 -0.043725614 0.06731873 -0.0037340778 -0.100935966 -0.040495463
-0.04567913 -0.300765 -0.008316114 -0.1517248 -0.006755914 -0.055262063 0.09018859 0.09656054
-0.1574612 0.029794145 0.068560645 0.09169968 0.04206745 -0.21463521 0.060905304 -0.107748486
0.0458114 0.055512354 0.080935754 0.17616585 -0.087539114 -0.10898455 0.05953188 -0.09463594
-0.10379807 -0.11657577 0.11233576 -0.119678386 0.16100323 0.04025306 -0.03461339 0.12572561
0.0911175 0.16610081 -0.12140501 0.063921705 -0.07929603 -0.1138961 0.17598233 0.16371895
0.1211602 0.09340273 0.16146295 0.13339403 -0.021050526 -0.059343353 0.0069011543 -0.04914493
-0.100309074 0.16296333 0.002689931 0.0997098 0.14307123 -0.1828215 -0.17898889 -0.18081339
0.17442286 0.22754245 -0.13732068 -0.15233043 -0.14560674 -0.08788477 -0.06754365 0.13235958
0.14503734 0.19395041 0.08152328 0.19128326 -0.15247995 0.032975405 0.20125253 -0.08438375
-0.1044234 0.03151731 -0.10939817 0.15322308 0.061819356 0.075417 -0.17562172 0.08144649
-0.034701526 -0.12666246 -0.036858823 -0.13600376 -0.0035999052 -0.10824028 0.14257127 0.01341848
-0.18354748 0.0060967947 0.105362564 -0.13579847 -0.042424064 0.101273134 0.03228947 0.052451074
0.1685422 0.19313657 0.2003971 0.115172625 0.19333424 0.15772808 0.004203134 -0.10752144
0.2131648 -0.06876196 -0.080447495 0.16577846 -0.03790504 0.09618416 0.14736344 0.02678019
-0.20201421 -0.0491326 -0.14529032 -0.12800585 -0.033045255 -0.10667098 0.13136664 -0.078263834
-0.02335933 0.16820337 -0.1920188 0.15628578 -0.10480834 0.026789783 0.16960561 0.117381334
0.12862456 0.17482863 0.22918196 0.22361377 0.051474754 0.022406664 0.12982406 0.054039948
-0.027986042 0.071096525 0.20747952 0.15359336 0.00030781078 -0.033486992 0.15701284 -0.08063819
-0.035088975 -0.042486794 0.2555843 0.028962024 -0.05927412 -0.13950276 -0.040056083 -0.029944815
0.02508217 0.034360416 0.057024673 0.04715238 0.17828426 -0.13217106 -0.09115775 -0.0070911497
-0.023568014 0.053110857 -0.0071937623 -0.10561029 0.10520857 0.029948201 -0.0089749815 -0.010821193
-0.070201315 -0.061693147 -0.03556219 -0.04188243 -0.06542722 0.1588886 0.04442027 -0.043863986
-0.19098462 0.030102033 -0.21600822 -0.07215113 0.112662524 0.09193786 0.023408901 -0.17919286
0.1746707 -0.11778918 -0.05722242 0.06079459 -0.200189 -0.061073784 -0.11496059 0.15106332
-0.057711568 -0.018486323 0.17399983 0.082741246 -0.001894538 -0.10378583 0.113571525 0.1271321
0.124217734 0.11221826 0.06694705 -0.043953095 -0.0796721 -0.09671331 -0.18209346 -0.08876996
0.1423838 0.00927052 0.16150878 0.08218821 0.14915329 0.17960617 -0.053040348 0.01651474
-0.0035027445 -0.13905762 0.0762524 -0.19527788 -0.09344274 0.071477905 0.100301035 0.103024155
-0.079716526 0.10135353 -0.05222021 0.03088854 -0.07218486 -0.15787841 0.1011612 -0.15824132
-0.18978643 -0.17270337 -0.064996414 -0.16716793 -0.13494554 -0.0001401854 -0.16845842 -0.2023791

network.0.bias f4 [128]
00000000: 6452 1739 af20 39b9 9319 1bb8 2299 3637
00000010: 854d 8e38 e331 8b38 fe63 973a 4a4d 3b38
00000020: 9050 4838 a8ce 2e39 fd51 97b9 6bb7 6338
00000030: 97b5 beb8 e1bf 0339 ebc1 c639 41f4 2eb9
00000040: b526 3538 f24c 9937 2c08 e435 c8bd ad36
00000050: 1b08 2a39 a200 eb38 8d85 e038 2020 9937
00000060: f81f 2238 3071 4539 092e a838 529d 4cb7
00000070: 8b7f 9d39 46f1 92b8 8be3 e738 dfdb 7bb9
00000080: 173b 6038 33c3 4db9 e018 aeb7 b766 26b8
00000090: 78ca fbb7 5be0 4838 6bb4 73b6 88c0 1639
000000a0: 53b2 293a a88e 7237 8f36 1eb9 9568 f937
000000b0: ea60 beb9 0759 87b8 0bd4 1539 d0f4 00b7
000000c0: 9d6f cc37 9edc 34b3 d8b9 bd38 fbdb ac38
000000d0: 08a2 7c39 08e4 42ba 86b8 7eb8 6bc6 b839
000000e0: 9507 8538 f4ca deb8 1d38 7138 71ce c4b9
000000f0: b0f5 2cb8 3e06 61b8 865d 26b8 48d3 da39
00000100: 113f b037 1837 b9b8 0e50 c0b8 1b89 0c3a
00000110: ba90 b5b9 1a3a 08b8 befc 0c3a c795 2bb7
00000120: c243 2db9 6df6 e9b8 2532 01b9 6aa1 3c3a
00000130: edde bcb7 f207 42b8 309d ae37 6e6a 6537
00000140: 63a8 7cb8 9978 95b8 f14c a6b9 6054 56b9
00000150: 6352 1c3a a823 7bb8 0dd9 6f39 2f65 2c39
00000160: 47a1 34b7 cd20 b538 0d01 b537 068b eeb6
00000170: e85e 3f39 6a5a b339 879e 8db7 ccb3 5a3a
00000180: 3edd 2a39 bb92 33ba b330 2b39 fce0 5c36
00000190: a0c6 a438 456d 4b39 5674 afb8 5168 9a38
000001a0: 1da5 05b8 c8ef 00b8 ed17 11ba d736 11b8
000001b0: e1d1 8ab7 f44d 11b9 fcc1 f337 fa10 b9b9
000001c0: 6cff c738 d281 feb7 0dab c237 0f5a 9b39
000001d0: 642c a438 6d7b 45b7 5c05 6938 7795 afb9
000001e0: fb93 09b7 9bd9 5d38 15e2 7837 5cb6 3039
000001f0: f460 88b7 5cf1 f3b7 daf7 40b8 d80b 90b9
0.00014431175 -0.0001765515 -3.6978698e-05 1.0883699e-05 6.785527e-05 6.6373286e-05 0.0011550186 4.4656255e-05
4.7758745e-05 0.00016670919 -0.0002886205 5.429184e-05 -9.09373e-05 0.00012564614 0.00037909983 -0.00016684925
4.318981e-05 1.8274852e-05 1.6989702e-06 5.177895e-06 0.00016215483 0.00011205791 0.00010706028 1.825398e-05
3.8653583e-05 0.0001882955 8.019439e-05 -1.21959765e-05 0.000300404 -7.006763e-05 0.000110573215 -0.00024019134
5.3460793e-05 -0.00019623041 -2.0754e-05 -3.9673145e-05 -3.0015814e-05 4.7892663e-05 -3.6314839e-06 0.00014376838
0.0006473411 1.4457539e-05 -0.00015088379 2.9731813e-05 -0.0003631183 -6.453884e-05 0.0001428874 -7.686394e-06
2.4370669e-05 -4.2110166e-08 9.0468384e-05 8.242574e-05 0.00024092954 -0.0007434492 -6.073017e-05 0.00035243048
6.3433465e-05 -0.00010623588 5.7511137e-05 -0.00037537844 -4.123681e-05 -5.3649994e-05 -3.9664585e-05 0.00041737617
2.1010203e-05 -8.8317494e-05 -9.170185e-05 0.00053610065 -0.0003463084 -3.2479038e-05 0.00053782377 -1.0227267e-05
-0.00016523807 -0.00011156206 -0.00012321079 0.00071956834 -2.2515154e-05 -4.6260604e-05 2.0815613e-05 1.3674244e-05
-6.0238304e-05 -7.127337e-05 -0.00031719313 -0.00020440063 0.00059632043 -5.987627e-05 0.00022873674 0.00016440892
-1.0766386e-05 8.636862e-05 2.157737e-05 -7.109137e-06 0.00018250535 0.00034208904 -1.688233e-05 0.0008342832
0.00016294883 -0.00068501726 0.00016325973 3.2913513e-06 7.857126e-05 0.00019400295 -8.3663195e-05 7.362723e-05
-3.1863445e-05 -3.074089e-05 -0.0005534876 -3.4621768e-05 -1.6548614e-05 -0.00013857317 2.9058188e-05 -0.00035298598
9.5366355e-05 -3.0339612e-05 2.3206254e-05 0.00029631003 7.828398e-05 -1.1770852e-05 5.555652e-05 -0.0003348996
-8.200291e-06 5.2893167e-05 1.4834591e-05 0.00016852602 -1.625761e-05 -2.9080249e-05 -4.6007197e-05 -0.00027474645

network.1.weight f4 [128]
00000000: 51b3 7f3f 7bdf 7d3f 613e 7e3f 60ad 813f
00000010: ed9c 7c3f 4307 833f 3647 7a3f a53d 813f
00000020: e0ad 803f b104 7b3f 719f 813f dfb5 753f
00000030: 811a 803f f3c3 7e3f 5446 7b3f 62ad 783f
00000040: cbb5 7b3f 9486 823f 6c5a 813f fc81 813f
00000050: 6ce0 783f 99ec 803f 23f7 803f 8a27 793f
00000060: b745 843f e7c7 7f3f 8322 813f fbbe 863f
00000070: c35d 813f 493a 813f 39a2 823f 1186 873f
00000080: b986 863f b376 843f ef62 7c3f cf94 7a3f
00000090: b423 813f 061f 843f 8dbd 853f 3f2c 873f
000000a0: 133a 7b3f 2629 7d3f 34c4 7c3f 423a 803f
000000b0: b103 803f 1b08 7c3f a830 7a3f 9400 813f
000000c0: 5fd3 803f 1582 813f 2440 783f 98b5 813f
000000d0: 8cd9 763f 3e48 803f aa6c 813f 0a9e 783f
000000e0: d6a5 7d3f 9103 7d3f bd18 823f c2c2 823f
000000f0: 4fcc 813f d7de 7f3f e940 823f 14e1 7f3f
00000100: d54d 763f 277e 793f bece 7e3f f706 813f
00000110: 6484 813f f183 783f 7fde 7e3f 5efa 863f
00000120: 6adf 793f 3529 853f 7008 823f f1de 7a3f
00000130: c85b 803f 44a8 7f3f 6827 813f 9360 813f
00000140: c253 823f 33a3 843f a25d 7e3f 42e7 7f3f
00000150: 5544 803f 66f3 7d3f fc03 7e3f 9fce 823f
00000160: 4bcc 803f 478a 803f 2caf 823f e718 7a3f
00000170: 9dc0 7e3f 665e 813f fd74 763f 565e 773f
00000180: 3910 7c3f 1ac6 823f be7a 813f 94ac 813f
00000190: 8abe 823f eabe 773f 91ea 7d3f 37df 7c3f
000001a0: 59c8 813f 01bb 813f ffa1 783f 17d8 7e3f
000001b0: 1b20 803f a14a 823f b3a0 813f 7508 703f
000001c0: 7627 803f 187c 803f 2ad4 713f 8bf1 803f
000001d0: b9d9 7a3f d576 7e3f 555b 833f 0ac1 803f
000001e0: 3af1 7d3f 0e6c 7d3f e1e3 7d3f e24b 7d3f
000001f0: e6d1 823f cc88 7d3f 6293 7f3f c32f 7c3f
0.9988299 0.9916913 0.9931393 1.0131035 0.9867695 1.0236591 0.9776491 1.0096937
1.0053062 0.98054034 1.0126783 0.9598064 1.0008088 0.99517745 0.9815419 0.9713956
0.9832427 1.019732 1.010572 1.0117793 0.9721744 1.0072204 1.007542 0.97325957
1.0333775 0.999144 1.0088657 1.0527033 1.0106739 1.0095912 1.0205756 1.0587789
1.0509864 1.0348724 0.9858846 0.97883314 1.0089021 1.0321968 1.0448471 1.0560378
0.9813549 0.9889091 0.9873688 1.0017779 1.0001127 0.9844987 0.97730494 1.0078301
1.0064505 1.0117823 0.9697287 1.0133543 0.964257 1.0022047 1.0111287 0.9711615
0.9908117 0.98833567 1.01638 1.0215685 1.0140475 0.999494 1.0176059 0.99952817
0.9621251 0.9745812 0.99534214 1.008025 1.0118527 0.97076327 0.9955825 1.0545156
0.9760653 1.04032 1.0158825 0.9799643 1.002801 0.9986613 1.0090151 1.0107597
1.0181811 1.0362304 0.9936162 0.99962246 1.0020853 0.9919952 0.9922483 1.0219306
1.0062345 1.0042199 1.0209708 0.9769425 0.99512655 1.0106933 0.9627226 0.9662832
0.98462254 1.0216706 1.0115583 1.0130792 1.0214398 0.96775687 0.99186045 0.987781
1.0139266 1.0135194 0.97122186 0.99548477 1.0009798 1.0179025 1.0127167 0.93762904
1.0012043 1.003787 0.9446436 1.0073713 0.9798847 0.99400073 1.0262247 1.0058911
0.9919621 0.98993003 0.9917584 0.98943913 1.0220306 0.9903686 0.99834263 0.9851038

network.1.bias f4 [128]
00000000: 5809 003c 64ed e3bc 656a 123b fdaa 4a3c
00000010: f3ac ce3b 6f28 923a b1a3 29bc 0349 843c
00000020: a6ad febc 1902 11bd 7c75 e7bb a30f febc
00000030: 9ef6 03bd 480b 1fbc 0bd5 4abd 1308 aebc
00000040: 7c68 adbc a807 323c 1d91 c13a 8c00 96bc
00000050: 7acb 21bc 6247 77bc 6b16 1bbd ab0a 1abd
00000060: bd6b 793c 95b4 c03a 5d19 153c 3a09 89ba
00000070: eccc 673c 1d56 8c3c dbf4 30bd 0bb2 2a3d
00000080: 2bbc 76bb 65c1 073c ed01 01bd f068 9dbc
00000090: d072 e1bc fa82 1d3d 46a9 1b3c 02ca aabb
000000a0: eb72 e7bc d5ce 4cbc a743 72bc 3d92 fcbb
000000b0: 6bed 0bbd 65fe 78bc f8fb b0bc a553 b9bc
000000c0: fa56 1bbd 7616 c1bc 6a2f e6bc bb99 e03b
000000d0: 417b 43bd 0b88 0f3c 63e2 673c da7e f8bc
000000e0: c77f 2dbd 4915 8abc c9fe 1d3c 4c1b 22bd
000000f0: 2dd1 7bbc 7309 84bc 42b3 80bc 4289 c1bb
00000100: 8221 4dbd a219 20bd ae8d cebc b60c 8bbc
00000110: ecf4 1b3c ef6f 41bd 276e b6bc 2ab8 003c
00000120: 7587 ecbc e9e8 ec3c e998 20bd a374 6d39
00000130: 9ad6 d6bc cb77 c7bc e8d1 aebc 66f9 b13c
00000140: 78a2 133c 3f50 92bb 577b 19bd fd74 a53c
00000150: a638 793c 80cd 5bbc e348 cdbc ece1 8f3c
00000160: e2d4 f4bc a54d 46bc 9fc3 77bd cede 513b
00000170: 93cf 2bbb 0abb 3abc 3790 0fbd a792 83bb
00000180: 505f c2bc bc3f d83c 6f47 2bbd b48e 933c
00000190: a6ca e6bc 19de f7bc 3f0a 18bc 4c7a 2dbd
000001a0: 4fa1 23bc cb93 29bc 4eb2 70bb 9d7e 74bb
000001b0: f817 0ebd e573 9abc 6905 903c 13bf 95bd
000001c0: 6807 f9bb b02f c638 4b59 4fbd d275 fdbb
000001d0: ba70 0dbd 965b 86bc 04ec 0abd dffb 2ebc
000001e0: 14ae 833b 0032 d7bc a2ea 76bc 4e9d efbc
000001f0: 8b05 8b3b af64 32bd 5e68 52bd 0aee 89bc
0.007814728 -0.027823158 0.0022341248 0.012369868 0.0063072382 0.0011150966 -0.0103539685 0.016148096
-0.031088661 -0.03540239 -0.007063566 -0.031013316 -0.032217614 -0.0097072795 -0.04951958 -0.021244084
-0.021167986 0.010866083 0.0014767979 -0.018310808 -0.009875173 -0.015092703 -0.037863176 -0.03760783
0.015223441 0.0014702255 0.009100285 -0.001045502 0.014147978 0.017130906 -0.043202262 0.0416737
-0.0037648778 0.008285855 -0.031495977 -0.019215077 -0.027520567 0.038454987 0.009500807 -0.0052120695
-0.02825304 -0.0125004845 -0.014786637 -0.0077078626 -0.034161966 -0.015197371 -0.021604523 -0.022622893
-0.037924744 -0.02357028 -0.02809878 0.0068542636 -0.047724966 0.0087604625 0.014153096 -0.030333925
-0.042358186 -0.016855853 0.009643265 -0.039576814 -0.015369696 -0.016117787 -0.015710477 -0.005906255
-0.050080784 -0.039086945 -0.025214043 -0.016973834 0.009518843 -0.04722589 -0.022269322 0.007856408
-0.028873185 0.028919654 -0.039208326 0.00022645532 -0.026225377 -0.024349114 -0.021340325 0.021725368
0.009010904 -0.0044651325 -0.03747114 0.020197386 0.01521126 -0.013415694 -0.02505917 0.017563783
-0.029886667 -0.012103473 -0.060489293 0.003202367 -0.0026216253 -0.011397133 -0.035049643 -0.004015285
-0.02372709 0.026397578 -0.04181617 0.018012382 -0.028172802 -0.030257272 -0.009279787 -0.04235296
-0.009987189 -0.010350178 -0.0036727372 -0.0037306913 -0.034690827 -0.018854091 0.017580705 -0.07311835
-0.00759976 9.450258e-05 -0.050622266 -0.0077349925 -0.034531333 -0.016401093 -0.03391649 -0.010680168
0.0040185545 -0.026268959 -0.015070589 -0.029249813 0.004242604 -0.04355305 -0.051369064 -0.016837139

network.1.running_mean f4 [128]
00000000: 2b89 99be a382 063f 0c6c e53e e97f 4dbf
00000010: 3a9d b03e 3980 88bf 7a21 d33e bcfc 313f
00000020: eea8 6c3d f1e9 afbf e371 be3f 13c6 d93e
00000030: 147a b23f 8e2e f9bf e049 843e 1612 863f
00000040: d2cc fa3e 0d99 093d e997 0740 9dbc 133e
00000050: 8bdf 4b3f dd5a 923f b6c4 debe 5fe1 35bf
00000060: 8627 14bd efd2 c2bd f575 523f 9787 0f3e
00000070: 0f63 db3f 5bc7 c53e e10a 273f 3499 99be
00000080: 244f 07bf 78da 0040 c7ff 253e 8102 07be
00000090: 4ef4 5ebf 1939 31bf c5fe 27bf 7539 ee3d
000000a0: fa03 a43f f6f6 133e 63ff ab3c c0c5 74bf
000000b0: 0b25 5f3f d657 0d3f 04cb 8dbf 3641 64bf
000000c0: e2c9 afbc 98f3 a63f 99b0 d3be e236 4e3f
000000d0: c824 be3e 4dbe 1abf a8de d73f 15e4 753f
000000e0: 555d 1fbf 1d6e 22be 0c61 1c3e 05f3 8b3f
000000f0: bc76 0040 888b e9be b960 0d3f 6acb 98bf
00000100: 8432 1f3e 0945 113f ccba 4f3f 7cd6 e03f
00000110: 0e3a 7b3f 5bdf 123f 621f f63e 3d2e 953f
00000120: 3e35 c4be 906a 89bf c382 bf3d f28a 0b3f
00000130: f265 e63e 846c ae3e cee2 86be c50e 9d3f
00000140: 1ce8 ee3f 124d 9a3f dcdd 1e3f 2785 373f
00000150: a0ac 1fbe dc79 a2bd 49b5 b03e 8edd ae3f
00000160: 07cc bf3e 1f22 e83e 6fa6 cabe ffed 933e
00000170: 7fb7 e9bd f408 d83f c4ad 84bf 92bf d63d
00000180: 2aa5 a8bf 2874 1fbf 8d3c ad3f 6057 b33f
00000190: b03e 7dbf 24ff a73f 7d4f 673f 076e f03f
000001a0: 75e5 113f 9abf 913f da44 bdbe e632 50be
000001b0: b657 6dbf 92d2 e4be 551d 943f 3700 03c0
000001c0: 3f6b c73f de36 a2bf 1529 b03e 56c3 e53e
000001d0: e65d b2bb ce0e fe3d d634 8a3c e9a5 893f
000001e0: f2f5 eabe 7d22 72bf 87f8 d9be 5681 7b3f
000001f0: b390 9d3f 5497 733e afc1 5e3f 8960 afbe
-0.29987463 0.52543086 0.44808996 -0.802733 0.34494954 -1.066413 0.41236478 0.6952627
0.05777829 -1.3743268 1.4878505 0.4253393 1.3943505 -1.9467332 0.25837612 1.0474269
0.4898439 0.033593226 2.1186469 0.14427419 0.79637975 1.1433979 -0.43509454 -0.71047014
-0.036170505 -0.09512889 0.8221124 0.14016567 1.7139605 0.3862866 0.65250975 -0.29999697
-0.52855134 2.0133343 0.16210853 -0.13184549 -0.8709153 -0.6922775 -0.6562312 0.11632053
1.2813714 0.14449677 0.020995801 -0.9561424 0.871659 0.5521215 -1.107758 -0.89162004
-0.02145857 1.3043089 -0.4134567 0.80552495 0.37137437 -0.60446626 1.6864824 0.9605115
-0.6225179 -0.15862317 0.15271395 1.0933539 2.007247 -0.45614266 0.5522571 -1.1937077
0.15546614 0.56745964 0.81144404 1.7565455 0.9813546 0.57372063 0.48070818 1.1654736
-0.3832187 -1.0735645 0.09351113 0.5450889 0.44999653 0.34067166 -0.26344913 1.2270132
1.8664584 1.205477 0.6205728 0.7168755 -0.15593195 -0.07933399 0.3451331 1.3661363
0.37460348 0.45338532 -0.39580104 0.28892514 -0.11411952 1.6877732 -1.0365529 0.10485758
-1.3175404 -0.62286615 1.3534104 1.401104 -0.9892378 1.3124738 0.90355664 1.8783578
0.5699075 1.1386597 -0.36966592 -0.20331916 -0.9271196 -0.44691902 1.1571451 -2.046888
1.5579604 -1.2672994 0.34406343 0.44875592 -0.0054433225 0.124051675 0.016870897 1.0753757
-0.45890766 -0.94583875 -0.42572424 0.98244226 1.2309784 0.23788196 0.8701429 -0.34253338

network.1.running_var f4 [128]
00000000: f926 3944 f652 1e44 9c79 8b44 b1a5 0d44
00000010: ea63 eb43 1bf3 fd44 98fa 6f43 e54a 1f44
00000020: 08c0 1e44 4abb 0f44 e812 4842 f6f1 2f45
00000030: 2780 a544 27b8 5e44 4c07 0344 c008 7544
00000040: a8e5 7f44 28a9 fa43 8463 3f45 357d 9a43
00000050: 45a2 9b44 0c01 1044 07a8 1644 a7b7 8344
00000060: 16e1 cf42 cd08 b043 c8a1 4f44 7921 a444
00000070: 800b bd43 aedc 1045 844c 2d44 8b17 8c44
00000080: 187a 1b45 58ac 8243 0e04 b843 8ea3 5b44
00000090: 9827 1e45 d8a3 9543 b574 a644 16d6 1245
000000a0: 64bc f543 cfaf 3444 167e 2044 5072 bb44
000000b0: 7971 7643 8da8 b943 35e5 8244 e9fc 5144
000000c0: f003 0b45 27a8 dd43 a1fc 0644 ef0f ad44
000000d0: 5917 3b44 e4db 6643 deaa a244 ff27 f943
000000e0: 1a27 2745 9025 ce43 d47b 0f44 766d b643
000000f0: 6507 2544 f073 3344 b11a 7844 2067 9343
00000100: 3872 3744 d865 6744 a0e8 5944 c2c8 f143
00000110: fa57 d743 c5e0 b044 c8f8 c743 a63b c144
00000120: 5946 f743 a021 8142 a75c 6843 4fa1 ad43
00000130: 7544 4244 7870 8e44 a5b2 4544 ee14 ae43
00000140: ce0d d044 c4d5 0744 7353 e542 6456 6544
00000150: fbbc 1d44 f268 6b44 98c4 8e43 b348 ac44
00000160: 8e19 cd44 0928 0f44 5d80 1545 8dc6 d244
00000170: cb8b e643 2d67 a443 1e16 ff43 1984 9042
00000180: 81ac 0744 462c c241 e85a 2043 00af de43
00000190: 204e 7344 a8fd d943 6cbb 7144 1c75 2a44
000001a0: 8f30 9644 2a0d d043 a59e 3044 3817 d544
000001b0: 0f9c ff42 ca75 ab43 88bd ae44 8957 4a44
000001c0: d432 0145 6025 8b44 c83d 8144 24e3 ed43
000001d0: 3eee 2b44 7d49 6544 c882 e943 d3ef a443
000001e0: 85ce 4644 fbe6 a044 b7e7 a043 894c f443
000001f0: 4974 3a44 587e b743 4bba a143 0f31 8043
740.60895 633.29626 1115.8003 566.5889 470.78058 2031.597 239.97888 637.1702
635.0005 574.9264 50.018463 2815.1226 1324.0048 890.8774 524.114 980.1367
1023.5884 501.32153 3062.2197 308.97818 1245.0709 576.01636 602.6254 1053.7391
103.93962 352.06876 830.52783 1313.046 378.08984 2317.7925 693.19556 1120.7357
2487.6309 261.34644 368.03168 878.55554 2530.4746 299.28003 1331.6471 2349.3804
491.4718 722.747 641.9701 1499.5723 246.44325 371.3168 1047.1627 839.9517
2224.246 443.3137 539.9473 1384.4979 748.3648 230.85895 1301.3396 498.31247
2674.4438 412.29346 573.9348 364.85516 660.11554 717.8115 992.41705 294.80566
733.78467 925.5913 871.63477 483.56842 430.68732 1415.024 399.9436 1545.864
494.5496 64.565674 232.36192 347.26022 777.06964 1139.5146 790.7913 348.1635
1664.4314 543.3401 114.66299 917.34985 630.9528 941.6398 285.5359 1378.2719
1640.7986 572.62555 2392.0227 1686.2047 461.09213 328.80606 510.1728 72.258
542.6954 24.271618 160.3551 445.3672 973.2207 435.9817 966.92847 681.82983
1201.5175 416.10284 706.4788 1704.7256 127.8048 342.92023 1397.9229 809.36774
2067.1768 1113.168 1033.9307 475.77454 687.72253 917.14825 467.02173 329.87363
795.22687 1287.2181 321.81027 488.59793 745.81696 366.98706 323.4554 256.38327

network.4.weight f4 [64, 128]
00000000: b185 1a3e 25c4 ca3d 22e3 b83d fb28 14be
00000010: e7c8 fabd c923 bf3c 2255 a7bd 0286 e2bd
00000020: fce4 023e 56de 9dbd 80ae 523d 931b fc3d
00000030: 1af8 aebd e53b 41bd a702 0e3e 5e14 293d
00000040: 94bd 363d 8dd9 063d 3838 0dbe 3fc6 203e
00000050: 59eb 34bd 2976 8dbd e968 ef3d 98ee 14be
00000060: bfab a13d 6d25 6a3d e0ac d63c 34fa 213e
00000070: 6004 4a3d 09c5 92bb ccbb e63d 950a 093e
00000080: 11bf 053e 75ca 863d a075 f83d ca9a 843d
00000090: d45d bc3d 1bba f43c 04ff 19be f5d6 893d
000000a0: b89a e1bd d216 b73d 4edb 64bd e528 afbd
000000b0: 8004 003e f3c0 abbc 292d 2c3d 94fa 383d
000000c0: ad10 03be ef97 963d 2e24 e23d 2c2d 3c3e
000000d0: 04d6 23be c14d 533d 6f3d 0abe c36c 103e
000000e0: 97d9 f7bd 3d7d 2bbd 259c 2d3e 821d d83d
000000f0: c708 c7bd f67b ce3d 9b98 323e b4ac bebd
00000100: ec9c 21bc e9c4 edbc 2bad 06be 3f19 1bbe
00000110: 66be c03d 205f 783d 4549 45be 8982 ff3c
00000120: 988d f43d 8a6c cfbd ce9d 75bd c762 0f3d
00000130: 70ec adbd c7d4 3b3e 965c 34be d069 e43d
00000140: ac51 f1bc 9729 393d 0428 2fbd 6e6d ffbd
00000150: 08f5 20be 10e4 1ebe edd5 01bd dc00 e5bc
00000160: acb8 9abd 593c 80bd c2e2 db3d 00a0 f53d
00000170: 3523 073e 925b 353d cb33 103e c89d 073e
00000180: 699a cc3b 5250 f33d 4950 1cbc 72dd 1cbe
00000190: fd82 473c d948 053e ee9e 883d 9c9b 14be
000001a0: f7f1 e73d 15ee 8ebd a316 f3bd 4146 fd3d
000001b0: 19e6 3cbc a2aa 573e 63d1 fa3d 7f98 9abd
000001c0: debf e13d efed 753d 4268 d63b f08f 9bbd
000001d0: e70b a83d 2a24 0fbe 180a 1f3e 397a 173b
000001e0: c196 2cbe ab05 283e 7934 c9bd 56f4 e63d
000001f0: c9b5 273d 49b4 7ebd d908 5b3c 8c1e f8bd
00000200: 0936 283e 30fb 9f3d 655b 1ebd 8daa 35bd
00000210: 3f8f e5bc f68d 4d3e e98e c83c d2cc ad3b
00000220: 6c3e f9bd cdfb 97bd d439 143d 96d6 b2bc
00000230: 4bfa c53b ee56 22be 298f b2bd 2998 023e
00000240: 56ed 14bc c2a0 07be 6040 d33d 7b78 f73c
00000250: e949 d8bd 709f 1abe 7eee b9bd f0ae 32bd
00000260: 65c5 943c f773 253e b3d3 b4bd 8e7a fe3d
00000270: a828 903d d4e2 1b3d 2791 123e 750b 393c
00000280: 9ef7 36bd 7644 29be 81ea 453c 1d3d ea3b
00000290: 76d9 1f3e fdb8 063e d210 3dbc a337 02bd
000002a0: 858d 0b3e d09e 403e 7570 233c 72cf 1cbd
000002b0: aae8 1bbd d11b debd 9bfa 9ebd 3ad7 fe3c
000002c0: e7b3 05bd 96ec df3c 04fb 853d 317a 0ebd
000002d0: 459e 9fbc 3d80 943d bcfe d2bd 08c7 a6bb
000002e0: d2bc 09be d24e 293e 83df 82bd b308 463e
000002f0: 8957 af3d 5aa1 e2bd 7f25 3d3e aa9c 2fbe
00000300: aa56 82bb 4246 22be a8c5 10bd 0f1a d8bd
00000310: ce30 113e 1a27 b6bd 07fe e0bd 4cf8 b33d
00000320: 6925 9ebd 1172 963d 32e0 cfbd 5763 e03d
00000330: 1cc9 263e 79a1 3a3e 5f0d a2bc 15a5 e5bc
00000340: 1de3 a03c dd96 bd3d 9230 d8bd e8ae 083c
00000350: 1faa 25be f514 a3bd 76d3 87bd 73b9 313e
00000360: 9ca1 413e cc86 03be cb90 92bc 77aa c9bd
00000370: 7cc4 ebbd 4936 10be 45da af3c bfc4 c8bc
00000380: fc6d ea3d 2d05 183e 6852 0dbe 81ed 7ebc
00000390: 5496 493e e33d ba3d 349c f13d fb2e 043e
000003a0: f363 e53d ce20 75bd 2873 c03d e5d2 123d
000003b0: 5392 4abd 237d 883d 47fa e83c 8bf8 da3d
000003c0: c081 0dbe e32d 143e 7cf7 903d bb38 f13d
000003d0: 65b2 9abd b96c 113e 9f0e 32bd f9ed 193e
000003e0: 08e8 a03d e495 533c ddbf 093e e3c1 32bd
000003f0: 1645 6bbd 2db1 c63c e3ca 20bc 4d6c 00be
0.15090062 0.09900693 0.09027697 -0.14468758 -0.1224535 0.023332493 -0.08170535 -0.11060716
0.12782663 -0.07708423 0.051435947 0.12309947 -0.08543415 -0.04717626 0.138682 0.04127919
0.04461439 0.032922316 -0.13790977 0.15700625 -0.044169758 -0.06907303 0.11689932 -0.14544141
0.07894086 0.0571646 0.02620548 0.15818101 0.04932058 -0.004479055 0.11266288 0.13382943
0.13061167 0.06581584 0.1213181 0.06474836 0.09197584 0.029873898 -0.15038687 0.06730453
-0.110158384 0.089398995 -0.055873208 -0.08552722 0.12501717 -0.020966029 0.042035256 0.045160845
-0.1279933 0.07353198 0.11042057 0.18376607 -0.15999609 0.051587824 -0.13499998 0.1410399
-0.12102049 -0.041867483 0.16954096 0.10552503 -0.09718471 0.100822374 0.17441027 -0.09310284
-0.009864073 -0.029024558 -0.13151996 -0.1514635 0.094113156 0.060637593 -0.19266231 0.031190174
0.11941069 -0.10128124 -0.059964947 0.03500631 -0.084923625 0.18342887 -0.17613444 0.11152995
-0.02945789 0.04520568 -0.04276277 -0.12472044 -0.15718472 -0.15516686 -0.031698156 -0.027954511
-0.075547546 -0.062615104 0.1073661 0.11993408 0.13197024 0.04427678 0.14082257 0.13243783
0.006243993 0.11880554 -0.009540626 -0.1531885 0.012177226 0.1301607 0.066709384 -0.14512485
0.11325448 -0.06979004 -0.11869552 0.123669155 -0.011529469 0.21061185 0.122469686 -0.075486176
0.11022924 0.060041364 0.00654319 -0.07595813 0.08205395 -0.13978639 0.15531194 0.0023113622
-0.16854383 0.16408412 -0.098244615 0.11277072 0.04094485 -0.062183652 0.013368809 -0.12115201
0.16426863 0.07811582 -0.03866138 -0.044352103 -0.028022407 0.20073685 0.024482207 0.0053039575
-0.12170109 -0.07421074 0.03618796 -0.021830838 0.0060418 -0.15853474 -0.08718712 0.12753357
-0.009089788 -0.13244918 0.10315013 0.030208817 -0.10560972 -0.15099883 -0.09078692 -0.043623865
0.018160531 0.16157518 -0.08829441 0.12425719 0.070390046 0.038058117 0.14313184 0.0112942355
-0.04466974 -0.16530022 0.012079836 0.0071483986 0.15610299 0.13156505 -0.011539655 -0.03179134
0.13628204 0.18810582 0.009975542 -0.038283773 -0.038063683 -0.10845149 -0.07762643 0.031108487
-0.03264227 0.027334493 0.06542018 -0.0347845 -0.019484648 0.07251022 -0.10302493 -0.0050896443
-0.13450935 0.16533974 -0.06390288 0.19339256 0.08561618 -0.110659316 0.18471335 -0.17149606
-0.0039776163 -0.15847114 -0.03534475 -0.10551845 0.14178774 -0.08894177 -0.10985952 0.08787593
-0.07721979 0.07345975 -0.10150184 0.109564476 0.16287655 0.1822566 -0.019781766 -0.028032819
0.019639546 0.092572905 -0.10556139 0.008342482 -0.16178177 -0.079629816 -0.0663213 0.173559
0.18909305 -0.1284439 -0.017891308 -0.09846967 -0.11512086 -0.14083208 0.021466384 -0.024507878
0.11446759 0.14845724 -0.13800967 -0.015559555 0.19686252 0.09093835 0.117973715 0.12908547
0.112007044 -0.059845738 0.09396964 0.035845656 -0.049455952 0.06664493 0.028439654 0.10691937
-0.13819027 0.1447063 0.07078454 0.117783986 -0.07553557 0.1420163 -0.043470975 0.15032186
0.078567564 0.012914155 0.13452096 -0.043641936 -0.057438932 0.024254406 -0.009813997 -0.12541313

network.4.bias f4 [64]
00000000: 2ff1 a1b8 4f47 bbba 1550 1b3c a71b 82b9
00000010: b755 733b feaf d03a 19cb 9d3b 84cc 9d3b
00000020: 8e94 4f3b c03e 1b3b a259 83bb 7d81 863b
00000030: 6e8d 553b fde1 a03b a3e4 01b9 573a 103b
00000040: 330f d93b 8147 a2ba 1d58 01bb 3513 afbb
00000050: 945a 3f3a 4d21 f43a 486a 9d3a 53f6 f0bb
00000060: 3461 0dbb 1c39 453b bfb1 9d3a 369f d2bb
00000070: 68a1 693b e65a 82bb fc62 893b e0c8 663b
00000080: 7a50 c6ba 914c 85b9 ad07 a5ba 2f23 4e3b
00000090: ef34 353b bce4 243b d81f 14bb 094d 3b3a
000000a0: 0925 c9b9 011c d2ba 0475 453b 25e3 25bb
000000b0: 1031 10ba 2eef e83b 3ff4 c83b 7e28 1abb
000000c0: cda2 b53b 32fb c9b9 0693 c83a 23ed 4d3b
000000d0: b174 0dbb 9cf4 5abb 530b 82ba db38 86b9
000000e0: 004a 20b8 5e9d 4eb8 5e31 f0bb bc2b 333b
000000f0: b679 02bb 70b0 063b f81b 023c f22d f5bb
-7.722002e-05 -0.0014288219 0.009479542 -0.00024816135 0.0037129947 0.001592159 0.004815471 0.00481564
0.003167424 0.0023688525 -0.004008488 0.0041047917 0.003258552 0.0049097524 -0.00012387572 0.002200743
0.0066241263 -0.0012380929 -0.0019736357 -0.005342866 0.0007299569 0.0018625647 0.0012009824 -0.007353583
-0.002157283 0.0030093854 0.0012031122 -0.006427671 0.0035649184 -0.003978121 0.004192708 0.0035214946
-0.0015130185 -0.00025424783 -0.0012590789 0.0031454077 0.002764996 0.002516075 -0.0022601988 0.0007144963
-0.000383653 -0.0016030074 0.0030129561 -0.002531239 -0.0005500475 0.0071085906 0.006132632 -0.002352267
0.005543089 -0.00038524863 0.0015302605 0.0031421862 -0.0021584446 -0.0033409959 -0.0009921588 -0.00025600832
-3.821589e-05 -4.9260787e-05 -0.007330104 0.00273393 -0.001990897 0.0020551942 0.007941239 -0.0074822837

network.5.weight f4 [64]
00000000: e01e 863f 7afc 7c3f e36b 8b3f 310f 823f
00000010: 2f4e 863f 2ccb 863f 4fa6 853f 111a 7b3f
00000020: ef10 833f 4279 843f 519a 7d3f 497b 7b3f
00000030: 7445 7d3f e5ed 863f fc2e 6e3f cba8 6a3f
00000040: 76aa 863f 4824 793f 808a 6f3f c7ce 843f
00000050: 50cd 7a3f 21d8 783f 576c 843f 3bf8 733f
00000060: e04c 863f 1ad4 723f 046f 733f 1589 803f
00000070: 6d44 823f eaee 6e3f 2f30 833f e3b9 7a3f
00000080: 75b8 823f 4834 833f 49e9 6b3f 901f 6f3f
00000090: e877 653f c0bf 8b3f 9cb5 743f cd5b 703f
000000a0: f73a 763f 5ba4 733f afd8 7c3f 0404 873f
000000b0: b338 843f 5a2a 793f 6102 6f3f 90e4 793f
000000c0: fd6c 743f fa57 863f 39d9 763f 4248 7d3f
000000d0: 965e 803f bdcb 823f 0b30 823f 0b72 773f
000000e0: 1742 7f3f 4564 7e3f cf94 843f 1d79 833f
000000f0: 70ac 873f fd05 793f dc36 753f 16e7 7f3f
1.0478172 0.9882275 1.08923 1.0160886 1.049261 1.0530753 1.0441378 0.9808665
1.0239543 1.0349505 0.99063593 0.98234993 0.989341 1.054135 0.9304044 0.9166381
1.052077 0.97320986 0.9357071 1.0375603 0.9796953 0.97204787 1.0345563 0.95300645
1.049221 0.9485489 0.9509127 1.0041834 1.0177132 0.93333304 1.024908 0.9793989
1.0212542 1.025033 0.9215284 0.93407536 0.8963609 1.0917892 0.95589614 0.93890077
0.96183723 0.9517266 0.9876813 1.05481 1.0329803 0.9733025 0.93363005 0.97614384
0.954788 1.0495598 0.96425205 0.9893838 1.0028865 1.0218426 1.0170912 0.9665839
0.9971022 0.9937175 1.0357913 1.0271336 1.0599499 0.9727476 0.95786834 0.99961984

network.5.bias f4 [64]
00000000: 2c4e b23c 390f 14bd 9dfe 213d c1c8 2f3c
00000010: 24a4 2d3d e380 903c c6be 54bc 56c9 80bc
00000020: 7d05 383d 15c5 653d 9b91 3ebd aed4 03bc
00000030: 8da5 ddbc c64e 9d3c e61e 59bd aaf1 98bd
00000040: d1c2 223d b034 8abc 8b7e b3bd eeb3 293d
00000050: 614e 87bd 7942 b9bc 0803 083d e1a1 96bd
00000060: ddd4 063c 792d 1abd f7c6 60bd 19d0 aebc
00000070: 54d9 0dbc 704e 51bd 3d5d 01bd d08a 1bbd
00000080: 7190 5f3d d1d4 5bbc 7c0c 9dbd ced9 babd
00000090: db51 cfbd fa1c f4b9 6a88 2ebd bd62 f1bc
000000a0: d0fc 03bd 6083 85bd 7813 69bb 5370 a93c
000000b0: e8b9 213d 10de 74bd 1868 76bd 7864 b5bb
000000c0: 8d7a 5fbd 8522 71bc 53b8 9fbd 66de a2bc
000000d0: fadc 343d a6c2 d43c e0ce 403d 3489 0cbd
000000e0: 496c 84bd 5057 8aba c886 413d 1aba 393c
000000f0: 7dd8 533c 4cfd dfbc 8dc1 15bd a625 acbc
0.02176579 -0.03614733 0.03954946 0.010729016 0.042392865 0.017639583 -0.012984937 -0.015721004
0.04492711 0.056096155 -0.04652558 -0.008046312 -0.02705648 0.019202601 -0.053007983 -0.07467969
0.039736573 -0.016870826 -0.087643705 0.04143136 -0.066067465 -0.022614704 0.033206016 -0.07355095
0.0082294615 -0.037641022 -0.054877248 -0.021339463 -0.008657772 -0.051100194 -0.03158306 -0.03797418
0.05458111 -0.013417439 -0.07668397 -0.09123574 -0.101230346 -0.00046560896 -0.042610563 -0.029466027
-0.032223523 -0.065191984 -0.0035564583 0.020683443 0.039483935 -0.059782088 -0.060157865 -0.0055356584
-0.054560233 -0.014717703 -0.07798829 -0.019881438 0.044156052 0.025971722 0.04707229 -0.034310535
-0.06465966 -0.0010554586 0.047247678 0.011335874 0.012930033 -0.027342461 -0.036561538 -0.021014046

network.5.running_mean f4 [64]
00000000: 806a 153f 17f0 fa3e ab3b 503f 042b 583f
00000010: 8c96 1e3f 62a6 873f 07b6 083f e4f0 463e
00000020: b60d af3d 7507 093e 1043 d8bc fd04 21bf
00000030: 3b77 b73e 12d9 9f3f 80ea 50bf 7043 8bbf
00000040: e606 ac3e 1077 c33d ecc6 083f 3857 7e3b
00000050: ba9a a8be 8ee8 2fbf 0e4c 603f 76b2 283f
00000060: cdec 153f 597b 65bf bc53 c73e d6e5 633f
00000070: 40ba 823e f3e8 5bbf 420d b53f 7788 403e
00000080: 7a75 09be 0fcf 363e fbfa 6cbf 874d 57bf
00000090: 9688 1dbf aee7 b6bd 8e2d 7dbe e67a 6fbf
000000a0: ec7f 44be abd6 b03e fe6c 4d3f fc7c 813f
000000b0: 4f23 a1bd 2154 013c e1e9 e8be d795 43bf
000000c0: 33d0 e4be 7430 103f f2a4 eebe 84de 003f
000000d0: 13a9 2dbe 5817 5b3f 4b59 323f f85b 31bf
000000e0: caaf 27bd 30b5 e9be af3d 173f 5b94 6f3f
000000f0: 014b 553f e9d7 d5be 1e4e f1be a72b bb3d
0.5836563 0.490113 0.81341046 0.84440637 0.61948466 1.0597651 0.5340275 0.1942783
0.08547537 0.13381751 -0.026399165 -0.62898237 0.35833153 1.248812 -0.8160782 -1.0879955
0.33599013 0.09544194 0.5342853 0.003880931 -0.32930547 -0.68714225 0.8761605 0.6589731
0.58564454 -0.8964134 0.38931072 0.89022577 0.25532722 -0.8590233 1.4144671 0.18802057
-0.1342372 0.17852424 -0.92570466 -0.8410267 -0.6153654 -0.08930908 -0.24724409 -0.93546903
-0.19189423 0.3453878 0.80244434 1.0116267 -0.07868063 0.007893593 -0.45490935 -0.7640051
-0.44690093 0.56323934 -0.46610218 0.5033953 -0.16959028 0.85582495 0.696675 -0.6928096
-0.04093913 -0.45646048 0.59078497 0.9358575 0.8331757 -0.4176629 -0.4712991 0.091391854

network.5.running_var f4 [64]
00000000: 07de 1540 abe3 0a40 53d0 0c40 5a83 1440
00000010: b47f c63f 1c5b 5340 c779 1940 7c98 4c40
00000020: 7d83 2c40 9e5b 5440 0031 a73f fd7b 6440
00000030: 140e d43f 5817 3440 213e 4c40 b1fe 2940
00000040: a421 953f f2a0 ad3f a424 3c3f dbe7 c43f
00000050: 8e1c 5b3f 3296 8b3f 64f1 d03f d3ae 0640
00000060: fa99 0240 17d0 eb3f 8c41 863f 52ba 913f
00000070: 8781 ef3f cadc 3140 506f 6d40 2799 e93f
00000080: 8622 6940 3d49 943f 2686 a63f 1621 8f3f
00000090: 5216 8d3f 6e44 373f 022f 283f b703 c03f
000000a0: 0277 be3f 377f 2040 74fe a83f 665f 4c40
000000b0: 0eb2 2840 063e c13f f166 fa3f ab94 1c40
000000c0: db8d 5f3f 75e4 cd3f 332a 433f edfa 8c3f
000000d0: 54f0 3540 4934 3640 60c2 4340 3be4 e83f
000000e0: fe5b 583f a722 0440 cfe2 2840 6c36 0b40
000000f0: 11b3 5c40 a86f 4c40 bb14 4c3f 2b90 6c3f
2.3416765 2.1701458 2.200215 2.320517 1.5507722 3.3024359 2.3980577 3.196807
2.6955254 3.3180919 1.3061829 3.5700676 1.6566796 2.8139248 3.191292 2.6561701
1.1650891 1.3564742 0.7349341 1.5383257 0.85590446 1.0905211 1.6323667 2.1044204
2.040648 1.8422879 1.0488753 1.1384985 1.8711404 2.779101 3.709919 1.8249863
3.6427321 1.158485 1.3009689 1.1181972 1.1022437 0.7158879 0.6569673 1.5001134
1.4880068 2.5077646 1.3202653 3.1933227 2.6358676 1.5097053 1.9562665 2.446574
0.8732583 1.6085345 0.76236266 1.1014076 2.8427935 2.8469412 3.0587387 1.819465
0.8451537 2.064615 2.6388433 2.1751966 3.4484293 3.194315 0.7971913 0.9240748

network.8.weight f4 [32, 64]
00000000: 06d7 6cbe 7834 143e f703 4dbe f6db 0d3e
00000010: f27f e43d 6d27 4bbe a761 e6bd 3a8a 533d
00000020: 4728 36be 790d 80be fff6 393c 87eb 5bbe
00000030: e153 43bd 45bd 233e 8c50 233e 3cbc c13d
00000040: 145b bdbc 7c06 8bbe a0a8 913d fd24 283e
00000050: 8487 8dbd 523a efbd f15d 36be f7c0 983c
00000060: d63c 1bbc 9e0a 4d3e f54f 163e 555b 553e
00000070: aa20 7dbd a1c9 ae3d 495f 6abe 86db a9bb
00000080: 851e 39be e5fb 19be cf80 cbbd ddad 973d
00000090: 0381 cc3d 0f6e a3bd bbe4 14be 9ff1 5bbd
000000a0: 0fce a6bd 3872 acbd c5cb 7b3d 8283 20be
000000b0: d0c5 783d 2d87 6bbd e27e 573e 01e9 b8bd
000000c0: 7f8a e1bd f9aa 7ebd 84e3 2e3e 2dcd b3bd
000000d0: 8cbc 283d 1dff 853c e2b9 813c 62e9 c43d
000000e0: cc72 8c3d 099e f33d 7f8d 67be ba62 473e
000000f0: 876e 41be d882 0b3e 2038 a63d ee38 2bbe
00000100: 6a16 013e fcf1 3dbe 3605 99be 6dda 8e3d
00000110: dad0 66bd 31ea 81be 5656 e73c 7030 7bbe
00000120: 7416 393e 1a81 c43d 53bf 16be 5a00 4abe
00000130: 6b6e 023d 2c42 ed3d 0037 a83d 9a40 513c
00000140: be83 073e 1af8 51be 9c7c c73d 280e 07bd
00000150: 1b77 1dbc 0332 e2bd 5b78 d93d ed03 423d
00000160: f260 2abe f205 86bd d724 e03c be4f 563e
00000170: cf7a 53be 5285 313e 494d 7cbe 2485 dd3d
00000180: 6914 1a3d 455e a13d a455 90bd 0ce5 22be
00000190: 62c4 42be 86db 543e e9ae 073d b2e5 8a3c
000001a0: 2d9a 513e d661 c7bd 8b98 4abd 8901 893d
000001b0: 0bf6 1b3e fd5e da3b 1e62 533e ce85 bc3d
000001c0: cc87 cd3c 422c 83be 07f6 d93d 105c 963c
000001d0: 87db 33be 2e02 10bd 2b96 653e 5c03 bf3d
000001e0: 7d97 4cbe 6f3e 4f3e c948 8cbd fad2 e93d
000001f0: 1363 653d 1b44 9b3d 0166 d13d cb93 09be
00000200: 553f 813e 4859 0d3e e3db 153e 3d0b ec3c
00000210: a810 073e 2e8e a23e 0a95 ed3d d642 083c
00000220: d806 5cbd 31b1 1f3e 66ac 8ebe 5e3c 253e
00000230: 7dfb 023e 7605 bd3d bbe4 afbc 6826 1a3e
00000240: 07be 75be f372 25be 74f4 04be f5f5 24be
00000250: 4250 0f3e fce2 07be 4f0c 043e b827 943d
00000260: f7df 773e 9edb b03c b39b 303e 424e 88bd
00000270: 5c98 303e f576 4c3e 8a59 9e3d edb9 713e
00000280: 6fdf 6cbe 83fd ca3d 3c05 febc 489d 753d
00000290: 0e5e 11bd 924f 34be 48f4 de3d 27e6 db3d
000002a0: 23d2 1a3e 1df3 6f3e 110f 1b3e 4a8c a2bd
000002b0: 0f21 0e3e dcad 00be 08aa e03d da36 013e
000002c0: 9b9d 813e b4da 5b3d 4870 32be 3541 313e
000002d0: 52ca 29bd 3e1f ab39 7126 353e 1b60 8a3d
000002e0: 16f2 763e b269 b9bc a57a 383e ca90 a53d
000002f0: f2bb e6bc 29c9 353e 7ac2 30be dace 263e
00000300: 2a87 f73d f3fb 71be 845c 143e b595 88bd
00000310: 5260 263c 88fc fcbc b9f3 8b3d daf3 3f3e
00000320: 7ed2 0ebe fe46 683e f9eb 48bd 195c f23d
00000330: d109 51be 2e9b 60be 3278 0d3e 6dcc 183e
00000340: 9642 8a3d a983 893d 7797 e63c dac0 02be
00000350: ce80 43bb 0c17 1e3e 77b6 5b3e 46f9 01be
00000360: 4c78 03be 6a03 ccbd c1d2 593e 4467 043e
00000370: 9cdf a4bd d7b5 6f3e 3b33 8e3d 79bc 08be
00000380: f078 26be 547b 93be 30fc 9fbb 7795 2c3e
00000390: ceaa 5fbd a753 cd3d 2373 073e 0783 1cbe
000003a0: 17ad 653e e6f3 e6bd 0f2c 0f3e b207 f43c
000003b0: b1b9 833d 3b33 e73c d5b1 5a3e c156 ce3d
000003c0: 6138 04be 701d 0ebe 687c 0fbe 19fb c73d
000003d0: d726 a7be ccb0 dcbd 0972 043e 3e8a 32be
000003e0: 8573 0b3e 91f0 1d3d 9817 3fbe fe9c 63be
000003f0: f14d 33be ba9f 6ebe f24c b4bd 0f32 a9bd
-0.231289 0.1447314 -0.20021044 0.1385344 0.11157216 -0.19839258 -0.112490945 0.051645495
-0.17788802 -0.2501028 0.011350392 -0.21476565 -0.047687415 0.1599017 0.15948695 0.09459731
-0.023114718 -0.27153385 0.07112241 0.1642036 -0.06910613 -0.116810456 -0.17809273 0.0186467
-0.009474954 0.20023581 0.14678939 0.20835622 -0.06179873 0.085345514 -0.22887911 -0.00518364
-0.18078049 -0.15037496 -0.09936678 0.07406209 0.099855445 -0.079799764 -0.14540379 -0.053697225
-0.08144771 -0.08420223 0.061473627 -0.15675166 0.060735524 -0.05750196 0.21044496 -0.09028817
-0.11012744 -0.06217477 0.17078978 -0.087793685 0.041195437 0.016356999 0.015835706 0.09614827
0.06857833 0.11895377 -0.2261257 0.19471255 -0.18889819 0.13624132 0.08116174 -0.16720936
0.12606207 -0.18549341 -0.29886788 0.06975255 -0.05635152 -0.25373986 0.02823941 -0.24530196
0.18074971 0.09594937 -0.14721422 -0.19726697 0.031843584 0.11584887 0.082136154 0.01277175
0.1323385 -0.205048 0.09740564 -0.032972485 -0.0096109165 -0.11044695 0.10618659 0.047367025
-0.16638544 -0.06544103 0.027361317 0.20928857 -0.20652317 0.17336014 -0.24638857 0.1081641
0.03761712 0.078793086 -0.07047585 -0.15907687 -0.19020227 0.20786867 0.03312579 0.01695523
0.2046897 -0.097354576 -0.049461883 0.06689746 0.15230577 0.0066641555 0.20642897 0.09205209
0.025089167 -0.25619704 0.10642629 0.018354446 -0.17564212 -0.03515833 0.22420566 0.093268126
-0.19979663 0.2023866 -0.0684982 0.11417194 0.056002688 0.075813495 0.10224534 -0.13435285
0.2524363 0.1380359 0.14634661 0.028813953 0.13189948 0.317491 0.116006926 0.008316716
-0.053717464 0.15594937 -0.27865905 0.1613631 0.12791248 0.09229557 -0.021471372 0.15053713
-0.23998271 -0.16157131 -0.12983876 -0.1610945 0.1399546 -0.13270181 0.1289532 0.07234138
0.2420653 0.021589097 0.17246895 -0.066555515 0.1724562 0.19967254 0.07731922 0.23606081
-0.23132108 0.09911635 -0.031008355 0.05996445 -0.03549009 -0.17608479 0.10886437 0.107372575
0.15119223 0.23432584 0.15142466 -0.07936914 0.13879798 -0.12566322 0.10969931 0.1261858
0.25315556 0.05367537 -0.17425644 0.17310031 -0.041452713 0.0003263894 0.17690445 0.06756612
0.24115786 -0.022633407 0.18015535 0.08084257 -0.028165791 0.17752518 -0.17261687 0.16289845
0.120863274 -0.23631267 0.14488417 -0.06669179 0.0101548005 -0.030882135 0.06833596 0.18745366
-0.13947484 0.22683331 -0.049053166 0.118339725 -0.20413901 -0.21934196 0.13815382 0.14921732
0.067509815 0.06714565 0.028148396 -0.1276888 -0.0029831412 0.15438479 0.21456324 -0.12692747
-0.12838858 -0.09961589 0.21271802 0.12930018 -0.080504626 0.2340921 0.06943365 -0.13353147
-0.16257071 -0.2880503 -0.004882358 0.16853891 -0.05460625 0.10025721 0.13227515 -0.15284358
0.2242931 -0.11276989 0.13981651 0.029788826 0.06431902 0.02822267 0.213569 0.10075141
-0.12912132 -0.13878417 -0.14012301 0.0976469 -0.3264682 -0.10775909 0.12934126 -0.17435548
0.13618286 0.0385595 -0.18661344 -0.22227857 -0.17510201 -0.23303118 -0.08803739 -0.08261501

network.8.bias f4 [32]
00000000: 1947 193c c65b 27bc a7bf babb 3aac ddbb
00000010: a96d 513b 9e7f 02bb 8b30 173c 4569 23bb
00000020: e20e 70bb d0b7 3e3c e02b 8e3b 21eb 313c
00000030: de6f 08bb df9b b73b 4926 023c 4b63 d53b
00000040: 8796 5d3a 462f 26bb ee36 09bc 01c1 223b
00000050: dd28 12bb d991 103b aa27 b93b 6c3f 3e3b
00000060: 84a2 34ba 3ab7 c8b9 14b7 fe39 1f22 163b
00000070: d460 84bb a407 7d3b 29d6 c9b8 1652 5b3b
0.00935533 -0.010214752 -0.0056991163 -0.006764916 0.0031956232 -0.0019912492 0.009227882 -0.0024934572
-0.0036629965 0.011640504 0.0043387264 0.010859282 -0.0020818631 0.005603298 0.007943698 0.006512081
0.0008452911 -0.0025357767 -0.008374913 0.0024834278 -0.0022302188 0.0022059588 0.0056504803 0.0029029502
-0.0006890672 -0.00038283487 0.0004858306 0.0022908521 -0.004039863 0.003860929 -9.624317e-05 0.0033465675

network.9.weight f4 [32]
00000000: 15a4 5f3f 42fa 653f 4a38 593f 7bf7 503f
00000010: c73d 593f aab2 633f a03b 633f aa19 523f
00000020: dac6 5c3f 60a1 653f b418 6e3f d08f 583f
00000030: b3d9 5b3f 4b31 643f 26a5 5b3f e8c0 503f
00000040: ec50 5c3f 9625 693f eb4c 5d3f a017 543f
00000050: 1342 5b3f 9215 4d3f a74f 5b3f d3fb 5f3f
00000060: c7c7 5d3f 224a 573f a6fe 673f f94c 593f
00000070: 5526 4c3f 46b3 463f fa6d 583f 9298 4f3f
0.87359744 0.8983499 0.84851515 0.81627625 0.8485989 0.88944495 0.88762856 0.8207041
0.86240923 0.89699364 0.93006444 0.8459444 0.8587906 0.89137715 0.8579887 0.8154435
0.86060977 0.91072977 0.8644549 0.8284855 0.85647696 0.8011104 0.85668415 0.8749363
0.8663296 0.8409749 0.9062294 0.84883076 0.7974599 0.776173 0.8454281 0.8109218

network.9.bias f4 [32]
00000000: 8a99 b5bd 7924 d7bd 84ce 9dbd eeda cdbd
00000010: 5c88 1ebe e924 aebd b68b 01be 28ef 06be
00000020: 0366 e4bd d8f1 78bd 1cc1 c7bd ac9b 12be
00000030: e757 bcbd 582b abbd 75ce 0cbe 833e 38be
00000040: 93ab 29be 612b 1ebd 006b dbbd c3fc 14be
00000050: cca7 b6bd ade8 67be a8c5 f3bd c2ef d7bd
00000060: 9c3e 07be 5c5e 0fbe b1ed 37bd 9fd7 debd
00000070: 70ec 1abe d36a 39be c011 10be 528d 4cbe
-0.08867176 -0.105050035 -0.07705405 -0.10051523 -0.15481704 -0.08503134 -0.12650952 -0.13177168
-0.1115227 -0.060777515 -0.097536296 -0.14317197 -0.091964535 -0.083578765 -0.13750632 -0.17992596
-0.16569357 -0.038615588 -0.10713768 -0.14549546 -0.089187235 -0.22647353 -0.11902934 -0.10543777
-0.13207477 -0.14000839 -0.044904415 -0.1088097 -0.15129256 -0.18107156 -0.14069271 -0.19975784

network.9.running_mean f4 [32]
00000000: 89c3 02bf e7fd ffbc 56a6 ac3f 7e23 79be
00000010: 7353 5bbf 1889 e0bd 6e19 5cbd d977 bfbe
00000020: 4099 fabd b7a9 95bf 22d6 05be 793e 31bf
00000030: 7eff 69bf da4e 8bbf 1cdb 92bf 1a69 5bbf
00000040: 478d 2abf fd79 f03d 3b1b c0bc 6191 5e3e
00000050: 31c5 eabc e206 55bf 495d 5fbf e8b3 35bf
00000060: 5edf 5abe e9b5 6fbf 8296 afbe a9ae 15bf
00000070: fd06 50bf 5279 7fbf 9f81 07bf a5fd 87be
-0.5107961 -0.031249 1.3488262 -0.24329945 -0.8567421 -0.109636486 -0.05373519 -0.37396124
-0.12236261 -1.1692418 -0.13069966 -0.6923595 -0.91405475 -1.0883439 -1.1473117 -0.8570725
-0.6662182 0.117420174 -0.023450484 0.21735145 -0.028658481 -0.8321363 -0.87251717 -0.7097764
-0.2137427 -0.9363695 -0.34294516 -0.58469635 -0.81260663 -0.99794495 -0.5293216 -0.26560703

network.9.running_var f4 [32]
00000000: 6b3b 0040 87de 823f 3a9c 8b40 1f54 c23f
00000010: 95fa 3b40 906a c63f 7f34 e63f ff61 3f40
00000020: c6a1 7f3f dd71 4f40 ed05 2540 215e 7c40
00000030: 9c3b 3e40 1367 ff3f 6511 9940 3490 2c40
00000040: e2a8 0f40 7a5c 7140 d7bc 313f 60e0 0d40
00000050: d35f 0840 7d26 2d40 3f7c 4740 5270 1240
00000060: f522 4c3f 8478 3440 c83c ce3f 7207 1740
00000070: c250 4c40 0125 8a40 a37e 2740 107e 973f
2.0036266 1.022416 4.3628206 1.5181922 2.9371693 1.550127 1.798477 2.9903562
0.9985622 3.2413247 2.5784867 3.9432452 2.9723883 1.9953331 4.7833734 2.6963015
2.2446828 3.7712693 0.6942877 2.2168198 2.1308486 2.7054741 3.1169584 2.2881055
0.7974084 2.8198557 1.6112299 2.3598294 3.192429 4.317017 2.6171043 1.1835346

network.12.weight f4 [4, 32]
00000000: c0bc 4ebd aa48 2a3e 3150 6b3b cba6 a0bd
00000010: 8d93 933d bf58 483d 08f1 3f3e 09ae c83d
00000020: e6f8 0b3e 154f 10be 6186 963e 2f21 663e
00000030: 8805 a33b b121 aabd 8a5e 67be 991a 6bbe
00000040: 3823 783c 1b46 bd3d 3f96 2a3e acbf 513d
00000050: 2490 573e 42ff 593e 8096 283c 4868 ddbd
00000060: b20f 333c 4ff4 e7bd 1bff a9bc 346b 25be
00000070: 7022 59be b94e 70be 94f5 6dbe 0da4 39be
00000080: 9b0b eabd bbb5 483e 3896 94bc 9e0e 1dbe
00000090: e600 8dbe a236 70bd 0049 fb3d ac7e 3bbe
000000a0: 44c2 3c3d 4ebe d6bc b540 703e 62da 69bd
000000b0: d07d 91bc 7923 d1bd d8cb 0c3e f78e b8bd
000000c0: 52c6 7ebd a97b d93d 50ae 223e 1574 aa3c
000000d0: e10f 593e 66ca 05be 2fa4 80be d063 85be
000000e0: 8193 9f3d e565 ffbd ca52 1d3e b4ca 173c
000000f0: 7d0d 613d d4b0 723e c8a3 83be 7604 403e
00000100: 3b56 45be ea76 f53d 54bd 373e 2e2f 0dbe
00000110: 67f0 103d 5144 db3d 390f 893e 54cc 183e
00000120: 62ed 433e 1814 d3bd 3ffb a03c 8389 2dbe
00000130: 38fc f63d 44f4 4ebe f45a 93be c5ed 163e
00000140: ce09 7abe 89ab 2fbd 2244 9c3b 5a8d 01be
00000150: d1fa 203e 63aa 7ebd d2dc 57be 89d3 15be
00000160: 3c9f 393e c72f af3d 8713 a53d e60e 4cbe
00000170: 925e 53be 9016 19be 63bd 533d 51ac 333e
00000180: 091b 82be 270b b63d d436 013e e6a3 613e
00000190: 14c2 793d d9d9 ae3d c700 773d b76d 443e
000001a0: dc9c 823d c78e 21be 7f07 aabd e562 7dbe
000001b0: 7723 43be 0ecf 7fbd deb1 4dbe 68a3 333e
000001c0: 486f d43d ea00 38be 959d 6c3c d0dd 913e
000001d0: 8151 40be e79c 193e 267f 49be 64be 1ebe
000001e0: 0027 21bd e72a 0c3e 8a8d ffbd 7c01 6f3e
000001f0: 7829 5f3e d8e6 75be afdd f2bd efd6 353e
-0.050472975 0.16629282 0.0035905952 -0.07844313 0.072058775 0.04891276 0.1874429 0.097988196
0.13669166 -0.14092667 0.29399398 0.22473596 0.0049750246 -0.083072074 -0.22594658 -0.22959365
0.015145116 0.09241887 0.16658877 0.051208183 0.21051079 0.2128878 0.010289788 -0.10810906
0.010929035 -0.11325895 -0.020751527 -0.16154176 -0.21204543 -0.2346753 -0.23238212 -0.18128987
-0.11427995 0.19600575 -0.018138036 -0.15337607 -0.27539748 -0.058645852 0.12269783 -0.1831004
0.046083704 -0.026213791 0.23462184 -0.05709303 -0.017760187 -0.10211844 0.13749635 -0.090116434
-0.06220085 0.106192894 0.15886807 0.020807305 0.21197464 -0.1306549 -0.25125262 -0.26052713
0.07791806 -0.12470607 0.15363613 0.009264637 0.054944504 0.23700267 -0.25710893 0.18751702
-0.19271176 0.11985572 0.17943317 -0.13787529 0.035385516 0.1070639 0.26769426 0.14921695
0.19133523 -0.10306567 0.019651053 -0.16946988 0.12059826 -0.20210367 -0.2878033 0.1473914
-0.24417803 -0.042888198 0.0047688643 -0.12651578 0.15720679 -0.062174212 -0.2108033 -0.14631476
0.1812715 0.08554035 0.08060365 -0.19927558 -0.20641544 -0.14950013 0.051694285 0.17546202
-0.2541125 0.08888846 0.12618572 0.22035179 0.060976103 0.08537645 0.060303476 0.19182478
0.06377575 -0.15777121 -0.08302211 -0.24744757 -0.19056498 -0.062453322 -0.20087382 0.17542803
0.10372788 -0.17969099 0.014441867 0.28489542 -0.18781091 0.1500126 -0.1967741 -0.15502316
-0.039343834 0.13688241 -0.12478168 0.2334041 0.21793163 -0.24013841 -0.11858689 0.17757772

network.12.bias f4 [4]
00000000: 5d9f 7cbc 99dd 5c3d b198 8e3d e61d 943d
-0.015418855 0.05392227 0.06962717 0.07232265
