soil_salinity_multi_sensor/outputs/models/stage1/stage1_epoch_40.pth (torch, 72297 bytes, 20 tensors)

network.0.weight f4 [128, 36]
00000000: 0e32 25bf 7d73 dcbe 0804 4ebf 411e 1bbf
00000010: e74e e4bc 2f9a b13d ecd7 333e 2578 ae3d
00000020: cbb7 2f3e 545e c23d cf30 64be 48e7 b2bd
00000030: 832d 153e 544a ff3d 54d8 163d fb97 87ba
00000040: e2b3 cbbe 7f1e 5bbf bbf0 05bf 0183 51bf
00000050: 6327 bd3c e805 efbc 0725 633d c57e f23d
00000060: 32f5 7ebe 9654 bbbd a1e7 c93d 8498 1d3d
00000070: adf8 c3bd 8618 82be 7055 d43d 5322 1abe
00000080: 0156 3b3d 3112 633d 1d5b fd3d 2251 343e
00000090: ecc0 55bd 2843 70bd c49d bf3d 4dc2 39bd
000000a0: e7bc afbd 4beb d7bd b4c6 583d 20d5 0dbe
000000b0: 8b71 633c 49e9 61bd 4cdd e5bd 5828 8e3d
000000c0: 00a2 43bd 75c5 643d 0720 07be 35e1 483d
000000d0: 7855 15bd d60a 9fbd f0f7 6f3e 4d6c 5f3e
000000e0: dae7 383e 29da e53d f094 a63d 7680 383e
000000f0: eb37 8ebd c11e 96bd e2de f3bc f167 3bbd
00000100: 36d2 b7bd 3c1c 363e 917e 153d a2f7 863d
00000110: 7186 123e 6230 3bbe 53aa 14be f821 39be
00000120: 97d8 5c3e 5873 813e 3078 cebd 7fe2 00be
00000130: 692f 4cbe 4e2b cdbd 652c afbd 0067 173e
00000140: 9992 f23d 9d82 323e afb4 7c3d fe38 2d3e
00000150: 84ac 33be 37eb e33a 16f8 4f3e aaf5 90bd
00000160: f991 90bd fa75 943d 123d 99bd b43c 473e
00000170: 3a73 a33d 9c71 753d 0b43 1cbe a543 a33d
00000180: d0ac 49bd edff 06be b837 c9bd 6277 4ebe
00000190: 9252 b2bb ad88 f9bd d351 6bbb 0869 233e
000001a0: 7ff5 3bbe 9c91 c73b 4e1d 27bd 6110 0bbe
000001b0: 90aa 663c 1ee3 0f3e 21b2 2e3d 9866 1a3d
000001c0: a8c4 1b3e ff29 403e 378d 253e 22be cd3d
000001d0: 353d 523e cfbc 203e 32d0 0a3d c2c7 a2bd
000001e0: ca82 653e 2bba 88bd 62f1 0ebd bbdc 483e
000001f0: 7933 2a3c 7d4b 093e 3361 383e 89b2 453d
00000200: 2135 27be d8fb 0cbd 12fd 3ebe fb49 e0bd
00000210: 0a06 273c 36b8 82bd 4484 fd3d e4b4 d6bd
00000220: 7b1f 8dbd de22 0d3e 6961 92be db15 803e
00000230: c083 d6bd 29fe db3c aa15 9b3d a187 f03d
00000240: ecb8 9b3e 4ef3 9a3e a294 b33e 5771 b23e
00000250: 56c9 df3c f81d 5d3d 3385 2e3e 849a 5a3d
00000260: f37e 2b3d 01ce 193e 938c 9a3e 1232 7b3e
00000270: e2ce 963d 35fe ac3c 0ebd 043e eb89 aabd
00000280: 097e f53d 8756 f43d b572 d23e 7162 4b3e
00000290: 168e ccbd 192a 0ebe 9664 003d 88fb 6dbd
000002a0: ee60 d93d 45d7 e83d 4719 6cbc 8c58 173d
000002b0: c19a 523e bba5 04be e82c 8cbe 8dbe 333e
000002c0: 7492 c1bc 594a 593d 3d5f 42be 576a d8bd
000002d0: 8239 01be 08c0 31be 48d8 d7bd a73a 8bbe
000002e0: 1fe6 22be f830 9cbd 6b37 aebc c6a9 18be
000002f0: e8f7 babe e0e0 f63c d528 5ebe 30fa 7cbe
00000300: 5627 02bf 074d 32be 9ebf 27be ba6e 723d
00000310: 874b e0bd 5054 f1bd 8bf5 71be ca30 debe
00000320: 6c39 243e 6c72 2dbc 5695 16bd ca8a 05bb
00000330: b854 e2be d186 49be c1bb 6ebe e728 0b3e
00000340: e80f e1bd c267 19be 5ac4 953e ef85 12bd
00000350: eee3 edba f063 d4bd b3a7 6d3e c543 023e
00000360: 3d56 823d 38aa 693d 3196 903c d38a 99bd
00000370: c81f b0bd b67c b2bd 28d4 28be 19bf 30bd
00000380: 5cac 133e 5c6c 2f3d 3c20 0a3e e85f 8d3d
00000390: ccfc 163e a4a3 4b3e d899 85bd 3623 b63b
000003a0: 10fa 7cbd eac6 48be 13f5 393c 41ac 83be
000003b0: faa3 e2bd 4fd6 d33c 925a cb3d 624d c03d
000003c0: 9500 f2bd 015f ad3d e763 78bd a235 cd3c
000003d0: 66b8 75bd bb72 16be 5160 083e 8ed3 42be
000003e0: 1053 42be d7d4 30be 8013 07bd c229 2bbe
000003f0: 91a4 5abe a925 60bd ad2e 7bbe 361d 6bbe
-0.645295 -0.4305686 -0.804749 -0.6059304 -0.027869655 0.08671986 0.17562836 0.085190095
0.17159955 0.09490648 -0.22284244 -0.0873552 0.14568143 0.12465349 0.0368274 -0.0010344976
-0.39785677 -0.8559341 -0.5232045 -0.8184052 0.02309007 -0.029177621 0.055455234 0.118405856
-0.24898222 -0.09146993 0.09858633 0.03847553 -0.095689155 -0.25409335 0.103678584 -0.15052156
0.045736317 0.05543727 0.12370894 0.17609075 -0.052185938 -0.058657795 0.09356263 -0.045351315
-0.08580952 -0.105429254 0.052923873 -0.13850832 0.013882051 -0.05515412 -0.1122385 0.06941289
-0.047761917 0.055852372 -0.13195811 0.0490429 -0.036458462 -0.07765739 0.23434424 0.21818657
0.18057194 0.112232514 0.08133876 0.18017754 -0.06944259 -0.073300846 -0.029769365 -0.045753423
-0.089756414 0.17784208 0.036497656 0.06590201 0.14309098 -0.18280175 -0.14518099 -0.18079364
0.21566997 0.25283313 -0.10081518 -0.12586401 -0.1993996 -0.10018025 -0.085533895 0.14785385
0.118443675 0.17432638 0.06169575 0.16916272 -0.17546278 0.0017388825 0.20309481 -0.07078107
-0.07059092 0.07249065 -0.07482351 0.1945675 0.07980962 0.0599228 -0.1525995 0.079718865
-0.049237072 -0.13183565 -0.09825081 -0.20162728 -0.005441972 -0.12184272 -0.0035906925 0.15958035
-0.18355368 0.006090356 -0.04079943 -0.13580467 0.014078751 0.14051482 0.042650346 0.037695497
0.15211737 0.1876602 0.1616715 0.100460306 0.20531161 0.15697025 0.033889957 -0.07948257
0.22413173 -0.06676134 -0.03489817 0.19615452 0.010388249 0.13407703 0.18005829 0.048265968
-0.16328861 -0.034419864 -0.18651226 -0.10951611 0.010194311 -0.06382792 0.12378743 -0.10483721
-0.0689077 0.13782832 -0.28589943 0.25016674 -0.10474348 0.026854591 0.075724915 0.11744619
0.30414522 0.30263752 0.35074335 0.34852096 0.027317684 0.05398366 0.17042999 0.053370014
0.041869115 0.1501999 0.30185375 0.24530819 0.073636785 0.02111731 0.12962744 -0.08327087
0.1198693 0.11930566 0.4110314 0.19861771 -0.09988038 -0.13883246 0.031345926 -0.058101207
0.10614191 0.113691844 -0.014410323 0.03694968 0.20566846 -0.12953846 -0.2737801 0.17553158
-0.023629405 0.05304942 -0.18981643 -0.10567158 -0.12619594 -0.1735841 -0.10539299 -0.27193186
-0.15908097 -0.076265275 -0.02126666 -0.14908513 -0.36517262 0.030136526 -0.21695264 -0.24704814
-0.5084127 -0.17412196 -0.1638169 0.05918763 -0.10951906 -0.117836595 -0.23628823 -0.43396598
0.1603753 -0.010586362 -0.03676351 -0.0020376914 -0.4420526 -0.19680335 -0.2331381 0.13589822
-0.10989362 -0.14980987 0.29251367 -0.03577226 -0.0018149593 -0.10370624 0.23208503 0.12721165
0.06364105 0.0570471 0.017649742 -0.07497182 -0.08599812 -0.08715193 -0.16487181 -0.043150995
0.14421219 0.04282795 0.13488859 0.06903058 0.14744872 0.19886643 -0.06523484 0.0055583967
-0.061761916 -0.1960713 0.011349934 -0.25717357 -0.11066432 0.025859026 0.09929384 0.093897596
-0.11816517 0.08465386 -0.06064215 0.025049988 -0.05999031 -0.14692204 0.13317992 -0.19026014
-0.18976998 -0.17268692 -0.03297758 -0.16715148 -0.2135184 -0.054723416 -0.24529524 -0.22960362

network.0.bias f4 [128]
00000000: 7463 6f38 c441 13b9 f45c c4b7 6c90 2239
00000010: ac05 5e39 50ac 2b39 b356 933a f64e 3638
00000020: 2405 4338 2d57 3139 95cf 2438 7d4c 3938
00000030: 418f cbb7 55ee 9939 93a2 a539 27bd 49b9
00000040: 2f1e 91b7 7ba6 6e38 9023 78b8 363d 0e39
00000050: 9c7c 7139 6cdb 7d38 d57c a139 6bee c837
00000060: 28bb 07bb 84a4 c238 490e 0839 ca60 52b7
00000070: 13f0 b039 e437 03b9 6478 ff38 85bc 55b9
00000080: fab6 4db6 5747 1bba fb5f f6b7 11dc 6ab8
00000090: ba5f a937 52a7 363a 5bec 14b8 7852 0339
000000a0: 039b 883a a129 05b8 d4e1 a3b8 3d69 5937
000000b0: fcbd 24b9 e8cb 54b9 3c67 5c39 8304 1fb7
000000c0: 9846 0b38 c835 e839 bcce 9539 5971 cd38
000000d0: fbf7 9739 a1bb 65ba 8dcc 5b39 bea3 3a39
000000e0: 1d91 d038 9cdc 6ab8 943d d635 431f 3dba
000000f0: 9d5d b9b8 2b9d 00b9 a311 aeb8 9a75 b739
00000100: 61ea 55b8 17d1 71b9 757f 0336 94f4 093a
00000110: 87cc 90b9 f40e ab38 d25b 823a 6de4 1cb8
00000120: 927d 6039 2123 06ba da55 81ba c183 533a
00000130: d1d4 64b7 d586 3cb7 0723 5238 bef4 96b9
00000140: 5bd0 ecb8 98c5 ca39 05dd fab5 4a18 73b9
00000150: 9fe4 5d3a b776 27b8 4683 9c39 c30d c538
00000160: e60d 65b8 f7f3 8338 5f99 ef37 32e1 b3b7
00000170: 5394 a137 3751 b639 b306 57b8 069a 4f3a
00000180: 83a4 3b39 fbf1 afba 8259 9739 deae dcb7
00000190: 6b0a 0e38 ce1d 5ab9 beb9 23ba 44f0 3d38
000001a0: 22c6 86b8 7a5d 3839 a3eb 1eba a2ee 10b9
000001b0: ef6b 7039 b721 b1b8 a630 b1b8 684c 01ba
000001c0: 75b2 fe38 e827 e934 6b82 e438 6ea2 b239
000001d0: 824b a938 7d1d 1db8 4264 f536 15d8 c5ba
000001e0: 9291 0f38 b78b 9738 75a9 7f37 b93f 4d39
000001f0: c782 4b38 3d3d 2eb8 b32c 5bb8 e17c fbb6
5.7074663e-05 -0.00014043512 -2.3408305e-05 0.00015503325 0.00021173683 0.00016372022 0.0011241048 4.346572e-05
4.649641e-05 0.00016912511 3.9293973e-05 4.4178672e-05 -2.4266194e-05 0.00029360005 0.0003159238 -0.00019239318
-1.7299402e-05 5.689867e-05 -5.9160928e-05 0.00013564978 0.00023029972 6.0524253e-05 0.0003080132 2.395288e-05
-0.002071092 9.281284e-05 0.00012975292 -1.2539511e-05 0.00033748205 -0.00012513954 0.00012181772 -0.00020383492
-3.0653887e-06 -0.0005923411 -2.937018e-05 -5.59949e-05 2.0190946e-05 0.00069676817 -3.5506073e-05 0.00012523856
0.0010422174 -3.174844e-05 -7.8145094e-05 1.2958711e-05 -0.00015711033 -0.00020293857 0.00021019293 -9.478189e-06
3.3205928e-05 0.00044290558 0.00028573524 9.7962744e-05 0.00028985724 -0.00087636156 0.00020961669 0.00017799341
9.945242e-05 -5.5995406e-05 1.5962164e-06 -0.0007214436 -8.838924e-05 -0.00012265581 -8.300252e-05 0.000349921
-5.100144e-05 -0.00023061443 1.959471e-06 0.000526258 -0.00027618205 8.156701e-05 0.0009945577 -3.7406036e-05
0.00021409083 -0.0005116929 -0.0009867505 0.0008068644 -1.3639409e-05 -1.1237066e-05 5.0100523e-05 -0.00028792577
-0.00011292166 0.0003867566 -1.8690777e-06 -0.00023183334 0.0008464548 -3.9926465e-05 0.00029852445 9.396255e-05
-5.46108e-05 6.292009e-05 2.856244e-05 -2.1443328e-05 1.9261764e-05 0.00034774255 -5.1266234e-05 0.00079193746
0.00017894995 -0.0013423556 0.00028867653 -2.6307473e-05 3.386514e-05 -0.00020801203 -0.0006245634 4.5284876e-05
-6.426523e-05 0.0001758243 -0.0006062334 -0.00013821808 0.00022928392 -8.4462976e-05 -8.449079e-05 -0.0004932345
0.00012144904 4.3428668e-07 0.000108961794 0.00034071825 8.0726124e-05 -3.745918e-05 7.3132405e-06 -0.0015094305
3.422943e-05 7.226265e-05 1.5238639e-05 0.00019574062 4.8520767e-05 -4.1541865e-05 -5.22553e-05 -7.4949207e-06

network.1.weight f4 [128]
00000000: 486b 893f a201 7a3f 224a 793f eb16 863f
00000010: 174c 7d3f c29c 853f 9d08 6e3f ef98 813f
00000020: ccff 833f dfbf 7a3f b8ad 9c3f df6c 6c3f
00000030: b3bb 813f fbcf 853f f048 733f e73f 703f
00000040: 5232 723f 4fdf 743f cba1 7f3f f8f8 823f
00000050: 6d8a 6d3f 9849 803f 6712 803f 9836 6b3f
00000060: b2bb 8b3f 5d8c 7a3f b81d 7f3f 7618 863f
00000070: 35ee 803f 2e68 7a3f 89ac 823f 1a57 8b3f
00000080: ffd3 853f b6ef 813f 64df 7a3f 1828 723f
00000090: 7e5c 853f a8cc 8d3f 6b39 893f d116 853f
000000a0: 9f19 793f e900 7c3f 1347 803f 2403 7d3f
000000b0: b1bd 793f 30b3 7a3f 1c7d 7b3f 91f5 753f
000000c0: a903 813f 8b97 863f e852 823f ea49 7a3f
000000d0: a11b 6b3f 8f24 793f 06a2 823f 70d5 6c3f
000000e0: dce8 793f 44ce 7c3f 7a15 763f 0a62 803f
000000f0: 4f43 7b3f 9236 823f 9ab0 7a3f 918f 8b3f
00000100: ff33 733f 540f 6c3f 84db 7c3f a3d1 793f
00000110: 1369 813f 9b09 783f 8ce4 783f b1c7 873f
00000120: a453 803f 3532 913f 4759 8c3f 6437 763f
00000130: a266 803f 7f18 793f 8023 7f3f cff6 773f
00000140: 55bf 793f 1b6c 823f c90a 793f 06a1 7f3f
00000150: b192 8a3f b6fe 7c3f e458 773f 453b 823f
00000160: 8ec5 7e3f 1436 793f 5d7d 843f dd60 723f
00000170: 87dc 763f c4e7 7f3f 2a8e 6d3f 1aed 703f
00000180: e827 7e3f 712b 953f ba5b 7b3f 7593 773f
00000190: d6a6 803f f9d2 7e3f 5c49 6f3f 4420 753f
000001a0: b6a7 863f 6199 803f bbd0 753f c40a 753f
000001b0: 6d84 893f f988 7f3f ca3b 783f f741 783f
000001c0: 3993 7e3f 4eeb 793f 1ccf 6b3f 0bdf 7b3f
000001d0: f579 7d3f 668e 813f dfa9 833f 2f45 8c3f
000001e0: 88b3 813f d503 813f 0d9e 783f ab49 713f
000001f0: 0e93 713f 0400 793f 9ea1 7c3f 7a8e 753f
1.0735865 0.9765874 0.9737874 1.0475744 0.9894423 1.0438464 0.9298189 1.0124797
1.0312438 0.9794902 1.2240515 0.92353624 1.0135406 1.0454096 0.9503317 0.9384751
0.9460803 0.9565324 0.9985625 1.0232229 0.92789346 1.0022459 1.0005616 0.9188018
1.0916655 0.9787043 0.9965472 1.0476215 1.0072695 0.97815216 1.0208904 1.0885956
1.0455321 1.0151279 0.9799712 0.9459243 1.0418851 1.1078081 1.0720648 1.0397588
0.9730472 0.9843889 1.002169 0.9883292 0.9755507 0.9792967 0.98237777 0.9607783
1.0079242 1.0514997 1.0181551 0.97769034 0.91839033 0.9732141 1.0205696 0.9251318
0.9762094 0.98752236 0.9612652 1.0029919 0.9814958 1.0172904 0.9792572 1.0903188
0.95001215 0.9221089 0.98772454 0.97585505 1.0110191 0.96889657 0.97223735 1.0607816
1.0025525 1.1343447 1.0964745 0.9617827 1.0031321 0.97303003 0.99663544 0.96860975
0.97557575 1.0189241 0.9728208 0.9985508 1.0826017 0.9882616 0.9662001 1.0174338
0.99520195 0.9734814 1.0350758 0.9467905 0.9643025 0.9996302 0.9279505 0.9411179
0.9927964 1.1653882 0.9818684 0.96709377 1.0050914 0.9954067 0.9347131 0.9575236
1.0519931 1.0046808 0.9602162 0.9571955 1.0743538 0.9981838 0.9696623 0.96975654
0.99443394 0.9762467 0.921129 0.9838721 0.99014217 1.0121582 1.0286216 1.0958613
1.0132914 1.0079294 0.97116166 0.94253033 0.9436501 0.9726565 0.9868411 0.95920527

network.1.bias f4 [128]
00000000: 467e a93d 3dc5 53bc 52dc 723c 63aa 63bc
00000010: c783 ef3c c9dc 93bb daee 24bd b3cd e9bc
00000020: 12f0 42bd 7273 75bd 76dd b13d 10c7 f0bd
00000030: c098 14be 2297 81bd a403 c3bd f682 d8bd
00000040: 7645 e8bd 8c14 ff3b a17d 31bd 8a0d 34bc
00000050: f2c6 bebc 2c2e 4e3d 1470 9dbd 952f aebd
00000060: 10ba 013e 3b40 70bd 7d98 463d 0811 773c
00000070: b39b bf3d 0667 313c 8788 0fbe 6b9c 0ebc
00000080: 26b1 84bd e4d7 803d 5543 15bd cec9 bebd
00000090: a174 30bd 8c82 993d 69b8 2fbd cc73 bdbc
000000a0: 5cf6 6dbd a524 b73c e0b6 adbc 95f5 9abd
000000b0: a7ad 9cbd 370d a13c adb0 33bd 3c7e 8bbd
000000c0: 3d92 c2bd 3033 e93d 9b14 08bd cadf 5abc
000000d0: 7ad8 9cbd 2b25 16bc 1a53 d5bb a63f 4fba
000000e0: 8982 47bd 0fb0 5ebc 3b90 16bc 2cff 4ebd
000000f0: f070 3bbd d46a abbc 581d 88bc 0bf0 d13c
00000100: 17ae 9dbc 5320 b3bd a80b 00bc 3220 6dbd
00000110: 3ab5 7fbd 134d 4bbc 423e 39bd 7f1f 06bd
00000120: 251f e03d 4b1e 5a3e 4d08 0a3d 7eb7 58bd
00000130: 660f 01bd 85a9 07bd 4786 64bd b671 ac3d
00000140: 6600 38bc e124 ac3c 12f2 8fbc 2367 8dbb
00000150: d553 123e d6f3 dbbc c95c 883c 5650 3bbc
00000160: 74b6 0fbd c2a3 38bc 09ee bdbd ca4d 0fbd
00000170: 8726 28bd b92b 6c3b 27e3 9dbd a69e 663d
00000180: e640 d0bc 9077 3a3e b052 afbd b173 923d
00000190: edf7 33bd 6b5a e53a d482 a73b 089e 15bd
000001a0: d668 9cbd 3af0 03bc bdf6 5dbd c4ff 18bb
000001b0: cf20 aebc d8aa 25bd 980b 5ebd 7484 abbd
000001c0: 3a63 edbb e255 14bd 8ea7 13bd da97 a8bc
000001d0: 3173 3dbd 90bf 2d3c e1b3 85bd dd6a b03d
000001e0: 7976 b8bc fb2b 7cbd ee75 52bd b53a 13bd
000001f0: f3d7 e03c cd35 35bd 71cc e7bd 6e28 a3bd
0.08276038 -0.012925443 0.014823036 -0.013895604 0.029237641 -0.0045124036 -0.04026685 -0.028540468
-0.04759223 -0.05992455 0.086848184 -0.11756718 -0.14511395 -0.063276544 -0.09522179 -0.10571854
-0.113413736 0.007784432 -0.0433327 -0.010989556 -0.023288224 0.050337 -0.07687393 -0.08505169
0.12668633 -0.058655005 0.048485268 0.015079744 0.09355869 0.010827785 -0.14016925 -0.008704285
-0.06479101 0.06291178 -0.036441166 -0.09315835 -0.043079976 0.07495603 -0.042900477 -0.023126505
-0.058096275 0.02235634 -0.021205366 -0.07566372 -0.07650309 0.019659622 -0.043869663 -0.06811187
-0.09500549 0.11386716 -0.033222776 -0.0133590195 -0.07658477 -0.009164135 -0.0065101506 -0.00079059077
-0.048708472 -0.01359178 -0.009189661 -0.05053632 -0.045762002 -0.020924963 -0.016615555 0.025627157
-0.019248052 -0.087464 -0.007815279 -0.057892032 -0.06242869 -0.012408513 -0.04522539 -0.03274488
0.1094344 0.21300618 0.033699322 -0.052909367 -0.031508826 -0.03312065 -0.05579212 0.08420126
-0.011230564 0.021013679 -0.017571483 -0.0043152734 0.14289792 -0.026849668 0.016645806 -0.011432728
-0.03508611 -0.011269512 -0.09273917 -0.034986295 -0.041052368 0.0036036803 -0.077093415 0.056303643
-0.025421571 0.18209672 -0.08560693 0.07150973 -0.043937612 0.001749826 0.0051120315 -0.036527663
-0.07637183 -0.00805288 -0.054190386 -0.0023345808 -0.021255879 -0.040446132 -0.054210275 -0.08374873
-0.0072444947 -0.036214717 -0.036048464 -0.020580221 -0.046252433 0.010604754 -0.0652845 0.086141326
-0.02251743 -0.06156538 -0.051381998 -0.03594466 0.027446723 -0.04424076 -0.11318291 -0.07966696

network.1.running_mean f4 [128]
00000000: c93e 133f 331d 2e3f 291d dabf f654 1b3f
00000010: e730 1b3f ed6b fcbf e45d 3c3f 47b7 c53f
00000020: 2603 9cbf 5430 b7bf 62c7 ee3f 4222 8a3f
00000030: eb24 d0bd d4e8 7ebf e761 46bf 760e 4540
00000040: ee78 783f 1af2 7bbe 3b15 fb3f 48c1 aebf
00000050: 7b8e 5cbe 7b87 413f 6dfb 803f 145e 2ec0
00000060: b48a 59bf ae46 9fbf 913e 3fbf deb8 adbf
00000070: e5f0 3c40 a469 dabf ac98 103f 2d54 bebf
00000080: aa57 1bc0 626d 9c3f 42f3 7fbf 57da 17bf
00000090: ed1b 2bc0 dca5 29be 0e2f 9cbf 8134 cbbf
000000a0: ce31 2b3f 3b30 04c0 2b69 cd3f 14bb f3bf
000000b0: 57cd 1240 2e6b 6d3f fa1f a6bf 179f f0bf
000000c0: 7494 3e3f 0059 8940 9e43 9dbf f111 d6bf
000000d0: ca83 d1bd 36c0 da3d 573e 2f40 fb14 f8bd
000000e0: bc8c e4bf 0589 533f 621a deba 0d1d 863f
000000f0: 800c 0d40 fe90 1ec0 a3c5 98bf cae8 83bf
00000100: 4aaf 51be ca4d c13f 27a4 0240 f5ac 2040
00000110: c2a7 973f 0a5e 49bb 9463 aa3f cc0c 5e3d
00000120: 97a7 47bf a9c4 90bf b234 cd3f 8ea0 18bf
00000130: 7686 a9bd b23f f03d 0a57 b23f f877 953f
00000140: a1f3 413f 6390 663f 6879 28bf 5d3c f53e
00000150: f899 61bf 9f2f 61bf 7038 fc3e 089a 4c40
00000160: 901d e0bf d88b e6bf 5cb7 afbf e849 c03f
00000170: 16b3 913f d04e 943e 5359 06c0 c251 d7be
00000180: 0c60 9dbf 368d ffbe d2a7 5d3d 8c7b ae3e
00000190: 8150 dcbf 3c27 93bf 2f03 d13f 2e20 a53f
000001a0: a7ab 2bbf d54c 82bf 03db f9bf d6d6 cb3e
000001b0: a920 fbbf b421 2ebf adf2 e03f 9051 84bf
000001c0: b18f df3e 6363 3ac0 0276 abbf bf82 9e3d
000001d0: 39de acbe 1faa f63e 1d39 b8be 9d6c 3240
000001e0: 98c2 673e 46c7 2cbf 88ce 9e3f 7411 8b3e
000001f0: af9b 693e 07a5 a43f 0806 fc3d 6861 0e40
0.5751768 0.68013304 -1.7040149 0.60676515 0.60621494 -1.9720436 0.73580766 1.5446557
-1.2188461 -1.4311624 1.8654597 1.0791705 -0.101632915 -0.9957402 -0.7749314 3.0790076
0.97059524 -0.24604073 1.9615854 -1.3652735 -0.21538727 0.7559735 1.0076729 -2.724492
-0.8497727 -1.2443445 -0.74704844 -1.3572042 2.952203 -1.7063489 0.5648296 -1.4869438
-2.4272256 1.2220881 -0.99980557 -0.59317535 -2.6735795 -0.16567177 -1.220186 -1.5875398
0.6687287 -2.0654438 1.604772 -1.9041467 2.293783 0.9274167 -1.2978508 -1.879855
0.7444527 4.2921143 -1.228626 -1.6724225 -0.10230215 0.106811926 2.73818 -0.12113377
-1.7855449 0.8263095 -0.0016945119 1.0477616 2.203888 -2.4775996 -1.1935314 -1.0305417
-0.20477024 1.5101864 2.041269 2.5105565 1.1848071 -0.0030726218 1.3311639 0.054211423
-0.77990097 -1.1310016 1.6031706 -0.59619987 -0.082775995 0.11730899 1.3932812 1.1677237
0.75762373 0.90064067 -0.6581025 0.47897616 -0.8812556 -0.8796329 0.49261808 3.1969013
-1.7509022 -1.8011427 -1.3727832 1.5022554 1.1382778 0.2896638 -2.099202 -0.42054564
-1.2294936 -0.49912423 0.054115124 0.34078634 -1.7212068 -1.1496348 1.6329097 1.2900445
-0.67058796 -1.0179697 -1.9519962 0.39812344 -1.9619342 -0.68020177 1.7574059 -1.0337391
0.43664315 -2.912316 -1.3395388 0.077397816 -0.33763292 0.48176667 -0.35981074 2.7878792
0.22632825 -0.6749157 1.2406778 0.27161753 0.22813295 1.2862862 0.12305838 2.2246952

network.1.running_var f4 [128]
00000000: 8384 2143 e994 e643 6698 9b44 b12b b744
00000010: 6f67 c243 ceac 0244 7133 9e43 0cf6 4f44
00000020: b72d ad43 f26d bd43 45ac d641 b544 0445
00000030: 048b 8e44 dcc6 d043 5e42 3b44 f533 5244
00000040: 65bf 2d44 5719 6344 664a 2b45 0389 e043
00000050: 224a a244 577d 7b44 6753 9a43 f9d2 d144
00000060: 710b 0a43 07d6 6943 9d42 5c44 1398 a544
00000070: ee5a 2c44 bb40 ad44 30f6 1d44 16bc 0544
00000080: 871a 0545 efc8 1943 4eb4 da42 fe2f 1244
00000090: c4cd fc44 bc34 0e44 1ed4 0144 0067 ef44
000000a0: d366 5843 d990 3744 67a3 4f44 2fe3 fb44
000000b0: c210 db41 aa1b 0344 46de 8044 145f 7444
000000c0: c4cb a344 ec13 4a44 72d1 7e44 f6bd ad44
000000d0: b25c 2c44 78fa 5343 2e51 d441 ca97 1844
000000e0: 034d 2645 e0fa 2244 9298 0944 2dea 9e43
000000f0: 4688 d043 0913 bd44 772b 8a44 c83f 1343
00000100: 2989 1d44 c83d 6344 7892 3344 f5b9 ea43
00000110: ecce bf43 abc0 c244 fd6d 0543 b01f ae44
00000120: 81e0 ef43 bc5d a442 1211 4a43 f036 9f43
00000130: 73bc 5744 539d b144 dd27 b944 0562 1743
00000140: dcdc 1044 d283 b642 fecc 8e42 2298 6944
00000150: 077e f143 0a9b 6144 0e40 4d43 adbf 9e44
00000160: 1204 5e44 1fd2 3444 6228 1145 1650 b844
00000170: ac43 8d43 e573 9a43 0fde 1644 75a0 de42
00000180: ae81 8044 d24f 0c42 b36a 8043 29bf 2144
00000190: c3d9 0d44 99e1 b942 863f 8143 0276 5444
000001a0: ddcd 3044 df88 e843 08c4 8443 acae 8e44
000001b0: f6f6 bf42 6cd7 9743 2f3f a544 f6ff 6044
000001c0: fcbd 0745 cc24 af44 8ca7 1644 6e76 ee43
000001d0: 7f12 bf43 d1e0 1a44 44ce e742 997a d141
000001e0: 51e0 3744 6db4 e743 050b a343 0848 6e44
000001f0: 6e20 ad43 4c55 7e43 c565 9143 edc8 1543
161.51762 461.16336 1244.7625 1465.3654 388.80807 522.7001 316.4019 831.8445
346.35715 378.85895 26.834116 2116.2942 1140.3442 417.5536 749.037 840.8118
694.99054 908.39594 2740.65 449.0704 1298.3167 1005.95844 308.65158 1678.5929
138.0447 233.83604 881.04083 1324.7523 689.4208 1386.0228 631.8467 534.93884
2129.658 153.7849 109.35216 584.7499 2022.4302 568.824 519.31433 1915.2188
216.40166 734.26324 830.55316 2015.0995 27.383183 524.43225 1030.946 977.4856
1310.3677 808.3113 1019.2726 1389.9363 689.44836 211.9784 26.539639 610.3717
2660.8132 651.9199 550.3839 317.8295 417.06464 1512.5948 1105.3583 147.24915
630.1431 908.96533 718.2886 469.4528 383.61658 1558.0209 133.42964 1392.9902
479.75394 82.183075 202.06668 318.4292 862.9445 1420.9164 1481.2457 151.38289
579.4509 91.25746 71.400375 934.3771 482.9846 902.4225 205.25021 1269.9899
888.0636 723.28314 2322.524 1474.5027 282.5287 308.90543 603.46967 111.31339
1028.0525 35.07795 256.8336 646.9869 567.4025 92.94062 258.49628 849.8439
707.2166 465.0693 265.5315 1141.4585 95.982346 303.68298 1321.9745 899.9994
2171.874 1401.1499 602.6179 476.92523 382.1445 619.51276 115.90286 26.184862
735.50494 463.40958 326.0861 953.1255 346.25336 254.33319 290.79507 149.78487

network.4.weight f4 [64, 128]
00000000: 57be fa3d 93c6 bc3d a88e 893d f045 5abe
00000010: 70fa 0cbe 81d8 353d 37ea 90bd 410b c2bd
00000020: 8300 fe3d 8209 a1bd 8e78 be3d 0c1b ca3d
00000030: 134e f6bd aec6 97bd 847b 103e 2c38 243d
00000040: 5127 543d 751b c83c d55b 3dbe 9581 2e3e
00000050: cedd 75bd 1ae5 19bd 76d6 253e 910a 16be
00000060: 7b14 443d 5ba2 953d f7e5 133c 369d 393e
00000070: ca87 583d c1d6 7bbd c6f9 ad3d 3f23 f83d
00000080: 7592 f23d 7592 863d 6ddd df3d 9203 4a3d
00000090: f10e c23d 1a57 14bc a2ce 27be a3fe a23d
000000a0: 6bd1 f0bd bc04 b63d a227 a6bd b038 c4bd
000000b0: 13e7 ca3d d0fb 9bbc f12c 8f3c 560c 943d
000000c0: 1c3d 01be ce98 d03d f134 d83d ad60 333e
000000d0: 75ac 32be e427 663d 5c14 d9bd 5ac8 2a3e
000000e0: ca02 cbbd c255 aebc 479f 223e e29c d13d
000000f0: fc22 ebbd efec ea3d a09f 1e3e 9ba8 2ebe
00000100: 65ad de3b 5b7e 28bd 693a 12be b783 2abe
00000110: daa4 943d 1c72 7a3d 2640 5bbe 9ed2 f03c
00000120: 889f c93d d49d 0fbe 365d 4fbd 9f9a 1a3d
00000130: 6049 aabd 4f77 2a3e cd2e 1bbe 2673 ca3d
00000140: 5d74 85bd f5f5 743d 8521 82bc d564 2cbe
00000150: 6a81 13be 21cf 46be 56ea 8dbc d2dd 41bd
00000160: a9c2 8cbd 47da 1bbd 891f ec3d 5d0c ad3d
00000170: b61d db3d 47f5 6e3d df39 123e cf76 003e
00000180: 1885 b5bb 2aa0 913d ad03 1bbb 9ae6 28be
00000190: d935 51ba fee8 073e fc9c 6d3d 646d 19be
000001a0: e365 093e a76d 5fbd dbb7 f6bd 1c19 b83d
000001b0: eced 82bd ec28 533e 4253 d43d 8b61 0dbe
000001c0: e9c7 713d 6dfa 6a3d 4510 8abc 0835 acbd
000001d0: 0847 ac3d 00f4 debd e678 0b3e 96a2 fe3c
000001e0: 1d4b 30be c5cf 133e cb3e 77bd 2d3c 003e
000001f0: 577a ee3c 710d 9fbc eff8 bb3c 5b5e 21be
00000200: b0fd 0b3e 52a4 dc3c 790d 81bd f98e 76bd
00000210: b3ae 1abd 8994 3a3e fcf3 a9bb 79d5 ddbc
00000220: e973 fabd e7cb aebd 1775 3b3d 26f3 92bc
00000230: 2c5c 193b 590d 37be 6c95 c7bd 2352 ee3d
00000240: 06e7 dbbc 47d2 07be 633b b63d 5b52 273d
00000250: c795 f0bd dbd3 16be 61a0 f4bd 718c 20bd
00000260: b39b d3bb 1257 193e 421a c2bd 7cc4 053e
00000270: fad6 913d ab1b 0f3d 3d6a 063e 915b 153b
00000280: 3bda 57bd fc2f 24be 30fd 3b3c 4b91 543c
00000290: 0fdd 2a3e e1aa 073e 91d0 84bc 7452 07bd
000002a0: db59 d83d 94e9 533e d4cc 8fbb fd07 17bd
000002b0: 2baf 48bd 9eb3 e1bd f525 bcbd 40a7 4c3d
000002c0: 8949 40bd 3def 0d3d cd8e 8d3d 7eda 36bd
000002d0: 5eb5 febc 1d7a 963d a6f1 d5bd 8d42 05bc
000002e0: 10d1 fbbd 8d44 173e f3b8 a0bd 7933 503e
000002f0: 41cb b03d 9b26 92bd 9f94 373e 8983 59be
00000300: c5a8 643b da56 39be 9ffb 1fbd 8ac7 f3bd
00000310: 5613 fa3d 585b adbd d998 e2bd bb1b 973d
00000320: b021 cbbd 5c98 823d 3979 d0bd 5beb b53d
00000330: a7b2 2c3e cfc6 1b3e 977a 55bd 0b6c 74bd
00000340: b4eb 473b 2412 c63d 5bbd cdbd c523 9dbc
00000350: c447 4dbe afab cabd 4d91 85bd 016f 303e
00000360: f164 353e 80f2 d9bd 1b5f 9dbc b06c e7bd
00000370: 140f 08be c045 f2bd adb5 3f3d 8203 c7bc
00000380: 783a e23d ce04 193e 3aaa e5bd dbf9 83bc
00000390: e1b2 4f3e 872e d83d 79ad f53d d9a4 0f3e
000003a0: 7520 d13d 8995 32bd 1a04 9f3d aa41 f03c
000003b0: 0499 8cbd 291a ab3d af16 ae3c 386b bd3d
000003c0: 2ae6 1ebe a7e0 113e 2b1c 913d 12c8 ec3d
000003d0: 104e abbd 2bee 173e c878 d3bc 462b 243e
000003e0: eb0c 8a3d 76f7 b23c be59 f73d 956c 68bd
000003f0: d2f5 a3bd dfce be3c 6406 e53c 3ec3 1bbe
0.12243336 0.092175625 0.06716663 -0.21315742 -0.1376741 0.044395927 -0.07075923 -0.09474803
0.12402441 -0.078631416 0.09300338 0.0986844 -0.1202661 -0.07410942 0.14109617 0.040092632
0.051795308 0.024427155 -0.18492062 0.17041619 -0.060025983 -0.037572004 0.16195092 -0.14652468
0.047871094 0.073063575 0.009026996 0.18126377 0.052863874 -0.061484102 0.08494906 0.12116098
0.11844341 0.06570903 0.109309055 0.04931981 0.09475506 -0.00905397 -0.16387418 0.07958724
-0.11758693 0.08887622 -0.08113028 -0.09581125 0.09907355 -0.019040972 0.017477484 0.072289154
-0.12620968 0.10185395 0.10556973 0.17517348 -0.174486 0.056190386 -0.10599586 0.1667799
-0.09912641 -0.021281127 0.15881072 0.10235001 -0.11481282 0.11470973 0.1549058 -0.17056505
0.0067955726 -0.041136127 -0.14280094 -0.16651808 0.072580054 0.06114398 -0.2141119 0.029397305
0.09844881 -0.1402505 -0.050626002 0.037745114 -0.083147764 0.16647075 -0.15154572 0.09885244
-0.06516335 0.059804875 -0.015885124 -0.1683534 -0.14404836 -0.19414951 -0.017323654 -0.047330685
-0.06873066 -0.038049962 0.11529452 0.08449624 0.10699026 0.058339383 0.14279889 0.12545322
-0.0055395477 0.07110627 -0.0023653314 -0.16494218 -0.0007980741 0.13272473 0.05801104 -0.14983135
0.13417773 -0.054547932 -0.120467864 0.08989164 -0.06393036 0.20621079 0.10367443 -0.13806741
0.05902854 0.05736773 -0.016853461 -0.084085524 0.08411986 -0.10886383 0.13620338 0.031083386
-0.17216153 0.14434727 -0.06036262 0.12522955 0.02911107 -0.019415589 0.02294585 -0.1575865
0.13670993 0.026933823 -0.06301398 -0.060194943 -0.037764262 0.18220724 -0.005186556 -0.02707933
-0.12229139 -0.08534985 0.045765962 -0.017938208 0.0023400886 -0.17876185 -0.09745297 0.1163676
-0.026843559 -0.13263808 0.08898046 0.040850025 -0.11747318 -0.14729254 -0.11944652 -0.039196435
-0.00645777 0.14974621 -0.094776645 0.13063234 0.07121082 0.034938496 0.13126464 0.0022790174
-0.052698355 -0.1603393 0.011473939 0.012974094 0.1668589 0.13248779 -0.016212733 -0.033037618
0.105640136 0.20694572 -0.004388431 -0.036872853 -0.04899518 -0.110205874 -0.09186927 0.04996419
-0.04694513 0.034651984 0.06912003 -0.044641964 -0.031092342 0.0734751 -0.104464814 -0.008133543
-0.12295735 0.14772244 -0.07847776 0.20332135 0.086325176 -0.0713627 0.17927788 -0.21241583
0.0034890634 -0.18099537 -0.039058324 -0.119032934 0.12210719 -0.08464688 -0.110643096 0.07378336
-0.09918535 0.063767165 -0.101793714 0.08882781 0.16865025 0.15212558 -0.052118864 -0.05967335
0.003050548 0.09671429 -0.10045882 -0.019182095 -0.20046908 -0.09896027 -0.065218545 0.17229845
0.17714287 -0.10641956 -0.019210389 -0.11300027 -0.13287002 -0.1182971 0.04680412 -0.024293665
0.11046308 0.14943239 -0.11214109 -0.016110351 0.2028308 0.105557494 0.11995978 0.14027728
0.10211269 -0.04359964 0.07764454 0.029328186 -0.06865123 0.08354599 0.02125105 0.09248966
-0.15517488 0.14245854 0.07085451 0.11561598 -0.083644986 0.14836948 -0.025814429 0.16032133
0.06740745 0.021846514 0.12077664 -0.056744177 -0.08005871 0.023292003 0.027957149 -0.15211198

network.4.bias f4 [64]
00000000: b9ac a038 0b12 05bb 51b3 253c c219 1fba
00000010: 3a46 913b c2fd 083a 4ddc 803b 3ee7 563b
00000020: 45d3 fc3a abe1 543b 8cba 90ba 7675 6c3b
00000030: 5352 943b 0b3d 503b d571 523b 2a1d 92ba
00000040: f74c 663c b4ee f6ba 5b16 17bb a01a c7bb
00000050: 5eb1 60bb 95a4 68ba 8e4b 713b b4d5 06bc
00000060: 420a 9abb 721f b3b9 0cfd f23a 7d51 7ebb
00000070: dc7a 4b3b cbae b4bb c719 603b 2718 4b3b
00000080: d760 d4ba 1042 cdb8 4aed 7dba 6509 01ba
00000090: 35ef 9a3b f40c a13b fc5a f8ba 362f 1d3b
000000a0: 0269 98b8 bc2d a0ba 7b90 cc3a 62b0 e1ba
000000b0: 05d5 41ba 1bf8 003c a60e bd3b 107c 88bb
000000c0: 344f f63b 4f50 9d3a 3faf af3b 6aaf ef3b
000000d0: 988a c4bb 7d52 9ebb babf 453b c190 16b9
000000e0: b3bb bb3b a250 6c3b a039 09bc 687c 203b
000000f0: 094f f6ba 527c 333b 67c6 0e3c e4c3 d1bb
7.6615666e-05 -0.0020304944 0.010113553 -0.0006069207 0.0044334205 0.0005225801 0.003932512 0.003279164
0.0019289037 0.0032483141 -0.0011041923 0.0036080754 0.0045264154 0.0031774666 0.0032111306 -0.0011147608
0.014056436 -0.001883945 -0.0023054096 -0.006076172 -0.0034285407 -0.0008874622 0.0036818716 -0.008229662
-0.00470093 -0.0003416497 0.0018538549 -0.0038805895 0.0031048572 -0.005514001 0.0034195052 0.0030989738
-0.0016203177 -9.787467e-05 -0.0009686543 -0.00049223594 0.0047282227 0.004914874 -0.0018948014 0.0023984439
-7.267484e-05 -0.0012220661 0.0015607023 -0.0017218704 -0.0007394108 0.007871653 0.0057695685 -0.00416518
0.007516766 0.0012002083 0.005361467 0.007314612 -0.005997967 -0.0048316107 0.0030174092 -0.0001435904
0.0057291626 0.0036058803 -0.008375555 0.0024488214 -0.0018791865 0.0027387333 0.008714295 -0.006401526

network.5.weight f4 [64]
00000000: 3e1b 833f 3a5e 6e3f ceaa 8b3f d081 853f
00000010: 0cc2 843f 352d 8b3f 630a 883f c250 813f
00000020: 7617 823f cd94 873f 82d1 773f 061c 7c3f
00000030: aaa4 7e3f ee61 823f d3ee 7f3f e985 683f
00000040: a2d1 853f 1e66 7d3f aa68 6c3f 3a65 823f
00000050: 37aa 793f 8d8e 713f c4eb 8e3f 1a35 773f
00000060: 4e76 8a3f 0cea 643f cfc3 5f3f 5acf 7e3f
00000070: 22c4 863f 1c38 793f 86dc 863f 83d5 7d3f
00000080: f744 853f bbd8 813f 4981 5e3f e73f 753f
00000090: adc7 593f aafb 903f 47dd 743f f14c 6b3f
000000a0: ded5 7c3f 24f3 793f cdc7 723f 543a 8b3f
000000b0: f1c3 863f 965f 783f 2592 693f a7ea 6c3f
000000c0: b6b4 663f b481 8c3f 065f 6a3f 1b1c 843f
000000d0: 7851 803f 1a75 813f 6cb9 723f 6c4d 713f
000000e0: 00e7 723f 1b18 873f 1938 833f ebf4 873f
000000f0: f8ce 903f 91b7 6a3f a2e7 743f 0be8 833f
1.0242689 0.9311253 1.09115 1.0430241 1.0371718 1.0873171 1.062817 1.010277
1.016341 1.0592285 0.9680406 0.9848026 0.9947001 1.0186136 0.9997379 0.9082933
1.04546 0.98983943 0.92347205 1.0187142 0.9752535 0.9435814 1.11657 0.965654
1.0817354 0.8941963 0.87408155 0.99535143 1.0528605 0.9735124 1.0536048 0.9915392
1.0411671 1.0144266 0.86916023 0.9580063 0.85070306 1.1326802 0.9565014 0.9191428
0.98763835 0.9763663 0.9483612 1.0877175 1.0528547 0.9702085 0.91238624 0.9254555
0.90119493 1.0977082 0.91551244 1.0321077 1.0024862 1.0113862 0.9481418 0.9425876
0.9488373 1.0554231 1.0251495 1.0621618 1.1313162 0.9168635 0.95665944 1.0305189

network.5.bias f4 [64]
00000000: 2b53 163d 6ada 18bd f4b0 943d ee23 0a3c
00000010: 51e5 8d3d 4099 833d 5540 86bd e0fc e43c
00000020: d648 203d c98b 1b3e 39e0 3fbd 5c47 1c3c
00000030: ce33 003b 9175 e3bd a082 17bc a026 cbbd
00000040: 713b 443d 3cea c03b d3ba cbbd b019 84bc
00000050: 0a66 c3bd a965 47bd cc2f 9f3d abb5 15bd
00000060: f8e7 d6bd a285 babd 9cf5 b1bd dfae 08bc
00000070: 3b9e 0e3c 160e 7ebc c748 7bbd cdab 5bbc
00000080: 311d db3d 9fc3 1fbd 76ac f2bd 7203 6bbd
00000090: 60de 0fbe 09a8 27bc 2b54 1cbd 5d00 53bd
000000a0: 59d7 d7bb 0d05 02bd c9ac cbba 87f8 b93b
000000b0: 7323 ba3d 9919 58bd adda 3dbd c83d 32bd
000000c0: a350 05be 2966 2d3d cf01 ebbd c537 5e3d
000000d0: b1b7 473d 10da e33c c770 0f3c 4d9a 7dbd
000000e0: 7e81 fcbd 41f0 533d 9150 703c 0a44 973c
000000f0: 2e2b cc3d 4aee 46bd 8585 06bd 6885 37ba
0.03670041 -0.03731767 0.07260314 0.008431418 0.06928504 0.064257145 -0.06555239 0.027952611
0.03913196 0.15190043 -0.046844695 0.009538498 0.0019562128 -0.111064084 -0.009247452 -0.099194765
0.04790825 0.005887298 -0.09947743 -0.01612553 -0.09540947 -0.048680935 0.077727884 -0.036550205
-0.10493463 -0.0910752 -0.086894244 -0.008342474 0.008704717 -0.015506288 -0.061348703 -0.01340766
0.10698927 -0.03900492 -0.118493006 -0.057376333 -0.14049673 -0.010232934 -0.038166206 -0.05151402
-0.0065869507 -0.031743098 -0.0015539165 0.0056753787 0.09088793 -0.052758787 -0.046351124 -0.04351595
-0.13019042 0.042333756 -0.11474954 0.054252405 0.048759166 0.027813941 0.008754916 -0.06191473
-0.12329386 0.051742796 0.014667646 0.01846506 0.09969173 -0.048567094 -0.032842178 -0.0007000775

network.5.running_mean f4 [64]
00000000: d712 a93e 4d4a 903e 7b72 65be b5f4 5a3f
00000010: 7e5d 473f 65d3 5e3f 79ed 5d3f 99bb 093f
00000020: c1a7 e4be a192 f6be eddf 41bf 3b29 04bf
00000030: 47bc 7fbe dfec cb3f 36fb 7cbf c522 25be
00000040: 7f70 6b3e c417 21bd 3b4b 863f 88d0 6fbf
00000050: 0802 7fbf a7ca b2be 255f 863e 2cf4 b43e
00000060: 98d9 863f 57ba 83bf 2faf 23bd abef 3f3f
00000070: bc6f bc3e e654 3bbf 0add c13f d6d4 36be
00000080: cf5f 93bc b126 01bf 1798 a6bf 2c24 a8bf
00000090: 2bd7 28bf 6cf2 fabe ff1e 6cbf 1f4b d0be
000000a0: 92df a5be 52e0 933e fa18 443f 1750 9f3f
000000b0: 8c68 0abf 76a1 febd e8bf 0abf 6425 6bbf
000000c0: 4f1d 0abf 022d 6d3e fb9c c6be d95e 8fbe
000000d0: 327c b2be 3d62 2a3f ef3d 3d3f cbc9 98be
000000e0: c0e5 c3be ebcd 8abe 23aa 263f 7265 8c3f
000000f0: c1e5 833f 06e3 fdbe 6cee 3abf 29f9 e43d
0.33022186 0.28181687 -0.22406952 0.85529643 0.7787703 0.8704131 0.8669048 0.53801876
-0.44659236 -0.48158744 -0.7573231 -0.5162541 -0.24974166 1.5931662 -0.9882082 -0.16126545
0.22992133 -0.039329305 1.0491709 -0.9367757 -0.99612474 -0.34920236 0.26244465 0.35342538
1.0535154 -1.0291241 -0.03996199 0.7497508 0.36803997 -0.7317642 1.5145581 -0.17854628
-0.017990021 -0.50449663 -1.3015164 -1.3136039 -0.6595332 -0.49013078 -0.92234796 -0.40682313
-0.32397133 0.2888208 0.7660061 1.2446316 -0.54065776 -0.1243314 -0.54199076 -0.9185393
-0.5395097 0.231617 -0.38791642 -0.2800205 -0.34860379 0.6655615 0.7392263 -0.29841456
-0.38261223 -0.27110228 0.6510336 1.0968459 1.030449 -0.49587268 -0.7302005 0.11180336

network.5.running_var f4 [64]
00000000: 4952 4240 e9a4 1340 71b0 2740 957e 2c40
00000010: de0f 2640 b4c4 9740 3966 8240 e36c 4640
00000020: fa4a 4640 ca57 ad40 53fa f93f 2ec4 b540
00000030: 0756 6040 af4a a640 3a87 5040 a59e 5040
00000040: 6409 ed3f 7a28 c93f 01a0 e03f e82d ca3f
00000050: 26bd f33f 0840 813f 01e9 4d40 22b0 4940
00000060: 6a88 4740 6141 e43f 33b3 9f3f 4127 e33f
00000070: f6d0 3b40 f052 9a40 1243 ad40 1000 0240
00000080: 23b3 aa40 c651 b63f f713 0840 9e5b 1540
00000090: 02f3 de3f 04c0 2d40 3173 4d40 c86e 2f40
000000a0: a751 6540 ee9a 4840 b32d 2f40 336a 9d40
000000b0: 2c02 7240 42cd eb3f 714c 2640 4d6f 7940
000000c0: 6366 ce3f 2259 dc3f 3e43 8f3f ea3e ac3f
000000d0: 0277 4840 5e4d 6d40 1d80 1240 e33a 3740
000000e0: 69b5 bb3f e7bd 3640 23e8 4240 3377 8040
000000f0: 7c46 9740 bee5 f040 484b 9e3f 4813 cb3f
3.0362723 2.3069403 2.6201441 2.695226 2.5947185 4.7427616 4.0749784 3.100396
3.0983262 5.4169664 1.9529518 5.6801977 3.5052507 5.1966166 3.2582536 3.259683
1.8518491 1.5715477 1.7548829 1.579526 1.9042099 1.0097666 3.2173464 3.1513753
3.117701 1.7832452 1.2476562 1.7746354 2.934629 4.822624 5.4144373 2.0312538
5.3343673 1.4243705 2.1262186 2.3337169 1.741791 2.7148447 3.2101557 2.7411366
3.5831087 3.1344562 2.7371643 4.919214 3.7813826 1.8422015 2.5984156 3.8974183
1.6124996 1.7214701 1.1192396 1.34567 3.1322637 3.707847 2.2890694 2.8629692
1.4664737 2.8553407 3.0454185 4.0145507 4.727354 7.5280447 1.2366724 1.5865259

network.8.weight f4 [32, 64]
00000000: 70a5 82be 109f 153e ca6a 42be 8704 013e
00000010: 1cf4 a93d b816 46be e885 cdbd 9410 633d
00000020: 7a54 41be 90d2 87be 55fc 81bb 4a2e 4fbe
00000030: 8bd6 11bd 1eff 273e f995 3c3e 1241 f53d
00000040: 7848 95bd 0215 9cbe 6baf 7d3d df48 d33d
00000050: 7d80 b6bd e5fa 1cbd 0491 79be 9beb d43c
00000060: 459c 71bc 8a06 123e e0b8 f73d 8c22 5d3e
00000070: 8704 b2bd 14d3 823d c76a 58be 84bd 4ebd
00000080: 8a75 34be d95e 5abe 9156 d5bd 6c4e cd3d
00000090: c0a3 ca3d 71ef 1dbe 755c 0bbe 73e7 8fbd
000000a0: 7878 d5bd 21f3 e8bd 197c 8a3d 95fe 22be
000000b0: 6a55 4a3d ec50 c2bd 5a84 223e a751 adbd
000000c0: 3ebb 1abe 7823 d5bd 5cf5 183e 712a 11be
000000d0: a86d 9f3b 88b0 3e3d 76f8 093c b690 d33d
000000e0: 31e0 823d f7e8 f63d 07e0 2abe 2920 633e
000000f0: da36 28be 10d6 e03d 90e4 ac3d 9dcd 45be
00000100: 4789 e73d 2019 60be 3634 adbe 84a1 9d3d
00000110: 0369 2cbd 23f5 a1be b743 00bd a95d 92be
00000120: fac7 583e fc04 583d caa3 eebd 1ff9 78be
00000130: 3ea1 973d c790 a23d 6926 f93b d6e9 bb3c
00000140: c759 213e 3901 12be ce32 2a3d 60de c33c
00000150: 1fe7 073c 293b 04be 9872 163e e957 2b3d
00000160: 9f9a 61be 86c1 f23a 56e3 2f3d e01e 2d3e
00000170: 1662 7ebe 177e 0c3e 0322 96be 5039 e83d
00000180: a647 e93c 5dca c83d cb8f 80bd 3da4 0ebe
00000190: e97a 55be 50ae 8d3e 7158 28bd 999f e2bc
000001a0: 41b5 3b3e 987e fdbd 2a5d 84bd 50ff 523c
000001b0: a696 eb3d 80bd f03c f4bf 2f3e 2b20 823d
000001c0: caab 663d eaa4 6abe b785 0e3e ad1d cb3d
000001d0: b5bd 03be 3698 65bd b934 4c3e ac41 9f3d
000001e0: 180b 34be 6052 243e 6c4d 9cbd 3e88 263d
000001f0: 6a29 6c3c 76cb a63d e1a5 973d ee47 83bd
00000200: 89b4 843e 323b e53d 7170 013e 5afa 573d
00000210: 3440 c13d 98f7 923e 02a6 cf3d 0df1 6cbc
00000220: 2777 5abd eb0b 333e 6202 a2be 913a 383e
00000230: 8071 eb3d d6f6 bb3d 1901 9ebd a122 783d
00000240: 8d43 2ebe 7c70 fabd 61ed febd daf1 11be
00000250: 3560 e43d 645a 1abe 09d6 613e 8312 6bba
00000260: 593f 803e edb6 ac3c c69a 413e c7b4 08be
00000270: 7363 2a3e 6a41 613e 49e4 b43d d769 8b3e
00000280: f821 80be 8e3a 093e 0e12 afbc 9172 babc
00000290: b6fc aebd 2bf8 ea3c cd57 4e3d 0e34 d43d
000002a0: 8028 4c3e bdd7 833e 1e2c 7d3d c40d a4bd
000002b0: 8ac7 213e bb2d 96bd 510e 0e3e d184 f23d
000002c0: fda9 993e 9755 e93d 3846 c4bd 4f65 793e
000002d0: c130 9abd ba7a afbd a89f 163e 446b 793d
000002e0: 6a27 8a3e dfdf 363d 47c1 083e f77f d83c
000002f0: dacf 25bd 8ab7 ed3d 59b3 5ebe 7e13 5c3e
00000300: 2e18 f43d 31bc 4cbe 87ad 1c3e 0c5e 84bd
00000310: f5d2 1abd bddd 05bd 82e9 973d 888e 413e
00000320: f0c5 3ebe ba8f 593e a1d4 d4bd 35f7 053e
00000330: 2f4b 7abe 2595 15be f9fd bf3d aa8e 963d
00000340: 3d07 b63d 4810 803d c636 4d3d 7c0d 18be
00000350: 30f6 50bb be62 d13d 39c2 623e 623a 23be
00000360: 3ce3 a5bd fd84 37be 0db7 523e 458d b73d
00000370: f4b8 d2bc 5350 853e 9c15 e03d 3213 d5bd
00000380: e1d3 87be 5fb6 72be 9641 83bd bfdf cc3d
00000390: cdab dfbd 7957 1e3e 3203 a43d 8e22 9dbd
000003a0: 5fb0 663e b063 85bd 9861 d03d 0fb8 a03d
000003b0: ea36 a53d c2e8 1c3d 44da 773e 1470 903d
000003c0: 3a1c 9ebd 5443 aebd c802 89bd 7bcf de3d
000003d0: 7d50 cabe 136d 14be 1daf bc3d f1de 72be
000003e0: a345 173e 5a14 973d 7d63 72be 3707 14be
000003f0: ab86 0dbe 45c0 a0be 7c79 e6bd 8d64 09bd
-0.25516844 0.14611459 -0.1898605 0.12599383 0.08298513 -0.19344604 -0.10035306 0.055435732
-0.18879882 -0.26527834 -0.003966848 -0.20232502 -0.035604995 0.16405913 0.18416585 0.11975302
-0.07289213 -0.30484778 0.06193487 0.103166334 -0.08911226 -0.03832521 -0.24371725 0.025991252
-0.01474673 0.14260307 0.12095809 0.2159521 -0.0869227 0.06387916 -0.21134482 -0.050473705
-0.17622963 -0.21325244 -0.10416902 0.100247234 0.09894514 -0.15423371 -0.13609488 -0.07026567
-0.10423368 -0.11374498 0.06761951 -0.15917428 0.049397863 -0.09488091 0.158708 -0.084628396
-0.1511049 -0.10407156 0.14937347 -0.14176346 0.004865367 0.046555072 0.008421054 0.10330336
0.06390417 0.12056153 -0.16687022 0.22180237 -0.16427174 0.10978329 0.08442032 -0.19316716
0.113054805 -0.21884584 -0.33828896 0.07696822 -0.042092334 -0.31632337 -0.031314578 -0.28587082
0.21170035 0.05273913 -0.11652334 -0.24313782 0.074038014 0.0793777 0.007603456 0.02293865
0.15756904 -0.14258279 0.041552357 0.023909748 0.00829485 -0.12913193 0.14692152 0.041831885
-0.2203164 0.0018520809 0.042941414 0.16906309 -0.24842104 0.13719974 -0.29322824 0.113390565
0.028476547 0.09804223 -0.06277426 -0.1392984 -0.20847668 0.27672052 -0.04109997 -0.027663993
0.18330862 -0.123776615 -0.06463082 0.012878254 0.11503343 0.029387236 0.17163068 0.06353792
0.056316175 -0.22914472 0.13918196 0.099177696 -0.12865336 -0.056053363 0.19941987 0.07776198
-0.17582357 0.16047049 -0.076319546 0.040657274 0.014414171 0.08144276 0.07404686 -0.06410204
0.25918987 0.11192931 0.12640549 0.05272899 0.09436074 0.28704524 0.10139085 -0.014461768
-0.05333629 0.17485015 -0.31642443 0.17991091 0.11496258 0.091779396 -0.07715053 0.0605799
-0.17017956 -0.12228486 -0.1244762 -0.14252415 0.111511625 -0.15073544 0.22054304 -0.0008967297
0.2504833 0.02108332 0.18906698 -0.13350211 0.166395 0.2199761 0.088326044 0.27229187
-0.25025916 0.13401243 -0.021370914 -0.022759708 -0.085442945 0.028682789 0.050376702 0.10361491
0.19937325 0.25750533 0.06180965 -0.08010438 0.15798774 -0.07332941 0.13872649 0.11841739
0.30012503 0.11393278 -0.09583706 0.24355052 -0.0752883 -0.0856833 0.14709342 0.060893312
0.26983196 0.044647094 0.1335498 0.026428206 -0.040481426 0.11607273 -0.21748103 0.2149181
0.119186744 -0.19993664 0.1530057 -0.064632505 -0.03779884 -0.03268217 0.07417585 0.18902028
-0.18630195 0.21246234 -0.10392118 0.13082583 -0.24442743 -0.14607675 0.09374613 0.0735143
0.08888099 0.062531054 0.050101064 -0.14848894 -0.003188502 0.10223912 0.22144403 -0.1594024
-0.08099982 -0.17921825 0.20577641 0.08962492 -0.025722958 0.26037845 0.10941622 -0.10404052
-0.26528838 -0.23702382 -0.06408994 0.10003614 -0.1092144 0.15463056 0.08008422 -0.076726064
0.22528218 -0.065131545 0.101748645 0.078476064 0.08067115 0.038307913 0.24204355 0.07052627
-0.077202275 -0.085089356 -0.066899836 0.108794175 -0.39514533 -0.14494734 0.09213088 -0.23717858
0.14772658 0.07376929 -0.23670764 -0.14455877 -0.13820903 -0.3139669 -0.1125364 -0.03354316

network.8.bias f4 [32]
00000000: c872 c93b 7d12 1dbc 552f d9bb 755a d5bb
00000010: adac 8eba c0d3 57bb b4ab a73b a866 34ba
00000020: 193a a7ba 8914 363c 43bd a53b 8376 433c
00000030: 2124 9dbb 6e2b bdb9 150d ef3b 9b36 f03b
00000040: cf86 58ba 77f2 46bb b531 f2bb c88b 353b
00000050: 82e6 7e3b 66a5 723b ad06 ce3b 0d34 a63b
00000060: 3f48 cfba a6ba 27ba 8a6f 1c3c 35d9 7f3b
00000070: 9cfd 99bb 2d06 033c 3b46 58ba ce32 133b
0.006147716 -0.0095869275 -0.006627957 -0.0065110275 -0.0010885202 -0.003293261 0.005116904 -0.0006881752
-0.0012758403 0.011113294 0.005057962 0.011930111 -0.0047955667 -0.00036081247 0.0072952607 0.007330728
-0.0008259834 -0.0030356923 -0.0073911794 0.0027701724 0.0038894718 0.0037024855 0.006287417 0.005072123
-0.0015814378 -0.0006398357 0.009548077 0.0039039378 -0.004699422 0.007997078 -0.0008250211 0.0022460702

network.9.weight f4 [32]
00000000: 479b 513f c2e9 543f a90c 493f 4648 3e3f
00000010: 6e0e 493f 6808 643f 554c 593f 2d4a 433f
00000020: c993 563f 3235 5c3f 30ad 5b3f 6fc0 3d3f
00000030: bae5 593f afe5 593f 117a 473f b522 3a3f
00000040: 2bfd 4f3f 6eca 6b3f 1ec5 533f 4406 423f
00000050: 3619 4a3f 7558 233f 149f 463f 2cf0 523f
00000060: ae78 573f 882c 513f f9c8 6b3f 4f54 413f
00000070: 83fe 343f 2662 353f 1a2f 443f eb59 233f
0.8187756 0.83169186 0.7853494 0.7432903 0.7853764 0.89075327 0.848821 0.7628506
0.8381925 0.8601867 0.8581114 0.74121755 0.8511616 0.85116094 0.77920634 0.7270921
0.8124568 0.9210576 0.8272265 0.7579081 0.7894472 0.6380685 0.77586484 0.82397723
0.8416852 0.81708574 0.92103535 0.7551927 0.70700854 0.7085289 0.7663437 0.6380908

network.9.bias f4 [32]
00000000: a5d8 99bd de31 39be b75c c33c 9e79 02bd
00000010: 46e9 74bd ff73 c5bc 762e 86be 6d83 d4bd
00000020: a6ec 65bd 13c0 41bc b5b8 64be b484 67be
00000030: 2eae 11bd bf2c bdbc 3424 1cbe ec09 5ebe
00000040: 0569 04be e477 70bd c06b 44be cdf1 2ebd
00000050: 42ec febd 6b27 cfbe 5700 d2bd ed87 31bd
00000060: ec43 22be ebf6 87bd 8e30 9abd 07b3 5bbd
00000070: 37dc e7bd d6f9 2cbe 7953 10be f520 c1be
-0.07512025 -0.18085429 0.02384792 -0.031854264 -0.05979278 -0.024103163 -0.26207322 -0.1037663
-0.05613389 -0.011825579 -0.22336085 -0.22609216 -0.0355665 -0.023092626 -0.15248185 -0.21683472
-0.12930687 -0.058708087 -0.19181728 -0.042711068 -0.12447406 -0.4045976 -0.10253971 -0.04334252
-0.15846223 -0.06638893 -0.07528792 -0.05363753 -0.113212995 -0.1689218 -0.14094342 -0.37720457

network.9.running_mean f4 [32]
00000000: 81a0 5abf e52b 63be 89cf b03f 2ebf 34be
00000010: abe3 a2bf 5133 de3c 67da b3be eb0a c7bb
00000020: 3ea2 a23e c41b e6bf ded0 94bf 577d 6fbf
00000030: 919b 85bf e601 aebf f570 bcbf f1bb a3bf
00000040: 60c8 6fbf aa33 00bf b968 f0be 4993 463e
00000050: bdc8 d8be 80e5 65bf c420 9cbf 2df5 7bbf
00000060: 599d 92be 72cb 91bf 6dd9 27bf 6ef2 9bbf
00000070: 53f2 9fbf df6c bcbf 766a 79bf 4784 f0be
-0.8540116 -0.22184713 1.3813335 -0.17651054 -1.2725729 0.027124079 -0.35127565 -0.0060742996
0.31764406 -1.7977223 -1.1626241 -0.9355063 -1.04381 -1.3594329 -1.4721972 -1.279173
-0.93665123 -0.50078833 -0.46954897 0.19392122 -0.4234065 -0.89803314 -1.2197499 -0.98420984
-0.28635672 -1.1390212 -0.6556614 -1.2183359 -1.2495826 -1.4720725 -0.9742807 -0.4697592

network.9.running_var f4 [32]
00000000: 9014 3e40 88f1 a03f a4ae d040 a9c3 3740
00000010: 8df1 6b40 e081 6b40 e858 4d40 20d9 7e40
00000020: 3690 fc3f 6400 f340 52c4 9e40 c89e bc40
00000030: 5f04 b240 409b 4e40 410e 0d41 7ea7 9b40
00000040: 6ef9 1540 8ad8 a240 fe2b 1540 4962 9540
00000050: 0d1f 4740 2125 5040 a3e6 b140 b2e8 5040
00000060: e617 0340 1100 7040 1c00 3a40 c2a8 2340
00000070: 5a53 4f40 705c e040 f144 3040 4d4f e03f
2.970005 1.257371 6.5213184 2.8713171 3.686618 3.679802 3.2085514 3.9820023
1.973151 7.5937977 4.961465 5.8943825 5.5630336 3.2282257 8.81598 4.864196
2.343349 5.088933 2.33081 4.6682477 3.1112702 3.2522662 5.559404 3.2642026
2.0483336 3.750004 2.9062567 2.5571752 3.2394624 7.011284 2.7542078 1.7524201

network.12.weight f4 [4, 32]
00000000: f826 27bd e3da f73d 0b6d 693c 578e d4bc
00000010: 02c3 94bd c004 8d3c ba1f 533e 3f18 173d
00000020: 44fc d73d 5d3a c1bd 1943 4f3e f05b 253e
00000030: 1c1c d03d 51d0 e8bd 3405 9dbd 9984 2fbe
00000040: 0748 a2bd 41ad 163e a104 063e 3094 a13c
00000050: 9a79 1e3e 5639 213e 3b60 adbd 9870 d2bd
00000060: dd2b d73d c26c e9bd 8d82 0c3e 57ee f9bd
00000070: 26d4 f6bd 0192 e9bd 835e 10be 4f1b 79bd
00000080: 3a7b 13bd 27ea f73d fff4 4cbc c017 6ebd
00000090: 7187 10be 5f67 69bc e598 3c3e 425c 64bc
000000a0: 474b 943d f8ee 7dbd 6d49 453e 37c6 a93d
000000b0: 9c2a f33d 897f f0bd 2905 8c3d 9a69 eebd
000000c0: bb50 bcbd c9e4 1b3e bff6 fe3d 4642 afbc
000000d0: aa78 2c3e fceb ccbd dd43 f2bd 7416 f9bd
000000e0: 2e5c f53d 3837 fbbd 246c 273e 25a5 febd
000000f0: c293 d7bd cd21 c53d e5eb 07be 59f2 893d
00000100: f181 02be 7e94 bd3d 20af 833d 5fe5 a5bb
00000110: a902 35bd 58fe 693d ab3b 3e3e cfa1 933d
00000120: 5412 0b3e c2bf 50bd 91d4 ca3d 89d6 bbbd
00000130: c2d5 053d 478b a6bd 5ded 4bbe 23ce 5ebb
00000140: 54df 0cbe ced6 343d 6fa5 a03d 18aa 513d
00000150: 7d70 ae3d 1be4 76bd 0314 bebd fbec 02be
00000160: f7ad 993d e8f3 a4bd 76bc 963d 69cc b8bd
00000170: ae2c 1dbe 6424 19be 8259 56bd 5fa5 8d3d
00000180: 9570 4dbe b2ee 323c 91e8 013e 83c2 353e
00000190: be8a a53d 2c9e 163e b6f3 2fbc 68fc 503e
000001a0: 1ecc ce3d 7ffc 03be 230d 87bd 3a87 52be
000001b0: 9462 1ebe 8ef0 cbbc 909a 83be cd56 3d3d
000001c0: 393d 313d f73f c1bd 8994 13bd 1e55 4f3e
000001d0: 345e cabd 874c ce3d 83cc 14be a25e efbd
000001e0: 2199 5bbd 14df 843c 39d0 bfbd 3399 e73d
000001f0: ada7 f23d ea29 85be 2dd3 c4bd 96cb 2d3e
-0.040808648 0.12102296 0.014247189 -0.02594678 -0.07263757 0.017214179 0.20617571 0.036888357
0.10546163 -0.0943496 0.2024044 0.16148353 0.101616114 -0.11367858 -0.07667008 -0.17140426
-0.079238944 0.14714529 0.13087703 0.019723982 0.15476075 0.15744528 -0.0846562 -0.10275382
0.10506413 -0.11397697 0.13721676 -0.12203663 -0.12052183 -0.11404801 -0.14098553 -0.06081706
-0.03600619 0.12105208 -0.0125095835 -0.05812812 -0.14114167 -0.014245837 0.184177 -0.013938012
0.072409205 -0.061995476 0.19266291 0.082897596 0.118733615 -0.117430754 0.06836922 -0.11641236
-0.091950856 0.15223993 0.12449407 -0.021393906 0.16842905 -0.10005948 -0.1182935 -0.12162486
0.119804725 -0.122663915 0.16349846 -0.124338426 -0.105262294 0.096255876 -0.1327358 0.06735677
-0.12744881 0.09256838 0.06429887 -0.0050627436 -0.04419199 0.057127327 0.18577449 0.07208597
0.1358121 -0.050964125 0.09903825 -0.09171779 0.03267456 -0.08132034 -0.19914766 -0.0033997379
-0.13757068 0.044150166 0.07844054 0.051187605 0.08517549 -0.060276132 -0.09281161 -0.12785713
0.07503884 -0.08054334 0.07360165 -0.09023363 -0.15349075 -0.14955288 -0.052331455 0.06916308
-0.20062478 0.010921167 0.12686373 0.17749982 0.080831036 0.14708775 -0.010739258 0.20408785
0.10097526 -0.12889288 -0.065943025 -0.20559397 -0.15467292 -0.024894979 -0.2570386 0.046225358
0.043271277 -0.094360285 -0.036030326 0.20247313 -0.09881249 0.1007319 -0.1453114 -0.11687972
-0.053612832 0.016219653 -0.09365887 0.11308517 0.11848388 -0.2600854 -0.09610591 0.16972193

network.12.bias f4 [4]
00000000: 1a8c cdbc dc11 31bc ceec 5c3d 9c23 a53d
-0.02509122 -0.010807481 0.053936772 0.080634326
