soil_salinity_multi_sensor/outputs/models/stage1/stage1_final_model.pth (torch, 72378 bytes, 20 tensors)

network.0.weight f4 [128, 36]
000000 11 e5 4a 3e 78 ec 1e 3e be 04 23 3f 6b ab b1 3e
       0.19813944 0.15519893 0.6367911 0.34701094
000010 28 0e 75 3d 08 1b 0d 3d a6 58 b1 3d 50 08 97 bd
       0.059827954 0.034449607 0.086594865 -0.07374632
000020 20 f2 5c 3d 28 83 8d be 49 f6 4c 3e 47 80 cc 3d
       0.053941846 -0.27639127 0.20015825 0.099854045
000030 26 92 2f 3e 74 7e a4 3d 4d e8 d9 3c e3 79 3f be
       0.17145595 0.080319315 0.026600027 -0.1869884
000040 bb 05 a8 3e 81 da 72 3e 0d db fd 3e c6 8c 37 3f
       0.32816872 0.23716165 0.49581185 0.7169918
000050 ef 80 04 3e 38 25 13 be 90 9c c7 bc ca 3a c3 3d
       0.1293981 -0.14369667 -0.024366647 0.095326975
000060 3b 06 bf 3e 14 48 a3 3e 0d 9f e7 bc e7 b7 5a bc
       0.3730944 0.3189093 -0.028274084 -0.01334951
000070 6f 16 24 be f0 53 22 3e f7 a9 e6 be d7 5b f8 3e
       -0.16024183 0.15852332 -0.45051548 0.48507568
000080 af 6e 35 3e db 62 2b be 18 16 d8 be 67 e2 1f 3d
       0.17718004 -0.16736929 -0.42204356 0.039034273
000090 70 6b 5d 3e 68 dd 81 3d 31 63 c1 3d 28 31 66 3e
       0.21623015 0.06341058 0.094427474 0.22479689
0000a0 94 22 41 bb 23 eb a5 3c 96 32 8b 3d 12 70 ce 3d
       -0.0029470073 0.020253723 0.06796758 0.100799695
0000b0 7f ed 0a be c1 e3 e0 3d 2b a6 60 3c 71 eb a7 bd
       -0.1356716 0.109809406 0.0137114925 -0.08199204
0000c0 6a f6 83 bd 73 19 39 be 1c ae df 3d 75 1d f7 bc
       -0.06443484 -0.18076114 0.109218806 -0.030165413
0000d0 f9 ea 7e 3e a9 28 3b 3e 66 e0 83 3d 13 cf 5a 3d
       0.24894322 0.1827723 0.06439285 0.053420138
0000e0 ae 16 31 3a 16 eb 0c bd 40 58 4f 3e ca 9c 3e 3d
       0.00067553937 -0.034403883 0.20248508 0.046536244
0000f0 c2 da 09 3e a5 9f 1f 3e 4f ff 95 be b2 7a 89 3e
       0.13462356 0.15588243 -0.29296347 0.26851422
000100 2f d0 99 bc a4 8e 9e bd 91 fe ea be b7 1a b7 3e
       -0.018776027 -0.0774205 -0.45897344 0.3576257
000110 30 fe 42 3e 27 4f fc bc 7e ed f3 be 87 a3 8e 3d
       0.19042277 -0.030799462 -0.4764213 0.06964784
000120 18 30 f2 3e dd 72 db 3e 6c 6a a3 3e 17 9f 00 3f
       0.47302318 0.4286107 0.3191713 0.5024275
000130 7a c3 99 be 56 97 18 bc 19 c7 05 be 59 f7 c0 bb
       -0.3003195 -0.009313425 -0.13064231 -0.005888861
000140 81 c8 51 3a 04 23 37 3e b9 c1 96 3e 4d 60 9b 3e
       0.00080025947 0.17884451 0.29444674 0.3034691
000150 5e cf 68 3e 87 03 23 3e 68 8b ea bc 8f 43 9e 3d
       0.22735354 0.15919314 -0.028630927 0.077277295
000160 73 04 f1 3e 35 b2 20 3f 23 df a7 3e 46 a6 1d 3f
       0.47073707 0.6277192 0.32787427 0.6158184
000170 68 86 2f 3d 4e ca 89 bd a4 7c 5d bc 80 64 24 3d
       0.04285279 -0.0672804 -0.013518486 0.040134907
000180 32 12 9b 3c 5c b2 ed bd 8b 2c 26 be 1f 93 a4 bc
       0.018929575 -0.11606285 -0.1622793 -0.020089684
000190 13 25 d3 3d 95 ba 72 3e 82 81 47 bf 15 f5 21 3f
       0.10309806 0.23703988 -0.7793199 0.6326459
0001a0 8d 00 11 3d b5 3a a3 3d 5d 04 10 bf 66 af c2 bd
       0.035400916 0.07970182 -0.5625666 -0.09506111
0001b0 39 c8 d5 3e 5d d3 0a 3f d8 64 d7 3e 58 0a 1e 3f
       0.4175432 0.54228765 0.42069125 0.61734533
0001c0 1f 6e 80 3d cf 9e 87 3c be 87 eb bd ee 5b 08 be
       0.06271004 0.016555218 -0.115005 -0.13316318
0001d0 1c 8f 0a 3e a6 98 10 3f fd 20 e2 3e c0 e2 dc 3e
       0.13531154 0.56482923 0.44165793 0.43141747
0001e0 6b fb b0 3e 3c 48 c4 3e 3c c0 9e 3d 63 9f cb bd
       0.34566817 0.3833636 0.077515095 -0.0994251
0001f0 9d 10 1d 3f df 04 d3 3e d5 11 4e 3f 7d de 30 3f
       0.61353475 0.41214654 0.8049596 0.6908949
000200 93 d1 20 3e 65 eb 32 be 97 35 66 bd 45 de b7 bd
       0.15704946 -0.17472608 -0.05620345 -0.089779414
000210 b1 06 dc 3e 8f 87 e6 3e bc ed 27 be 5a 4f 65 3d
       0.42973855 0.45025298 -0.16399282 0.05598388
000220 bb 58 d5 bd 86 4a b3 bd e6 24 c0 3d 44 1d 55 3e
       -0.104173146 -0.087544486 0.09382038 0.20811945
000230 ba 22 a1 3c d8 3e 3a 3e ef e6 68 be ea 56 f6 bd
       0.01966988 0.18188035 -0.22744344 -0.12028296
000240 f0 a7 0d be e6 81 f8 3d ab 0b 87 3e cb f9 a3 3d
       -0.13833594 0.12134151 0.2637609 0.080066286
000250 2c a4 a0 3d 91 e8 95 3d 66 f0 d3 bd 66 1f 87 3b
       0.07843813 0.07319749 -0.10348587 0.004123616
000260 cc 16 56 bf 5e 15 87 be 3b dd 4a be 42 11 b0 be
       -0.83628535 -0.2638349 -0.19810955 -0.34388167
000270 11 6a 38 bf 52 16 df be 9d 1c 49 be 28 c8 30 3d
       -0.72036844 -0.43571717 -0.19639821 0.043159634
000280 b1 e4 2f 3e df cf 06 3e 57 14 87 3d 23 20 54 3c
       0.17177083 0.13165234 0.065956764 0.012947115
000290 b7 5f c5 3b b7 ea 46 3d 39 ec b1 bd 0f 6b be ba
       0.006023373 0.048563685 -0.08687634 -0.0014527756
0002a0 a3 74 c0 bd 95 d3 df bd ec ad a1 3d 4b 02 ba bb
       -0.09397247 -0.10929028 0.07894501 -0.005676543
0002b0 c6 a7 0d be 4c af b8 3d ad 02 d3 3e a3 4c 1f be
       -0.13833532 0.0901781 0.4121298 -0.15556578
0002c0 ad 13 2e be 8a 4d e5 bd 4a d0 64 3e e3 5e c3 bd
       -0.16999693 -0.1119643 0.22345081 -0.095395826
0002d0 ac c7 50 bd 16 a5 d8 3d 25 39 91 bd 64 d9 bd bc
       -0.050971672 0.10578363 -0.070909776 -0.023174949
0002e0 45 21 04 3c 36 83 25 be f7 c0 ed bd 11 6a be bd
       0.008064573 -0.16163334 -0.11609071 -0.09297574
0002f0 85 84 03 3e 31 6d 60 bd 8f 68 5b bd ab 2b 23 be
       0.12843521 -0.054791633 -0.05356651 -0.15934627
000300 66 a4 fd bd 7d f7 c6 3c 2a 15 1b 3e c6 c2 17 3e
       -0.12384872 0.024287933 0.15144792 0.14820394
000310 a1 af 8e bd 17 ac 8f 3e 68 a4 8a bc 7b de a8 3c
       -0.06967092 0.28060982 -0.016924098 0.0206139
000320 17 8e bb 3c d9 23 aa 3d c6 a2 0b be 42 44 9c bd
       0.022894902 0.08307619 -0.13636312 -0.07630207
000330 47 52 f5 bc c1 c7 62 bd c3 ed 84 3d 8b d1 6f bd
       -0.02994646 -0.05536628 0.06490662 -0.058549445
000340 a1 e0 9f 3d 85 ff 3b be 8e 0b 72 be 2c 0a 22 3e
       0.078065164 -0.18359192 -0.2363722 0.15824193
000350 d3 1e 41 3e d3 fa 25 3e 35 dd 95 be ae a7 8b 3d
       0.18859415 0.16208963 -0.2927033 0.06819092
000360 1b 4c 0b 3f 04 be fb 3e 98 6f f5 3e 80 e4 c9 3e
       0.54413 0.49168408 0.47936702 0.39432144
000370 f3 e3 7c be ce 7d 41 3e c0 9a 11 be 24 85 8e 3c
       -0.2469633 0.18895647 -0.14219189 0.01739747
000380 15 bc ad bb eb d4 e7 3d 41 92 67 3e eb 11 9c 3e
       -0.005301962 0.11319908 0.22614385 0.3048242
000390 41 cc 18 3e 58 39 87 3e cc f0 03 3e 7a 33 c7 bd
       0.14921667 0.26410937 0.12884825 -0.09726615
0003a0 3f 6f e4 3e 31 09 89 3e 29 e2 22 3f 90 71 b5 3e
       0.44616124 0.26764825 0.63626343 0.35438204
0003b0 13 f3 0a 3e 81 db 19 bd 94 d9 f6 bd 9a 83 a8 bd
       0.13569288 -0.03756285 -0.120532185 -0.08228226
0003c0 06 c8 d1 3e 59 f6 ad 3e 12 85 79 bc fd 84 ae bd
       0.40972918 0.3397701 -0.01522948 -0.08521459
0003d0 16 f4 d8 bd 07 bf 3a 3e e9 34 50 be b2 50 c6 3e
       -0.10593431 0.18236934 -0.20332684 0.3873344
0003e0 cc c1 99 3d cc f8 27 be 1e 09 85 be 90 ca 0e be
       0.07507667 -0.16403502 -0.25983518 -0.13944459
0003f0 f4 a2 03 bf e0 26 ff be 09 65 16 bf 38 4d 4d bf
       -0.5142052 -0.49834347 -0.5874792 -0.8019595

network.0.bias f4 [128]
000000 2a f7 8c b9 c0 bd 95 b8 c0 59 38 b9 bc db 2c ba
       -0.00026887032 -7.140217e-05 -0.00017581042 -0.0006594022
000010 50 e5 11 b8 dc 0a 8e b7 1b c6 93 39 10 64 68 b7
       -3.4784258e-05 -1.6932776e-05 0.00028185625 -1.3851575e-05
000020 19 28 43 b8 47 be c5 38 97 8d d2 b9 50 70 f6 39
       -4.6528967e-05 9.429134e-05 -0.00040159814 0.00047004456
000030 aa c1 2d b9 13 54 96 39 44 f8 5e b9 87 46 e6 39
       -0.00016570711 0.0002867287 -0.00021264056 0.00043921566
000040 ca dd 8d b6 13 64 69 b9 12 33 06 38 75 4b 7d b8
       -4.227947e-06 -0.00022257892 3.1995653e-05 -6.0390175e-05
000050 67 2c d1 38 de 7b 4b 38 46 de 87 b9 10 6e f3 38
       9.974167e-05 4.8514332e-05 -0.00025914813 0.00011607644
000060 ad 06 21 b9 0b c2 8c b9 ad 48 3e bb d5 e4 a6 b8
       -0.00015356643 -0.00026847454 -0.0029035017 -7.95812e-05
000070 ba 98 f9 37 99 2b 97 b9 6b df e7 37 24 2a 9a b9
       2.9754232e-05 -0.00028833447 2.7641383e-05 -0.00029404566
000080 52 c3 8c 38 17 27 07 ba 1a 6c fb b8 c8 b9 88 39
       6.7121015e-05 -0.0005155666 -0.00011988748 0.0002607836
000090 38 45 8f ba 3f a6 d5 b8 c1 9f 01 ba 3a b5 9f 38
       -0.0010930663 -0.00010187597 -0.00049447647 7.615467e-05
0000a0 57 36 d2 39 42 b9 dc 39 dc 9b 86 b8 b5 d6 0b b9
       0.00040094808 0.00042099698 -6.418649e-05 -0.00013336058
0000b0 29 49 a7 37 e4 05 51 37 a3 dd 21 38 60 7a c7 b8
       1.994202e-05 1.2458742e-05 3.8591807e-05 -9.5118536e-05
0000c0 61 5b 90 b9 50 32 e2 37 0b 40 80 b9 58 d5 8f b8
       -0.00027533903 2.6964728e-05 -0.00024461778 -6.85851e-05
0000d0 4e f8 9f b7 08 3a 66 ba cf 06 bd 39 64 e8 73 b9
       -1.9069903e-05 -0.0008782451 0.00036053962 -0.00023260858
0000e0 e5 1a ee 39 54 98 53 39 04 ac 34 39 f9 dc 66 3a
       0.00045414935 0.00020179275 0.00017230219 0.0008806731
0000f0 35 32 e6 39 17 6c 11 b9 99 a4 6f b9 62 48 72 38
       0.00043906426 -0.00013868544 -0.00022854134 5.7764708e-05
000100 64 1d 83 b8 81 18 66 39 c4 52 57 ba ce 02 a5 b9
       -6.252041e-05 0.00021943638 -0.0008213932 -0.00031473342
000110 0f 17 c2 39 c7 4d 15 39 2b 54 06 b9 ee 20 45 39
       0.00037019743 0.00014238722 -0.00012810591 0.00018799651
000120 f3 af 24 3a d9 a5 78 b9 43 3d 51 b7 19 4f f5 39
       0.0006282322 -0.00023712906 -1.2471634e-05 0.00046788974
000130 c2 71 c2 39 bc 5e 66 38 2c 0b 13 39 93 bf 0c b9
       0.0003708732 5.49245e-05 0.00014023174 -0.00013422807
000140 70 53 39 37 1b 72 c3 b9 35 eb a8 b9 eb e5 55 b9
       1.1046286e-05 -0.00037278314 -0.000322187 -0.00020398914
000150 34 e1 0c 3a a4 ec 29 37 48 1b 4d 3a 23 63 5e ba
       0.0005374134 1.0128282e-05 0.00078241946 -0.00084834005
000160 5b a8 10 ba 2d 11 95 3a 5b 18 83 38 7a 46 85 b8
       -0.0005518251 0.0011372917 6.251103e-05 -6.3550615e-05
000170 6d 04 d4 38 f4 b2 1a 39 62 eb 96 39 9d 77 4e 3a
       0.00010109772 0.0001475325 0.00028785603 0.00078761
000180 a6 be 10 3a 5f f8 5a 3a 0e 3b 70 38 46 31 81 b8
       0.0005521573 0.000835305 5.7275458e-05 -6.160377e-05
000190 8b 20 ab b8 ba 09 10 39 1a 2a 08 b7 ad e5 54 39
       -8.159977e-05 0.00013736534 -8.116034e-06 0.00020303456
0001a0 6a f2 54 3a de 7d 34 38 16 24 17 39 91 3b 40 38
       0.0008123281 4.3032567e-05 0.00014413925 4.5831843e-05
0001b0 96 df c4 39 c9 bd 57 38 44 4f 48 b9 71 5b 21 3a
       0.00037550618 5.1436746e-05 -0.00019103015 0.00061552884
0001c0 9f 80 b9 b8 1a c1 a8 39 82 38 6c 39 9c 70 15 39
       -8.845445e-05 0.0003218733 0.00022527765 0.00014251698
0001d0 d9 d4 c0 b8 22 80 05 b8 ba 1c 84 b9 da 63 3c 37
       -9.1949194e-05 -3.1829004e-05 -0.00025198405 1.1228922e-05
0001e0 49 26 f7 38 e6 6c d9 37 f9 84 6c b9 f1 18 c1 b8
       0.00011785009 2.5919126e-05 -0.0002255625 -9.207603e-05
0001f0 be 73 15 3a e7 a2 a5 b9 61 46 55 ba af f6 36 39
       0.0005701146 -0.00031592624 -0.00081357925 0.0001744877

network.1.weight f4 [128]
000000 df 6d 81 3f c5 c5 6f 3f ac 0a 6a 3f 54 b0 6c 3f
       1.0111655 0.9366115 0.91422534 0.92456555
000010 77 0c 82 3f 06 a9 79 3f 00 be 63 3f 11 a2 8c 3f
       1.0160054 0.97523534 0.8896179 1.0986959
000020 bb ff 61 3f fc 9c 82 3f b5 5e 95 3f 25 48 84 3f
       0.8828084 1.0204158 1.1669527 1.0334517
000030 24 97 83 3f c4 9a 8b 3f b6 90 95 3f c2 c8 72 3f
       1.02805 1.0906606 1.1684787 0.9483758
000040 1e b6 7a 3f 35 6e 63 3f a5 ac 80 3f cd 63 86 3f
       0.9793414 0.8884004 1.0052687 1.0499207
000050 1f 39 82 3f 29 b4 80 3f bc 07 8a 3f b7 43 82 3f
       1.0173682 1.005498 1.078361 1.0176915
000060 f2 f9 7a 3f 3d 49 82 3f b6 30 8f 3f 4a 2b 77 3f
       0.98037636 1.01786 1.118674 0.9655043
000070 56 00 8b 3f ab aa 7c 3f c2 3f 68 3f ee 0e 76 3f
       1.0859478 0.9869792 0.90722287 0.9611653
000080 2e f7 71 3f e6 46 80 3f 84 d6 6d 3f 47 85 81 3f
       0.9451779 1.0021636 0.9290545 1.0118798
000090 6a b6 94 3f 48 fe 7c 3f 97 81 8b 3f 6f b6 6a 3f
       1.1618168 0.988255 1.0898923 0.9168462
0000a0 eb f9 8d 3f 1e 1c 8a 3f 73 38 7f 3f 2f b9 8b 3f
       1.1091894 1.0789831 0.9969551 1.0915889
0000b0 7e 77 6d 3f c0 12 81 3f 16 b9 70 3f 8c 0d 69 3f
       0.92760456 1.0083847 0.9403242 0.91036296
0000c0 b1 36 81 3f 9e 4a 8b 3f 5e 35 62 3f 6e 06 5b 3f
       1.0094815 1.0882146 0.8836268 0.85556686
0000d0 b8 fe 75 3f ce bb 8f 3f 26 3c 90 3f ab 56 8a 3f
       0.96091795 1.1229188 1.1268356 1.0807699
0000e0 a8 10 6f 3f bd bb 82 3f c4 32 7c 3f bb 84 8a 3f
       0.9338479 1.0213543 0.9851496 1.0821756
0000f0 e4 9b 72 3f 03 b3 75 3f 46 ff 90 3f 62 15 83 3f
       0.9476912 0.95976275 1.1327903 1.02409
000100 d2 71 6c 3f bb a7 8b 3f 4a 85 81 3f 54 5b 8e 3f
       0.92361176 1.0910562 1.0118802 1.1121621
000110 3b 6e 7d 3f db dd 7e 3f 31 e0 68 3f 34 04 70 3f
       0.98996323 0.99557275 0.9096709 0.93756413
000120 49 c6 66 3f 31 85 83 3f fa 11 74 3f 6a a8 80 3f
       0.9014631 1.0275022 0.9533993 1.0051396
000130 e7 d5 72 3f 30 16 89 3f 07 00 82 3f 4c 8e 8a 3f
       0.9485764 1.0709896 1.0156258 1.0824676
000140 50 36 87 3f a9 a3 7a 3f d0 f7 5e 3f af c2 6f 3f
       1.056345 0.97905976 0.8709688 0.9365644
000150 54 6f 78 3f 73 00 85 3f ef 72 98 3f 84 7a 8e 3f
       0.97044873 1.0390762 1.1910075 1.1131139
000160 cf 62 99 3f c3 53 87 3f 40 33 81 3f 8e bf 66 3f
       1.1983279 1.0572437 1.0093765 0.9013604
000170 63 6e 78 3f c6 45 70 3f b3 b8 62 3f c2 f5 85 3f
       0.97043437 0.93856466 0.8856308 1.0465624
000180 a8 c4 6e 3f ae 37 7e 3f c5 7c 89 3f d3 40 76 3f
       0.93268824 0.9930371 1.0741202 0.96192664
000190 e0 1e 78 3f 0f b7 79 3f c2 cd 70 3f 86 85 96 3f
       0.9692211 0.9754495 0.9406396 1.1759498
0001a0 c9 50 65 3f 8b 69 80 3f 42 b9 80 3f 2a bc 85 3f
       0.89576393 1.0032209 1.0056536 1.0448048
0001b0 f2 0d 82 3f 91 37 74 3f aa a5 82 3f e4 9f 87 3f
       1.0160506 0.9539729 1.0206807 1.059567
0001c0 1b bb 70 3f d2 da 81 3f b5 af 69 3f 03 cb 78 3f
       0.940355 1.0144904 0.9128373 0.9718477
0001d0 46 9d 8e 3f ad ab 73 3f df 43 81 3f 51 8a 83 3f
       1.1141746 0.9518383 1.0098838 1.0276586
0001e0 2a 01 5e 3f dc 61 66 3f b0 fa 76 3f 42 82 62 3f
       0.86720526 0.8999307 0.9647627 0.8848001
0001f0 77 29 72 3f 4c 10 75 3f 44 38 83 3f 26 41 65 3f
       0.9459452 0.9572799 1.0251546 0.89552534

network.1.bias f4 [128]
000000 34 24 d2 bd 83 e8 ef bd 23 19 1d bd 59 03 8b 3d
       -0.102608114 -0.1171427 -0.03835405 0.06787748
000010 5a 05 21 3d d8 32 49 bd 2f b7 02 3d 52 52 62 be
       0.039311744 -0.049120754 0.03191298 -0.22101715
000020 b3 52 71 be 5e 68 a8 3d ee ba 9c 3d d8 c8 52 3c
       -0.23566703 0.082230315 0.076528415 0.012865268
000030 d2 b5 b7 bd 92 ac 3e 3c 36 fb 07 3d ff 6f b7 bd
       -0.08970226 0.011637824 0.033198558 -0.089569084
000040 d0 71 6c be 37 bc 97 bd ec 08 47 bd 3a dd 4b bb
       -0.23090291 -0.07408946 -0.048592493 -0.0031107203
000050 92 ff c5 3d 38 01 28 be 26 04 20 3d 03 c9 b5 bd
       0.09667887 -0.16406715 0.039066456 -0.088762306
000060 0b 88 7e be e7 e9 c4 bd 03 33 bf 3d b9 3e 0a be
       -0.24856584 -0.09614926 0.093359016 -0.1350049
000070 99 1c 68 bd 94 0c d6 bc f8 ff b2 bd fb 01 7c be
       -0.056667898 -0.026129045 -0.087402284 -0.2461013
000080 90 bd 6b be 6b 4d b7 bd 80 c0 6b bd 0a ce 24 bd
       -0.23021531 -0.08950313 -0.05755663 -0.040235557
000090 9f 6c 48 bd 6b dd 96 3d 41 a4 95 3d dd 66 15 be
       -0.048931714 0.07366451 0.073067196 -0.1459002
0000a0 83 8c d4 3d 71 a1 ac bd 56 74 12 be 8d 99 f4 bd
       0.10378363 -0.0842923 -0.14302191 -0.1194335
0000b0 97 51 b6 bd 0b 8f 34 bd d3 91 78 be 71 0c 21 bd
       -0.08902281 -0.04408173 -0.24274378 -0.039318506
0000c0 8b 7e 9f bd 87 8c f7 bd c2 be 6e be 6e b6 bc 3b
       -0.07787808 -0.1208735 -0.23314956 0.005759052
0000d0 dc e3 15 be 8a 43 a0 bd 25 ae 02 3e e3 23 14 be
       -0.14637703 -0.07825382 0.12761743 -0.14466815
0000e0 c2 af 20 be 97 69 17 3e d8 64 c1 bd e8 07 8f 3e
       -0.15692046 0.14786373 -0.094430625 0.2793572
0000f0 0d a7 81 3d 3e a8 19 3e 12 3f 41 bd 80 6f ee bd
       0.063306905 0.15005586 -0.04717929 -0.11642361
000100 49 6d e9 bd ed 63 ba bd 59 72 93 3c 6f 27 09 3e
       -0.113977976 -0.091010906 0.017998861 0.13393949
000110 78 47 89 bd eb 51 3d 3d c1 17 a0 bc e4 eb bd bd
       -0.06703085 0.0462207 -0.019542577 -0.09273508
000120 36 c8 40 3e a5 a1 25 be e8 d3 79 be 58 8d 03 be
       0.18826374 -0.16174944 -0.24397242 -0.12846887
000130 66 d9 bd bd b6 34 55 bd 8d 3b 1f be 28 5c d3 3c
       -0.09269981 -0.052052222 -0.1555006 0.02580078
000140 28 be 91 bc 70 d0 91 bc 0d c1 93 bb 88 20 ed bc
       -0.017790869 -0.017799586 -0.0045090974 -0.028946176
000150 6c 60 ee 3b e2 a1 9e 3d a7 db 0b 3e d9 03 09 3e
       0.007274678 0.077457204 0.1365801 0.13380374
000160 e8 93 8a 3c 61 d9 3c be a8 ae 62 3c 5f a5 ec 3c
       0.01691623 -0.18442298 0.013835587 0.028887449
000170 6e a5 88 bd 6a d4 75 be 26 f3 f4 3d 2e 8d 8c 3d
       -0.06672178 -0.24006811 0.119604394 0.068628654
000180 b9 14 98 3d 63 40 87 bd 0e 1d 51 bd ef 7a 6d 39
       0.074258275 -0.06604078 -0.0510531 0.00022647878
000190 4f 5c a6 3d 41 8e 9b 3a da be 02 be e9 e2 50 3e
       0.08123075 0.0011867956 -0.12768117 0.2039906
0001a0 1b 8a a1 3d e1 84 b2 bd 55 37 95 3d 94 25 80 be
       0.0788767 -0.08716751 0.07285944 -0.2502867
0001b0 6b d7 ad bd d5 cf 78 bd 32 5f 95 bc 8d 8a ad bc
       -0.08488353 -0.06074508 -0.01823387 -0.02118423
0001c0 0a ec 94 bd 3d 7e bb 3c 49 fc bd bd a2 e1 33 be
       -0.072715834 0.022887344 -0.09276635 -0.17566541
0001d0 e0 1f 29 3d 74 65 be bd 65 18 a5 bd 5b 04 48 3d
       0.041290164 -0.092966944 -0.080612935 0.04883228
0001e0 65 44 36 be fc 10 03 3c 7d c2 8b bc 99 3c ac 3d
       -0.17799528 0.007999655 -0.017060513 0.084099956
0001f0 d8 e0 68 bd 7c 8e 94 bd dd be 25 bc ff 44 5c be
       -0.056855053 -0.07253739 -0.010116306 -0.21510695

network.1.running_mean f4 [128]
000000 e9 1b f6 3e e2 7d 02 40 27 d6 81 3f 61 e0 4f 40
       0.4806817 2.0389333 1.0143479 3.24807
000010 26 ad a2 c0 ae e8 b6 3f a1 66 cd 3f 09 61 3c c0
       -5.0836363 1.4289758 1.6046945 -2.9434226
000020 1f 48 01 be a0 34 71 c0 f4 36 1d be 50 d2 28 bf
       -0.12625168 -3.768837 -0.15352994 -0.6594591
000030 f8 5c 19 c0 31 e5 92 c0 73 e9 7b c0 1a 5b 88 3f
       -2.3962994 -4.5904775 -3.9361236 1.0652802
000040 bb 48 a2 3f 17 a7 84 bf a9 2e b2 3f 70 4c 5e c0
       1.2678446 -1.0363492 1.392049 -3.4734154
000050 e6 2c 6e c0 b7 c0 84 c0 c5 fd 0f 40 29 af 91 c0
       -3.7214904 -4.1485248 2.2498639 -4.552632
000060 21 81 b4 bf 4a 95 5d c0 62 0f f6 bf e5 1c 92 3f
       -1.4101907 -3.462237 -1.9223444 1.1415068
000070 f2 8e aa c0 6d f1 1f 40 41 18 bc 3f 7b 68 dc 3f
       -5.3299494 2.4991105 1.4694902 1.7219385
000080 0e f6 42 40 1c 2b 07 bf 12 a4 b2 3f 66 90 2d c0
       3.046268 -0.52800155 1.395632 -2.7119384
000090 7e 98 f1 bf 7e 14 fa 3f 36 5a ee bf bd b3 f3 bc
       -1.8874662 1.9537504 -1.862128 -0.029748792
0000a0 6e bc 14 c0 8b 5a 18 3f 68 1a 7c 3e 7f a6 c7 bf
       -2.3240008 0.5951316 0.24619448 -1.5597686
0000b0 00 c6 28 40 f9 1c 53 c0 56 6b ea 3e 81 02 20 bf
       2.637085 -3.2986434 0.45785016 -0.6250382
0000c0 05 aa 1b c0 de a1 86 c0 d5 e6 47 40 04 1f 81 3f
       -2.4322522 -4.207259 3.1234639 1.008759
0000d0 fd 12 8d c0 39 b6 e3 bf 3d 70 cf 3f 48 76 40 c0
       -4.408568 -1.7789985 1.6206127 -3.0072193
0000e0 5d ad 52 40 75 89 83 c0 3e 94 87 c0 c3 ca 2d 40
       3.2918313 -4.1105294 -4.236846 2.7155006
0000f0 a5 dc 58 40 f7 c5 77 c0 a8 cd 8d c0 17 f8 1e c0
       3.388467 -3.8714578 -4.4313545 -2.4838922
000100 c2 8e 99 40 8d f3 5b c0 7b 2f 7e be bc c9 46 40
       4.7986765 -3.4367402 -0.248228 3.106063
000110 98 09 85 3e 56 74 77 c0 38 e9 b3 bf e1 01 1d 3f
       0.25983882 -3.8664756 -1.4055548 0.6133099
000120 ff 3b 73 40 8f f1 fe be 12 69 5a bf 74 fc bc 3f
       3.8005369 -0.4979367 -0.85316575 1.4764543
000130 88 b0 4e bf ee 9d fb bf 4f 5c 3f be 0d 72 5d c0
       -0.80738115 -1.9657571 -0.18687557 -3.460086
000140 fe 1b ae bf 93 26 b0 bf f3 a7 d0 3f ea c0 5d 40
       -1.3602293 -1.3761772 1.6301254 3.4648995
000150 51 13 5d c0 2a 4a 4f c0 97 3f 0d c0 e9 17 8b c0
       -3.454304 -3.2389016 -2.2070062 -4.3466687
000160 ee c3 15 c0 4e 9c 39 40 87 5f 4f 40 41 32 11 40
       -2.3400836 2.900165 3.2402055 2.2686923
000170 d6 39 24 40 cb 56 91 c0 4f a5 e8 3f f9 96 04 c0
       2.56603 -4.541845 1.8175448 -2.0717146
000180 90 ee 4e 40 e4 f5 16 c0 ec d7 c2 3d 1d 24 80 40
       3.2333107 -2.358758 0.0951384 4.0044084
000190 85 29 46 c0 c8 95 1f c0 c5 ce 2c 40 7b 6e 43 c0
       -3.0962842 -2.493517 2.7001202 -3.0536182
0001a0 6b c9 32 3f 46 3f 40 3e e1 23 67 c0 5d fe 61 c0
       0.6983859 0.18774137 -3.6115649 -3.53115
0001b0 c8 82 8a c0 96 31 8c c0 9a a6 20 c0 02 af 86 3f
       -4.3284645 -4.381053 -2.5101686 1.0522158
0001c0 c6 68 4b 40 2e 22 8d c0 62 8f 0e 40 f8 99 a0 bf
       3.1782699 -4.4104223 2.2275014 -1.2546988
0001d0 8e c0 56 c0 b7 d6 a3 be 6f 64 1c c0 d2 df 38 c0
       -3.3555026 -0.31999752 -2.44363 -2.888661
0001e0 5a 97 a7 3e 7b eb 65 3f 65 1b 79 be d7 83 b9 3f
       0.3273266 0.8981244 -0.24326856 1.4493359
0001f0 71 02 ab 3f 91 e1 33 bf 0e c2 18 3f c5 e6 11 bf
       1.336012 -0.7026606 0.59671104 -0.5699275

network.1.running_var f4 [128]
000000 36 05 fd 43 5a 90 9d 44 73 88 ba 42 09 80 44 43
       506.0407 1260.511 93.2665 196.50014
000010 b8 66 88 44 78 10 2e 45 25 b5 1a 44 5f f0 cf 44
       1091.21 2785.0293 618.8304 1663.5116
000020 62 f4 a6 42 b3 c7 f6 44 1c bf ca 42 ba 8c 23 42
       83.47731 1974.2406 101.37326 40.88743
000030 68 24 ae 43 64 41 18 44 fc af d0 42 42 26 47 43
       348.28442 609.0217 104.34372 199.14944
000040 b6 3e c8 43 c4 dd 50 43 10 38 bc 43 e8 e5 c4 44
       400.48993 208.86627 376.438 1575.1846
000050 9e 0f 8f 44 9d b2 52 44 af c4 1c 43 4b 19 7f 44
       1144.488 842.79083 156.7683 1020.3952
000060 5b 72 96 44 51 cb 87 44 4f a9 9a 42 cb 77 d5 44
       1203.5736 1086.3536 77.33068 1707.7435
000070 30 7e ae 44 29 6b 63 43 08 5e 65 45 79 d8 04 44
       1395.9434 227.4186 3669.877 531.3824
000080 d2 36 00 43 27 99 b8 43 4f f3 d7 44 34 3a 4c 44
       128.21414 369.1965 1727.6034 816.9094
000090 bd d1 1f 43 4d 8a 9f 43 99 99 8a 42 5f 3c b2 43
       159.81929 319.08047 69.299995 356.47165
0000a0 fb b6 db 42 ee 02 bd 43 59 16 9d 44 20 d1 d4 42
       109.85738 378.0229 1256.6984 106.40845
0000b0 d3 32 9e 44 24 41 b6 44 99 d0 2c 44 f1 fd 17 44
       1265.5883 1458.0356 691.25934 607.96783
0000c0 83 64 19 43 ca 09 40 44 60 34 57 44 6c 0a b3 44
       153.39262 768.15295 860.81836 1432.3257
0000d0 71 bf 5e 45 07 65 d4 42 d7 6c 22 42 43 92 20 44
       3563.965 106.19732 40.60629 642.28534
0000e0 4e e1 e8 42 78 57 0b 44 1f 90 8c 44 9f 52 48 43
       116.44005 557.3667 1124.5038 200.32274
0000f0 23 0a 6f 43 10 f5 04 45 b1 7b e0 44 14 d6 9b 44
       239.0396 2127.3164 1795.8654 1246.69
000100 88 75 72 45 3e 18 27 44 64 0f eb 42 d8 04 29 42
       3879.3457 668.3788 117.53006 42.25473
000110 3f 74 b3 44 a4 58 51 44 38 a7 9b 43 32 94 41 44
       1435.6327 837.385 311.3064 774.31555
000120 c5 9b 33 43 23 7e bb 43 36 67 27 44 e5 e3 0f 43
       179.60847 374.98544 669.6127 143.89021
000130 65 5f a4 43 b6 fe 8e 43 19 22 af 43 7a 31 98 43
       328.74527 285.98993 350.2664 304.38654
000140 25 8a c3 42 f6 b3 35 43 60 c0 b2 44 1f a1 76 44
       97.76981 181.70297 1430.0117 986.5175
000150 6f c4 81 44 1a e1 c9 41 78 65 d4 42 45 f3 b2 42
       1038.1385 25.234913 106.19818 89.475136
000160 e6 e5 f9 42 88 a9 87 42 38 e4 26 42 86 7d ef 44
       124.94902 67.831116 41.72287 1915.9226
000170 9b 19 f8 42 51 04 ba 44 23 8a 06 43 6b 0a 7a 42
       124.05001 1488.1349 134.5396 62.510174
000180 99 5c dd 43 8f ce 22 44 95 48 68 43 67 16 40 45
       442.72342 651.2275 232.28352 3073.4001
000190 81 1c 48 43 61 af 5f 44 f2 05 ee 44 d2 08 8b 42
       200.11134 894.7403 1904.1858 69.51723
0001a0 05 4a 69 44 93 c1 ee 43 ca 97 c7 43 db a2 c8 44
       933.15656 477.5123 399.18585 1605.0892
0001b0 29 d1 27 44 3f ea 70 44 e7 c8 25 43 50 8c e1 44
       671.2681 963.6601 165.78477 1804.3848
0001c0 f1 20 55 45 88 b5 80 44 04 52 e5 44 c6 9a 8c 44
       3410.0588 1029.6729 1834.563 1124.8367
0001d0 6f a5 d3 42 38 ee d0 43 8c 6f 31 44 69 9e 71 42
       105.82311 417.86108 709.7429 60.404697
0001e0 53 8f f6 43 7e 15 9c 44 79 c6 03 44 6a b0 07 43
       493.11972 1248.6716 527.10114 135.68912
0001f0 29 16 0c 44 b4 ae 2e 44 ca 2f 99 44 a4 80 f9 44
       560.34625 698.72974 1225.4934 1996.02

network.4.weight f4 [64, 128]
000000 08 22 a9 bd ec 4d ad bd b9 51 eb 3d c3 ab 1f be
       -0.08258444 -0.08462128 0.11490197 -0.15592866
000010 a3 93 11 be 72 23 ba bd 0e 50 37 3d 4f 98 ae bd
       -0.14216475 -0.09088792 0.04475408 -0.08525144
000020 3f 0c 97 3c 5b 15 70 be 3b c4 f5 bd 36 67 80 3c
       0.018438457 -0.23445646 -0.120003186 0.015674215
000030 2b 93 0a bd c9 bf ad bd 76 c2 90 3d 05 3b ca bd
       -0.033831757 -0.08483846 0.070683405 -0.09874538
000040 7a 68 a6 bd fe 3d d9 bb 8d a1 86 bd 73 52 ed bd
       -0.08125396 -0.0066297045 -0.06573782 -0.115879916
000050 fb c1 23 be dd ca 55 be 99 7b 47 3e a3 ec 34 be
       -0.15991966 -0.20878167 0.19480743 -0.17668395
000060 61 85 9a bd 6e bb 01 3d 93 6d 6b bd 51 8c 9c 3d
       -0.07544971 0.031672888 -0.057477545 0.07643951
000070 9d 71 0b be d7 e8 1e 3d ec 49 db 3c af 6d c1 3d
       -0.13617559 0.038796272 0.026768647 0.094447486
000080 ec 5a 1b 3e 42 49 ee bd d8 36 45 3d 9c 3f be bd
       0.15171403 -0.116350666 0.048148006 -0.09289476
000090 61 53 e7 bd 6e 32 b9 3d 25 6e d3 bd 1c 76 9f 3d
       -0.112952 0.09042822 -0.10323743 0.077861995
0000a0 89 32 e2 bd ec 8b c0 3d 62 b6 e7 3d d3 9a 5b be
       -0.11044795 0.09401688 0.11314084 -0.2144578
0000b0 56 09 c5 3d 65 0f ea 3c 21 c5 32 be 2e d2 54 be
       0.09620921 0.028571794 -0.17458011 -0.20783302
0000c0 dd ec 39 bd 5c b4 e9 bd 64 5e b8 bd 0a 93 13 be
       -0.045391906 -0.11411354 -0.090023786 -0.1441156
0000d0 cb c1 29 bd 85 02 21 3e 93 0e 8c 3e b4 05 ab bd
       -0.04144458 0.15723617 0.2735487 -0.08350697
0000e0 51 96 94 3d 40 9a 9f 3d c1 9a 64 be d3 06 ee 3b
       0.07255233 0.07793093 -0.22324659 0.007263997
0000f0 ec e0 c1 bd 38 b0 34 bd 10 54 da bd b8 a8 c1 bd
       -0.094667286 -0.044113368 -0.10660565 -0.09456009
000100 28 e7 f1 3d 84 d4 58 be e5 71 ae bc d0 a4 d2 3d
       0.11811668 -0.21174818 -0.021294544 0.10285342
000110 64 c0 4f bd 86 3c ce bd bc 8a 2c be 33 cc e3 bd
       -0.050720587 -0.10070138 -0.16849798 -0.11122932
000120 13 78 15 3e 8a 4b 23 bd db 36 e4 bd 09 15 cd 3c
       0.14596586 -0.03986696 -0.11143275 0.025034444
000130 f2 9b 1a be 82 5a d9 bd b8 2f 14 3c 9f 49 a5 bd
       -0.15098551 -0.10612966 0.00904458 -0.08070683
000140 08 c7 8e bc 24 86 64 bd 47 1b 20 3c bc aa 87 bd
       -0.01742889 -0.05579199 0.009772128 -0.06624362
000150 08 b8 eb bd 9d 02 64 bc 79 9c d2 bd 6b 4a a8 bd
       -0.115097106 -0.013916639 -0.10283751 -0.08217319
000160 d4 fe 8a bd d8 fd f7 3d cb 86 56 3d 8e 2c 33 bc
       -0.06786886 0.12108964 0.052374642 -0.010935916
000170 7d 82 fa 3b 34 d5 44 be f8 41 86 bd 6d 1e 66 3d
       0.00764495 -0.19221956 -0.06555551 0.05618136
000180 cf 64 52 bd 1d 53 56 be ef c9 e0 3c 28 45 3d bd
       -0.05136567 -0.20930143 0.02744004 -0.04620853
000190 a4 0e 03 bd 0e 62 79 3c 1c 93 ac bc 5c 5e d5 3d
       -0.031996384 0.015221132 -0.021066241 0.10418388
0001a0 d0 61 6b 3d e6 b7 d3 bc e1 b5 da bd e8 44 9c bd
       0.05746633 -0.025844526 -0.10679222 -0.0763033
0001b0 e9 a8 96 bd 25 d8 35 3d 60 d9 a7 3d bb cf c0 bd
       -0.07356436 0.044395585 0.08195758 -0.094146214
0001c0 97 a6 fe 3d d1 2e ee bd d4 c9 0e 3b fe 9a 25 be
       0.12434118 -0.11630023 0.002178778 -0.16172406
0001d0 45 08 02 be 87 c7 3c bd 70 74 d2 bd 6b d4 15 be
       -0.12698467 -0.04608872 -0.10276115 -0.14631812
0001e0 5d f9 88 3d 13 6f 45 bd 27 86 b7 bd c5 71 ea 3d
       0.06688187 -0.04820163 -0.089611344 0.11447481
0001f0 87 3f 81 3d cd 82 0e bd ad e6 9b bb 6e 6c 21 be
       0.06310945 -0.03479271 -0.0047577233 -0.15764019
000200 16 1a 3c 3e cb bf 14 3b ce 5e d3 3d 3f a6 d2 3b
       0.18369326 0.0022697325 0.10320817 0.0064285095
000210 d0 60 6a bd 3f 81 87 bd 6f 22 67 bd 1f 1d 87 bc
       -0.057221234 -0.066164486 -0.056429323 -0.016493378
000220 12 63 d8 39 55 3a 26 3c 7c e7 19 be 43 01 99 3d
       0.00041272544 0.010145743 -0.1502971 0.07470944
000230 09 7f 1f be b8 ce 22 be f3 c6 47 be 2d 31 1b 3d
       -0.15575804 -0.1589917 -0.19509487 0.037888695
000240 45 91 84 3d f5 b1 b5 3d 3a 6b 59 be 3b 5c d6 bc
       0.064730205 0.08871833 -0.2123231 -0.026167026
000250 12 76 7a bd ed cc 89 bd ad eb 00 3e 8b ca 47 3d
       -0.061147757 -0.067285396 0.12589903 0.048777144
000260 54 19 9b 3c 1b 5c c1 3c 21 ab 28 be 05 f5 5b bd
       0.018932976 0.02360349 -0.1647153 -0.053700466
000270 34 46 4f 3d e1 e8 8a bc 27 f1 97 bd b1 70 2b 3e
       0.05060406 -0.016956748 -0.07419043 0.16742207
000280 5e e2 0f 3e 5c 94 25 3e 27 94 fc bd 0b 25 a1 3d
       0.14051196 0.16169876 -0.12332945 0.078683935
000290 c7 8c a8 be 89 3a d9 3d bc 8d 8e 3d 79 ea c2 bd
       -0.32919905 0.10606868 0.069606274 -0.09517378
0002a0 8b 62 25 bd a0 6d e7 3d e9 04 27 3c 99 89 3f be
       -0.04037718 0.11300206 0.010194042 -0.18704833
0002b0 5c 1a 16 bd fd 09 21 be 9c 96 9c 3d f2 2c da bc
       -0.036646232 -0.15726466 0.07645914 -0.02663276
0002c0 ca 6d 6a 3b fe 73 ba bd 38 46 86 3d f3 69 63 3d
       0.0035771006 -0.09104155 0.06556362 0.055520963
0002d0 b2 f7 f7 3d a1 b5 5f 3d 2d 18 db bd 69 c6 0a be
       0.12107791 0.054616574 -0.106979705 -0.1355225
0002e0 1e f6 c1 bc bf 51 8c bd 6c c8 8e bc da d5 3f bb
       -0.023676928 -0.06851529 -0.017429553 -0.0029271753
0002f0 47 de 8f bc d2 fd 1e be e5 8a 69 bc 49 c6 2a be
       -0.017562045 -0.15526512 -0.014254306 -0.16677202
000300 5e cb 31 bc 11 4f af bb 0f 44 b1 3d 43 ad 03 3e
       -0.010851709 -0.0053500016 0.08655559 0.12859063
000310 88 92 a5 3d 68 b4 05 be 8e e1 a7 3c 4f 8d ce 3c
       0.08084589 -0.13057101 0.020493295 0.025213866
000320 0d 85 0a 3e 88 d6 93 3d 27 dc 14 3d a2 db 78 3d
       0.13527317 0.07218653 0.036342766 0.060756333
000330 33 a5 22 3e fc 0e d2 bd c4 5c 2d bd fc 15 80 be
       0.15883331 -0.10256764 -0.042324796 -0.25016773
000340 14 d9 06 be d1 75 46 3d ac 06 73 bd 67 d3 a0 3d
       -0.13168746 0.048452202 -0.059332535 0.07852822
000350 eb a2 28 be 7d 86 94 bc b8 57 d8 bd c1 b3 9c bc
       -0.16468398 -0.018130535 -0.10563606 -0.019128682
000360 ee d6 80 bd 8d 84 97 be 94 21 09 3e e4 22 35 bd
       -0.062909946 -0.29593316 0.13391715 -0.044222727
000370 63 b4 18 be 31 05 15 be e0 df b0 3d 00 7e 38 3d
       -0.14912562 -0.14552762 0.08636451 0.045042038
000380 f9 62 b7 bd 09 7f 23 3e a6 44 22 3e dc 52 7f bd
       -0.089544244 0.15966429 0.158465 -0.06233488
000390 b9 ae a5 3d 7b 0a 24 be e2 e7 0d be 9b 46 0c 3e
       0.08089966 -0.16019623 -0.13857988 0.13698809
0003a0 e4 87 88 3d 8e 2f 34 3e fa a2 fd b9 55 07 72 bd
       0.06666544 0.17596266 -0.00048377347 -0.059089024
0003b0 3a cc f7 3d 07 7d 36 be 48 2e 55 3e f4 a4 a4 3d
       0.120995 -0.17821132 0.20818436 0.08039275
0003c0 8e 69 96 3c 51 b9 ea bd cd 43 9b 3d 04 92 1b be
       0.01836088 -0.114611275 0.07581291 -0.1519242
0003d0 98 40 8a bc 6c dd 3e 3d 9a b0 e0 3d 53 d5 8b 3d
       -0.016876504 0.046597883 0.10971184 0.06827798
0003e0 61 88 22 be b2 d6 85 bd b5 1d 57 bd bf d6 16 3d
       -0.15872337 -0.065350905 -0.052518565 0.03682589
0003f0 d7 2e 10 3e e0 f2 2e bd 7f 8c 46 3e f8 87 5e bd
       0.14080368 -0.042712092 0.19389533 -0.05432889

network.4.bias f4 [64]
000000 61 4b d8 3b 5c 75 f9 3b 5b cc b7 bb 55 ef 8c ba
       0.0066007827 0.0076128673 -0.005609078 -0.0010752479
000010 5c cf c6 3b 73 7e c5 3a 94 93 57 3b 42 a1 0b 3b
       0.0060671996 0.0015067592 0.003289436 0.0021305834
000020 40 d3 d3 ba c5 2f 58 bb 88 d8 46 bb 06 36 1f 3c
       -0.001616098 -0.0032987457 -0.0030341465 0.00971747
000030 03 14 24 3a af 06 9c 3b 72 d1 d4 ba 6a 34 aa 3b
       0.00062590855 0.004761539 -0.0016236736 0.0051942365
000040 94 45 bf ba b6 70 28 b9 6b 89 5e 3b 45 da 5c 3b
       -0.001459288 -0.00016063717 0.003395642 0.0033699435
000050 e2 ca c4 b8 c3 4d 84 3b 4e 76 2e 3a 61 db d1 ba
       -9.383798e-05 0.00403759 0.0006655202 -0.0016010815
000060 ed 42 a4 39 1e b8 0f ba f3 65 98 bb 1b b0 5c bc
       0.0003133038 -0.00054824527 -0.004650825 -0.013469721
000070 2f 35 3a 3b 7c 94 2f ba 6c 27 c5 3a 15 ae a9 3b
       0.0028413048 -0.0006697846 0.0015041656 0.005178223
000080 f2 6e 13 bb 63 ff ae 36 bb 69 ae bb af 2c 7c bb
       -0.0022496548 5.215335e-06 -0.0053226626 -0.0038478782
000090 1c 03 e4 3a 4c 5c f1 b9 f7 e8 3a 3b d9 ef 56 3b
       0.0017395946 -0.0004603587 0.0028520206 0.003279677
0000a0 7b 8a f8 3b bc c2 25 3c 54 6e ce 3a 31 dd 35 bb
       0.0075848675 0.010117229 0.0015749433 -0.0027750249
0000b0 27 4f bc 38 72 f7 51 ba 38 a6 0a bb 92 52 f2 bb
       8.979282e-05 -0.00080095895 -0.0021156203 -0.007395097
0000c0 0d d1 2e 3b 6d 55 09 bb 9e f1 e2 3b 16 1b 1b 3b
       0.0026674897 -0.0020955459 0.0069257757 0.0023667268
0000d0 fb 1b b7 3a 0b 81 8c 3b 83 18 3a 3b 4c 38 4e 3a
       0.0013970131 0.004287844 0.0028395958 0.0007866665
0000e0 2f bb 90 3b 93 45 93 3b 8e 70 0e 3b 0b d1 a3 ba
       0.0044168453 0.004494378 0.0021734568 -0.0012498213
0000f0 a5 db 93 bb 25 d9 71 39 9e ad 7f 3a 9d a8 39 bb
       -0.0045122677 0.00023064444 0.0009753349 -0.002832926

network.5.weight f4 [64]
000000 e5 9c 70 3f 66 f1 69 3f ea 13 7e 3f 66 4c 8d 3f
       0.939894 0.9138397 0.99249136 1.103894
000010 3c 5c 6c 3f f6 43 5d 3f 76 f0 81 3f 85 a6 9c 3f
       0.9232824 0.86431825 1.0151508 1.2238318
000020 59 fa 82 3f d8 aa 70 3f c3 1f 8e 3f 9c ca 70 3f
       1.023265 0.94010687 1.1103443 0.9405916
000030 a0 c6 67 3f a7 e0 6b 3f 5f 2c 7c 3f 76 11 85 3f
       0.9053745 0.9213967 0.98505205 1.0395954
000040 e1 39 6c 3f ff c4 72 3f 4b c0 83 3f 4f c5 94 3f
       0.92275816 0.9483184 1.0293058 1.1622714
000050 bb 70 7b 3f 9f 2a 7d 3f 6b 5a 68 3f 4d 05 81 3f
       0.9821889 0.9889316 0.90762967 1.0079743
000060 99 be 82 3f dd eb 86 3f d7 ce 6c 3f ba b7 7b 3f
       1.0214416 1.054073 0.9250311 0.9832722
000070 26 27 97 3f f3 da 66 3f b2 43 8d 3f 5b d7 76 3f
       1.1808822 0.9017784 1.1036284 0.96422356
000080 d7 c2 90 3f bc cc 5e 3f fc 65 7b 3f 88 f2 70 3f
       1.130946 0.8703115 0.9820249 0.94120073
000090 9d 76 57 3f e4 04 8a 3f d3 9b 7b 3f b1 fe 6b 3f
       0.84165365 1.0782743 0.98284644 0.92185503
0000a0 5e 7b 7a 3f 66 02 96 3f 9b ff 80 3f e7 76 9a 3f
       0.97844493 1.1719482 1.0078005 1.2067536
0000b0 b3 20 81 3f 49 fb 7f 3f db 12 6b 3f 2c e0 69 3f
       1.0088104 0.99992806 0.91825646 0.91357684
0000c0 db a2 72 3f ce 73 7d 3f 0b 65 7b 3f e8 c8 88 3f
       0.9477975 0.9900483 0.98201054 1.0686312
0000d0 44 c7 9e 3f 0d 2e 6a 3f 80 94 5f 3f ab fd 6a 3f
       1.2404561 0.9147652 0.8733597 0.91793317
0000e0 55 6d 7e 3f 42 c7 60 3f e1 c8 71 3f 85 08 78 3f
       0.9938558 0.87804043 0.9444714 0.96888
0000f0 bb a0 82 3f 47 11 8b 3f 49 af 94 3f ef 37 88 3f
       1.0205301 1.0864648 1.1615993 1.064207

network.5.bias f4 [64]
000000 80 19 80 3c dc 5e a1 3b 55 3f d6 bd ac 27 bd bd
       0.01563716 0.004924638 -0.104612984 -0.092360824
000010 67 f7 d5 3c d9 15 a0 bd 8c 28 10 3d 7a f9 5e 3e
       0.026118947 -0.07816667 0.03519492 0.21774855
000020 e1 fd ad 3d c5 c5 9c bd d1 fc 01 3e c6 64 a4 bc
       0.08495689 -0.07654909 0.12694098 -0.020067584
000030 c3 5c fd bd 55 09 51 bd ce d5 e5 3c bc 6c 27 bb
       -0.123712085 -0.05103429 0.028056052 -0.0025546988
000040 ca 37 b0 bd 7b b5 03 be b4 9a 41 bb 79 b8 7c 3e
       -0.08604391 -0.12862198 -0.0029541673 0.24679746
000050 7c 41 1b 3e 28 31 b1 be 3b 8e c3 bd 01 52 79 bd
       0.15161699 -0.34607816 -0.09548613 -0.06086922
000060 50 93 7e 3d 69 5a 17 3e a9 fb 08 be 48 0c b5 3d
       0.062152207 0.14780582 -0.1337725 0.08840233
000070 48 1a a6 3e 49 d0 33 bd 0b f3 c2 3d de 21 03 bc
       0.32441926 -0.043899808 0.09519013 -0.00800368
000080 ab 47 87 bd 8e 62 b2 bd 15 20 d5 3d ea 7f 92 bd
       -0.066054665 -0.08710204 0.1040651 -0.07153304
000090 ad 75 a6 bd 48 e6 36 3e 45 fb c7 3c 90 2f 59 bd
       -0.081279136 0.17861283 0.024411807 -0.053023875
0000a0 e8 3b c1 bd fa 8e 82 3d d2 ec 56 bd 69 cd a5 3e
       -0.09435254 0.06374927 -0.052471943 0.32383278
0000b0 9d 36 d5 bd 6c a8 07 bd cf 51 9b bd 0d 72 7d be
       -0.10410807 -0.033119604 -0.07583963 -0.24750538
0000c0 18 32 04 be 9d 8d d1 3a d5 33 9e bd 2f b8 1e 3d
       -0.12909734 0.0015987639 -0.0772473 0.03874987
0000d0 cf ac 4a 3e e0 23 90 bd 02 be a5 bd c3 c5 45 bd
       0.19792484 -0.070380926 -0.08092882 -0.048284303
0000e0 37 99 0a bd 31 fb 11 be 9a a3 37 bd 53 1e ac bd
       -0.033837523 -0.14255978 -0.044833757 -0.084042214
0000f0 ec 00 71 bd c8 28 59 3d 05 c6 7c 3e a6 21 c1 bc
       -0.05883877 0.053017408 0.24684913 -0.023575615

network.5.running_mean f4 [64]
000000 0f 71 c9 bf bb 5c e5 be 80 cb 88 bf 79 5a ba bf
       -1.5737628 -0.4479731 -1.0687103 -1.455886
000010 55 30 07 bf 58 d1 96 bf af 34 bc 3e f1 f4 58 3f
       -0.52808124 -1.1782637 0.36758944 0.8474875
000020 62 6f 84 bf 65 27 82 bf 23 a6 c2 3e 42 70 9b bf
       -1.0346491 -1.0168272 0.38017377 -1.2143633
000030 22 16 25 bf f6 5a 89 3e b7 1c 1b 3e f4 de 5f 3f
       -0.64486897 0.2682721 0.15147673 0.87449574
000040 36 2d 3d be 00 25 d6 bf ac 14 bd bf bd 4e 20 bf
       -0.18474278 -1.6730042 -1.4771934 -0.62620145
000050 25 da 47 be bd 8c e3 3f 2b f2 12 3f c1 d0 b6 3f
       -0.1951681 1.7777325 0.5740077 1.4282457
000060 3d 56 6e 3f 3d 33 92 3e f7 43 81 3d 42 55 c5 3e
       0.9310034 0.28554717 0.063117914 0.3854161
000070 60 0b 5e 3e 13 b4 54 bd e3 67 26 3f ac 12 0c bf
       0.21684027 -0.051929545 0.6500227 -0.5471599
000080 3f 84 dc 3f 95 a4 d1 bd c0 75 cf bd c2 00 9e bf
       1.7227858 -0.1023647 -0.10129881 -1.2343981
000090 a5 ab 1b bf d5 17 b0 3e 18 9e b9 bf cd f5 0e bf
       -0.60808784 0.34393182 -1.4501371 -0.5584381
0000a0 3b 97 0b bf 1a 38 f2 be a4 be ca be 94 fb 39 3f
       -0.54527634 -0.47308427 -0.39598572 0.726495
0000b0 39 27 b1 bf 06 3f 5e 3e 6b 9b 8f 3e e4 79 b8 3e
       -1.3840095 0.21703729 0.28048262 0.36030495
0000c0 50 8d 3b 3f b6 63 7f 3f c6 76 21 3e d5 65 ca bf
       0.732625 0.9976152 0.15767965 -1.5812327
0000d0 54 36 b2 3f 2c 38 16 bf 62 b9 02 bf 46 73 ed bf
       1.392283 -0.5867946 -0.5106412 -1.8550804
0000e0 fc 0b b2 bf b2 f0 59 bf 5d cb be be 57 d9 15 bf
       -1.3909907 -0.85132897 -0.3726453 -0.5853476
0000f0 92 c8 2e 3f 17 2e f4 3d 0c c8 4b 3f 92 c0 d1 be
       0.68274796 0.119228534 0.7960212 -0.40967232

network.5.running_var f4 [64]
000000 a4 3a 6c 40 dc aa b7 3f 3a a3 3e 40 33 69 bd 40
       3.6910791 1.4349017 2.9787126 5.9190917
000010 89 1a c1 40 50 74 dd 3f 8d 98 1b 40 7d 71 8d 40
       6.034489 1.7301121 2.431186 4.4201035
000020 26 e0 8a 40 f6 84 4a 40 f8 af 54 40 b7 aa eb 40
       4.339862 3.1643653 3.3232403 7.364589
000030 08 a7 8e 40 88 cd 68 40 f0 d2 49 40 75 b7 8e 40
       4.4578896 3.6375446 3.1534996 4.4598947
000040 62 60 0d 40 67 84 38 40 f5 05 ff 3f ba 7d eb 40
       2.2090077 2.8830812 1.9923693 7.3590975
000050 0b 61 58 40 2d e5 d4 40 b3 ea 17 40 84 60 64 40
       3.380923 6.6529756 2.3737 3.5683908
000060 b1 a4 6f 40 5f 89 2e 40 70 87 50 40 c2 4f 6a 40
       3.744427 2.7271345 3.2582664 3.661118
000070 76 38 d8 40 d2 b1 d4 3f 3d e9 60 40 05 55 8b 40
       6.756892 1.6616766 3.5142357 4.3541284
000080 59 30 c0 40 7b fa 58 40 7e 38 72 40 53 53 7c 40
       6.005902 3.390288 3.784698 3.9425857
000090 ab a6 55 40 a6 e6 79 40 8d c3 98 40 ee 7e 42 40
       3.3382976 3.9047027 4.773871 3.0389972
0000a0 bc 11 51 40 3b 31 25 40 41 b6 0c 40 e5 10 86 40
       3.2667074 2.5811298 2.198624 4.1895623
0000b0 23 76 8c 40 9e 2f 2b 40 21 3d 41 40 3e 96 2d 40
       4.389421 2.6747813 3.019356 2.712295
0000c0 9a 73 32 40 31 f9 64 40 2f f7 8d 40 18 55 ea 40
       2.7883058 3.5777094 4.436424 7.3228874
0000d0 79 e8 b7 40 60 66 28 40 91 cd fa 3f 02 94 5f 40
       5.747128 2.6312485 1.9593984 3.4934087
0000e0 ff cb 00 40 f2 8d d9 3f a4 40 65 40 6e 39 df 3f
       2.012451 1.6996443 3.5820704 1.7439401
0000f0 f1 9b df 3f 37 8c 9b 40 9e cd 79 40 b6 32 2a 40
       1.7469465 4.860866 3.9031749 2.6593451

network.8.weight f4 [32, 64]
000000 48 6e 25 3e 68 51 4f be bc c8 75 bd 9d 83 3d 3d
       0.1615535 -0.20245898 -0.06000589 0.046268094
000010 71 ea 1a bc 48 ab 43 be cb e0 69 be c5 d5 5a 3e
       -0.009455309 -0.19108307 -0.22839658 0.21370609
000020 37 bd 57 bd 2d 0a a5 bd 4d 50 40 be 52 5f 21 3c
       -0.052670684 -0.080585815 -0.18780632 0.009849386
000030 d1 43 eb bd 31 cf 1c be 1c fd 8f 3e 17 de 7f be
       -0.11487544 -0.15313412 0.28122795 -0.24987064
000040 ef c4 66 bd 61 c0 9b 3d d4 85 8e 3c 6d f8 40 be
       -0.056340154 0.07605053 0.017397799 -0.18844767
000050 e3 bc 11 be 87 7c d5 3d f9 11 ff 3b 6d 9a 0b be
       -0.14232211 0.10424142 0.007784125 -0.13633128
000060 6c 0f 53 be 72 15 db be a8 2c fd bd 47 92 78 be
       -0.20611352 -0.427898 -0.12362033 -0.2427455
000070 8b 19 a1 be 33 38 98 3b a8 8c 7c be 1d ef 22 be
       -0.314648 0.0046453713 -0.24663031 -0.15911527
000080 8d 72 5f be 78 2e ee bd 87 91 03 be 14 d3 c4 3d
       -0.21821041 -0.11629957 -0.12848483 0.096105725
000090 f6 c1 0c be 7a a5 57 bd 95 e4 bf bd 3e fd 11 3b
       -0.13745865 -0.052648045 -0.093697704 0.0022276188
0000a0 e1 11 93 bd fb 66 83 be 72 f9 85 3d 6e af 42 be
       -0.071811445 -0.25664505 0.065417185 -0.19012234
0000b0 56 b2 cd bd 7b 0a 2a be 7f 17 21 be 5f 00 9c 3d
       -0.100437805 -0.1660556 -0.1573162 0.07617258
0000c0 67 77 0c 3d 9d ca 3c 3d 0f 73 80 be 56 7d 3a bd
       0.03429356 0.046091665 -0.25087783 -0.045529686
0000d0 2d d9 99 3d 03 d5 b6 3d d7 d1 d0 3c 1b f7 16 be
       0.07512126 0.089273475 0.025490684 -0.14742701
0000e0 89 b2 87 be 41 22 5d be 4f d7 7c bd 07 4c b5 bd
       -0.265034 -0.21595098 -0.06172877 -0.08852392
0000f0 e3 67 e6 bd 1d 31 0c be 7c 71 5c 3e 6a 58 e0 3c
       -0.112502836 -0.1369061 0.21527666 0.02738591
000100 19 7e d4 bc 4b 5a 1e bb ed 70 03 3e ec f3 41 3d
       -0.025939034 -0.0024162706 0.12836047 0.047351763
000110 9f ff 5a bd 8b ac 3b bd 1d cf 0e 3b 50 00 56 bd
       -0.053466436 -0.045818847 0.002179093 -0.05224639
000120 6f de 8c 3c 2c 8a e8 bc be 94 26 3e 60 05 1b 3d
       0.017195908 -0.028386198 0.16267678 0.037846923
000130 32 5b 37 3e 40 64 34 3e ed 36 0d bc 43 bf 17 be
       0.17905882 0.17616367 -0.008619052 -0.14819054
000140 a5 8f 18 bd ea 7b 46 3d 55 a4 82 be 14 c0 c8 bc
       -0.037246365 0.048458017 -0.25516 -0.024505652
000150 e2 cc 0b bc 4d b7 99 be f6 d4 5f 3e 2d 9d 46 3d
       -0.008532735 -0.3002266 0.21858582 0.04848974
000160 9f b7 ca 3c a7 1b 00 3e bb 5f e0 3d d7 45 02 bd
       0.02474576 0.12510549 0.10955759 -0.031804886
000170 33 d4 b9 bd 5c d8 3a bc 31 b4 41 be af f8 c7 bd
       -0.09073677 -0.011404123 -0.18916394 -0.097642295
000180 51 fd 78 be e5 c0 3a 3e 45 81 03 3e dd 6f bc 3c
       -0.24315383 0.18237646 0.12842281 0.02300256
000190 65 9c 99 3d eb cf 05 be 62 aa 17 be 2b 32 f1 3d
       0.07500533 -0.13067596 -0.1481109 0.11777147
0001a0 68 2f 92 bd 86 22 87 be a8 45 7a be 70 a4 8d be
       -0.07137948 -0.26393527 -0.24440634 -0.27664518
0001b0 18 12 12 bd b5 78 60 3e 81 69 57 3d b9 13 90 3e
       -0.035661787 0.21921046 0.05259085 0.28140047
0001c0 4c c5 51 3d 75 bd c4 3d ac 08 71 3c 66 f1 7f bb
       0.051213548 0.096064486 0.01471154 -0.0039053797
0001d0 08 e2 d9 be 18 f1 bc bc 76 45 3a 3e 6f c4 19 be
       -0.4255526 -0.023064181 0.1819056 -0.1501634
0001e0 ee 93 1e be 5a be 09 be b8 94 24 3c 30 22 d5 bd
       -0.15486118 -0.1345152 0.010045223 -0.104069114
0001f0 de f5 77 3e 43 9b e6 3d f2 e8 b8 3c 17 81 04 be
       0.24214885 0.112600826 0.022572014 -0.12939869
000200 48 07 1c 3d 9e e5 4d bc 9b c8 bc bd bb 40 1d 3b
       0.03809288 -0.012566952 -0.0921795 0.0023994881
000210 23 1e 06 bb 5f c5 4e 3d df 3b a6 bd 00 6e 39 bc
       -0.002046474 0.050481196 -0.08116888 -0.01131773
000220 17 2e 95 bc 0b 54 de bc 1f 8a f0 bd 91 61 ce bd
       -0.018210454 -0.027139684 -0.117450945 -0.10077203
000230 76 94 43 be 66 b2 07 3e a5 b4 3b be d9 d3 40 3d
       -0.19099602 0.13251647 -0.18330629 0.047077034
000240 6b 62 1e 3e 49 78 0a 3e f8 80 74 3e 8e e3 c9 3d
       0.15467231 0.13522448 0.23877323 0.09857856
000250 d8 c5 97 3d 25 97 c8 bc 94 64 8e 3d 67 8e f5 3b
       0.074107826 -0.024486134 0.069527775 0.0074937823
000260 4d 12 b8 3c c3 06 3c 3e f4 9b 4b 3e f9 2a 86 3e
       0.022469664 0.18361954 0.1988371 0.2620466
000270 95 87 70 3d 12 14 41 3c 8f f1 8d bd ad a2 e0 bd
       0.05872305 0.01178457 -0.06930839 -0.10968528
000280 51 1a 81 3d 29 1e 37 3d d6 e4 31 3e 94 6f 28 be
       0.063038476 0.044706497 0.1737245 -0.16448814
000290 eb 7e da 3c 0f 8e 37 3e e8 6e f1 3d c8 26 33 3e
       0.026671847 0.17925285 0.11788732 0.17495263
0002a0 ae 2a a2 3e ae 83 f2 3d e5 30 90 3e 06 10 27 be
       0.31673187 0.11841522 0.28162304 -0.16314706
0002b0 ef e1 ce be aa c6 87 be 98 e0 8d 3e 12 bb 35 3d
       -0.4040675 -0.26518756 0.27710414 0.044367857
0002c0 75 d0 01 bc 60 bc 1d bd 08 da b7 3c 87 95 4e be
       -0.007923235 -0.038509727 0.022442833 -0.20174228
0002d0 62 6d d4 3c de 3e 4b bd bd 66 18 3e f5 95 b4 3d
       0.025931064 -0.0496205 0.14882942 0.088176645
0002e0 42 38 a6 3e cb c1 76 bd 77 ce 53 3e 1c 6d 99 3d
       0.32464796 -0.06024341 0.20684229 0.07491514
0002f0 5e 3e e1 3c 9d 37 12 3e 43 81 06 3a 5e 59 83 3e
       0.02749556 0.14279027 0.0005130956 0.2565412
000300 94 01 69 be d9 ab 60 be 1e b5 66 3d d2 08 36 3e
       -0.22754508 -0.21940555 0.05632507 0.17776802
000310 10 20 39 3e 4c 3c 3f be 45 9b 35 be f1 c5 8d 3e
       0.18078637 -0.18675345 -0.17735012 0.2769008
000320 07 6f 0b 3e ab c7 4c be 81 a4 81 3e 47 92 a3 bc
       0.13616572 -0.19998042 0.2532082 -0.019967211
000330 67 c6 60 be eb e8 98 bd 2d 47 8c be 84 1f a6 bd
       -0.21950684 -0.074663006 -0.27398053 -0.0811148
000340 3b d6 13 3e ba 51 96 3c 5f de ed bd 8f a3 94 bd
       0.14437191 0.018349517 -0.116146795 -0.07257759
000350 39 a8 87 bd 15 bb 04 be ef bd 1f 3e a6 be 11 bd
       -0.06623883 -0.12961991 0.15599798 -0.035582207
000360 0e d3 35 3d ee 70 59 bd a4 e5 87 3e 3d 5d 8d be
       0.04439073 -0.053086214 0.2654239 -0.27610198
000370 dc 00 8d bd e2 9a 3c be d3 f9 20 be 11 0d 68 3e
       -0.068849295 -0.18418458 -0.157203 0.22661234
000380 7c 66 66 be 90 38 b1 3d 53 b6 40 be 6a 7c 0e be
       -0.22500032 0.086533666 -0.18819551 -0.13914648
000390 7f 56 1a bd 49 a6 13 3d 46 a9 a4 bc a4 08 5b be
       -0.037680145 0.036047254 -0.020100247 -0.21390015
0003a0 c9 79 06 be d4 1c d0 be ec 44 8a 3d 33 79 cf 3d
       -0.13132395 -0.40646994 0.06751427 0.10130539
0003b0 1e 77 31 3e cb 6b 4e be cf e6 84 3d ba 2e a2 3d
       0.17330596 -0.20158307 0.06489336 0.07919069
0003c0 95 06 c0 bd e4 73 0f be 68 93 99 bb 14 6f 3b 3e
       -0.093762554 -0.14009053 -0.0046867616 0.18304092
0003d0 24 c2 24 3e 4d 63 cc 3d b6 f4 c9 bd 96 70 18 3c
       0.16089684 0.099798776 -0.09861128 0.009304186
0003e0 a1 f2 7f bd 9a c7 4e be d7 7b cd bd 64 25 ef bd
       -0.06248725 -0.2019333 -0.10033386 -0.116770536
0003f0 8b a0 fc 3d 8b 8c 43 be 32 bb cd bd a0 81 73 be
       0.12335309 -0.19096582 -0.1004547 -0.23779917

network.8.bias f4 [32]
000000 a9 cd 8e 3c b2 f5 aa ba 6f 3f 79 bb 39 4d 81 bb
       0.01743205 -0.0013043194 -0.0038032194 -0.0039459732
000010 26 b3 0a 3c 87 d6 b3 bb 58 19 40 bc 10 41 9c b9
       0.008465564 -0.00548822 -0.011724792 -0.00029803114
000020 74 62 84 bb 4e fe e0 3b 61 84 5c 3c 55 a0 03 bc
       -0.004040057 0.006866253 0.013459296 -0.008033832
000030 05 87 94 ba c4 7b b7 bb c0 12 9e bb b0 75 70 3b
       -0.0011331743 -0.005599471 -0.0048240125 0.003669124
000040 a6 e1 f1 3b 0a 13 89 3c 2c b8 32 3a ac 7e fd 3b
       0.0073816357 0.016732711 0.0006817605 0.0077360477
000050 f0 e4 1e 3c fe 55 17 bb df cf e7 ba 6a 7d 04 bc
       0.009698138 -0.0023092027 -0.0017685852 -0.008086542
000060 80 6d de 3b b1 3c cf 3b eb ee c9 ba e2 fa b1 bb
       0.0067879558 0.0063243737 -0.0015406286 -0.005431519
000070 c4 e4 32 bb 04 9f a9 3b 8c ae 35 bc f2 a9 0c 3c
       -0.0027297 0.005176427 -0.0110889785 0.00858544

network.9.weight f4 [32]
000000 d1 0b 42 3f bb 25 39 3f e8 48 53 3f 55 3a 3c 3f
       0.7579928 0.723232 0.8253312 0.7352651
000010 b7 24 47 3f 7c 76 25 3f 8e c3 41 3f f2 3c 3f 3f
       0.777904 0.6463392 0.7568902 0.7470237
000020 42 c4 3b 3f ce 3b 53 3f 9e b4 4a 3f 4f 72 59 3f
       0.7334634 0.8251313 0.7918185 0.84940046
000030 6e b3 29 3f e6 06 44 3f d1 4a 4b 3f dc 56 3e 3f
       0.6628941 0.76573026 0.79411036 0.74351287
000040 72 cb 44 3f bd 40 59 3f 50 29 3d 3f ee 2f 40 3f
       0.7687293 0.8486441 0.7389116 0.75073135
000050 22 1d 57 3f 59 0a 49 3f 0d 0b 36 3f 74 14 47 3f
       0.8402883 0.78531414 0.7111061 0.77765584
000060 ec 1b 56 3f 3c df 42 3f 76 53 6b 3f c1 95 3d 3f
       0.83636355 0.7612188 0.91924226 0.7405663
000070 36 99 30 3f 8a 18 38 3f a7 a7 49 3f a5 ec 34 3f
       0.6898378 0.71912444 0.7877144 0.7067359

network.9.bias f4 [32]
000000 32 6c f2 bd 84 db 35 be 35 6b df 3d bb 25 9f bc
       -0.11837043 -0.1775952 0.1090912 -0.019427171
000010 38 bb 37 bd b2 12 8b be 8d ba 88 be 41 16 32 be
       -0.04485628 -0.271627 -0.26704827 -0.17391302
000020 86 41 56 be de 4c f7 bd 27 a8 88 be 6e 1b 14 be
       -0.20923433 -0.12075208 -0.2669079 -0.14463589
000030 9b da 3b be 25 40 9f bd 87 3f 28 3b 97 c3 4f bd
       -0.1834511 -0.077759065 0.002567263 -0.05072364
000040 a9 41 e6 bd 34 8e 86 3d fc 0b 8a be c3 fb 81 bc
       -0.112429924 0.06570092 -0.26962268 -0.01586712
000050 f1 bd 1e be 02 5b a3 bd 94 1d a7 3c dd 27 23 be
       -0.15502144 -0.07976343 0.020399846 -0.15933175
000060 31 75 71 be 8b 88 51 be 03 7f 9d bd f5 0b d4 be
       -0.23579861 -0.20462243 -0.07690241 -0.41415372
000070 0c 12 48 be e8 48 25 bb 01 79 a1 be 33 8a 9b bd
       -0.19538134 -0.0025220457 -0.3153763 -0.07594719
