soil_salinity_multi_sensor/outputs/models/stage1/stage1_epoch_100.pth (torch, 72324 bytes, 20 tensors)

network.0.weight f4 [128, 36]
00000000: 9dac a6bd 48cf 5ebe dfe8 85be 2eec 3ebe
00000010: dcf1 40bd 1678 83be bad9 193f 518c 8ebc
00000020: 47ca 57be ec2c 50be 0f3f d2be 1fe1 b4bd
00000030: bf13 82be 5e69 fbbd b1e9 3bbb e4b4 9a3d
00000040: cf3e a3be c3b4 57be bd0a a9be 1a7a a6bd
00000050: 3f9f 28bf 223e 603d 6ccd 52bf d925 c9bf
00000060: e756 a4be fedc b8be 9ab3 493e 832f a8bd
00000070: e875 35be 5925 943d 0ba6 1b3e 3cef 85bc
00000080: 9d4c 83bd 35b8 11be b2f2 e03d 1d6d f63d
00000090: 711b adbd 07f4 dd3c 51c8 13be fb3c 393d
000000a0: e3f3 e9bd 47ff 55be 5e4a 2ebf 5831 86be
000000b0: 36e8 11be 7312 51be 2ba6 913d 9949 90bd
000000c0: 9a86 30be a0fe d83d 89b7 8b3e 0aab b53c
000000d0: a238 64be 7d96 9a3d 8649 1e3d e36f c1bd
000000e0: 7c3f 523f 3c54 363e a971 3d3f 805c 603f
000000f0: 5fc6 843d abd0 2f3d 6946 07bf 92f5 4abe
00000100: cbb0 94be 429d 79bd 1a0b 203c b0d6 d8bc
00000110: f6e5 dd3d eff1 6d3e 7476 28be 980e cb3d
00000120: 26b4 adbe f7fc babe 4730 35be e672 c4be
00000130: 700b b6be fdb6 9dbe 223d 60bf 0272 8cbe
00000140: 103f a8be 781f 82be 62b3 9ebe 4346 b5be
00000150: a57f 09bf 9818 8ebe 5ecc c2ba e122 b6bd
00000160: ee33 a8be ea2e e7be 12b7 a8be eacf 85be
00000170: c676 143f 1e01 e13e 93f6 bd3e 7058 f53e
00000180: 94c1 98be 3e41 2cbe 1182 0fbf 5cb4 c5be
00000190: e6e8 90bd e69b 31be cc52 f1be e518 1d3f
000001a0: 5553 273e 802c 113e 5136 8abe 9597 1f3d
000001b0: 14e4 233e 8773 773e 8a16 ea3d e436 593e
000001c0: 3e6a 17be 801d 0cbe c4ee 69bf e870 ddbd
000001d0: 9acd 853e cc9b eebb dfcc 583e 3758 1b3d
000001e0: 88b4 f53d bfd8 c03c 0b5b 433e 97dc dbbd
000001f0: 7e65 6f3e 764e 9c3e 3684 323e b39f 5c3e
00000200: 09b0 533f ae2b 543e ab32 773f 7049 b83f
00000210: 0f64 833e fd64 4e3d 148d a1be 682d 62be
00000220: 378f 5a3d d686 adbd beef 3ebe d2c1 ee3e
00000230: 6746 90bd b0a1 713d 3c98 f9bd 9032 313e
00000240: 2701 90bd e162 52bd 7139 343d b922 ecbd
00000250: da83 56be d543 8fbc 451b fbbe 0c16 313e
00000260: 6b8d c7bd 3a82 2ebe fada 21be cf31 bdbd
00000270: b560 07be 89b6 c7bc 22c5 023e 9169 033e
00000280: 836b a8bd 94d1 d0bd 837b ffba 136c 86bd
00000290: 1745 fa3e 2729 c43d c844 8a3f bff7 6f3f
000002a0: 9531 fdbd 072c 23be 7c6b 93be 4fbb 5e3e
000002b0: ea6f 27be 6bd8 89be d6d6 28bc 588c 26be
000002c0: 3a09 8bbe a687 12be 47df 443e aa06 dfbd
000002d0: 56dc 473e 8cf3 983d 263a 473e 040e 11bd
000002e0: 922c dfbd c96c 43be 3341 5ebf 0be5 c9be
000002f0: e6d0 483e bc4c 7a3d e3b3 313e afdd eabd
00000300: c069 043d 1c90 86bd 0483 383e 5b34 cebd
00000310: 5dba 363e ebd1 58bd f220 2ebe f1ee a0bb
00000320: bf20 713f 2bc1 2e3e ac7c 6d3f 9b29 e13f
00000330: 2d33 333d 5530 debd 7805 eebe 559b 8fbe
00000340: ef65 42be 5cda ed3d 7fae dbbe 0d0f 7e3e
00000350: 9a99 87bd 45c4 fb3d 7b72 28be 7daf 1c3e
00000360: ad6c ecbe 1e86 e9be 5e1f a3be a200 8bbe
00000370: e8d2 6cbe 1344 36bd 5ce3 1bbf 5dff c8be
00000380: 01d4 e7be d325 b7be cb0f dbbe 4ae7 2fbe
00000390: 6b2c 0fbf 6034 ebbe e863 553d 21e6 c63c
000003a0: e592 1bbf 76b6 f9be 7dd6 47be 86d9 97be
000003b0: 857c 2e3f 8356 f23e d5fa 4b3f 3d30 0240
000003c0: d0a0 24be 9ba1 dfbe 1cb7 48bf b1ad 11bf
000003d0: dcbc 8cbd a403 c93c 0e7b 8ebe 91ee 413e
000003e0: 9250 5ebd 02c4 ff3d d55f c4be 161b b53d
000003f0: 98fe ecbe f31c 85be 0d2d f0be e476 84be
-0.08138392 -0.21758759 -0.2615423 -0.18644783 -0.047105655 -0.25677556 0.6009785 -0.017400892
-0.21073256 -0.20329636 -0.41063735 -0.08832001 -0.2540569 -0.122759566 -0.0028673226 0.075540334
-0.31883857 -0.21065049 -0.33016005 -0.08128758 -0.6586799 0.054746754 -0.823447 -1.5714675
-0.3209755 -0.36106104 0.19697419 -0.08212187 -0.17720759 0.07233686 0.15200059 -0.016349427
-0.06411097 -0.14230426 0.109837905 0.120325305 -0.084525 0.0270939 -0.14431883 0.04522417
-0.11423471 -0.20898162 -0.68082225 -0.2620952 -0.14248738 -0.20417194 0.07111772 -0.07045288
-0.17238846 0.10595441 0.27288464 0.022176284 -0.22287229 0.075482346 0.038644336 -0.09445169
0.8212812 0.1780557 0.74001557 0.87641144 0.06483149 0.04292361 -0.5284181 -0.1982024
-0.29041132 -0.06094099 0.009768272 -0.026469558 0.10834877 0.23236822 -0.16451436 0.09914893
-0.33926505 -0.36521122 -0.17694198 -0.3836891 -0.355556 -0.3080367 -0.8759328 -0.2743073
-0.32860613 -0.25414634 -0.30996233 -0.35405168 -0.53710395 -0.2775314 -0.0014861932 -0.088933714
-0.3285212 -0.4515298 -0.32952172 -0.26135188 0.57993734 0.43946165 0.37102184 0.47919035
-0.29835188 -0.16821763 -0.5605784 -0.38614166 -0.07075672 -0.17344627 -0.47133482 0.6136611
0.16340382 0.14177132 -0.26994565 0.03896292 0.16004974 0.24165164 0.1143008 0.21212345
-0.14786622 -0.13683128 -0.9137995 -0.10812551 0.26133424 -0.007281756 0.21171902 0.037925925
0.11997324 0.023540853 0.19077699 -0.107354335 0.2337856 0.3052861 0.17433247 0.21545295
0.82690483 0.20719787 0.9656169 1.4397411 0.25662276 0.05038928 -0.31552947 -0.22087634
0.053359237 -0.084729835 -0.18646142 0.46632248 -0.07044678 0.058992088 -0.121872395 0.17304444
-0.0703147 -0.05136383 0.044000093 -0.1153006 -0.20948735 -0.0174884 -0.49044243 0.17293566
-0.0974377 -0.17041865 -0.15806189 -0.09238016 -0.13220485 -0.024379032 0.12770513 0.12833239
-0.08223631 -0.10196224 -0.0019491765 -0.06563582 0.48880836 0.09578162 1.080224 0.93737406
-0.12362973 -0.15934764 -0.28792942 0.2175114 -0.16351286 -0.26922926 -0.010305127 -0.16264474
-0.27155477 -0.14309558 0.19225799 -0.10889943 0.19517645 0.07468328 0.19455776 -0.035413757
-0.10897173 -0.19084467 -0.86818236 -0.39432558 0.19610938 0.061108336 0.17353778 -0.11468064
0.032327414 -0.065704554 0.18018728 -0.1006858 0.1784453 -0.05293457 -0.17004755 -0.0049112965
0.9419059 0.17065875 0.9276836 1.7590822 0.043749977 -0.10849062 -0.46488547 -0.28048196
-0.18984197 0.11613914 -0.42906567 0.24810429 -0.06621094 0.12293295 -0.16449921 0.15301318
-0.46176663 -0.45610136 -0.3185987 -0.2714892 -0.2312733 -0.044498514 -0.608938 -0.39257327
-0.45278934 -0.35771045 -0.42785487 -0.17178074 -0.5592715 -0.45938396 0.05209723 0.024279656
-0.6077102 -0.4877202 -0.19515415 -0.29658145 0.6815875 0.47331628 0.79679614 2.0341942
-0.1607697 -0.43677983 -0.784044 -0.5690566 -0.068719596 0.024537869 -0.27828258 0.18938662
-0.054276057 0.124885574 -0.38354364 0.08843057 -0.4628799 -0.2599865 -0.4690937 -0.25871956

network.0.bias f4 [128]
00000000: 0ce1 8f3c cacf b13d 9bbb 85bd f4f6 1d3d
00000010: cbaf 2abe dd78 b13d 2622 0dbc 3fad 56bd
00000020: d780 bd3d 845f 1ebd c70a 4c3d b4c4 ad3d
00000030: facf a83d 309d 9bbd 7858 c6bd 96ad 0e3e
00000040: a4f6 fa3c 9cd6 a23d 3df6 cbbd abc9 a93d
00000050: 1a3c 46be e4a0 bebc 00d8 11bd ecc4 d53d
00000060: 5591 7bbc 312b 023e da65 543c 0eb6 a4bc
00000070: 9e74 0c3e 0558 8b3d 4024 8e3d 4263 103d
00000080: 10d3 1b3e 670d bebc b657 0b3e f699 dabd
00000090: 7303 0d3d 0845 373d 133c 57be fc55 7dbd
000000a0: 49cb 3d3e f89f 69bc d119 ecbc 7b07 403e
000000b0: 8168 14be 36a7 bb3c 632f df3d ece6 0b3c
000000c0: 9a61 af3d f4c8 b0bd 3c92 8ebe 4f05 a0bc
000000d0: 227d 8abd f507 b13d 7b8a d0bd 9530 123e
000000e0: ade2 85bd e4b8 113b aaf0 48bd c374 f1bd
000000f0: 6249 ec3d 4aaf bb3d 5898 d7bc f51e eabd
00000100: b468 88bc 03dd 68bd a2c9 68bc 8f5f 16be
00000110: eb55 813c 4952 263d ce14 bbbd cba3 4f3e
00000120: e202 903d 4110 58bd 4140 7c3d 9a3f 803d
00000130: 2a37 b3bd 8911 253e c3ea 40bd 27e2 e0bc
00000140: f4d6 a43d 8619 26be 5cb9 f5bc 67fc c63c
00000150: f479 21be ac83 743d 6f06 d739 0952 a2bd
00000160: 58ce 953d 0178 e0bd 2405 36bd 1dfb feba
00000170: 151d b6bd 6427 9bbc 6883 843d 44e9 5fbd
00000180: 03ee 693d 9ee5 0d3e 9a3c 32be d07d 313d
00000190: a7eb bb3d 99f3 46bc 1d7a 53bc dce8 0cbc
000001a0: da1f 7f3d 6fea 783d b28e efbb 0405 07bc
000001b0: d611 ba3d be18 e03d 8527 6abc a81a eb3c
000001c0: a5ab 83bc 8c56 aabd 06ff c53c 5506 183d
000001d0: df90 12bc 0220 0a3e 9c2a 9fbd 09a1 263c
000001e0: 9467 41bd 8523 033e 3c64 633d b057 e0bc
000001f0: 0d92 bdbc a547 bf3d 80ce 8d3d 9467 ba3c
0.017563365 0.08682211 -0.065299235 0.03856559 -0.16668622 0.08665631 -0.008614099 -0.052411314
0.0925309 -0.03866531 0.049814966 0.08484784 0.082427934 -0.075983405 -0.09684843 0.13933405
0.030635186 0.0795109 -0.099590756 0.08290418 -0.19358864 -0.023270078 -0.035606384 0.104379505
-0.015354474 0.12711789 0.012963736 -0.020106342 0.13716361 0.06803898 0.06940508 0.03525091
0.15217233 -0.02319975 0.13607678 -0.10673897 0.034427118 0.044743568 -0.2101901 -0.06184958
0.18534578 -0.014259331 -0.028820904 0.18752854 -0.1449299 0.02290688 0.1089771 0.008538943
0.08563538 -0.08632079 -0.27845943 -0.019533781 -0.067621484 0.08644096 -0.10182663 0.14276345
-0.065373756 0.0022235448 -0.04905764 -0.11789849 0.11537434 0.09164293 -0.02631776 -0.11431686
-0.016651489 -0.0568514 -0.014208229 -0.1468489 0.01578804 0.040605817 -0.091348276 0.20277326
0.070318 -0.052749876 0.061584715 0.06262131 -0.08750756 0.1611997 -0.047098886 -0.027451588
0.080488116 -0.16220674 -0.029995613 0.024290277 -0.15769178 0.059695885 0.0004101279 -0.07925803
0.073147476 -0.10960389 -0.044438496 -0.00194535 -0.08892266 -0.018939681 0.06470376 -0.05466582
0.05711175 0.13857123 -0.1740593 0.043332875 0.091758065 -0.012143039 -0.012907532 -0.00860044
0.062286235 0.06077045 -0.007310712 -0.008240942 0.09085433 0.10942219 -0.014291649 0.028699234
-0.016073057 -0.08317289 0.024169456 0.037115414 -0.008945673 0.13488773 -0.07771799 0.01017023
-0.04721792 0.12806518 0.055515513 -0.027385563 -0.023140932 0.09339837 0.069241524 0.022754468

network.1.weight f4 [128]
00000000: b311 5a3f a11e 2b3f 4d94 473f 49da 923f
00000010: 00d9 7b3f 873d 583f e785 4e3f 78b0 163f
00000020: f96b 343f 6580 753f 604b 4c3f 9178 233f
00000030: dd82 263f 1be3 1f3f 0f60 3a3f 3270 763f
00000040: fcef 703f aa43 b13f 387a 413f e0d1 403f
00000050: 72d1 2c3f 2ec5 1e3f 4177 593f 09ec 113f
00000060: bb60 213f 9549 5a3f d017 2e3f 6de4 9d3f
00000070: 60a8 653f 054b 583f 3d89 803f ecb3 473f
00000080: 44db 133f 0f8d 443f f21d 1f3f db01 2c3f
00000090: 416a 533f 052e 4d3f 08d4 193f 9588 413f
000000a0: 1ff3 663f 3a33 803f 4711 213f dd7a 173f
000000b0: bd52 3c3f 7852 513f a93a 313f bcb5 9e3f
000000c0: 3e98 593f 31b0 493f eda2 843f be9b 893f
000000d0: c3c3 263f 7d35 153f 7d19 ae3f 87c8 3d3f
000000e0: cb8c 383f 499b 293f 35bd 5b3f 3e42 a03f
000000f0: e8ae 483f 8b4f a73f 819d 683f 3c9a 3e3f
00000100: a52c 343f da38 7d3f a2a0 993f 17fc 273f
00000110: baea 8e3f 9d4f 1d3f 72c9 3d3f 116c 673f
00000120: f219 233f 3936 2c3f a8c7 183f 78e9 183f
00000130: 6c3c 293f 2288 8a3f 4c5c 5a3f cc0f 4b3f
00000140: 226f 1a3f cda2 3c3f a497 633f e9ed 793f
00000150: d709 673f 0f91 1d3f 7376 493f d29e 493f
00000160: d5c5 573f e30e 2e3f 4e1d 4b3f 9252 4e3f
00000170: c1f7 8c3f 9c0b 2b3f 1d4f 393f 24b9 853f
00000180: 4ed6 403f e8f4 303f f401 333f bbf5 363f
00000190: 9cbe 443f f803 453f 4342 2f3f 182a 343f
000001a0: 3b1a 4f3f 0dbd 5f3f aeb2 153f bedc 923f
000001b0: b086 903f b240 283f 308c 4e3f b88c 5e3f
000001c0: 0309 383f 9669 4e3f f0f2 853f fde5 303f
000001d0: ff11 6b3f 0f6e 303f cbb7 523f 8d1f c13f
000001e0: 2df5 353f 2e68 ab3f 8e70 303f b5d6 163f
000001f0: c3d3 8a3f 7691 443f 4bc2 4c3f a434 243f
0.85183257 0.6684361 0.77960664 1.1472865 0.9837799 0.84468883 0.8067307 0.5886302
0.70477253 0.9589904 0.79802513 0.63855845 0.6504343 0.6245591 0.72802824 0.96264946
0.9411619 1.3848774 0.75577116 0.75320244 0.6750709 0.6201962 0.8494759 0.57000786
0.63038224 0.8526853 0.68005085 1.2335335 0.89710045 0.8448947 1.0041882 0.78008914
0.5775645 0.7677774 0.6215507 0.6719033 0.82584006 0.80148345 0.6008916 0.7559903
0.90214723 1.0015633 0.6291699 0.5917185 0.7356375 0.8176646 0.69230133 1.2399211
0.8499793 0.7878447 1.0362221 1.0750654 0.6514246 0.5828474 1.3601528 0.74134105
0.72089833 0.6625257 0.8583558 1.2520216 0.78391886 1.307115 0.9086533 0.7445409
0.7038062 0.98914874 1.2002146 0.65619034 1.1165383 0.61449605 0.74135506 0.9039927
0.63711464 0.6727024 0.5967965 0.59731245 0.6610782 1.0822794 0.85297084 0.7932098
0.60325825 0.73685914 0.8890326 0.9762865 0.9024939 0.61549467 0.78696364 0.78757966
0.8428624 0.67991465 0.7934159 0.8059474 1.1013108 0.6681459 0.7238634 1.0447125
0.75327003 0.691237 0.69924855 0.71468705 0.76853347 0.7695918 0.6846048 0.7037673
0.808994 0.87397844 0.5847577 1.1473615 1.1291103 0.6572372 0.8068266 0.8693347
0.7188875 0.8062986 1.0464764 0.69100934 0.91824335 0.68917936 0.82311696 1.5087754
0.71077234 1.3391168 0.68921745 0.58921367 1.0845875 0.76784456 0.7998397 0.64142823

network.1.bias f4 [128]
00000000: 0220 51be e64f 9dbe d837 4dbf 8595 e13c
00000010: 55ff 763d 75dc 67be 3d31 92be 001d 0fbf
00000020: 6465 e2be 8758 41bf 16a6 1fbe 6ebe 99be
00000030: 4488 1bbf 3d1e 07bf 8541 58be b2f8 b4bd
00000040: 775a 12bc 6a93 043f e0e0 15bf 38db 92be
00000050: c335 43bf 75b4 2cbf 1d2c f2bd 3ffc d2be
00000060: 3439 bfbe 4b17 95be 4620 e9be 3a0d 7e3e
00000070: 785a 96bd 79ca 40bf 580b 0a3c c0ae 12bf
00000080: b730 25bf 6219 3fbf f5d5 c5be 005b 91be
00000090: a9fe 4bbd c576 ddbe ca2b 44be 25d8 12bf
000000a0: 6243 4fbf 01e5 ac3e 1b98 c0be 5eb4 b4be
000000b0: e508 5abe 3b94 c9bd 4667 f7be 2b07 3f3e
000000c0: a2bd debd 9509 8fbe 1842 063d 39ce fa3c
000000d0: dc43 e6be 1e90 2bbf 0a5a dd3e 4c1b 0fbf
000000e0: ba9f 13bf 5781 e2be fd68 7dbd c09d 893e
000000f0: ec8a 4bbf 73f0 2c3e a70e 62bd b02b 37bf
00000100: edac a7be 0e6f 4a3f 0923 ea3d 54d3 89be
00000110: d3fc 873e cd1d 05bf bacb 94be 90e7 9cbd
00000120: 4004 a8be 8f71 afbe 540c b1be ecd4 d2be
00000130: f6f8 36bf 503c 2c3d 7568 50be 4d7f 8cbe
00000140: 0142 d3be f8d5 08bf 65e2 7abe f3c2 78bc
00000150: b1b9 a43e d554 dbbe aac2 2dbe 6409 0ebe
00000160: 1ec2 46bf 5e46 f0be b09a 1dbf 27ea ebbe
00000170: 5935 4b3e 2c9f 2cbf 241b c3be 8657 27bd
00000180: 40ee 8dbe 80fa 7fbe 5cac a0be 3156 b5be
00000190: ade0 cebe 3546 8bbe 2001 b2be dea4 14bf
000001a0: 4d47 b9be 17a0 1dbe cd7b d0be accc d23d
000001b0: bd66 3f3f 1b64 e7be 62ae 11bf 17a4 cabd
000001c0: 66ad b1be dbd8 40bf ba44 afbc dbfe 8dbe
000001d0: 7a02 dbbb 7539 37bf 9738 4fbe 883a e33e
000001e0: 4db7 cbbe 2e81 c13e f72f dabe 5b40 b8be
000001f0: fe73 2d3e d022 33bf e015 1dbf 4f71 08bf
-0.20422366 -0.3072502 -0.80163336 0.027537117 0.060302097 -0.22642691 -0.2855319 -0.55903625
-0.4421798 -0.75525707 -0.155907 -0.300281 -0.607548 -0.52780515 -0.21118744 -0.08836497
-0.008932701 0.51787436 -0.58546257 -0.28682876 -0.7625391 -0.67462856 -0.1182482 -0.41208073
-0.3734833 -0.29119334 -0.45532435 0.24809733 -0.07341474 -0.7530895 0.008425556 -0.572979
-0.6452746 -0.74648106 -0.386398 -0.2838974 -0.04980341 -0.43254676 -0.19157329 -0.5736106
-0.80962193 0.33768466 -0.37616047 -0.3529386 -0.21292455 -0.09842726 -0.4832098 0.18655078
-0.10876013 -0.27936998 0.032777876 0.030615913 -0.44973648 -0.6701678 0.43232757 -0.55901027
-0.576656 -0.44239303 -0.061867703 0.26878166 -0.7950885 0.16888599 -0.055189755 -0.71551037
-0.3274912 0.79075706 0.11432464 -0.26919043 0.26560077 -0.519986 -0.2906168 -0.076613545
-0.32815742 -0.34266326 -0.34579718 -0.41178071 -0.71473634 0.042049706 -0.20352347 -0.27440873
-0.41261294 -0.5345149 -0.24500425 -0.015183198 0.3217292 -0.4283816 -0.1696879 -0.1387077
-0.7763995 -0.46928686 -0.6156416 -0.46077082 0.1984457 -0.67430377 -0.38106644 -0.040854953
-0.27720833 -0.24997902 -0.313815 -0.3541732 -0.4040579 -0.27202 -0.34766483 -0.5806407
-0.3618721 -0.153931 -0.40719453 0.10292944 0.7476614 -0.45193562 -0.5690671 -0.09894579
-0.34702605 -0.75330895 -0.021395076 -0.27733502 -0.006683645 -0.7157205 -0.20236431 0.44380593
-0.39788285 0.3779387 -0.4261472 -0.359866 0.16938779 -0.69974995 -0.61361504 -0.53297895

network.1.running_mean f4 [128]
00000000: b551 22c6 9ea2 02c7 64f7 2345 997b 23c6
00000010: 5936 d5c6 5fef 38c6 e799 47c6 bd89 8445
00000020: 4213 6545 e636 4046 4eee 31c6 d9a0 a9c6
00000030: bd6c f4c5 e87d 69c6 a879 11c6 5285 d6c5
00000040: 5005 1ac7 65d5 29c6 5ed3 4346 57df dcc6
00000050: 61a7 14c5 f4af e045 65e8 9cc6 3dbf d1c6
00000060: 1d0c 88c5 2b97 8645 c0ef 1cc6 863d 6ac6
00000070: 3aea 18c6 add6 8445 f91d f6c5 8a64 2dc6
00000080: ba56 0f46 449c 8245 17ce 8ac5 6fc2 f6c5
00000090: 5302 88c5 0085 4ec6 580f 6745 37be d4c5
000000a0: e4f1 5745 fa09 3a45 f6e8 3c46 7deb 5ec6
000000b0: a471 7945 92cb ddc6 3261 8946 3fd9 f9c5
000000c0: c346 2fc6 e3d9 3dc6 8fda 31c6 ef3b 25c6
000000d0: 0fc5 f1c5 5511 42c6 6973 b0c6 2a5d 23c6
000000e0: 2ad4 4546 2b2c 4546 cb92 d9c6 6ee4 8cc6
000000f0: acef 28c5 d5cd 06c6 634c 8fc6 bb87 5a45
00000100: 0238 acc6 6c9b b044 38ed ddc5 791e 8f44
00000110: d8c0 90c6 c118 26c6 d2ea 5ac5 39bc d3c6
00000120: c0c7 36c7 7165 b7c6 6221 d7c5 a71b 91c6
00000130: 0e37 bec5 c26f 12c6 dd5f 8945 8c55 cbc6
00000140: 008b 4b46 8165 ffc5 699f 5bc6 97c8 a4c6
00000150: 3467 0b44 5ec8 c6c6 ff4a 19c7 61af 90c6
00000160: 51ba 2f46 b930 0e46 070a 10c6 ae26 aa45
00000170: 69f1 f744 dab1 f2c5 bd1e 8dc6 315f c4c5
00000180: 8b18 56c6 fdd2 82c6 f092 ecc6 25a0 49c6
00000190: a839 80c6 5312 45c6 c6ad 8546 8f25 95c6
000001a0: 8a97 d8c5 eae3 a4c6 5b5d 8546 e1fe f6c5
000001b0: 3c59 7644 418d b846 de6a 1046 63a3 22c7
000001c0: b5ab 69c6 d431 0445 828f 99c6 f559 d8c6
000001d0: 2738 95c6 586d 14c6 4672 99c6 dffd 36c6
000001e0: 02b4 1fc6 ed4f eac6 ab27 0846 c8c6 22c6
000001f0: 9942 24c7 9dcb 1b46 4726 4b46 0469 76c6
-10388.427 -33442.617 2623.462 -10462.899 -27291.174 -11835.843 -12774.476 4241.2173
3665.2036 12301.725 -11387.576 -21712.424 -7821.5923 -14943.477 -9310.414 -6864.665
-39429.312 -10869.349 12532.842 -28271.67 -2378.4612 7189.994 -20084.197 -26847.62
-4353.514 4306.896 -10043.9375 -14991.381 -9786.557 4250.8345 -7875.7466 -11097.135
9173.682 4179.533 -4441.761 -7896.304 -4352.2905 -13217.25 3696.959 -6807.777
3455.1182 2976.6235 12090.24 -14266.872 3991.1025 -28389.785 17584.598 -7995.156
-11217.69 -12150.472 -11382.64 -10574.983 -7736.6323 -12420.333 -22585.705 -10455.291
12661.041 12619.042 -27849.396 -18034.215 -2702.9795 -8627.458 -18342.193 3496.4832
-22044.004 1412.8569 -7101.6523 1144.9523 -18528.422 -10630.188 -3502.6763 -27102.111
-46791.75 -23474.72 -6884.173 -18573.826 -6086.882 -9371.939 4395.983 -26026.773
13026.75 -8172.688 -14055.853 -21092.295 557.61255 -25444.184 -39242.996 -18519.69
11246.579 9100.181 -9218.507 5444.835 1983.5441 -7766.2314 -18063.37 -6283.899
-13702.136 -16745.494 -30281.469 -12904.036 -16412.828 -12612.581 17110.887 -19090.78
-6930.9424 -21105.957 17070.678 -7903.86 985.3943 23622.627 9242.717 -41635.387
-14954.927 2115.1143 -19655.754 -27692.979 -19100.076 -9499.336 -19641.137 -11711.468
-10221.002 -29991.963 8713.917 -10417.695 -42050.598 9970.903 13001.569 -15770.254

network.1.running_var f4 [128]
00000000: 1bf5 d94c 5e3e 9a4e 1cce db4b 7ae9 fa4c
00000010: 9f7a 4e4e c0f9 144d a53e 1e4d 5773 4d4c
00000020: a427 734b 1a10 0d4d ed28 254d 4691 094e
00000030: f865 664c f15e 834d 81bd bf4c 4714 344c
00000040: 2be5 d64e 5e74 fe4c 2fd3 114d 8883 604e
00000050: 7a2c 034b 35a8 b94c 7f87 e34d b619 464e
00000060: d92e e44b 0b63 fc4b a1b0 d84c a4d2 614d
00000070: 4c8d eb4c 24d4 464c f051 6f4c f83b f34c
00000080: ae64 dd4c 43ad 334c 49a4 004c 1342 9c4c
00000090: 684f 094c 2639 2f4d 8ee3 664b d9cb 314c
000000a0: 4127 304c ce48 8c4b 8b14 344d a3ad 714d
000000b0: 6d46 094c 4f93 5f4e 021b 9d4d 1b62 724c
000000c0: 5d1d 104d 547d 1d4d c2c9 f44c c335 d64c
000000d0: 94f3 864c 5608 224d 1221 0e4e 382b de4c
000000e0: 6c49 154d 67b8 304d 2fbd 544e fd40 ac4d
000000f0: f932 544b fb4e 924c ff04 ad4d 1681 1c4c
00000100: df25 044e 8af4 724b c23b 3b4c b4e1 404b
00000110: 8343 be4d 1209 0e4d 4f25 094c cdf4 474e
00000120: c021 194f b2d7 144e f100 a64c 4f60 c34d
00000130: 5f31 0b4c 999e a44c c04c 9e4b 6929 384e
00000140: 2926 3b4d 6faa 784c 5d96 4d4d 691e 004e
00000150: 7ef9 8b4b 52bd 334e d4a9 d94e c705 b34d
00000160: d55d ea4c 392c cb4c 14a8 9f4c 0473 ee4b
00000170: eed8 e24a 2995 5f4c 126c b24d b1ae 124c
00000180: b00b 424d df4e ab4d eaf1 884e ef9e 3e4d
00000190: 290e 904d 592c 244d 7f24 ad4d 6ccb cc4d
000001a0: d7f4 324c 2403 eb4d bd69 a24d 8fd2 754c
000001b0: e0ad 6d4b 9bc1 154e 7d54 9f4c c3d6 f64e
000001c0: 1a59 714d 0ed5 be4b 2c82 f14d bb95 574e
000001d0: 807a d84d 7cec ae4c ace0 d24d 917a fe4c
000001e0: d00b c44c 3b44 7e4e b9ba 8d4c e46f 084d
000001f0: 3d20 f64e 995c b84c 788c 1f4d ced6 8e4d
1.1427247e+08 1.2938893e+09 2.8810296e+07 1.3155016e+08 8.6603565e+08 1.5621222e+08 1.659316e+08 5.3857628e+07
1.5935396e+07 1.4791517e+08 1.7318267e+08 5.769998e+08 6.0397536e+07 2.7550467e+08 1.0052711e+08 4.7206684e+07
1.8026715e+09 1.3340747e+08 1.5290853e+08 9.416791e+08 8.596602e+06 9.733777e+07 4.771635e+08 8.3089344e+08
2.9908402e+07 3.3080854e+07 1.13607944e+08 2.3679238e+08 1.2349706e+08 5.2121744e+07 6.273632e+07 1.275248e+08
1.1607384e+08 4.7101196e+07 3.372266e+07 8.192425e+07 3.599504e+07 1.8373488e+08 1.5131534e+07 4.6608228e+07
4.617754e+07 1.8387356e+07 1.8882782e+08 2.5341803e+08 3.5985844e+07 9.377433e+08 3.294741e+08 6.3539308e+07
1.5111522e+08 1.6513978e+08 1.2833947e+08 1.12307736e+08 7.075344e+07 1.6990346e+08 5.96133e+08 1.1648045e+08
1.5653856e+08 1.8530469e+08 8.9229203e+08 3.6124253e+08 1.3906681e+07 7.67078e+07 3.6284822e+08 4.102665e+07
5.542686e+08 1.5922314e+07 4.908212e+07 1.2640692e+07 3.9901194e+08 1.4893494e+08 3.5951932e+07 8.386773e+08
2.569126e+09 6.2429094e+08 8.7033736e+07 4.097336e+08 3.6488572e+07 8.630804e+07 2.0748672e+07 7.724304e+08
1.9624002e+08 6.5186236e+07 2.1557397e+08 5.3736915e+08 1.8346748e+07 7.5388224e+08 1.8258929e+09 3.7543754e+08
1.2287556e+08 1.0652103e+08 8.370602e+07 3.1254024e+07 7.433335e+06 5.8610852e+07 3.7417837e+08 3.8451908e+07
2.0347162e+08 3.592591e+08 1.1487777e+09 1.9988043e+08 3.021059e+08 1.7214811e+08 3.6310627e+08 4.2948544e+08
4.6912348e+07 4.9285645e+08 3.4060483e+08 6.4440892e+07 1.5576544e+07 6.281233e+08 8.3534824e+07 2.0706349e+09
2.5307178e+08 2.5012764e+07 5.0648e+08 9.0422854e+08 4.5398835e+08 9.171043e+07 4.4224243e+08 1.3342017e+08
1.0278464e+08 1.0664711e+09 7.4307016e+07 1.4306464e+08 2.064654e+09 9.665863e+07 1.6729894e+08 2.9955526e+08

network.4.weight f4 [64, 128]
00000000: 4f24 cf3c 019a ab3c 4f97 253e c4a6 0cbe
00000010: f015 bc3c b675 15bd 26c6 11bd 9477 343c
00000020: 34ce 813c 38e5 a8bd d7f5 9b3d 8677 10be
00000030: 3787 3d3d 7f05 3abe fac1 0cbd be2d 88bd
00000040: c064 35be 534d 2ebe f455 e1bd f395 543d
00000050: 4489 e93d 91da 833d 399b f9bd 67fd 13be
00000060: 2a5a f6bc 2662 ac3c 1657 753d ecd3 b2bd
00000070: 713c 3dbd e7d1 d23d 59f1 afbd 77f5 773e
00000080: a9e2 7c3d e41e 02bd 7a68 5ebd 5176 fe3d
00000090: c05b f5bc aade a2bc 7ae9 96be 3556 313d
000000a0: 447f 283d 324f a5be 3130 393c 532e 07be
000000b0: cf58 813d b26f 5c3d 8675 6ebd f0f3 25bd
000000c0: 5077 61be 874a 4bbe ae24 09bb 1670 12be
000000d0: 6d76 d6bd 1017 543d 0bba 68be ceb2 b9bd
000000e0: a6ba f43c e43d d9bd ca4a 05be be70 9dbd
000000f0: 0293 963c a72a 33bb baab ddbd 67d4 213e
00000100: 1941 91bd 8484 4ebf 8449 bb3d 0db5 d6bc
00000110: 9213 24bd a1df 71bd 9c00 8ebe 0112 16be
00000120: 2b31 4dbd 708d e5bd 9bdf 52be 892f 8f3d
00000130: 40c6 17bd 9a30 1bbe 4bc9 7b3e 72e6 00be
00000140: 23e2 963d cf2c 02bc 4510 a0bd 7bc8 b7bc
00000150: 165d 88be a6e9 eb3c 2451 6fbd fc0f a0bd
00000160: 7c2f 23be 96e8 453c 6b95 f53d 75d3 d93d
00000170: e398 e03c 0a63 2a3e b650 49be 3abc 103e
00000180: 60bd 243e aa9e 9fbd fa81 2cbd 3205 4c3d
00000190: f4c7 49bd cc44 863d 6331 25bd d340 3e3d
000001a0: 3abf ae3d 87b1 2d3d 1841 133e 03d5 363d
000001b0: c04b 39bf 19c4 d73d baf5 0f3d 340e 3fbd
000001c0: 987c 79bd 64b8 16bc e2a3 16bd d199 33bd
000001d0: 0679 5e3d f389 4b3e 3c9f d0bd 38d4 903b
000001e0: ea15 3c3c 7e66 29be 8afd cdbc 21db 843c
000001f0: b6cf c23a b425 6fbd bde8 2c3d a102 943d
00000200: 8f9e 42bd 2958 90be 74cf 07bd f16e 4cbe
00000210: 5f93 adbd 2024 8ebe da13 c9bd 2e17 cb3c
00000220: a9ec 23be ccd4 19bd 8855 313d 3e0f c1bd
00000230: a4d0 34bc 0541 4abd e450 0cbe a69b 2cbe
00000240: 31ab eebd cbaf b2be bf18 dd3c 8d32 00be
00000250: a1c4 013e 2ca8 e23d 76d9 86be 523f 9bbe
00000260: 039c 013a 3dab 0cbd 4477 513d 6b85 51be
00000270: eaaf 29bd f3b1 0e3e ea63 90be 42c1 883d
00000280: 4d83 abbc 3fa9 80bc 9fce 17bd 1ad1 673d
00000290: 7698 88be b5b7 97bd 2f57 20be 63d2 7cbd
000002a0: 5c23 f0bc c862 89be 4832 083e 103a 37be
000002b0: 234e d13d 83e9 aabd 2b30 f9bd 77c6 10be
000002c0: 6694 7dbd dd4d a4bd 3fa1 0cbe 0fa9 81bd
000002d0: 33a4 96bd c068 703c e9d0 70be b30b 49be
000002e0: 4ad7 b9bc 9d60 92bc 2a0e 27be 420d 83bd
000002f0: 2ed5 833d ca94 45be 958e 5bbe 5142 33bd
00000300: 3b20 00be 148a 8cbe 9309 81be 626f 1fbe
00000310: 0a66 8e3d da36 37bd fa55 04be 35ac 34be
00000320: 04d1 57be 3756 d2bd 17f7 173d 27f3 5fbe
00000330: a273 d53d 7620 3abe 6224 483d b17f 70be
00000340: c53c 8bbd 8967 c03c caad c2be 6c17 83be
00000350: 7969 11be 33ce 0ebe dec3 6abe bf1a 98be
00000360: 2314 5ebb f9c8 e33d a609 133c 60fa 33be
00000370: 5776 3abe 9aee 1a3e 4c72 6e3d a26e edbd
00000380: b96a 90be a3a5 bcbd 2ee1 1cbe 0b0f 1ebe
00000390: 7766 9cbc 7352 3bbd 0657 14be 0b34 efbd
000003a0: ec78 673b 6251 42be 471c c9bd 6af1 f3bd
000003b0: 4587 c5be ede0 b33d e028 13be 3bca a6bd
000003c0: 0285 0cbe 52b7 5f3d b174 bdbd ede8 5ebe
000003d0: 65d3 05be 689d e3bd 9d82 1abd 8824 e1bd
000003e0: 7401 fabd a203 15be afa9 45be 1ac2 3fbe
000003f0: fcd2 59be 3138 31bc bb00 983d 9d7e 03be
0.025285868 0.020947458 0.16171001 -0.13735491 0.02295968 -0.03648921 -0.03558936 0.011014838
0.015845396 -0.08246845 0.076152496 -0.14108095 0.04627153 -0.18166159 -0.034364678 -0.0664935
-0.17714214 -0.17021684 -0.110027224 0.051900815 0.114031345 0.064381726 -0.121878095 -0.14452134
-0.03007229 0.021042895 0.059897505 -0.08731827 -0.04620022 0.10293942 -0.08590955 0.24214731
0.061739597 -0.03176774 -0.054298855 0.12424911 -0.029950976 -0.019881565 -0.29475003 0.043295104
0.041136995 -0.32286984 0.011302994 -0.13201265 0.06315767 0.05381746 -0.058217548 -0.04051584
-0.2201817 -0.19852649 -0.0020926404 -0.1430057 -0.10471807 0.051779807 -0.2272722 -0.090673074
0.029874157 -0.10607508 -0.13016811 -0.076875195 0.018380646 -0.0027338655 -0.1082377 0.15803681
-0.070924945 -0.8067095 0.09144881 -0.026209379 -0.040057726 -0.05905116 -0.2773484 -0.14655305
-0.05009572 -0.11208618 -0.20593111 0.069914885 -0.0370543 -0.15155259 0.24588506 -0.12587908
0.07367351 -0.0079452535 -0.07815603 -0.022434464 -0.2663352 0.028797936 -0.05842699 -0.07815549
-0.15936083 0.012079379 0.1199139 0.10636035 0.027416652 0.16639343 -0.19659695 0.14134303
0.16087866 -0.07793935 -0.042116143 0.049809642 -0.049262956 0.06556091 -0.040330302 0.04644854
0.08532567 0.04240563 0.143803 0.044636738 -0.7238121 0.105354495 0.035146452 -0.046644405
-0.060909837 -0.009199236 -0.036777385 -0.043847863 0.054314636 0.19876842 -0.101866215 0.0044198297
0.011479834 -0.16543004 -0.02514531 0.01621777 0.0014862928 -0.058385566 0.042214144 0.07227064
-0.047514495 -0.2819226 -0.033156827 -0.19964196 -0.084753744 -0.27761936 -0.098182395 0.024791326
-0.16008247 -0.037556455 0.04329446 -0.09426735 -0.011036072 -0.049378414 -0.13702732 -0.1685625
-0.11653746 -0.34899744 0.026989339 -0.12519284 0.12672664 0.110672325 -0.26337785 -0.30321747
0.0004944207 -0.034342993 0.05113913 -0.20461051 -0.04142753 0.1393507 -0.28201228 0.06677486
-0.020936633 -0.015705703 -0.037062284 0.0565959 -0.26678818 -0.07408086 -0.15658258 -0.061724078
-0.029313736 -0.26833177 0.13300431 -0.17893243 0.102199815 -0.0834532 -0.121673904 -0.14138208
-0.061909102 -0.08022664 -0.13733386 -0.063310735 -0.07355537 0.014673412 -0.23517193 -0.19633369
-0.022685666 -0.017868334 -0.16313997 -0.06399013 0.06437145 -0.1929504 -0.2144111 -0.043764416
-0.12512295 -0.27449095 -0.25202617 -0.15569833 0.06953056 -0.044730045 -0.12923422 -0.17643817
-0.21075827 -0.102703504 0.037100878 -0.21870099 0.10422446 -0.18176445 0.048862822 -0.2348621
-0.067987 0.02348687 -0.38023216 -0.25603807 -0.14200391 -0.13945846 -0.2292628 -0.29707906
-0.0033886514 0.11122317 0.008974468 -0.17575979 -0.18209206 0.15130082 0.05821447 -0.11593367
-0.28206423 -0.0921128 -0.15320274 -0.15435426 -0.019091828 -0.045732927 -0.14486322 -0.11679848
0.0035319878 -0.18976358 -0.098198466 -0.119112805 -0.38579765 0.087831356 -0.14371061 -0.08144041
-0.13722613 0.054618187 -0.09250773 -0.21768542 -0.13068922 -0.11114007 -0.03772222 -0.10993296
-0.122073084 -0.14552167 -0.1930301 -0.18726388 -0.2127189 -0.01081662 0.07422014 -0.12841268

network.4.bias f4 [64]
00000000: c59d 24be 2571 e5bd 084f 50bc 58bd 8fbd
00000010: c0d8 afbb 5ca9 8cbd f89e 59bd c5f5 c6bb
00000020: 4ca5 303d 070b d6bd f8db fc3d a5ac f1bd
00000030: 9e0b 0f3e adb5 033d ee9c 35be 4063 dd3d
00000040: b031 453c e106 633d f898 e73d 2690 7a3e
00000050: 5a6e 603e 702b 853c d947 0c3c 0dfd 123e
00000060: 0143 06bc ffa5 16be c645 85bc f258 d03d
00000070: 84ca 58ba 4fc6 953e 45d1 323e b799 d73d
00000080: 58a4 bbbc 7f32 883d d96b debd 5e7a 793c
00000090: 31f6 883d 7d08 b53d 0fd7 0bbd a05e 643e
000000a0: 4434 4a3e ab2d 0c3d 63a2 9d3d 6745 df3b
000000b0: ca83 943e ed43 063c a232 cb3d 5508 82bb
000000c0: 948f d93d b28b 85be d4c7 c83d df95 f6bd
000000d0: 4046 2fbe 3e77 07be b443 05be 3c5d b53d
000000e0: 0362 c73d a721 123d 130d 213e 339f 853c
000000f0: 76ee 423d d708 ebbd c8c7 673c fdbd 273e
-0.1607581 -0.11203221 -0.012714155 -0.07018536 -0.005366415 -0.0686824 -0.05313012 -0.0060717785
0.04312639 -0.10451322 0.12346643 -0.118005075 0.13969275 0.03215568 -0.17735645 0.10809946
0.012035772 0.055426482 0.11308473 0.24469051 0.21917096 0.016256064 0.008562052 0.14354344
-0.008194686 -0.1471176 -0.016268622 0.10173215 -0.0008269923 0.2925286 0.17462642 0.10527366
-0.022905514 0.06650256 -0.10860414 0.0152269285 0.06687582 0.0883951 -0.034140643 0.22301722
0.197465 0.03422324 0.076969884 0.0068136933 0.29006797 0.008194906 0.09921767 -0.0039682784
0.106230885 -0.26083142 0.09803739 -0.120403044 -0.17116642 -0.13229081 -0.13014108 0.08855674
0.09735491 0.035676625 0.15727644 0.016311264 0.047590695 -0.114762954 0.014146753 0.16381069

network.5.weight f4 [64]
00000000: abce 763f ff09 5f3f 0a9d 503f 6c9a 203f
00000010: b262 433f 90fd 5e3f 43c2 6b3f 7a30 493f
00000020: cf21 8e3f 761e 603f 4807 7a3f ee61 7f3f
00000030: effd 3e3f fd25 0c3f 3dbf 4d3f 62ca 823f
00000040: 7bfd 6e3f 3d3e 873f daf0 473f a63a 713f
00000050: 2a57 7c3f 12f2 8d3f 6d79 833f 63b1 533f
00000060: 2074 413f 52db 4c3f 378f 253f 7615 573f
00000070: 6d93 543f 1a36 453f fd32 6e3f 0142 7e3f
00000080: 251d 7a3f a4da 0d3f 33a3 813f 4c6c 633f
00000090: 0051 523f 957b 3d3f a0db 363f f4cd 593f
000000a0: 65ce 773f 8b55 963f 7067 743f b660 a23f
000000b0: 4a23 533f ac94 6a3f 6993 7c3f 14c9 713f
000000c0: 042f 643f 00da 5f3f 00f3 373f 2c9f 403f
000000d0: 8c80 6c3f 5a66 6a3f 93cb 813f c0e8 883f
000000e0: 4a5d 843f db13 313f 9140 763f c7e3 403f
000000f0: af0f 603f eab8 2e3f 47e7 823f 69ac 893f
0.964091 0.8712463 0.8148962 0.6273563 0.7632247 0.87105656 0.92093295 0.78589594
1.1104068 0.8754648 0.9766736 0.99758804 0.7460622 0.54745466 0.8036993 1.0218012
0.9335553 1.0565869 0.78101885 0.94230115 0.985705 1.1089499 1.0271431 0.82692546
0.7556782 0.80022156 0.64671654 0.8401712 0.83037454 0.7703568 0.9304655 0.99319464
0.9770072 0.55411744 1.012793 0.8883712 0.82154846 0.74016696 0.7142887 0.85079885
0.9679931 1.1744856 0.95470333 1.2685764 0.8247572 0.91633105 0.9866243 0.94447446
0.8913424 0.87442017 0.71855164 0.75242877 0.92383647 0.91562426 1.0140251 1.069603
1.034097 0.6917092 0.9619227 0.7534756 0.8752393 0.68250906 1.022683 1.075574

network.5.bias f4 [64]
00000000: 85b8 6fbe b1eb 01bf bb9c 03be 9b32 8bbd
00000010: 029d 35be 6352 0cbe 8b9d 86be a1db b8be
00000020: 46b1 2ebf 4c8a 43be 6d2d 4dbf 9991 40bf
00000030: dfb0 87be 8662 06be 031e 0bbe 5fe0 78be
00000040: ad07 00be c431 94be 4794 26be 589d 7fbe
00000050: 7a1e 58bf 3db2 10bf 6c11 54be 08d6 08bf
00000060: c480 9fbe ef4c 30bf cdb3 3cbe 7b1f e3be
00000070: d5b9 bbbd 4d53 01be f69d 1abf a80e 20bf
00000080: 5748 79be e680 52be cf88 0dbf e4c8 58be
00000090: b90e 86bd 6c10 50bf 1bf1 84be ab7b 38bf
000000a0: dfa8 51bf c07c 13bf 88da 32bf b45a 35bf
000000b0: 906e 46be b1d7 46bf 9596 00bf a6c7 a8be
000000c0: 1990 38bf a20f b8bd 71d8 2cbe 1d7f 1fbe
000000d0: 474d 9abe 0463 9bbe d6a2 5cbf 7775 e7be
000000e0: 0e05 6bbe 647a 5cbf 6df6 e0be ed05 62be
000000f0: 2750 cabe 9b87 1dbe f29c 64bf 79d4 2cbf
-0.23410232 -0.5075026 -0.12852757 -0.067967616 -0.17735675 -0.13703303 -0.2629207 -0.36105064
-0.6823925 -0.19095725 -0.8014744 -0.75222164 -0.2650213 -0.13123521 -0.13585667 -0.24304341
-0.12502928 -0.28944218 -0.16267501 -0.24962366 -0.84421504 -0.5652197 -0.20709771 -0.53451586
-0.31152928 -0.6886739 -0.18427964 -0.44359955 -0.09166304 -0.12629433 -0.6039728 -0.62522364
-0.24344002 -0.20556983 -0.5528688 -0.21170384 -0.06545777 -0.8127506 -0.259652 -0.720637
-0.818983 -0.5761223 -0.698647 -0.70841527 -0.19378114 -0.7767287 -0.5022977 -0.3296482
-0.72094876 -0.08987357 -0.16879441 -0.15575834 -0.30137083 -0.3034898 -0.8618597 -0.45206806
-0.22951147 -0.86124253 -0.43938008 -0.22072573 -0.39514276 -0.1538376 -0.8930198 -0.6751171

network.5.running_mean f4 [64]
00000000: b0a6 40c0 33f1 9bc0 77f4 563c b532 2740
00000010: 2934 0e40 298e b0bf efdf 0fc0 e96a 3cc0
00000020: 9862 633e 51a5 01c0 060d f1bd ccd6 34be
00000030: 5fee 7bc0 5c9b 613f d4d9 aebd 4653 dabf
00000040: 92b6 0dc0 f6b8 dfbf b6c6 16c0 d9c9 a0bf
00000050: 85df da3e e9cb 91bf 08dc 0ec0 fad3 ec3e
00000060: 9400 ac3f 24ec f73b 953c 1b40 60e6 813f
00000070: f303 b63d 4933 4dc0 8e0b 68bf f4e1 253f
00000080: 8803 bfbf 7604 c43f c535 d2bf ba63 2bc0
00000090: b86f 6dbf e420 3b3f f710 a03f 94d3 f73d
000000a0: 1167 2f3e 888e c3bf 618b 423e 182b cdbe
000000b0: 5982 8cbf 8c2f 263e 6a3e 08c0 7df5 35c0
000000c0: 9e33 ea3c 31a9 8cbf 1648 1dc0 059d 1bc0
000000d0: 2aa1 99c0 aa00 96c0 600b 51be 5ece c7bf
000000e0: 70c8 9dbf 0892 343f b671 aebe cbec 5dc0
000000f0: 42f7 4dbe 0d15 0140 00ca 193e a385 93bf
-3.0101738 -4.8731933 0.013119808 2.61247 2.2219336 -1.3793384 -2.2480428 -2.9440253
0.2220558 -2.025715 -0.11770062 -0.17660064 -3.936424 0.88127685 -0.08537641 -1.7056663
-2.2142682 -1.7478321 -2.3558784 -1.2561599 0.42748657 -1.1390353 -2.2321796 0.46255475
1.3437676 0.007565992 2.4255726 1.014843 0.08887472 -3.2062552 -0.9064263 0.647979
-1.4922953 1.5313861 -1.6422659 -2.6779618 -0.92748594 0.7309706 1.2505177 0.12100902
0.1712916 -1.5277872 0.18998481 -0.4007194 -1.0977279 0.16229075 -2.1288095 -2.8431084
0.028589066 -1.0989133 -2.4575248 -2.4314587 -4.8009233 -4.687581 -0.20414495 -1.5609853
-1.2326794 0.70535326 -0.3407113 -3.4675777 -0.20113853 2.0169098 0.15018463 -1.1525158

network.5.running_var f4 [64]
00000000: 4eac cc40 6f2f 4841 1d4d 0440 734a f640
00000010: b49e 2f40 1465 8640 8d1e 8040 0289 d940
00000020: c0c2 963f ccd8 a540 771e 743f 3fbb 7c3f
00000030: 6ea0 4241 0f27 f63f d93c 893f 503b 1c40
00000040: e15d 9d40 51e5 da3f 986a a340 9e59 0940
00000050: 45e0 943f 3ce2 8d3f 5a1c 8d40 7790 3a3f
00000060: 14be de3f 691e 913f 886a 9640 da5c 913f
00000070: 6b28 d23f 8848 1b41 5a91 8e3f 0955 a03f
00000080: fdd8 ac40 beea 0641 375f 7f3f 929d a040
00000090: cdeb 5940 6f29 a43f c854 0d40 bb82 893f
000000a0: 41c9 833f 37e5 a33f f50c 823f 8544 893f
000000b0: 426a 7a40 b34c 903f 087f 0d40 1f98 8b40
000000c0: 49d9 7b3f fd56 6440 7927 9b40 44da b140
000000d0: f516 3e41 60d6 5f41 f2e6 8d3f 6782 bd3f
000000e0: 91ec 9e3f 3c70 a03f e260 113f efa7 1541
000000f0: abe4 ed3e 407c 2441 4470 983f 3efe 643f
6.3960333 12.51158 2.0672066 7.696588 2.7440615 4.1998386 4.0037293 6.7979746
1.1778183 5.1827145 0.95358986 0.98723215 12.164167 1.923067 1.0721694 2.4411201
4.91771 1.7101232 5.106762 2.1460948 1.1630942 1.1084666 4.409711 0.72876686
1.7401757 1.1337405 4.7005043 1.1356461 1.6418585 9.705208 1.1138108 1.2525951
5.401488 8.43231 0.9975466 5.0192347 3.4050171 1.2825145 2.2082996 1.0743021
1.0295793 1.2804326 1.0160204 1.0724036 3.9127355 1.1273407 2.2108784 4.3623195
0.98378426 3.5678093 4.8485684 5.5578938 11.880605 13.989838 1.1086104 1.4805421
1.2415944 1.2534251 0.56788456 9.353499 0.46463522 10.280334 1.1909261 0.8945044

network.8.weight f4 [32, 64]
00000000: d4d2 773c 1346 a6bd fb2a f13d 23cf d13c
00000010: f17a 1ebd 984f 293e 336e babb ab1c 11be
00000020: a81f 41be b6dc f83d 31c1 19bf 7781 14bf
00000030: 61da c7bc 428f 12bd 157b 423e 13de 45be
00000040: 92e4 2b3e 2432 b8bd 4c3b ac3d 5788 47be
00000050: fbb7 f2be 5d84 e1bd bca5 343e 3b4f 353e
00000060: 5d0f 87be c5b4 b5be 0010 7a3c beb1 2abe
00000070: 2d46 df3d 2b03 bb3c 151a f73c ea51 6ebe
00000080: 577d 9e3d 3340 c33d fdf9 0bbe 06d9 103e
00000090: eb30 063e e3f9 1f3e 3224 04be 0ec8 fdbe
000000a0: 6cfb bfbe 1716 60bd 3a08 abbe 89e3 37be
000000b0: bdf7 d83d fd28 f3be 6bdb 5cbe 55e0 f03c
000000c0: 9775 bfbe fb38 c73d f787 b43d fb9d c23b
000000d0: a694 5d3d 7a92 a5bc 916b 06bf 040f 0ebe
000000e0: 53b2 4bbd 92ba 263e 3d84 a4bc fc99 963c
000000f0: 6657 0cbe cc25 94bd 4d98 dcbe b14a 0fbe
00000100: acb3 373d 8fb7 70ba 58a9 083e a8ed 8f3d
00000110: 4c78 1cbd 5cf6 143e 64c4 a43d 2c11 b9bd
00000120: 6eba 47be 2c9e c43d 11a9 febe 4d93 d4be
00000130: a5d2 a6bc dc18 3fbe b4e9 553e facc 89be
00000140: a659 0c3e b5ee bebd 58a5 2d3d 5038 4cbe
00000150: dce9 e7be 8431 8ebd 4a86 493e 2049 4c3e
00000160: f09f bbbd 5a06 cbbe 33cf e0bc 1f7d b73c
00000170: 1df6 193e bfb3 683d 77f4 4cbd 4b41 bdbe
00000180: 8aa3 f73d 3866 1abd a6b7 8e3c 24e8 f73d
00000190: 0608 fa3d 3fc5 1b3e e14a 9dbb 0ccc d7be
000001a0: 21ef 0fbf 76a2 0abe 03dd c0be a8b4 97be
000001b0: 5955 323e c82e 01bf 57e8 1cbe 27f3 833d
000001c0: 5f35 d3be 9512 8f3d 6662 043e 79be 98bb
000001d0: 8f92 793d 1ae7 373c 021b 1ebf 0252 efbd
000001e0: 4dc1 0bbe 0d6c 213e 0d52 53bd 9b9e 01bd
000001f0: 7763 053d ca2c 763d 3768 00bf 5e62 1bbe
00000200: dea5 333e d542 293d 9c3e 983d 0624 6c3b
00000210: a4e8 c8bc 8a20 e53d 3430 bb3d 2ad2 bdbd
00000220: e807 87be 8f46 b23d f3ea 28bf f2a3 94be
00000230: 4971 6bbd dd18 01be 7121 583e 4d8c 55be
00000240: 2595 b03d 5a6b bbbd bb9c 903d 397d 73be
00000250: 4dcf c2be d747 acbd 465e 9f3d aa22 9a3e
00000260: abb7 92be 2c64 f8be 26df ce3c 25a3 b8be
00000270: 2cf9 2f3e 9939 f73c fdd0 5cbd 6709 05be
00000280: 05f6 1b3e d5bf c6bd 4203 debd ec45 bd3d
00000290: fc42 a83d 32ed a33d 73ff 5ebe 8fec b1be
000002a0: fa7a bfbe 5231 35be 216d c2be eeec 06be
000002b0: 281f 343d d127 97be d494 22be d0b7 1d3d
000002c0: 3265 d2be 321b e13d 79b4 b43d 28e7 ca3c
000002d0: 8bae 4f3d 68b8 293d 2e14 04bf d0f8 6dbe
000002e0: a015 8abd cbe0 063e ca42 63bd 840d 39bd
000002f0: 8e57 c3bc 009e b13d fe24 11bf 9fa2 913b
00000300: c2c4 84be 1231 79be caec f2bd d676 c43d
00000310: 348a 313e a8d3 9dbe 11fd 31be b0a2 5dbe
00000320: f73b 4d3d a224 87be 9c4b 153d a9e1 9a3d
00000330: d95d 26be 4816 c43d b542 79bd e14d 2a3e
00000340: e4aa 7dbe 0f3f c53e a4b2 44be 56d3 cd3d
00000350: 3fb7 3a3d 05d5 9d3e 6e2c b9be 9b7c 253d
00000360: a166 1b3e 043d 3ebd c4f5 bf3d 5119 683d
00000370: 946e a4bd d9ac 3fbe 2862 983e f887 bf3d
00000380: ea80 79be bf61 5d3d 74e5 843e 560a 89be
00000390: 57f1 36be f2a5 7d3e 9d29 963d d0a2 4b3c
000003a0: 7965 803d 4b7d fd3e ecc2 863d ead2 e43c
000003b0: af89 63be cc9d 3f3d 8b54 9c3e 6269 9cbe
000003c0: 380c aebc 2dc4 63be d058 8dbe 9ca6 2bbe
000003d0: 7daf 47be bbfb 51be f111 cabb bfbe 933e
000003e0: 69bd 6a3e 6c79 713e 73f7 5b3e 7eae 02be
000003f0: b070 853e 4db4 9e3d 2ac1 023d 5bd9 c13e
0.015125949 -0.08118834 0.11775776 0.025611466 -0.038691465 0.16534269 -0.0056894063 -0.14171092
-0.18859732 0.12151472 -0.6006041 -0.5801005 -0.024396123 -0.035781153 0.18992265 -0.19322996
0.16786411 -0.089939386 0.084097475 -0.19485603 -0.4740599 -0.110115744 0.17641348 0.17706005
-0.2637891 -0.3548948 0.015262604 -0.16669366 0.10902057 0.022828659 0.030163804 -0.23273435
0.077387504 0.095337294 -0.13669582 0.14145288 0.13104598 0.15622668 -0.12904432 -0.49566692
-0.37496507 -0.054708567 -0.33404714 -0.17957892 0.10594127 -0.4749221 -0.21568076 0.029403845
-0.373944 0.09727665 0.08814996 0.005939243 0.05409684 -0.020211447 -0.52507883 -0.13872916
-0.04973061 0.16282108 -0.020082587 0.018383972 -0.13705215 -0.07233772 -0.43084946 -0.13993336
0.044849083 -0.0009182626 0.1334585 0.07027751 -0.03820066 0.14547104 0.08045271 -0.090364784
-0.19504711 0.096004814 -0.49738362 -0.41518632 -0.020364115 -0.18661827 0.20889932 -0.26914197
0.13706073 -0.093228735 0.042394012 -0.19943357 -0.45295608 -0.06943038 0.19680133 0.1994977
-0.09161365 -0.39653283 -0.02744255 0.02239853 0.15035291 0.056812044 -0.050037827 -0.36963877
0.120917395 -0.03769514 0.017421555 0.12104824 0.122085616 0.15211962 -0.004800186 -0.42147863
-0.56224257 -0.13538536 -0.3766862 -0.29630017 0.1741537 -0.5046201 -0.15323006 0.06442862
-0.41251656 0.06985966 0.12928161 -0.004661378 0.060930785 0.0112245325 -0.6175996 -0.116855636
-0.13647957 0.15763874 -0.05159192 -0.0316454 0.03256556 0.060101308 -0.5015902 -0.15174243
0.17543742 0.0413235 0.07433817 0.0036032214 -0.024524994 0.11187847 0.091400534 -0.09268601
-0.2637322 0.08704864 -0.65983504 -0.2903133 -0.057481084 -0.12607141 0.21106507 -0.20854302
0.08622197 -0.09151335 0.07061144 -0.23778237 -0.38048783 -0.0841214 0.07781653 0.30104572
-0.28655753 -0.48513925 0.02525289 -0.3606197 0.17184895 0.030178832 -0.053910244 -0.12991868
0.15230568 -0.09704558 -0.10840465 0.09241852 0.08215901 0.08004226 -0.21777134 -0.34750792
-0.3739851 -0.17694595 -0.37973884 -0.13176319 0.043975025 -0.29522565 -0.15877086 0.038505375
-0.4109283 0.10991515 0.08823485 0.024768427 0.050703567 0.04143563 -0.5159329 -0.23239446
-0.06742406 0.13171689 -0.055483617 -0.045178905 -0.02384546 0.08672714 -0.5669707 0.004444435
-0.25931364 -0.24335125 -0.1186157 0.09592979 0.17337877 -0.30825543 -0.17381693 -0.21644092
0.050106015 -0.26395136 0.03644906 0.075625725 -0.16246738 0.09574562 -0.060854632 0.16631271
-0.24772221 0.38524672 -0.19208771 0.10050075 0.045584913 0.30826584 -0.3616671 0.040402036
0.15175869 -0.046444908 0.09373048 0.05666477 -0.080289036 -0.1871828 0.29762387 0.09352106
-0.24365583 0.054048296 0.2595631 -0.26765698 -0.17865501 0.24770334 0.07332156 0.012428954
0.062693544 0.49509653 0.06580147 0.027932603 -0.22220491 0.046781346 0.3053325 -0.3054915
-0.02124606 -0.22242804 -0.2760682 -0.16762775 -0.19500537 -0.20506184 -0.0061666896 0.28856465
0.22923817 0.23581475 0.21481113 -0.12761876 0.26062536 0.077492334 0.031922497 0.37861142

network.8.bias f4 [32]
00000000: 212f 3cbf c909 6ebf 7416 08bf efe8 62bf
00000010: 2c98 86bf 1692 78bf 2ad5 36bf f068 2fbf
00000020: fb40 34bf faae 90bf 108e babf d497 58bf
00000030: 3d93 85bf a299 f1be 4059 ebbe 9214 8cbf
00000040: f2aa 89bf 118c 03bf 222d 56bf 1337 75bf
00000050: 4481 81bf e2fa 7fbf 38d8 66bf f66b 9cbe
00000060: 663a 7abf a81c 77bf 9a76 0cbf 646d 5bbf
00000070: 2fd2 48bf cb61 0cbf be33 1abf 3e35 d8be
-0.73509413 -0.9298368 -0.5315926 -0.8863668 -1.0515189 -0.9709791 -0.7141901 -0.68519497
-0.7041165 -1.1303399 -1.4574604 -0.8460667 -1.0435559 -0.47187525 -0.4596653 -1.0943778
-1.0755293 -0.513856 -0.8366262 -0.9578716 -1.0117574 -0.9999219 -0.90173674 -0.30551118
-0.9774536 -0.965281 -0.5486847 -0.8571379 -0.78445715 -0.5483672 -0.602352 -0.4222812

network.9.weight f4 [32]
00000000: 8650 0b41 9561 0e41 9b03 0d41 6b20 0e41
00000010: d077 0d41 3c4e 0b41 77c1 1241 2193 0c41
00000020: 3b27 1341 3ac0 1341 d18e 1141 ee0c 1341
00000030: dcd7 0f41 7d9d 1341 d231 1041 3ec5 1041
00000040: d64e 0f41 2eb1 1041 8ec7 1141 21a1 0c41
00000050: 6196 1141 a1ff 0f41 ec4c 0c41 709d 1041
00000060: aaf7 1341 7c5c 0e41 1297 1141 6b1a 0f41
00000070: d8c4 0f41 76d9 1141 ee7c 1341 e4ee 0e41
8.707159 8.898824 8.81338 8.882915 8.841751 8.7066 9.172233 8.78592
9.197078 9.23443 9.097367 9.190657 8.9902 9.225949 9.012163 9.048155
8.956747 9.043257 9.111219 8.789338 9.099214 8.999909 8.76878 9.038437
9.247965 8.897579 9.099382 8.94395 8.985558 9.115591 9.218 8.933323

network.9.bias f4 [32]
00000000: ccd4 0641 e9e0 0941 2fbc 0841 a285 0541
00000010: f725 0741 d22d 0441 5068 0941 5932 0641
00000020: 6e09 0a41 68eb 0841 e674 0a41 0de9 0941
00000030: 367a 0a41 206d 0a41 ceb6 0741 dcf9 0a41
00000040: b617 0641 e260 0b41 b946 0841 c849 0741
00000050: 058f 0b41 e9f6 0a41 58b7 0641 efa9 0741
00000060: c441 0a41 820e 0841 9a1c 0841 e4d6 0841
00000070: c236 0b41 ac27 0841 fa8f 0a41 3e2d 0a41
8.426952 8.61741 8.545943 8.345125 8.446769 8.261187 8.587967 8.387292
8.627302 8.557472 8.65354 8.619397 8.654837 8.651642 8.48213 8.686001
8.380789 8.711153 8.517266 8.455513 8.722417 8.685281 8.419762 8.478988
8.641056 8.503542 8.506983 8.552464 8.700869 8.5096855 8.660151 8.636045

network.9.running_mean f4 [32]
00000000: 9a07 c3bf eedb cebf 2e55 a3bf be06 97bf
00000010: 6569 ddbf de93 d0bf b91d 99bf 3c13 b2bf
00000020: ed5a 8fbf d6ff 15c0 71f2 0bc0 1fdd 8ebf
00000030: d6de efbf bc85 60bf f066 4bbf c60f e3bf
00000040: a062 c7bf e8b7 91bf a210 a0bf a118 dbbf
00000050: 7d48 dbbf 5c9f dcbf b518 d5bf 5992 27bf
00000060: 6788 b1bf 0a92 efbf 4282 56bf 257e c7bf
00000070: a879 c6bf 36c1 66bf 52e4 70bf b7a5 95bf
-1.5236695 -1.6160867 -1.276037 -1.1798933 -1.7297789 -1.6295125 -1.1962196 -1.391212
-1.1199623 -2.34374 -2.1866724 -1.1161231 -1.8739879 -0.8770406 -0.79453945 -1.7739189
-1.5576973 -1.1384249 -1.2505076 -1.7116891 -1.7131497 -1.7236133 -1.6648165 -0.65457684
-1.3869752 -1.8716443 -0.8379251 -1.5585371 -1.5505877 -0.90138566 -0.9409839 -1.1691197

network.9.running_var f4 [32]
00000000: 4fb6 0f41 2f59 1841 ccbc 0741 7327 8240
00000010: c3b8 0b41 3cb5 f740 39af 9e40 bb4a 1141
00000020: 8252 9840 cf20 6740 6923 c440 9f0e 6d40
00000030: af2d 3241 2f5d 8540 6958 8140 a0e9 e940
00000040: 5736 9440 fe80 1d41 d5c2 9840 400f f540
00000050: 82cb c040 e713 1741 6209 0841 032d 9040
00000060: 7653 9a40 e36a 2741 0af3 5e40 6c1b f440
00000070: 65c2 1341 28f8 8e40 946b 8340 e49d 1641
8.982009 9.521773 8.483593 4.0673156 8.732608 7.7408733 4.9588895 9.080745
4.7600718 3.6113775 6.1293225 3.7040174 11.136153 4.167625 4.0420423 7.3097687
4.6316333 9.843992 4.773783 7.6581116 6.0248423 9.442359 8.502291 4.5054946
4.822688 10.463595 3.483584 7.6283474 9.23496 4.4677925 4.106882 9.4135475

network.12.weight f4 [4, 32]
00000000: 5397 c440 bcdd cd40 1c14 c740 ea5a d840
00000010: 3d8e c340 f559 d240 f7ad d840 e049 c240
00000020: 4c75 d340 99dd d840 f47d c040 e5a0 cd40
00000030: 7afa bc40 b47b c840 a3ad dd40 7080 c640
00000040: 3c64 d940 0a19 bc40 c4d5 d940 aeee d040
00000050: 836a c640 dd2f c240 93f9 c540 95b9 e040
00000060: bd62 c840 8c7c c340 2003 d840 9bf5 c440
00000070: d571 bc40 ab29 dd40 acb4 da40 bf2d c740
00000080: f8f2 ae40 1ba8 9f40 de7b 9c40 8d35 bc40
00000090: 1b4b 9f40 fdeb ab40 3969 ce40 6cf1 ab40
000000a0: bd1b ce40 bb6b bf40 a415 a140 99b1 cc40
000000b0: f5f6 a340 ced9 cd40 0925 bb40 5763 9d40
000000c0: 46cc cf40 dd2c aa40 d0b7 c140 2402 a340
000000d0: 9fb3 9e40 6c70 a240 26a2 a240 5c49 c940
000000e0: 6b07 ca40 d924 aa40 3a03 c640 4749 b240
000000f0: 6dc9 9a40 83a0 c340 10ec c540 ced6 9940
00000100: 8556 0641 6212 fb40 7022 0141 fd8d 0741
00000110: 6d89 0641 1cf9 fc40 b035 fa40 02e7 0141
00000120: 3bcf fe40 0675 fb40 7294 0441 3509 0641
00000130: 2dd1 fd40 4335 0741 05b2 0041 b92d 0641
00000140: 339a 0541 9425 f640 fdc1 0641 e83b 0241
00000150: 08bc 0541 1d05 0241 7e54 fc40 21f6 0341
00000160: 261d 0741 5a3c 0341 ff9d fe40 58ec 0141
00000170: d861 fe40 13d0 0441 082f fc40 95ce 0241
00000180: 7647 0941 4bd4 0841 6e11 0b41 872d 0a41
00000190: 4429 0341 8525 0441 480b 0541 254e 0441
000001a0: 38c4 0341 cb56 0641 6d3f 0341 c768 0141
000001b0: d58a 0641 c8a6 0141 df10 0941 2601 0341
000001c0: e164 0741 8cdd 0741 d051 0141 d512 0a41
000001d0: 9be6 0241 5d9f 0441 1dc9 0541 c4cd 0441
000001e0: 78f8 0141 d8f2 0341 1ff6 0441 c0b1 0241
000001f0: 9e98 0841 e844 0141 4292 0441 c88e 0641
6.143472 6.433317 6.2212048 6.761098 6.111113 6.573481 6.771236 6.071518
6.6080685 6.7770505 6.015375 6.4258904 5.9055758 6.2651005 6.927446 6.2031784
6.7934856 5.8780565 6.8073444 6.5291357 6.200502 6.0683427 6.1867156 7.022654
6.262053 6.1089535 6.7503815 6.154981 5.8888955 6.9113364 6.8345547 6.2243342
5.4671593 4.9892707 4.8901205 5.881537 4.977918 5.372557 6.4503446 5.3732204
6.440886 5.9819007 5.0338917 6.3966794 5.123896 6.4328375 5.848271 4.9183764
6.4936857 5.3179765 6.053688 5.0940113 4.9594264 5.0762234 5.0822935 6.290205
6.3134055 5.316998 6.187894 5.571445 4.837088 6.1133437 6.185066 4.8074713
8.396123 7.845994 8.070908 8.472165 8.408551 7.905409 7.8190536 8.118898
7.9627967 7.858035 8.286242 8.377248 7.931784 8.450503 8.043462 8.386163
8.350146 7.692087 8.42236 8.139626 8.358406 8.126248 7.885314 8.24759
8.444616 8.202234 7.9567866 8.120201 7.949444 8.300799 7.880741 8.175435
8.5799465 8.551829 8.691755 8.636115 8.197575 8.25916 8.315254 8.269078
8.235405 8.39619 8.202985 8.08808 8.408895 8.103218 8.566619 8.18778
8.462129 8.491589 8.082474 8.629598 8.1813 8.288907 8.3616 8.300236
8.123161 8.246788 8.310088 8.168396 8.53726 8.079323 8.285707 8.409859

network.12.bias f4 [4]
00000000: ee2c 9e40 cc6f 8a40 4836 cb40 bf07 d440
4.9429846 4.326147 6.350376 6.6259456
