soil_salinity_multi_sensor/outputs/models/stage1/stage1_epoch_50.pth (torch, 72297 bytes, 20 tensors)

network.0.weight f4 [128, 36]
000000 97 d3 21 3e ff 03 04 3e a3 cc 05 3f 91 9b 7f 3e
       0.15803371 0.1289215 0.52265376 0.24961688
000010 28 6d 95 3d e1 aa 23 3d 20 08 c9 3d 20 87 a3 bd
       0.072962105 0.039957885 0.09816003 -0.079847574
000020 12 c4 d6 3d 0e f1 65 be 6b ba 58 3e b0 e8 d0 3d
       0.10486616 -0.22455236 0.21164863 0.102006316
000030 30 a3 56 3e 81 e1 0e 3e a6 a7 25 3d 8d e2 36 be
       0.20960689 0.1395321 0.040443085 -0.1785986
000040 10 eb 96 3e 58 34 33 3e c4 cb dd 3e 54 0f 1c 3f
       0.29476213 0.17500436 0.43319523 0.6096089
000050 6e 52 f1 3d d0 e5 0c be 3f ed 33 bd 2f 1a ab 3d
       0.117833 -0.13759542 -0.043927427 0.083546035
000060 b9 86 c0 3e 4f 41 8c 3e e0 51 e9 bc 77 45 2f bd
       0.37602785 0.27393577 -0.028481424 -0.042790856
000070 38 43 32 be b0 bc 19 3e c3 b7 de be a3 69 f0 3e
       -0.17408454 0.15013385 -0.43499574 0.46955594
000080 27 75 35 3e 63 5c 2b be e4 23 d0 be 64 fc 1f 3d
       0.17720471 -0.16734461 -0.40652382 0.039059058
000090 06 4e 09 3e d4 23 0d 3d df 95 ce 3d df c4 51 3e
       0.1340867 0.034457996 0.100871794 0.20485257
0000a0 b4 03 37 3c 4a 10 89 3d ae 76 48 3d 6a f1 17 3e
       0.0111703165 0.0669256 0.048941307 0.14838186
0000b0 d2 c9 1b be 8f a9 c6 3d 1f df 05 bd 54 a9 df bd
       -0.15213707 0.097003095 -0.032683488 -0.10920969
0000c0 ce 5e ab bd 5b aa 2e be af 4e 10 3e 21 92 8f 39
       -0.08367692 -0.17057173 0.14092515 0.0002738396
0000d0 6f 3d 44 3e df 93 0a 3e b8 cd 77 3c 48 6b 53 3c
       0.1916406 0.13532971 0.015124731 0.012903996
0000e0 8f 65 a1 3c 49 e8 a7 bd 9f 7c 2b 3e 62 2d c4 3d
       0.019701747 -0.08198602 0.16746758 0.095789686
0000f0 74 d6 a5 3d d0 34 12 3e a6 b0 79 be d2 16 59 3e
       0.08097544 0.14277959 -0.24383792 0.21200112
000100 de bd 4e bd 99 e3 dc bd 55 67 99 be 04 07 4b 3e
       -0.05047404 -0.10785598 -0.2996165 0.19826895
000110 01 0b 43 3e 5e e8 fb bc 42 56 a2 be 39 bd 8e 3d
       0.19047166 -0.03075045 -0.31706434 0.06969685
000120 13 a1 ce 3e 55 39 dd 3e 86 8e a8 3e d2 5c ff 3e
       0.40357265 0.43207803 0.32921237 0.49875504
000130 0a 7f 58 be 4c c2 1e 3a 13 3c 02 be 1b c5 13 bd
       -0.21142212 0.0006056174 -0.12718229 -0.036076646
000140 30 9a 43 3c 97 81 49 3e 51 7a 86 3e 00 27 98 3e
       0.011938617 0.19678341 0.26265195 0.29717255
000150 cf 53 70 3e c3 fb 56 3e 10 1a ba bc 4e c3 ba 3d
       0.2346947 0.20994477 -0.022717506 0.09119283
000160 e5 a3 df 3e ca 3b 14 3f 36 83 98 3e 25 e0 14 3f
       0.4367973 0.5790373 0.29787606 0.5815452
000170 22 5a 21 3d 74 ee 17 bd 4c a8 34 3c 42 7f 18 3d
       0.039392598 -0.03709264 0.011026453 0.037230738
000180 d7 ea 81 bc 96 4b c4 bd fd ab 0e be f8 a1 ae bc
       -0.01585905 -0.095847294 -0.13932796 -0.021317467
000190 e2 08 c7 3d c6 7a 64 3e 9e df 29 bf 30 53 04 3f
       0.09718491 0.2231246 -0.6635684 0.51689434
0001a0 6b ef 10 3d 16 32 a3 3d ee c4 e4 be 05 b8 c2 bd
       0.035384577 0.079685375 -0.44681495 -0.09507755
0001b0 e2 e6 aa 3e f0 44 02 3f 67 92 c3 3e 35 28 14 3f
       0.33379275 0.5088644 0.38197634 0.5787385
0001c0 f1 b3 88 3d f5 84 9e 3c f7 a3 ef bd f1 b7 13 be
       0.06674946 0.019350508 -0.11701196 -0.14425637
0001d0 4f dd ea 3d ba 46 e2 3e ff 1a bf 3e 13 4a af 3e
       0.114679925 0.44194585 0.37325284 0.34236202
0001e0 5c 88 a1 3e 0f 30 ac 3e 39 70 b1 3d ed 9b ca bd
       0.31549346 0.33630416 0.08663983 -0.09893022
0001f0 f4 c7 0d 3f f9 0c b3 3e 91 77 3a 3f 95 87 1d 3f
       0.5538323 0.34970835 0.72838694 0.61535007
000200 ba df 22 3e 64 8f 27 be af 4c c8 bd 56 b2 5f bd
       0.15905657 -0.16363293 -0.09780251 -0.054613434
000210 6c 5e b8 3e 66 bf ac 3e 5f 8b 30 be c0 83 0b 3d
       0.36009538 0.33739775 -0.17240666 0.034061193
000220 92 08 e8 bd fd 4d b4 bd d0 ad 25 3d 28 e2 85 3e
       -0.1132976 -0.088039376 0.040448964 0.26149106
000230 cb a7 a2 3c 74 6f 3a 3e f7 c6 8f be ae f5 f5 bd
       0.0198554 0.18206578 -0.28081486 -0.1200975
000240 f1 24 87 bb 95 07 34 3e 46 47 98 3e ef ce 05 3e
       -0.004124277 0.17581017 0.29741877 0.1306722
000250 5a b3 be 3d 01 68 c0 3d 31 e2 d1 bd da 4f 7a 3c
       0.09311552 0.09394837 -0.10248221 0.015277827
000260 34 0d fd be c7 6d 4d bd a4 54 20 bc 4d c7 4d be
       -0.49424136 -0.05015352 -0.009785805 -0.20095558
000270 a6 d5 c6 be 1c 2a 0d be b2 25 5f be c4 21 c4 3c
       -0.38834876 -0.13785595 -0.21791723 0.023941882
000280 89 9b 89 3e 90 ab 6b 3e 48 e9 18 3e 05 ee cd 3d
       0.26876476 0.23014665 0.1493274 0.10055164
000290 a8 7d a4 3b a4 3a 19 3d 20 0f a7 bd 7a 5b ed ba
       0.005019862 0.03740944 -0.08157182 -0.0018108927
0002a0 c2 eb 0e 3d 39 e9 a8 bd c9 14 da 3d 52 52 b4 3c
       0.034892805 -0.08247609 0.10648496 0.02201191
0002b0 d0 43 ef bd c5 08 e0 3d cf 63 9a 3e db 3b 38 bd
       -0.11682856 0.10939173 0.30154273 -0.044978958
0002c0 00 14 2e be 3c 4e e5 bd 5b 25 e7 3d 95 5f c3 bd
       -0.16999817 -0.11196563 0.11286422 -0.09539715
0002d0 4b 5b 39 bd 90 72 e0 3d 14 f6 96 bd de d2 17 bd
       -0.04525308 0.10959351 -0.073711544 -0.037066333
0002e0 24 f0 88 3c ad f4 d2 bd d5 6e ed bd 2e 99 18 bd
       0.01671607 -0.103005745 -0.11593405 -0.03725546
0002f0 7b b2 0d 3e a6 96 12 bd 5a ff 00 bd ea 70 df bd
       0.13837616 -0.0357882 -0.031493522 -0.109102085
000300 73 ce ea bd 84 f1 73 3d 70 5a 32 3e ae 7e 25 3e
       -0.11465158 0.0595565 0.17417312 0.16161606
000310 2f d0 84 bd aa 25 91 3e b1 82 8a bc 9c 21 95 3c
       -0.0648502 0.28349048 -0.016908022 0.018204503
000320 99 45 ba 3c 9c 19 e0 3c 75 fb 96 bd f1 a4 84 bd
       0.022738265 0.027355962 -0.0737218 -0.064767726
000330 48 6a 40 bc 99 ed ca 3c 67 a6 19 3d 76 d2 b4 bd
       -0.011744089 0.024771499 0.03751221 -0.08829205
000340 c6 b2 62 3d 7a ba 49 be 45 03 43 be bf 03 e6 3d
       0.055346273 -0.19700041 -0.19044216 0.11231183
000350 1c 1d 41 3e 1c f9 25 3e eb b1 7c be 3e a4 8b 3d
       0.1885876 0.16208309 -0.24677245 0.06818436
000360 70 dd eb 3e 9d a7 e6 3e 08 1e e0 3e 20 57 bd 3e
       0.4606738 0.45049754 0.43772912 0.36980534
000370 24 27 5b be fa 37 f6 3d 2c 29 2c be 09 b4 d5 3c
       -0.2140165 0.120223954 -0.16812581 0.026086824
000380 37 d5 d4 bc 16 0b c3 3c 29 6e 2b 3e c9 cc 73 3e
       -0.025980575 0.023808997 0.16741242 0.23808588
000390 3c 2d fc 3d f9 df 7e 3e 22 9b 00 3e a8 f3 d7 bd
       0.12313315 0.24890126 0.12559178 -0.105445206
0003a0 ea ab c3 3e 10 e9 4f 3e 77 53 12 3f 5c 97 93 3e
       0.38217098 0.2030375 0.5715861 0.28826416
0003b0 7f 81 25 3e f4 72 3d bd db 0a f5 bd 6c 73 a0 bd
       0.1616268 -0.046252206 -0.11964961 -0.07834515
0003c0 5b f6 ac 3e fc 62 6c 3e d4 c6 c8 3c ee 4a c7 bd
       0.33781704 0.23084635 0.024508871 -0.097310886
0003d0 da 48 d2 bd 06 1f 43 3e 67 f9 37 be ef 32 ba 3e
       -0.102678016 0.19054803 -0.17966233 0.36366984
0003e0 bf 92 99 3d 5e 10 28 be c1 d6 71 be 22 e2 0e be
       0.07498693 -0.16412494 -0.23617078 -0.1395345
0003f0 2d a0 98 be 6e 6c a2 be c5 cd 97 be 95 0b 10 bf
       -0.29809704 -0.3172335 -0.29649177 -0.5626767

network.0.bias f4 [128]
000000 1d 30 94 b9 0c 4a 74 37 eb 3e 23 39 ad 92 db b9
       -0.00028264607 1.4560774e-05 0.0001556833 -0.00041880217
000010 05 50 6e b7 32 dd 19 b8 3f b7 a9 39 38 90 40 37
       -1.42045365e-05 -3.6684047e-05 0.0003237072 1.147767e-05
000020 a6 72 93 b8 d0 8d cf 38 90 71 52 b6 89 4f 9d 38
       -7.030861e-05 9.896944e-05 -3.135854e-06 7.501158e-05
000030 de 94 91 b9 30 ac 0e 39 b8 4c 00 b9 a6 2b db 39
       -0.0002776747 0.0001360632 -0.00012235611 0.00041803456
000040 a1 a2 6c b8 9c 1e 10 b9 08 78 6b b7 85 e5 94 b8
       -5.6418245e-05 -0.00013744313 -1.40350385e-05 -7.099941e-05
000050 2d 87 91 39 c0 1a 5f 38 1a 96 c6 b9 bc 94 05 39
       0.0002775727 5.3192256e-05 -0.00037877337 0.00012739276
000060 dd 1d 09 b9 3c 18 8c b9 ca 23 22 bb 05 62 4f b9
       -0.00013076463 -0.00026720937 -0.002474057 -0.00019777573
000070 75 c4 4a 38 5e 56 8e b9 45 fe a6 37 5e e0 62 b9
       4.8343518e-05 -0.000271487 1.9907146e-05 -0.00021636623
000080 11 e7 32 39 5d 2e f1 b4 cf d2 00 b9 7a 21 de 38
       0.00017061482 -4.4923482e-07 -0.00012285564 0.000105920204
000090 ff 79 16 ba 9c d0 7d b9 af f8 25 39 25 f4 18 39
       -0.0005740225 -0.00024205673 0.00015828268 0.000145868
0000a0 12 ed 05 b9 34 f8 c0 38 66 2c 46 38 42 87 08 b9
       -0.00012772184 9.201505e-05 4.7248228e-05 -0.00013020358
0000b0 56 60 a0 33 23 ab 21 37 45 40 14 38 cd f8 f1 b7
       7.468104e-08 9.636194e-06 3.5345805e-05 -2.8845296e-05
0000c0 ab 1d 66 b9 ae e0 b7 37 0b 9e 81 b9 09 94 0a b7
       -0.00021945561 2.1919925e-05 -0.0002472255 -8.259908e-06
0000d0 41 66 9a b7 e3 69 b7 b9 6f 92 7d ba b0 85 d7 b8
       -1.8405846e-05 -0.00034983372 -0.00096730044 -0.000102769
0000e0 5a 51 81 39 f3 86 37 39 35 ea 48 39 69 37 9f 39
       0.0002466541 0.00017502512 0.00019160735 0.00030368127
0000f0 38 db 25 39 01 c7 84 39 9e cd f9 b8 94 ee 85 38
       0.00015817292 0.0002532527 -0.000119115444 6.386373e-05
000100 91 61 96 b8 18 f7 fa 38 34 06 04 ba 3b 7f 3d ba
       -7.1707305e-05 0.00011966954 -0.0005036325 -0.00072287366
000110 d8 d8 63 38 48 35 e6 38 8e 0d 52 b9 a0 d6 21 39
       5.432297e-05 0.00010977179 -0.0002003221 0.0001543411
000120 1f 5f 07 3a c0 99 69 b9 ff bd b1 37 47 10 94 39
       0.00051640155 -0.00022277888 2.1188518e-05 0.00028240887
000130 a4 17 20 3a 27 c5 a1 37 d5 5c ef 38 3c e1 51 37
       0.00061070384 1.9284502e-05 0.000114136994 1.2509812e-05
000140 7f 96 39 39 df 90 55 b9 55 b6 c2 b9 a2 d2 fe b8
       0.00017699039 -0.00020367232 -0.0003713841 -0.00012150897
000150 21 40 bd 39 9f 9e cf 37 92 3b 97 b8 75 d0 f6 b9
       0.0003609667 2.4750187e-05 -7.211337e-05 -0.0004707609
000160 16 93 1a ba e7 c6 80 3a 92 29 75 b7 14 17 07 b7
       -0.00058965513 0.0009824903 -1.4612817e-05 -8.052e-06
000170 18 f5 fa b7 90 22 cb 38 19 1d 20 39 f6 5d 8a 38
       -2.9916453e-05 9.686232e-05 0.00015269629 6.5978544e-05
000180 21 fb 23 3a 81 aa 3d 3a 89 b1 d2 b7 5f 36 87 b8
       0.00062553777 0.0007235185 -2.5116622e-05 -6.447429e-05
000190 ba 5e e9 37 08 41 f1 38 73 96 1f b8 38 9d e4 39
       2.7819875e-05 0.000115038885 -3.804867e-05 0.00043604686
0001a0 a9 e4 76 3a a0 c8 ad 37 be 10 02 39 7b 8d 17 38
       0.00094182283 2.071663e-05 0.00012404003 3.613297e-05
0001b0 3c 8e 5f 39 d7 ad 8c 37 60 c6 27 b9 74 49 d3 37
       0.00021319924 1.6770251e-05 -0.00016000262 2.5187364e-05
0001c0 e6 a5 4a b8 ab 7c 83 39 8b a2 c3 38 5b c0 90 38
       -4.8315058e-05 0.00025079152 9.3286006e-05 6.902284e-05
0001d0 d8 84 f7 b9 1f a4 93 b8 7c dd 65 39 67 5c b5 38
       -0.00047210488 -7.040076e-05 0.00021921651 8.647964e-05
0001e0 18 22 0b 39 73 70 97 b7 84 8f 8c b9 e6 a8 09 b9
       0.00013268774 -1.8052966e-05 -0.00026809808 -0.00013128258
0001f0 47 28 0c 3a 0a fd 8e b9 8d 09 84 38 d7 79 32 39
       0.0005346578 -0.0002727288 6.2960295e-05 0.00017020792

network.1.weight f4 [128]
000000 03 5b 86 3f bc 05 6f 3f 86 8c 74 3f c2 18 73 3f
       1.0496525 0.93368125 0.9552692 0.9495965
000010 60 86 82 3f 3b e7 83 3f 0a 42 76 3f e6 c0 89 3f
       1.0197258 1.0304941 0.9619452 1.0761993
000020 28 98 73 3f 6f 08 84 3f d4 9f 8c 3f 22 ec 80 3f
       0.95154047 1.0315074 1.0986276 1.0072062
000030 4d 17 7f 3f 72 9d 8b 3f e9 b2 8e 3f 52 84 79 3f
       0.9964493 1.0907423 1.1148349 0.9746753
000040 d2 e8 73 3f c2 91 75 3f a3 7c 7a 3f 5f 76 87 3f
       0.9527713 0.95925534 0.9784643 1.0582999
000050 27 78 80 3f ae fd 83 3f 63 d1 88 3f 5d 24 84 3f
       1.0036668 1.0311792 1.06889 1.0323597
000060 41 59 73 3f 82 cf 81 3f 47 da 87 3f 3e 7c 74 3f
       0.95058066 1.0141451 1.0613488 0.9550208
000070 53 c5 88 3f f9 76 79 3f 39 7f 7a 3f 3f 83 71 3f
       1.0685219 0.9744716 0.97850376 0.9434089
000080 14 12 70 3f 28 fd 7b 3f 75 54 7a 3f cf b6 81 3f
       0.93777585 0.9843316 0.9778512 1.0133914
000090 e2 b8 86 3f df 21 6e 3f 1d 01 82 3f bb cc 72 3f
       1.0525172 0.93020433 1.015659 0.94843644
0000a0 ea 0a 7c 3f d7 79 87 3f 58 e5 7a 3f bb b8 8a 3f
       0.98454154 1.0584058 0.980062 1.0837625
0000b0 af f4 7b 3f 7b bb 82 3f b3 6e 78 3f b7 4e 72 3f
       0.9842023 1.0213464 0.97043914 0.9465136
0000c0 5e ce 7a 3f c4 fc 89 3f 8b bc 6c 3f 38 40 68 3f
       0.9797114 1.0780263 0.92475194 0.9072299
0000d0 34 51 7d 3f 4c 27 8e 3f c4 ed 92 3f 3e 43 88 3f
       0.9895203 1.1105742 1.147881 1.0645521
0000e0 dc b5 6e 3f 4e 56 78 3f b8 2b 82 3f 2e 7c 89 3f
       0.93246245 0.9700669 1.0169592 1.0741022
0000f0 f6 db 71 3f d1 f6 7a 3f eb fb 8e 3f eb 00 80 3f
       0.9447626 0.9803286 1.1170629 1.000028
000100 cb 64 70 3f 2a e1 8d 3f b0 1d 7d 3f 60 b5 96 3f
       0.939038 1.108434 0.98873425 1.1774101
000110 bf ba 80 3f 5b 9f 80 3f a1 c3 7b 3f 71 7a 7c 3f
       1.005699 1.0048631 0.9834538 0.9862433
000120 9a 4c 77 3f c9 39 84 3f 5a 24 78 3f 4d 7d 87 3f
       0.9660126 1.0330135 0.9693047 1.0585114
000130 7b b3 73 3f 69 0d 8a 3f 85 d7 7b 3f d5 3e 87 3f
       0.9519574 1.0785342 0.9837573 1.056605
000140 8d 5e 87 3f 41 91 77 3f 38 0a 6a 3f 4e dd 70 3f
       1.057573 0.96706015 0.9142184 0.94087684
000150 89 6b 78 3f a8 23 82 3f 4a d4 8b 3f 24 55 86 3f
       0.97039086 1.0167131 1.092416 1.0494733
000160 a8 7a 8c 3f 5c 39 86 3f 09 87 81 3f d0 86 77 3f
       1.0974932 1.0486255 1.0119334 0.9669008
000170 e5 42 7d 3f f0 c2 7c 3f 68 fb 79 3f a9 03 80 3f
       0.989302 0.9873495 0.9764924 1.0001117
000180 e9 47 77 3f 00 78 7c 3f cd d1 8a 3f ff ea 75 3f
       0.965941 0.98620605 1.0845276 0.960617
000190 3b 95 71 3f 0f b2 7e 3f ff 20 71 3f a4 4b 89 3f
       0.9436833 0.99490446 0.94190973 1.0726209
0001a0 04 41 6b 3f f9 84 82 3f b6 0e 82 3f 47 74 85 3f
       0.9189608 1.019683 1.016074 1.042611
0001b0 9e 11 7f 3f f5 69 79 3f 5b 0c 7b 3f 19 38 80 3f
       0.99636257 0.974273 0.9806573 1.001712
0001c0 15 d9 71 3f dc 9f 81 3f d2 22 77 3f be 05 7d 3f
       0.94471866 1.012691 0.96537507 0.98836887
0001d0 8c 47 8a 3f ac 9c 7b 3f c9 3c 80 3f b8 71 81 3f
       1.0803084 0.9828594 1.001855 1.0112829
0001e0 d1 5b 68 3f 68 08 70 3f 8f 4c 76 3f 2a 24 6c 3f
       0.907651 0.93762827 0.9621057 0.9224268
0001f0 a0 a5 73 3f f8 aa 80 3f 66 bf 71 3f bf 39 6d 3f
       0.951746 1.0052176 0.94432676 0.9266624

network.1.bias f4 [128]
000000 51 87 c0 bd 21 5d 8d bd df f5 0c bd 6a af 74 3d
       -0.094008096 -0.069025286 -0.03441417 0.0597376
000010 2e ee 07 3d 23 f5 21 bc 48 e6 08 3d 87 05 e9 bd
       0.03318613 -0.009885105 0.03342274 -0.113780074
000020 2f 0e 14 be ad 4d 73 3d 60 ae 01 3e b4 e9 57 3c
       -0.14458536 0.05940025 0.12664175 0.013178278
000030 ba 9e 81 bd 39 3b 11 3d ec 37 03 3d 98 3e 34 bd
       -0.06329103 0.03545687 0.032035753 -0.044005007
000040 d8 e9 f6 bd 27 48 90 bd 3f 7f f2 bb 1d b8 d1 3c
       -0.12056321 -0.07045012 -0.007400423 0.025600487
000050 1f 59 f5 3c d9 3f b3 bd f9 d3 5c 3d 4f ee 0e bd
       0.029949723 -0.08752412 0.05391309 -0.034895238
000060 1c fb 11 be 37 b6 ea bc d8 c8 80 3c 15 ce b6 bd
       -0.14255947 -0.02865134 0.01572077 -0.08926026
000070 69 0c 5f bd 75 22 5e bd a4 d5 5e bc 1d a9 48 be
       -0.054455195 -0.05423208 -0.013600741 -0.19595762
000080 4a 40 25 be 8f 16 b6 bd c3 25 0e bd a5 93 4e bc
       -0.16137806 -0.088910215 -0.03470398 -0.012608443
000090 1b 5a 32 bd 28 d9 22 3d 3a 4d 8c 3b 1c 6b 92 bd
       -0.043542963 0.039757878 0.004281667 -0.07149336
0000a0 15 a2 88 bc 2a e9 b6 bd 05 77 a3 bd 25 1f 9d bd
       -0.01667885 -0.08931191 -0.079816855 -0.07671956
0000b0 71 0d 91 bc dd 88 43 bd de f3 1e be 07 7b 14 bd
       -0.017706605 -0.047737945 -0.15522715 -0.03625014
0000c0 38 1d 85 bd 12 fe 85 bd 3a 5b 12 be d5 28 72 3c
       -0.06499714 -0.06542601 -0.14292613 0.014780243
0000d0 c8 9e d3 bd 83 61 06 3c db b5 05 3e 3f 79 98 bd
       -0.103330195 0.00820196 0.13057654 -0.07445001
0000e0 e4 85 9b bd b4 08 3b 3d 4b 6c 79 bd 35 42 89 3e
       -0.07593897 0.045662597 -0.06089429 0.26808324
0000f0 e1 9b 33 3d 9c 71 35 3d b9 a8 b8 bc c7 b8 c0 bd
       0.04384983 0.0442978 -0.02254139 -0.094102435
000100 56 b6 c2 bc 69 76 94 bd 15 86 7e 3b a9 62 09 3e
       -0.023768585 -0.072491474 0.0038837243 0.13416542
000110 3e 58 59 ba 83 35 ce 3a e7 8c 20 3c 39 de fa bc
       -0.0008291042 0.00157325 0.009799219 -0.030623542
000120 e9 7b 1f 3e 82 54 91 bd 8d ce f5 bd 18 ad 86 bd
       0.15574612 -0.07096197 -0.12002287 -0.06575984
000130 56 e1 87 bd 84 95 81 bc cf 24 da bd de 2a 6e 3d
       -0.06634776 -0.015818365 -0.10651552 0.05814635
000140 01 79 b9 3c 4c 3d cc bc 61 f0 1b bd 42 35 0a bd
       0.022640707 -0.024931572 -0.03807104 -0.033742197
000150 d5 24 8a bd 27 12 ac 3d 95 d0 a6 3d 21 d8 3a 3d
       -0.067453064 0.084019 0.081452526 0.045616273
000160 c0 06 38 3d 25 78 e0 bd c0 16 77 3c 8b 36 97 3d
       0.044928312 -0.10960416 0.015081108 0.0738345
000170 c4 9f 54 bd 71 86 1b be 8c 9c 00 3e 3a 29 69 3d
       -0.051910177 -0.15188004 0.12559718 0.056924082
000180 70 fb 3c 3d 65 b0 4d bd 27 a3 35 bc da 43 07 bd
       0.046138227 -0.05021705 -0.011086262 -0.033023693
000190 a5 6b 95 bc 1d 44 10 bc 8d a8 79 bd d7 c9 b4 3d
       -0.018239805 -0.008805302 -0.06095176 0.088275604
0001a0 3e ec a5 3d 58 e9 81 bd 84 77 72 3d fb 10 2f be
       0.081017 -0.06343335 0.05919601 -0.17096321
0001b0 ce 6c b2 bd 79 52 9f bc 2f d5 64 3c 8a 44 02 3d
       -0.08712159 -0.019448506 0.013966843 0.031803645
0001c0 f8 3f 80 bd cd f5 04 3c 29 71 a6 bc 9f c0 cd bd
       -0.06262201 0.008115244 -0.02031763 -0.10046505
0001d0 c9 d6 21 3d 0a 56 5b bd 73 e5 59 bd 70 25 2b 3d
       0.039511476 -0.05354885 -0.053197335 0.04178375
0001e0 dd fe 03 be 00 10 72 3c fc 04 0d 3d 0c 33 77 3d
       -0.12890191 0.0147743225 0.03442858 0.060351416
0001f0 bc 26 2f bd 79 82 fd bc 89 9b 5d bd 13 8c 0d be
       -0.04276155 -0.030946003 -0.054103408 -0.13822965

network.1.running_mean f4 [128]
000000 f6 34 0c 40 c6 31 43 bf 66 a3 56 bd b1 32 ef 3f
       2.1907325 -0.76247823 -0.052401923 1.8687345
000010 a9 05 c7 be b8 63 e5 bf 68 1a ae 3e 13 de 9e be
       -0.38871506 -1.7921057 0.3400452 -0.31028804
000020 dc 7f 82 3f f5 89 cb be b9 41 ba 3e c2 40 39 bf
       1.019527 -0.3975369 0.36378267 -0.7236444
000030 aa e5 97 bf bf ac 16 c0 a8 45 1f c0 29 45 3f 3f
       -1.1866963 -2.3542936 -2.4886265 0.74714905
000040 26 93 14 bf 1a 25 ab be e7 da da bc 23 09 49 bf
       -0.5803703 -0.33426744 -0.026715709 -0.78529567
000050 64 e6 87 bf d6 8f 1d 3f ce 71 e4 3f 71 da 28 bf
       -1.0617185 0.615476 1.784723 -0.65958315
000060 b2 ad 51 be 02 22 72 3d 1c 2d 2b bf 03 93 0a bf
       -0.20476416 0.059114464 -0.66865706 -0.5413057
000070 0e 2f 78 bf 20 00 f9 3f 7c 54 4f c0 b5 04 32 3f
       -0.969468 1.9453163 -3.2395315 0.6953843
000080 55 23 c8 3f a6 37 61 3e 9c 13 3f bf 04 7e 12 bf
       1.5635782 0.21993884 -0.74639297 -0.57223535
000090 0a ca c0 bf 36 ed dd 3e 6f ed ef bf 40 ee cb bf
       -1.5061657 0.4334504 -1.8744334 -1.5932083
0000a0 9a e4 b4 bf 8d fb d9 3f e1 a1 79 3e 3a 57 56 3d
       -1.4132264 1.7029892 0.24378158 0.05232928
0000b0 6a ea e7 be f4 a9 f6 3f 71 5c 89 3f ff 84 32 3f
       -0.4529603 1.9270616 1.0731336 0.69734186
0000c0 5c 15 1e c0 c0 bb 03 bf e3 bc a9 3e 50 2d 60 bf
       -2.4700537 -0.5145836 0.33151922 -0.8756914
0000d0 f7 2e 52 3f 84 86 90 bf d6 b8 c4 3f 3f a1 9c bf
       0.8210291 -1.1291051 1.5368907 -1.2236708
0000e0 08 27 9c 3f 22 09 e1 bf c6 c4 c2 3c 19 7f a5 3f
       1.2199411 -1.7580912 0.02377547 1.2929412
0000f0 3e d0 bd 3f 12 eb 32 bf 37 f0 14 be 5d bc db 3d
       1.4829175 -0.6988994 -0.1454476 0.10729287
000100 a3 0a 9b bf 72 1d 74 bf 66 8b 6c 3f a5 02 2a 40
       -1.2112621 -0.9535743 0.92400205 2.6564114
000110 a7 b6 c9 bf 5c 59 4d 3f 53 e8 aa bf 80 85 21 3f
       -1.5758866 0.80214477 -1.335215 0.6309433
000120 8f 3b c2 3f ee e7 79 3f 83 ad 0e bf 40 59 b4 3f
       1.5174426 0.9761952 -0.5573351 1.4089737
000130 a6 22 c7 3e 50 7c 65 3e fd 88 3b 3f d7 da 06 bf
       0.38893622 0.22410703 0.732559 -0.52677673
000140 00 bd 23 be 49 a4 7d 3f d6 d0 5f bd 11 9a 04 3f
       -0.15990067 0.99078804 -0.05464252 0.51797587
000150 ed 0f 83 bf 5f f7 1c c0 1d 96 38 bf 62 49 42 c0
       -1.0239235 -2.4525983 -0.72104055 -3.035729
000160 5d ae cb bf 05 38 fa 3f 88 0a 0f 40 a1 20 e8 bf
       -1.5912586 1.9548346 2.2350178 -1.8134958
000170 98 dc 06 3f 46 9d d4 be bf 93 13 bf b2 82 d9 3e
       0.5268035 -0.4152624 -0.5764732 0.42482525
000180 fd d0 33 3f ea 57 d0 3c 2e d6 af 3b a3 9c 9e bf
       0.70240766 0.025432546 0.0053661084 -1.2391552
000190 5f ca 1b c0 a8 c7 6e bf 2b c4 ba bf fe fd 13 c0
       -2.4342268 -0.932734 -1.4591116 -2.3123775
0001a0 a2 fd b3 3f a4 72 af 3f c5 5f 6e 3f 76 10 c0 be
       1.4061778 1.370686 0.9311488 -0.3751256
0001b0 4e 8d a1 bf 4a 09 65 bf c2 0d 11 c0 24 70 bd 3f
       -1.2621248 -0.894673 -2.2664647 1.4799848
0001c0 0b 80 ec bf 75 c5 f5 be 65 35 01 c0 dc 34 28 3f
       -1.8476576 -0.4800221 -2.018884 0.65705657
0001d0 b4 dc 15 c0 4f c8 32 3d 58 f4 97 bf f8 af dc bf
       -2.3415956 0.04364806 -1.1871443 -1.7241201
0001e0 55 14 f5 3f 5d 57 89 bf 97 26 8f be fd d5 c1 3e
       1.914683 -1.0729786 -0.2795913 0.37858573
0001f0 6b b4 9f 3e 11 d4 a9 3f c5 bc 7b bf ec 80 f5 3e
       0.31192335 1.3267843 -0.98334914 0.47949922

network.1.running_var f4 [128]
000000 88 eb aa 43 86 3e 2b 44 7f 59 33 43 f0 ed 84 43
       341.8401 684.9769 179.3496 265.8589
000010 2c 3b 8c 44 0a 19 20 45 1d 62 cd 43 b7 85 e9 44
       1121.8491 2561.565 410.7665 1868.1786
000020 af c1 c8 43 a3 9f a5 44 0e ad 06 43 a5 fc 2c 42
       401.51315 1324.9886 134.676 43.246723
000030 32 15 4e 44 48 fd d2 43 6a aa 55 43 49 50 8f 43
       824.3312 421.97876 213.66568 286.62723
000040 2a 0c be 43 e3 31 6f 43 23 60 a1 43 13 09 80 44
       380.09503 239.19487 322.75107 1024.2836
000050 89 6a db 42 5d 2b c7 44 de ba 2e 42 85 60 38 44
       109.70808 1593.3551 43.682487 737.5081
000060 cd ad 89 44 95 3e 33 44 91 07 62 43 44 87 2d 44
       1101.4313 716.97784 226.02956 694.1135
000070 31 22 8c 44 61 59 bc 42 67 65 4d 45 2e 57 70 43
       1121.0685 94.17457 3286.3376 240.34055
000080 8e c2 94 42 0d f8 85 43 8a f1 d5 44 e8 21 19 44
       74.37999 267.9379 1711.5481 612.5298
000090 85 32 d9 42 39 af 12 44 63 c6 40 43 67 79 6b 44
       108.59867 586.73785 192.77495 941.8969
0000a0 2c fd 85 43 f1 4e 8d 43 84 fb ef 43 86 34 8d 43
       267.9779 282.61673 479.96497 282.41034
0000b0 be 53 ac 44 32 89 21 45 bd 42 06 44 a6 09 ed 43
       1378.617 2584.5747 537.0428 474.07538
0000c0 53 db 2c 43 96 44 2e 44 af 48 e9 43 29 91 76 44
       172.85674 697.07166 466.56784 986.2681
0000d0 bd c8 04 45 e2 c8 01 43 ce 49 cd 41 aa f4 27 44
       2124.5461 129.7847 25.661037 671.8229
0000e0 05 ab 63 42 a4 5a 10 43 d1 4b 59 44 1e dc e5 42
       56.91701 144.35406 869.18463 114.92992
0000f0 46 1d 8b 43 3d 53 19 43 55 cd 9e 44 e2 70 80 44
       278.2287 153.32515 1270.4166 1027.5276
000100 dd d5 59 45 29 3c d2 43 ec d9 9a 43 c0 12 6b 42
       3485.3665 420.47 309.7025 58.76831
000110 bb 72 95 43 07 47 81 44 63 8d bf 43 f5 28 12 44
       298.89633 1034.2196 383.10458 584.63995
000120 04 47 a9 43 10 75 bc 43 a0 26 a5 43 f5 72 9b 42
       338.5548 376.91455 330.30176 77.724525
000130 37 c6 89 43 bf 75 d0 43 c1 dc ce 43 0e 3f 03 44
       275.54855 416.9199 413.72464 524.9852
000140 40 6f 7f 43 38 02 f7 42 f6 87 07 44 10 cf d3 43
       255.43457 123.50433 542.1244 423.61768
000150 83 0a 01 44 6e 8b 92 43 e5 97 91 43 27 3b de 42
       516.16425 293.0893 291.18668 111.11553
000160 dd 05 c2 42 50 10 1c 42 e2 f4 2e 42 5d 50 0c 45
       97.01145 39.01593 43.739143 2245.0227
000170 72 0e 0b 43 35 6b 10 45 a8 21 c1 43 1c ef e0 43
       139.05643 2310.7004 386.26294 449.86804
000180 66 dc 92 43 df 33 18 43 fe 8f 4d 43 82 ff 04 45
       293.72186 152.20262 205.56247 2127.9692
000190 3e 62 1d 44 b2 eb 65 44 40 78 f2 44 4f cf 8a 43
       629.53503 919.68274 1939.7578 277.6196
0001a0 8b 38 c7 42 0c 2a bf 43 5c 93 d0 44 74 1b ea 43
       99.610435 382.3285 1668.605 468.21448
0001b0 b0 f8 b6 43 80 84 16 44 9b a4 22 43 ac b1 cf 42
       365.94287 602.0703 162.64299 103.847015
0001c0 c1 ec 6a 45 a7 b1 3c 44 b0 0d 90 44 ae 9a 97 44
       3758.797 754.7758 1152.4277 1212.8337
0001d0 c1 1b a0 42 a8 34 6f 43 de 7a 64 43 8d c5 45 43
       80.05421 239.20569 228.47995 197.77168
0001e0 84 02 23 44 f1 02 24 44 be a9 df 43 d6 41 1e 44
       652.0393 656.04596 447.3261 633.0287
0001f0 3b ea c9 43 34 fc d8 43 aa a2 55 43 ec 5b 55 44
       403.82993 433.97034 213.6354 853.4363

network.4.weight f4 [64, 128]
000000 69 d9 b9 bd 6e 3c b5 bd 93 b0 04 3e f3 ad 34 be
       -0.09074671 -0.08849417 0.12957983 -0.17644481
000010 ed 05 e7 bd 75 db c6 bd 3e ab 40 3d 22 fd ed bc
       -0.11280427 -0.09709827 0.04703831 -0.029051367
000020 6a 85 0f 3d 99 97 43 be 50 c3 e7 bd ee d9 0c 3d
       0.035039343 -0.19100799 -0.1131655 0.03438752
000030 90 f1 2d bc c6 67 0a bd ba e1 9e 3d 67 52 c1 bd
       -0.010616675 -0.033790372 0.07757898 -0.09439545
000040 c5 a7 d3 bd fc 34 6f 3b ad cc 36 bd 24 38 b6 bd
       -0.10334734 0.0036500087 -0.044628788 -0.08897427
000050 47 74 30 be 60 38 2e be 66 5d 60 3e f9 b1 fd bd
       -0.17231856 -0.17013693 0.21910629 -0.12387461
000060 67 bf 0e bd ca 3a 99 3d e6 c4 9e bb 49 9b 93 3d
       -0.034850504 0.07481916 -0.0048452495 0.07207353
000070 e4 f6 bc bd e0 6f 58 3d a7 9c 7e 3d 94 ae 13 3d
       -0.09226778 0.052841067 0.062161114 0.036055163
000080 56 56 23 3e 8c a7 f2 bd 99 2f 42 3d 50 72 a2 bd
       0.15950903 -0.11848363 0.047408674 -0.0793196
000090 1f 7e dc bd f4 5b 66 3d ac e0 b3 bd d8 29 aa 3d
       -0.10766243 0.056240037 -0.08783087 0.08308762
0000a0 de b1 e2 bd 32 32 b5 3d 51 4f b0 3d a8 a1 23 be
       -0.11069082 0.088474646 0.086088784 -0.15979636
0000b0 68 bb 8f 3d cd 2c b9 3d b4 0b fb bd b8 8e 2e be
       0.07018167 0.09041748 -0.122580916 -0.1704663
0000c0 de db 78 bb 27 e7 86 bd f1 53 c8 bd d3 1e 05 be
       -0.0037972848 -0.065870576 -0.097816356 -0.1300004
0000d0 3b f1 0c 3c a3 90 14 3e 28 f5 88 3e 30 e4 39 bd
       0.008602436 0.145083 0.2674954 -0.045383632
0000e0 49 9f 6b 3d ce 11 00 3e 28 d9 30 be 6f 8b a9 3b
       0.057524953 0.12506792 -0.17270339 0.0051740925
0000f0 a7 2b ab bd 67 43 d7 3b 7c 7d 26 bd 49 3f 56 bd
       -0.083579354 0.0065693143 -0.040647015 -0.052306447
000100 42 a4 d2 3d db dc 2d be 3f 9b 33 bd 6b f9 e1 3d
       0.10285236 -0.16978781 -0.043849226 0.11033901
000110 88 a3 8b bd ac e0 80 bd b4 f4 1e be 05 1a ef bd
       -0.068183005 -0.06292853 -0.15523034 -0.11674885
000120 98 e0 1a 3e 3e e5 46 bd 41 de 80 bd c7 37 98 3c
       0.15124738 -0.048558466 -0.062923916 0.018581284
000130 91 a5 31 be 25 c3 25 bd 3f 4e 87 3d df 9e b8 bd
       -0.17348315 -0.040469307 0.06606721 -0.09014677
000140 c8 0f 20 3c 8a 46 45 bc d9 cd 28 bd ed 98 eb bd
       0.009769388 -0.012040744 -0.041211937 -0.11503778
000150 49 80 bb bd 18 9f 22 bc f4 33 7b bd 52 5e a0 bd
       -0.09155328 -0.009925626 -0.061328843 -0.0783049
000160 cf ba ce bd c8 56 02 3e e5 f1 6d 3d 22 0e e9 bc
       -0.10094225 0.12728417 0.058092017 -0.028449122
000170 b9 2d 9d 3c e0 af 0f be d8 24 dd bd 01 a3 6f 3d
       0.019186841 -0.14031935 -0.10798043 0.058505062
000180 03 79 39 bd 8f 8b 21 be 97 c9 f2 3c 11 b6 26 bd
       -0.04528142 -0.15775894 0.029637141 -0.040700976
000190 07 19 39 3c b4 81 9f 3d ce 51 1c bd 65 d4 a5 3d
       0.011297471 0.07788411 -0.038163953 0.08097152
0001a0 a4 66 62 3d 08 83 17 bd 2b 4d 6d bd 75 1f f1 bc
       0.055273667 -0.036990196 -0.05793492 -0.029433945
0001b0 ad 6b 95 bc 17 85 c6 3d 37 c1 d2 3d 97 e0 f6 bd
       -0.01823982 0.096933536 0.10290759 -0.12054556
0001c0 9b 81 fb 3d 30 0d ca bd b9 58 22 bc 4a 1c fb bd
       0.1228058 -0.098657966 -0.009908848 -0.12261255
0001d0 12 84 ff bd 51 42 68 bd f0 26 7d bd 14 3e 42 be
       -0.12476362 -0.05670387 -0.06180471 -0.18968993
0001e0 6c c9 e8 3d eb 93 b7 bd e0 e2 01 be 2e 8e e3 3d
       0.11366543 -0.0896376 -0.12684202 0.11111103
0001f0 30 e0 ea 3c e5 ab a9 bc 6c 96 d7 bc ec 45 f7 bd
       0.028671354 -0.020711849 -0.026316844 -0.120738834
000200 4e 54 42 3e 91 77 86 3c ab 6e bd 3d c6 76 54 3d
       0.18977472 0.016414436 0.09249624 0.051871084
000210 e3 14 0b bd 29 c0 a6 bd 50 ec ff bc 78 d4 73 3b
       -0.033955466 -0.081421204 -0.031240612 0.0037205499
000220 e3 a7 f6 3c 29 c6 0a 3d 7e d0 e1 bd 07 8c 21 3e
       0.030109352 0.033880387 -0.11026095 0.15776072
000230 3b c9 d2 bd a7 3e f7 bd 4c ba 20 be b3 51 12 3d
       -0.10292288 -0.12072497 -0.15696067 0.035722446
000240 34 6a 82 3d e4 ed f0 3d be 5f 4a be ff 06 19 3c
       0.06367913 0.11764124 -0.19763085 0.009340047
000250 76 fe 04 bd 48 8e 68 bd 1e 3f 13 3e 84 fc 90 3d
       -0.032469235 -0.056776315 0.14379546 0.070794135
000260 0e d3 3d 3d e9 6b 26 3d b4 5b ed bd 6d bb 40 bd
       0.046343856 0.040630255 -0.115897566 -0.047053743
000270 a4 09 4c 3d 09 61 10 bd c3 22 b5 bd 5c a1 06 3e
       0.04981388 -0.03524879 -0.08844521 0.13147491
000280 9a 22 20 3e 45 c1 2d 3e f7 c3 05 be 4a 7c a9 3d
       0.156382 0.16968258 -0.13063036 0.082756594
000290 25 46 53 be 02 5d d3 3d b0 77 7f 3d 03 ea fc bd
       -0.20632227 0.10320474 0.062370002 -0.12349322
0002a0 89 d8 5a 3d e6 15 ef 3d 60 86 01 bc 4c fa 1d be
       0.05342916 0.11674099 -0.007905573 -0.15427512
0002b0 13 4e 1f bd 6b 2d 0b be b8 a8 b3 3d 72 8e b6 bc
       -0.038892817 -0.13591544 0.08772415 -0.02228472
0002c0 e8 5c fe bc a3 cd 92 bd 1d d8 06 3d 2c 61 5d 3d
       -0.03105016 -0.07168128 0.032920945 0.05404775
0002d0 1e e9 03 3e 30 05 91 3c ed 3b ca bd 01 97 8d bd
       0.12881896 0.017702669 -0.09874711 -0.06913567
0002e0 39 96 14 bd 2e b6 83 bd f6 27 38 3d 6f eb 0b 3d
       -0.036276076 -0.064312324 0.044959985 0.034160074
0002f0 a5 63 44 3d e5 3b f0 bd e8 44 70 3b 75 7b fc bd
       0.04794659 -0.11730174 0.0036662165 -0.12328235
000300 63 9c b7 3c 53 d0 16 3c 59 4c c5 3d f0 ed 45 3e
       0.022413438 0.009204942 0.09633703 0.19329047
000310 ad de 4f 3d f8 d2 dd bd d7 3b b1 bc 38 15 1c 3d
       0.05074947 -0.10831255 -0.02163498 0.038106173
000320 88 ec 12 3e 99 81 ce 3d f2 49 94 3d 49 5a 88 3d
       0.14348042 0.100833125 0.072406664 0.066578455
000330 86 91 33 3e f8 af 95 bd 84 81 e0 bc c5 28 3c be
       0.17535982 -0.07308954 -0.027405508 -0.18374927
000340 c2 7b f0 bd d8 47 02 3e 18 c5 b1 bd ad 84 cb 3d
       -0.11742355 0.12722719 -0.08680171 0.09937415
000350 57 90 04 be 08 8f 86 3b 9c e2 93 bd 9a fd b2 bd
       -0.12945686 0.004106406 -0.07220957 -0.08739777
000360 5d c8 e8 bc a9 dc 5e be 3f 3f 33 3e 36 bb 8b bd
       -0.028415853 -0.21763863 0.17504595 -0.06822817
000370 73 b0 0a be c6 42 e8 bd a5 e1 69 3d a7 2a c8 3d
       -0.13543873 -0.11340861 0.057099957 0.0977376
000380 57 28 a4 bd 54 09 14 3e 9e 0a 21 3e 59 d4 72 bd
       -0.08015507 0.14456683 0.15726706 -0.05928454
000390 f7 ae 45 3d 7a f2 04 be f5 5d 3c be 4b 29 6c 3d
       0.048262563 -0.12983122 -0.18395217 0.057656568
0003a0 96 80 f7 3d 31 c5 3e 3e 8b 3f 4a 3d 61 9d d9 bc
       0.12085073 0.1862991 0.049377006 -0.026564302
0003b0 ce f3 0b 3e 0e 24 20 be 70 da 2f 3e c1 bb a0 3d
       0.13667223 -0.15638754 0.17173171 0.07848311
0003c0 4d 47 f7 bc d1 76 9d bd 6c e9 76 3d 62 c9 0c be
       -0.030185366 -0.07688678 0.060281202 -0.13748696
0003d0 9f bc 8f bd 3c bc 14 3d 9c 88 fd 3d de f1 79 3c
       -0.070183985 0.036312327 0.12379572 0.01525542
0003e0 94 1f 1b be f4 d5 99 bd 17 27 95 bd 7a bc f1 3d
       -0.15148765 -0.075115114 -0.072828464 0.11803527
0003f0 c7 6d 11 3e 93 72 4c bd 44 ee 36 3e 2a 23 01 3b
       0.14202033 -0.049913954 0.17864329 0.0019704797

network.4.bias f4 [64]
000000 a3 56 b1 3b b7 26 01 3c 5c 8e 6e bb a2 b5 81 39
       0.005411939 0.0078827655 -0.003640077 0.00024740124
000010 3c 10 96 3b e5 8d f8 39 99 1a 7b 3a 36 77 06 3b
       0.004579572 0.00047407966 0.00095788535 0.0020517833
000020 18 fe ad ba 80 39 fa b9 92 ca c1 ba 72 b7 0d 3c
       -0.0013274578 -0.00047726557 -0.0014785102 0.008649694
000030 5b f8 eb b8 68 62 b9 3b 7b 2a a1 ba 3b ed b6 3b
       -0.00011251933 0.005657483 -0.0012295985 0.0055824793
000040 bc 30 83 ba ec 29 e7 39 8f 8c ab 3a 66 61 44 3b
       -0.0010009031 0.00044090988 0.0013088154 0.002996528
000050 c9 9f b8 ba c2 30 4f 3b 3a c5 96 3a 15 ea e4 b9
       -0.0014085706 0.0031614755 0.001150287 -0.00043661954
000060 c0 86 85 ba b3 6d ad ba c4 6b a4 bb 18 92 36 bc
       -0.0010187253 -0.0013231545 -0.0050177295 -0.01114323
000070 4e 19 f8 3a d5 ba 18 bb 5b 72 eb 3a c1 9b 67 3b
       0.001892844 -0.002330472 0.0017963158 0.003534064
000080 02 f1 1f bb a4 5a 01 3a 8c 9b c2 bb 8f 5e d4 ba
       -0.0024405126 0.0004934466 -0.005938953 -0.0016202497
000090 04 7c 6b 3a fd ea a2 b9 b6 f4 94 3b 1b f8 a1 3a
       0.00089830183 -0.00031074128 0.0045457734 0.0012357266
0000a0 a7 0e d5 3b 9f 47 1b 3c 30 d3 f1 3a 80 f9 1a bb
       0.006501991 0.009477525 0.001844978 -0.0023647249
0000b0 b8 07 b6 39 8b 79 d7 3a b4 41 01 bb 82 1a 00 bc
       0.00034719496 0.0016439421 -0.0019723 -0.00781882
0000c0 76 74 31 3b 40 06 ba ba 17 5d a6 3b 7d 70 43 3b
       0.0027077473 -0.0014192536 0.005077015 0.0029821687
0000d0 52 e5 4a 39 3e 63 7e 3b 7c 0c f8 3a 54 7d c2 3a
       0.0001934965 0.0038816477 0.0018924619 0.0014838376
0000e0 97 7f cd 3b bf 6e 65 3b c9 db 81 3a 30 6e 43 3b
       0.0062713134 0.0035008637 0.000990742 0.0029820316
0000f0 f7 61 90 bb ac 01 2a b9 51 3a d8 3a fc 67 53 bb
       -0.0044062096 -0.00016213086 0.0016496872 -0.0032258024

network.5.weight f4 [64]
000000 9b 6e 74 3f 15 b8 6f 3f f5 5d 7f 3f d5 35 75 3f
       0.9548127 0.9364026 0.9975274 0.95785266
000010 06 8c 76 3f b2 e8 61 3f 41 5f 7c 3f 10 be 98 3f
       0.9630741 0.8824569 0.98582846 1.1933002
000020 1d 53 76 3f 6c 3d 6f 3f 3f b5 85 3f 2a 98 61 3f
       0.9622057 0.934531 1.0445937 0.8812281
000030 e5 30 71 3f 7c 34 73 3f 63 d4 7c 3f d3 ea 84 3f
       0.9421523 0.9500196 0.98761576 1.0384163
000040 b6 2c 6f 3f 89 47 7c 3f 40 cc 83 3f 8a 8a 90 3f
       0.934276 0.98546654 1.0296707 1.1292279
000050 5c 53 7e 3f 94 74 83 3f cc cb 67 3f 6d b5 80 3f
       0.99345946 1.0269952 0.90545344 1.0055367
000060 2b 8b 8a 3f c4 30 84 3f 87 0b 7c 3f 77 41 7b 3f
       1.0823721 1.0327382 0.9845509 0.98146766
000070 30 d9 93 3f 1c ac 68 3f 5c 6b 8e 3f 44 f0 80 3f
       1.1550655 0.9088762 1.1126513 1.0073323
000080 65 86 8e 3f 57 9d 56 3f f8 12 7e 3f 34 16 7b 3f
       1.1134764 0.8383383 0.99247694 0.98080754
000090 61 f4 54 3f 08 db 84 3f 4f 19 73 3f 40 96 78 3f
       0.8318539 1.0379343 0.9496049 0.97104263
0000a0 37 ff 78 3f 75 6b 98 3f 1d 40 80 3f 22 ba 98 3f
       0.97264427 1.1907793 1.0019566 1.1931803
0000b0 81 98 7e 3f 6a 01 81 3f 79 d8 69 3f da 16 6c 3f
       0.9945145 1.0078557 0.91345936 0.9222237
0000c0 9e 6e 7d 3f f0 57 7e 3f d7 1c 82 3f b0 e3 80 3f
       0.98996913 0.9935293 1.0165051 1.0069485
0000d0 ff 21 9b 3f 9b 72 6a 3f ec 41 65 3f 39 2f 6f 3f
       1.211975 0.91581124 0.89553714 0.9343143
0000e0 3a 6e 77 3f bd eb 63 3f 0d 7e 78 3f 02 e2 71 3f
       0.9665257 0.89031583 0.9706734 0.94485486
0000f0 05 30 81 3f 79 50 8e 3f a0 7a 8f 3f 32 2f 88 3f
       1.0092779 1.1118308 1.1209297 1.0639403

network.5.bias f4 [64]
000000 19 f7 33 bd 5d 68 03 bd 43 3c 4a bd 38 c3 e2 bd
       -0.043936823 -0.03208195 -0.049373876 -0.11072391
000010 c6 c2 82 3c 69 72 84 bd aa 99 20 bc 1e 8e a4 3d
       0.015962016 -0.064671345 -0.009802261 0.08034919
000020 97 8f 0a bc 28 03 a3 bd 8d cc b3 3d 1a 84 bf bd
       -0.008457086 -0.079595864 0.08779249 -0.09351368
000030 d9 d6 59 bd 90 aa de bc 62 d2 5b b9 ed de ae bc
       -0.05318341 -0.02718094 -0.00020963841 -0.021346534
000040 7a 7f 67 bd d8 c5 cb bd 21 0f aa ba 9a 4e 57 3e
       -0.056518055 -0.09949845 -0.001297448 0.21026078
000050 9a 2b 03 3e 50 7b 55 be 93 a7 87 bd 55 2c a7 bd
       0.12809601 -0.20847821 -0.06623759 -0.081627525
000060 ab 29 10 3e a7 ed 80 3d ee 23 65 bd 3d 84 ae 3d
       0.14078395 0.062953286 -0.05594247 0.08521316
000070 0b b8 60 3e a4 c5 81 bc 17 9d 46 3d 35 93 9c 3c
       0.21945207 -0.015841313 0.048489656 0.019113163
000080 b8 96 82 bd 90 17 20 be dc c5 48 3d 55 a8 19 bd
       -0.063764036 -0.15633988 0.04901682 -0.03751405
000090 d5 ff b6 bd 88 31 92 3d 09 cc 1d bd de 07 b6 bc
       -0.08935515 0.071383536 -0.03852466 -0.022220548
0000a0 1f 63 06 be e9 0e f5 3d 87 ef 69 bd c8 a7 8c 3e
       -0.13123749 0.119657345 -0.057113197 0.27471757
0000b0 36 52 e8 bd 94 18 f9 bb c1 a7 e1 bd 57 2e 2d be
       -0.113438055 -0.007601807 -0.11018325 -0.16912208
0000c0 40 a5 ff bc bd 1a c4 bc 4f 68 3f bc ea 2c 30 3d
       -0.031206727 -0.023938531 -0.011682584 0.043011583
0000d0 a8 4a 16 3e d1 c8 7e bd 14 d5 f2 bc a8 c4 ae bc
       0.14676917 -0.062203232 -0.02964262 -0.021334007
0000e0 94 db b4 bd 60 77 f4 bd e6 3d a3 bc 99 0e d8 bd
       -0.08830944 -0.119368315 -0.019926976 -0.10549659
0000f0 69 69 de bd 8b c0 95 3d 5f 0f 2f 3e c7 43 01 bd
       -0.10859949 0.07312115 0.17095707 -0.031558778

network.5.running_mean f4 [64]
000000 e5 42 85 bf 22 1a ae 3d 10 c5 e2 be 10 f1 84 bf
       -1.041104 0.08501078 -0.44290972 -1.0386066
000010 33 45 01 be e1 08 47 bf 29 20 01 3f 70 f9 2e 3f
       -0.12624054 -0.77747923 0.504397 0.6834936
000020 85 d6 38 bf 53 96 84 bf 31 48 eb 3e 1f 55 da be
       -0.7220233 -1.0358375 0.45953515 -0.42643067
000030 6c f6 02 bf c8 0e fb bc db 60 8b 3c 26 02 77 3f
       -0.5115726 -0.030646697 0.017013958 0.96487653
000040 3c c1 80 3d ce 4c 73 bf 9a 7b 50 bf 36 1a 5d bf
       0.062868565 -0.9503907 -0.814386 -0.8636812
000050 7e 52 b7 3d d3 90 e1 3f e0 42 57 3e c2 4f c8 3f
       0.08951281 1.7622322 0.21021605 1.564934
000060 93 02 56 3f fb 73 cf 3e e5 09 54 3e 7e 02 b5 3d
       0.8359768 0.40518174 0.207069 0.08838366
000070 c6 ca 83 3e dd 4f 4c 3d ee a6 83 3e a9 b8 08 bf
       0.2574064 0.04988085 0.25713295 -0.5340677
000080 14 39 bc 3f 3c ba 42 be e1 2a 30 3e 76 ea 42 bf
       1.4704919 -0.19016355 0.17203857 -0.7613901
000090 72 49 3f bf 33 22 da 3e 09 4e 89 bf c1 62 4a be
       -0.74721444 0.42604217 -1.072694 -0.19764234
0000a0 f7 3f d6 be 1a fd f8 3d dc 0c cb bd 10 b0 91 3e
       -0.41845676 0.1215765 -0.09914562 0.28454638
0000b0 a8 d9 62 bf 4b f8 e4 3d 45 da cd 3e 2e d6 1b 3f
       -0.8861337 0.111801706 0.4020559 0.6087369
0000c0 6d 23 5c 3f 67 be 45 3f 2d f5 9b bc 55 79 1f bf
       0.85991555 0.77243656 -0.019037807 -0.62294513
0000d0 b8 0e 82 3f 9b 23 94 be a6 fe 1b bf 7b 2d 40 bf
       1.0160742 -0.28933415 -0.6093544 -0.750694
0000e0 9e 05 41 bf fb aa 08 bf 7d 74 14 bf c0 75 c8 be
       -0.75399196 -0.53385895 -0.57990247 -0.39152336
0000f0 7a 9c 8a 3f a0 11 bd 3e 32 cc 84 3d 0a e2 ec 3e
       1.0829003 0.3692751 0.0648426 0.46266204

network.5.running_var f4 [64]
000000 39 8e bf 3f a7 17 b7 3f 54 85 e6 3f be 25 70 40
       1.4965278 1.4304093 1.8009439 3.7523036
000010 ca 2f 28 40 7b 2e 07 40 83 33 10 40 50 64 c6 40
       2.6279168 2.112212 2.253144 6.199745
000020 ff ab 44 40 0b 45 fb 3f e3 17 39 40 52 9d a1 40
       3.0729978 1.9630445 2.892083 5.050454
000030 d4 cf a2 40 14 86 35 40 f9 13 15 40 c4 8f a4 40
       5.0878696 2.8363085 2.329344 5.1425495
000040 76 94 9a 3f 4b e9 76 40 1a c6 b4 3f 40 84 e4 40
       1.2076557 3.857989 1.4122956 7.141144
000050 21 a7 2f 40 e7 a0 e7 40 bc 70 a0 40 d9 91 7b 40
       2.7445757 7.2383914 5.0137615 3.9307768
000060 8d 99 8e 40 0f 52 ce 3f 68 40 1f 40 7f 79 f7 3f
       4.456244 1.6118792 2.488306 1.9333953
000070 89 a7 a9 40 e7 aa ed 3f 68 dc 85 40 4f 75 20 40
       5.301701 1.856778 4.183155 2.50716
000080 ac 3b 9e 40 b7 c3 18 40 96 d7 13 40 42 fc 42 40
       4.944784 2.3869455 2.3100333 3.0466466
000090 87 04 be 3f b0 ea 54 40 f1 da 84 40 fa a4 09 40
       1.4845132 3.3268242 4.1517262 2.1506944
0000a0 1f ed 26 40 33 52 2e 40 15 43 0b 40 ce 28 aa 40
       2.6082227 2.723767 2.1759694 5.317481
0000b0 31 13 16 40 06 42 6c 40 7c 1c 05 40 b3 ee 45 40
       2.3449214 3.6915298 2.0798635 3.092694
0000c0 e5 64 96 40 a1 71 3f 40 7d 8f 3e 40 0d b9 59 40
       4.699816 2.9913104 2.9775078 3.4019196
0000d0 c0 9a 94 40 a8 91 0a 40 e6 92 78 40 57 ed 85 40
       4.6438904 2.1651402 3.883966 4.185222
0000e0 38 30 e6 3f c3 54 c4 3f a9 ec 45 40 98 55 e6 3f
       1.7983465 1.5338367 3.0925696 1.7994871
0000f0 b5 ad 38 40 67 69 1a 40 53 1c 52 40 c0 53 2a 40
       2.8856022 2.4126832 3.2829788 2.6613617

network.8.weight f4 [32, 64]
000000 d2 18 48 3e 4f 2d 41 be 5f fe e1 bc 36 df 67 3d
       0.19540718 -0.1886494 -0.027587114 0.056609355
000010 e2 48 16 3d 7e fc 2c be 71 15 3e be 0e 9a 24 3e
       0.0366906 -0.16893193 -0.18562867 0.16074392
000020 17 9e 62 bd b1 19 5e bd 05 b1 17 be e6 b4 8b 3b
       -0.055326547 -0.05422372 -0.14813621 0.004263508
000030 ba d1 b4 bd 2b e6 25 be 74 4d 79 3e 45 88 88 be
       -0.08829065 -0.16201083 0.24345952 -0.26666465
000040 31 07 df bc 62 75 96 3d 46 fc 38 3d 38 2a 57 be
       -0.027225109 0.07346608 0.04516246 -0.21012199
000050 3c 05 80 bd 0b a1 d3 3d 15 04 63 3d 56 7b 32 be
       -0.062509984 0.10333451 0.055423815 -0.17429861
000060 ff 8b 5b be 53 f4 ad be 15 fe 70 be 73 63 57 be
       -0.21440123 -0.33975467 -0.23534425 -0.2103403
000070 9c a6 ae be b7 36 52 3c 8e 93 86 be 1c 27 0e be
       -0.34111488 0.012830428 -0.2628445 -0.13882107
000080 ec 46 8e be fe 7a 0b be db a8 1b be d6 98 cf 3d
       -0.27788484 -0.13621137 -0.15201132 0.10136573
000090 f0 56 f1 bd 00 0d d2 bd 97 41 ab bd fa 67 6b 3a
       -0.1178416 -0.10256386 -0.0836212 0.0008980032
0000a0 95 41 0f bd 90 ab 71 be f8 44 da 3d 54 4c 3a be
       -0.034974653 -0.23600602 0.10657686 -0.1819318
0000b0 ec b7 35 bd 64 91 ac bd 92 b2 13 be 35 37 d1 3d
       -0.044364855 -0.084261686 -0.14423588 0.10215608
0000c0 a5 49 29 3d 8b f9 a6 bc 88 d3 72 be 03 9c d6 bd
       0.04133 -0.020382663 -0.23713505 -0.104789756
0000d0 91 9e a1 3d 04 f7 9e 3d 2a 16 81 3d cf 46 18 be
       0.07891572 0.07761958 0.063030556 -0.14870761
0000e0 be 2d 48 be 0d 52 6b be 88 d5 e8 bd 0b c3 45 bd
       -0.195487 -0.22980519 -0.11368853 -0.04828171
0000f0 9d 19 f1 bd 94 b9 0f be 72 60 64 3e 05 fb bd 3d
       -0.117724635 -0.14035636 0.22302416 0.09276394
000100 6a d0 84 3d 7b 5d 12 bd 47 b6 5f 3e b8 a8 0d 3d
       0.06485064 -0.03573368 0.21846877 0.03458473
000110 21 6a fc bd 2e 7f d2 3c e1 12 fa bc 66 a2 76 bd
       -0.1232493 0.02569541 -0.03052658 -0.06021347
000120 e0 e0 37 3d c5 80 71 ba 88 ca 11 3e 04 b7 b5 3c
       0.044892192 -0.00092126086 0.14237416 0.022181995
000130 f5 2d 08 3e 05 64 d4 3d 78 fd d9 3b 51 54 52 be
       0.13298781 0.1037064 0.0066525303 -0.20539977
000140 cd ba 42 bd d9 8f 3d 3d a1 3f 4b be c4 57 30 3d
       -0.04754143 0.046279762 -0.19848491 0.04305245
000150 41 a7 9c bd 17 85 9d be 02 1c 3b 3e 9b b3 15 bd
       -0.07649089 -0.30765602 0.18272403 -0.03654824
000160 bd 09 f2 ba 29 0b c9 3d 83 b5 40 3d 73 29 b9 bd
       -0.0018466037 0.09816582 0.047048103 -0.09041109
000170 ee 35 9c bd ef fb 41 bd 0f d0 3d be 88 31 fe bd
       -0.07627474 -0.047359403 -0.185364 -0.12411791
000180 99 db 93 be c6 18 01 3e d0 a7 00 3e 1d 7c 16 3d
       -0.28878477 0.12607107 0.12564015 0.036739457
000190 31 d3 d6 3c b2 31 f6 bd 72 54 b0 bd 35 63 25 3e
       0.02622375 -0.120211974 -0.08609857 0.16151126
0001a0 c9 1d 9b bd 69 98 9b be e4 e9 81 be 4f 87 a3 be
       -0.075740404 -0.30389717 -0.25373757 -0.3193917
0001b0 54 a7 dc bb 31 8c 7b 3e 54 7e 8f bd 8a 0b 40 3e
       -0.0067338143 0.24565198 -0.07006517 0.18754402
0001c0 c3 e2 bf bc 37 77 d8 3d 22 ff 2b bd 06 f0 99 bb
       -0.023423558 0.105696134 -0.04199136 -0.0046978025
0001d0 6b 50 d2 be e4 ea cf bc 3e 78 44 3e 7f d0 0d be
       -0.4107698 -0.02538056 0.19186494 -0.13849066
0001e0 cb a3 cb bd e4 f4 16 be dd b1 b2 3c 5e 52 c6 bd
       -0.099433504 -0.14741856 0.021813327 -0.09683679
0001f0 a3 71 45 3e 70 ce f1 3d f8 95 d8 3d 44 f5 0c be
       0.1928163 0.11806953 0.10575479 -0.13765436
000200 80 53 25 bc 9a af 8c bc 04 ed 64 bd c9 32 ca 3d
       -0.010090709 -0.017173577 -0.0558901 0.09872968
000210 73 4c f4 bc 1a 91 1c 3d df 2f 16 bd 21 56 f0 3b
       -0.02982161 0.038224317 -0.036666747 0.007334486
000220 ff 37 23 bc 59 0b bd bd d6 17 5b bd a9 76 cc bc
       -0.009962081 -0.0923068 -0.05348953 -0.024958925
000230 28 17 7a be 46 72 12 3e 8f 19 47 be 59 c8 9a 3d
       -0.24422896 0.14301404 -0.19443344 0.075577445
000240 9c 61 40 3e 44 99 16 3e 8e 2e 4c 3e 10 b5 fa 3d
       0.18787235 0.14706904 0.19939634 0.12241566
000250 d6 f4 cb 3d 33 e9 04 bd 6b 18 6a 3d 01 16 13 3c
       0.09958808 -0.03244896 0.057152193 0.008977414
000260 e3 e0 84 3d 25 b2 0b 3e 88 7b 5b 3e df cb 45 3e
       0.06488206 0.13642175 0.21433842 0.19316052
000270 08 6d 4d 3d b8 d2 9c 3c 6c 83 1d bd 88 c2 26 be
       0.05015281 0.019143447 -0.03845541 -0.16285145
000280 75 81 c3 3d 6e 79 35 3d 0a 30 9c 3d 50 5e 73 be
       0.09546176 0.044305257 0.0762635 -0.23766446
000290 b5 d2 ab 3c 41 62 4a 3e d3 45 00 3e 51 0c 31 3e
       0.020974496 0.19764043 0.12526636 0.17289855
0002a0 bb 57 90 3e d7 77 ef 3d 68 2f 82 3e bc fa 2c be
       0.28191933 0.116927795 0.25426793 -0.16892523
0002b0 93 9b af be 40 64 85 be ef 58 5d 3e 78 ce d4 3d
       -0.3429838 -0.26053047 0.21615957 0.10390943
0002c0 1a 27 07 bc a4 a5 89 bd 07 ff 99 bc 76 d6 fe bd
       -0.008249069 -0.067210466 -0.018798364 -0.12443249
0002d0 38 d6 60 3d dd 01 0b be 2d ae 28 3e 53 82 ea 3d
       0.054891795 -0.1357493 0.16472693 0.114506386
0002e0 8f 68 ab 3e 06 39 6f bd fa ef 36 3e 0d da c0 3d
       0.3347821 -0.05840399 0.17864981 0.0941659
0002f0 4b d8 59 3c 0a f4 4d 3d 54 de 51 bc 1b 8d 69 3e
       0.013296197 0.050281562 -0.012809355 0.22807734
000300 47 59 42 be 08 e4 24 be 33 45 86 3d 40 d6 1a 3e
       -0.18979369 -0.16102612 0.065561675 0.15120792
000310 97 80 16 3e 7d e7 02 be cf 98 45 be a1 cf 62 3e
       0.1469749 -0.12783618 -0.19296573 0.22149517
000320 9f 1f da 3d 67 0e 2f be 2c 89 65 3e 9e d3 3c bd
       0.106505625 -0.17095338 0.22415608 -0.04610025
000330 56 34 48 be a0 d1 f6 bd 05 b9 97 be aa d8 2c be
       -0.19551215 -0.120517015 -0.29633346 -0.16879526
000340 75 d9 18 3e e6 64 7a 3b b9 34 aa bd 30 ad de bd
       0.14926703 0.0038207113 -0.08310837 -0.10872877
000350 3b 0e bb 3c db b9 02 be 99 fc d0 3d 25 72 22 be
       0.022833934 -0.1276621 0.10204429 -0.15863855
000360 56 5b 48 3c 0e 8a af bc 00 6c 7a 3e 70 6b 8a be
       0.012228807 -0.021428134 0.24455261 -0.27035093
000370 77 42 0f be 27 33 5e be 25 53 38 be 48 85 53 3e
       -0.13990198 -0.216992 -0.18000467 0.20656312
000380 b9 f9 9b be 34 bc 42 3d 12 8f 09 be 50 59 2b be
       -0.3046396 0.047542766 -0.13433483 -0.16733289
000390 5b f4 a0 bd 87 ef 6a bd c2 4e d2 bc 09 a3 7b be
       -0.07859107 -0.057357337 -0.02567232 -0.24573912
0003a0 77 13 85 bd 0a c1 b3 be 13 de c3 3d 16 09 ad 3d
       -0.06497853 -0.35108215 0.09563842 0.08448999
0003b0 b3 e7 50 3e d3 9b 44 be 93 3f c0 3d fd dc d9 3c
       0.20400886 -0.19200067 0.09387126 0.026594633
0003c0 93 d1 0e be 00 1a 4d be d6 74 5b 3c 32 ea 64 3e
       -0.13947134 -0.2002945 0.013394555 0.22354963
0003d0 5f ba ba 3d bc f1 bf 3d 12 3d b6 bd f0 84 b4 3d
       0.09117579 0.09372279 -0.08898367 0.08814418
0003e0 17 a4 cc 3c 18 7a 2e be e7 27 e6 bd 11 02 f6 bd
       0.024980588 -0.17038763 -0.112380795 -0.12012113
0003f0 61 38 a9 3d 6c 10 5e be 70 f9 01 be a3 54 41 be
       0.082627065 -0.21685952 -0.12692809 -0.18879943

network.8.bias f4 [32]
000000 5b 2a 29 3c f5 dc a1 39 33 60 45 ba 05 23 83 bb
       0.01032504 0.0003087294 -0.00075292884 -0.0040019774
000010 2e ba ca 3b 66 9c c6 bb c5 a0 fb bb e0 2e d8 b9
       0.006186745 -0.0060611246 -0.0076790773 -0.00041233655
000020 df 8d 03 bb 5e c1 02 3c 93 2d 51 3c ee a9 c2 bb
       -0.0020073575 0.007980673 0.012767213 -0.0059406674
000030 77 e8 2b bb 8c cf fb ba 7d b4 fc ba 8a 47 0a 3b
       -0.002623109 -0.0019211634 -0.0019279864 0.002109977
000040 17 70 b9 3b d6 36 7b 3c 77 6e dd b9 45 eb c8 3b
       0.005659114 0.015332898 -0.00042234708 0.006131562
000050 f1 81 eb 3b 55 c1 27 ba b9 47 4a bb 7e c4 1a bc
       0.007187121 -0.0006399353 -0.0030865504 -0.009446261
000060 8f 66 26 bb b7 13 ff 3b 3f b4 5d bb 3f f5 1c bc
       -0.002539072 0.0077843326 -0.003382936 -0.009579956
000070 67 02 30 b9 fc 55 d9 3b fd d6 14 bc c9 50 e3 3b
       -0.00016785563 0.0066325646 -0.00908446 0.0069371206

network.9.weight f4 [32]
000000 12 00 41 3f 85 19 3f 3f 87 4e 51 3f 1c 48 41 3f
       0.7539073 0.74648315 0.8176045 0.75500655
000010 25 08 4b 3f de 85 2a 3f 43 79 45 3f a0 93 3f 3f
       0.793093 0.66610515 0.77138156 0.7483463
000020 84 0b 3d 3f e3 c5 56 3f ec e6 4c 3f b0 f7 5e 3f
       0.73845696 0.838957 0.8003986 0.8709669
000030 7f 0d 2c 3f 90 85 44 3f f5 a4 4c 3f bd fa 3e 3f
       0.67208093 0.767663 0.79939204 0.74601346
000040 36 c6 46 3f 92 98 5e 3f 1d 0d 3f 3f 9c bf 3f 3f
       0.77646196 0.86951554 0.74629384 0.7490175
000050 cd 83 5d 3f 6b 68 47 3f fa fb 36 3f 7d 90 48 3f
       0.8652924 0.77893704 0.71478236 0.7834547
000060 6a 6f 56 3f 6f 32 44 3f ba bf 6c 3f 93 b4 3e 3f
       0.83763754 0.76639456 0.9248005 0.74494284
000070 bc ce 35 3f c7 5b 44 3f f2 a0 4a 3f 00 63 32 3f
       0.71018577 0.7670254 0.79151833 0.6968231

network.9.bias f4 [32]
000000 7b c4 4a be 72 f1 10 be 1d f7 ba 3c be c9 51 bd
       -0.19801514 -0.14154604 0.02282291 -0.051217787
000010 da 71 de bd 14 fc 82 be a9 67 85 be 63 d5 3d be
       -0.10861559 -0.25582945 -0.2605565 -0.18538432
000020 b7 3e 4e be 7e be 8c bd 80 6d 73 be 7b 0a 07 be
       -0.20141111 -0.06872271 -0.2377224 -0.13187592
000030 b4 c5 50 be 2f 75 a7 bc 4a 35 df bc f1 9d ab bd
       -0.20387918 -0.02044162 -0.02724709 -0.08379734
000040 54 51 eb bd 89 92 49 3d 66 99 85 be 80 e8 c1 bd
       -0.114901215 0.049212012 -0.26093596 -0.09468174
000050 87 25 ce bd 21 60 91 bd 94 7b fb bb 1b 8c 17 be
       -0.100657515 -0.07098413 -0.007674644 -0.1479954
000060 41 ae 4a be 56 8b 24 be 9b 75 68 bd 03 a7 bc be
       -0.19793035 -0.16068777 -0.056752782 -0.3684617
000070 61 4b 3b be 07 c4 5f bb 52 b0 93 be bf 25 07 be
       -0.18290474 -0.003414394 -0.2884546 -0.13197993
