soil_salinity_multi_sensor/outputs/models/stage1/stage1_epoch_60.pth (torch, 72297 bytes, 20 tensors)

network.0.weight f4 [128, 36]
0.185753 0.15258297 0.57030946 0.27827492 0.06288353 0.039245058 0.12060963 -0.101167634
0.11069689 -0.24950504 0.22907187 0.118919894 0.2188925 0.13948223 0.047626086 -0.17322268
0.3205782 0.20981584 0.47044572 0.66047364 0.0953834 -0.11627532 -0.047123358 0.08265237
0.39590493 0.29259118 -0.00979182 -0.014321288 -0.18126741 0.14475815 -0.4478553 0.48241553
0.17720103 -0.1673483 -0.41938338 0.039055508 0.13721995 0.02034197 0.072794214 0.22839552
0.008352985 0.043023482 0.04889339 0.1322782 -0.18147968 0.053960454 -0.0639647 -0.15479822
-0.113954 -0.21889775 0.08586114 -0.044576056 0.1866115 0.12358522 0.018739063 0.013196855
0.019749714 -0.0658826 0.19938238 0.08670835 0.055033892 0.09018827 -0.30074313 0.21890606
0.004582331 -0.063009866 -0.39188814 0.29054037 0.19052005 -0.030702127 -0.409336 0.06974516
0.44402665 0.44309652 0.32339683 0.5048717 -0.24685368 -0.0018671282 -0.13809015 -0.056346208
0.010689065 0.17754045 0.2829474 0.31047034 0.23600022 0.19832957 -0.019076062 0.077814855
0.46304107 0.6072078 0.32255128 0.60329556 0.05030047 -0.016823031 -0.0063207387 0.05139918
0.0051167584 -0.10168486 -0.14990295 -0.02604447 0.09354355 0.23650217 -0.69715047 0.55047643
0.035371102 0.07967191 -0.4803973 -0.095091015 0.35559264 0.5122799 0.3989171 0.6006015
0.06631184 0.022159103 -0.11734296 -0.13269365 0.12818623 0.48022205 0.4152601 0.38819176
0.331257 0.34939206 0.07194387 -0.10276759 0.56683433 0.36977565 0.7514061 0.6436219
0.15938745 -0.17519565 -0.10250937 -0.07570798 0.41173896 0.39880973 -0.16880234 0.038774047
-0.09860194 -0.08420203 0.030375214 0.27156463 0.019877328 0.18208759 -0.29088843 -0.12007551
-0.0585132 0.14807785 0.2981073 0.10942155 0.08205923 0.11194582 -0.11160475 0.0126220845
-0.60005695 -0.12067351 -0.070304744 -0.24375561 -0.49050117 -0.2236013 -0.22235386 0.04113919
0.22679803 0.1998901 0.11268655 0.07033715 0.014142342 0.04006521 -0.064301915 -0.0018668685
-0.0069453684 -0.08802309 0.08954251 0.010440983 -0.11239308 0.092197835 0.33627915 -0.079715
-0.17000102 -0.11196841 0.1476002 -0.09539994 -0.03791817 0.112446845 -0.06208622 -0.024756713
0.009851821 -0.10309054 -0.11030766 -0.025194671 0.13573919 -0.040119804 -0.03464239 -0.120062314
-0.1158202 0.0499406 0.16465512 0.16217403 -0.059631143 0.294425 -0.00959195 0.029780079
0.01711192 0.015295143 -0.109586775 -0.08175884 -0.013297897 0.008285418 0.05009014 -0.07290692
0.06486214 -0.19755808 -0.20978872 0.1316585 0.18857385 0.16206934 -0.2661194 0.068170615
0.48197106 0.4522357 0.4419596 0.3935169 -0.22518955 0.16281697 -0.15805481 -0.0018191419
-0.031076008 0.029408501 0.1915719 0.2657836 0.119487196 0.23991787 0.10655464 -0.12074717
0.3942268 0.21604943 0.5934858 0.31087086 0.1515558 -0.018346233 -0.12647375 -0.08048969
0.3746995 0.2807814 0.02778791 -0.08926953 -0.08364132 0.20584975 -0.21393836 0.39794603
0.07507937 -0.16403253 -0.2704468 -0.1394421 -0.36220032 -0.36570075 -0.39785033 -0.6494121
00000000: 0936 3e3e b63e 1c3e cdff 113f 0d7a 8e3e
00000010: 15c9 803d 6dbf 203d 2f02 f73d fa30 cfbd
00000020: 0db5 e23d 407e 7fbe d191 6a3e 468c f33d
00000030: 5b25 603e 6ed4 0e3e 9213 433d 4961 31be
00000040: d322 a43e f7d9 563e 43de f03e cd14 293f
00000050: 5f58 c33d c121 eebd 6c04 41bd a545 a93d
00000060: 0db4 ca3e 83ce 953e df6d 20bc d6a3 6abc
00000070: 2a9e 39be 7b3b 143e 4a4d e5be 2bff f63e
00000080: 3074 353e 5a5d 2bbe 6bb9 d6be abf8 1f3d
00000090: 6383 0c3e 34a4 a63c 2215 953d 84e0 693e
000000a0: f5da 083c 6439 303d 6f44 483d f073 073e
000000b0: cfd5 39be a305 5d3d edff 82bd 6d83 1ebe
000000c0: b760 e9bd bb26 60be f7d7 af3d 6295 36bd
000000d0: 1617 3f3e 3f1a fd3d aa82 993c 9f37 583c
000000e0: 27ca a13c 75ed 86bd e52a 4c3e 2694 b13d
000000f0: 386b 613d a1b4 b83d 01fb 99be e928 603e
00000100: 6127 963b 510b 81bd 90a5 c8be b5c1 943e
00000110: b017 433e 0783 fbbc 7d94 d1be 8dd6 8e3d
00000120: 7657 e33e 8cdd e23e 4594 a53e 463f 013f
00000130: 36c7 7cbe 6dba f4ba 8167 0dbe 48cb 66bd
00000140: 3021 2f3c 2acd 353e 7bde 903e f8f5 9e3e
00000150: 0baa 713e e816 4b3e 6745 9cbc 655d 9f3d
00000160: b813 ed3e f871 1b3f 7125 a53e 9471 1a3f
00000170: de07 4e3d 74d0 89bc 331e cfbb f287 523d
00000180: 7baa a73b 2740 d0bd 2980 19be 365b d5bc
00000190: c393 bf3d a02d 723e 7478 32bf 06ec 0c3f
000001a0: 4ae1 103d 072b a33d a3f6 f5be 14bf c2bd
000001b0: 3d10 b63e c724 033f dd3e cc3e 05c1 193f
000001c0: 81ce 873d 0287 b53c 8151 f0bd d8e0 07be
000001d0: 4043 033e aadf f53e f99c d43e 12c1 c63e
000001e0: 849a a93e 84e3 b23e 4f57 933d d077 d2bd
000001f0: 0e1c 113f 3c53 bd3e 265c 403f 68c4 243f
00000200: 7736 233e 7d66 33be 6ff0 d1bd c90c 9bbd
00000210: 73cf d23e ca30 cc3e 85da 2cbe 89d1 1e3d
00000220: d0ef c9bd 1d72 acbd 71d5 f83c 850a 8b3e
00000230: c7d5 a23c 2b75 3a3e 54ef 94be 26ea f5bd
00000240: 8aab 6fbd b8a1 173e 85a1 983e 6818 e03d
00000250: ab0e a83d da43 e53d 0891 e4bd dccc 4e3c
00000260: 559d 19bf ac23 f7bd effb 8fbd 129b 79be
00000270: f822 fbbe bdf7 64be bbb0 63be 9181 283d
00000280: be3d 683e feaf 4c3e 35c8 e63d ec0c 903d
00000290: 48b5 673c 6b1b 243d b9b0 83bd b6b1 f4ba
000002a0: f995 e3bb 7345 b4bd 1062 b73d a810 2b3c
000002b0: 582e e6bd 38d2 bc3d c82c ac3e 9e41 a3bd
000002c0: bf14 2ebe b24f e5bd 8224 173e 0b61 c3bd
000002d0: 1550 1bbd 884a e63d 1f4e 7ebd 97ce cabc
000002e0: 8869 213c 2221 d3bd fce8 e1bd 0e65 cebc
000002f0: 37ff 0a3e aa54 24bd 2ee5 0dbd 3be3 f5bd
00000300: 2433 edbd 848e 4c3d 5a9b 283e f310 263e
00000310: c93f 74bd e0be 963e 8e27 1dbc 5af5 f33c
00000320: 4c2e 8c3c 7b98 7a3c 086f e0bd 2e71 a7bd
00000330: 6cdf 59bc 90bf 073c 522b 4d3d 3950 95bd
00000340: 71d6 843d aa4c 4abe dbd2 56be 7cd1 063e
00000350: 8119 413e 81f5 253e cd40 88be 099d 8b3d
00000360: e9c4 f63e 708b e73e 8748 e23e 0c7b c93e
00000370: 1798 66be 7eb9 263e 1fd9 21be 4670 eeba
00000380: 1d93 febc 19ea f03c 6d2b 443e ca14 883e
00000390: b4b5 f43d 08ad 753e 5239 da3d 4b4a f7bd
000003a0: 18d8 c93e 103c 5d3e afee 173f 772a 9f3e
000003b0: 7231 1b3e d74a 96bc 5682 01be c7d7 a4bd
000003c0: 9dd8 bf3e 94c2 8f3e 79a3 e33c f1d2 b6bd
000003d0: 244c abbd 47ca 523e a812 5bbe 95bf cb3e
000003e0: 36c3 993d 25f8 27be 0178 8abe e9c9 0ebe
000003f0: 5272 b9be 213d bbbe 0ab3 cbbe df3f 26bf

network.0.bias f4 [128]
-0.0002601652 2.2267795e-05 5.3031596e-05 -0.00047499608 -6.4342003e-06 -2.5679592e-05 0.00037536636 -2.338542e-06
-0.00013467668 9.4688025e-05 -5.0601993e-05 0.0003598153 -0.0003179548 0.00023043194 8.0742066e-05 0.0003993505
-6.3433035e-05 -0.00023944843 3.074103e-05 -3.469299e-05 0.0004242449 6.6056964e-05 -0.00034012547 0.000111148045
-0.00014763781 -0.00027842168 -0.0027291558 -0.00012161685 4.442887e-05 -0.00049149984 1.8801271e-05 -0.00024338343
8.2237784e-05 -9.243462e-05 -0.00012482674 9.21156e-05 -0.00086208544 -0.00012956474 -7.7359706e-05 0.00010887216
8.52712e-05 0.00026572606 -7.0465474e-05 -0.00012348506 6.4728597e-06 1.5654707e-05 3.1102132e-05 -2.7771068e-05
-0.0002197734 5.7408743e-05 -0.00020225166 -2.635928e-05 -8.264386e-06 -0.000701586 -0.00050734455 -0.0001549464
0.00022742352 0.00010581272 0.00021175407 0.0009382195 0.0003646473 0.00012982753 -0.00014403388 3.215989e-05
-7.0787224e-05 0.00014325867 -0.0006006825 -0.0006466135 3.95984e-05 0.000105821135 -0.0002267339 0.00020171341
0.0004127405 -0.0002663465 4.6546153e-05 0.00034284452 0.00050432945 1.7257556e-05 0.00011505084 -5.1959996e-05
2.4594263e-05 -0.00026254635 -0.0003478585 -0.000117728734 0.00034865102 2.6942529e-05 0.0006681803 -0.00070486014
-0.0007309637 0.0010737585 0.00014615161 -3.560892e-05 9.813727e-05 0.00011580908 0.000254648 -0.0003550065
0.0005287265 0.00078034855 -5.490556e-06 -6.7405774e-05 5.017642e-05 0.000108696724 -3.3012726e-05 0.0004876606
0.0009843782 1.6572623e-05 0.000118717806 2.2945429e-05 0.00022154345 6.7612e-05 -6.298518e-05 7.408618e-05
-7.2082425e-05 0.00025450013 0.00012797076 8.403849e-05 3.0673145e-05 -9.8466655e-05 0.00020752892 -0.00011605009
0.00012207364 -2.5674406e-05 -0.0002800919 -8.0539045e-05 0.00047421487 -0.0003109689 -3.916063e-05 0.00018755482
00000000: c866 88b9 bacb ba37 3e6e 5e38 e508 f9b9
00000010: 5ce5 d7b6 816a d7b7 d2cc c439 d8ef 1cb6
00000020: ff37 0db9 3f93 c638 7a3d 54b8 98a5 bc39
00000030: 2cb3 a6b9 1aa0 7139 1154 a938 eb5f d139
00000040: 5a07 85b8 7314 7bb9 eeef 0038 5083 11b8
00000050: 306d de39 1088 8a38 de52 b2b9 2718 e938
00000060: 39cf 1ab9 20f9 91b9 a3db 32bb 8d0c ffb8
00000070: 2359 3a38 ffd7 00ba 6cb7 9d37 be34 7fb9
00000080: 1377 ac38 75d9 c1b8 ece3 02b9 302e c138
00000090: 93fd 61ba c5db 07b9 2d3c a2b8 4c52 e438
000000a0: a0d3 b238 2651 8b39 ddc6 93b8 c57b 01b9
000000b0: 7131 d936 3a52 8337 a973 0238 eaf5 e8b7
000000c0: f972 66b9 2bca 7038 8413 54b9 1f1e ddb7
000000d0: 45a7 0ab7 a4ea 37ba 51ff 04ba 1c79 22b9
000000e0: 8978 6e39 c6e7 dd38 4d0a 5e39 d8f2 753a
000000f0: 222e bf39 5022 0839 cd07 17b9 6be3 0638
00000100: 9a73 94b8 b537 1639 1f77 1dba 7f81 29ba
00000110: 7516 2638 4aec dd38 6bbf 6db9 0883 5339
00000120: 1865 d839 6ca4 8bb9 8d3a 4338 d0bf b339
00000130: fa34 043a 52c4 9037 7347 f138 9fef 59b8
00000140: c74f ce37 60a6 89b9 c760 b6b9 22e5 f6b8
00000150: 26cb b639 a402 e237 d228 2f3a 5dc6 38ba
00000160: 259e 3fba 5bbd 8c3a 4640 1939 c95a 15b8
00000170: 0ccf cd38 87de f238 4782 8539 2a20 bab9
00000180: 3c9a 0a3a 4e90 4c3a 843b b8b6 335c 8db8
00000190: 8574 5238 1cf4 e338 2577 0ab8 b3ac ff39
000001a0: 4006 813a 7005 8b37 23f8 f838 ef7a c037
000001b0: 1e4e 6839 ebca 8d38 e916 84b8 b75e 9b38
000001c0: f52a 97b8 6e6e 8539 e42f 0639 d23d b038
000001d0: 0aa7 0038 e27f ceb8 1f9c 5939 eb5f f3b8
000001e0: e500 0039 5e5f d7b7 4cd9 92b9 12e7 a8b8
000001f0: 0ba0 f839 8a09 a3b9 6840 24b8 5daa 4439

network.1.weight f4 [128]
1.0303525 0.9278479 0.9397472 0.9274016 1.0126548 1.0276909 0.930065 1.0778044
0.92431104 1.0279509 1.1281537 1.0170246 1.0187751 1.0872687 1.1308116 0.9908008
0.9820508 0.94141906 0.98770434 1.0523474 1.0153209 1.0244334 1.0797535 1.0259889
0.9460688 1.0188807 1.093081 0.96079534 1.0744495 0.9615038 0.94313407 0.97477156
0.95014113 0.97863436 0.9321308 1.0148885 1.0846363 0.96617025 1.0348779 0.9235808
1.025546 1.0582341 0.97914577 1.0885514 0.962223 1.0266813 0.9451767 0.9275913
0.97907805 1.0806739 0.9067991 0.94119275 0.9659118 1.1386365 1.1301484 1.0938925
0.93615246 0.9798939 1.0084561 1.0665573 0.9451351 0.95061374 1.1253318 1.0053873
0.9363678 1.097058 0.9642582 1.1534243 1.0047206 0.99810886 0.9779674 0.97655123
0.93328553 1.0697064 0.97767866 1.054849 0.9611032 1.0648757 0.98002297 1.0795649
1.0496699 0.9974232 0.91531944 0.94430935 0.98262936 1.0206118 1.1075975 1.0854754
1.1156142 1.0717887 1.0117177 0.93794924 0.99791056 0.9789917 0.9116977 1.0073212
0.9534768 0.9778868 1.0575281 0.94787306 0.9343982 0.9814227 0.9287355 1.1229124
0.9210633 1.0331627 1.0139 1.0590988 1.0036104 0.94887894 0.99532104 1.0187929
0.9159123 1.025337 0.95223624 0.9758879 1.1232601 0.96485794 1.0074787 1.0387869
0.9091033 0.93402064 0.9608712 0.9002851 0.9685995 0.9882004 0.9432392 0.91940945
00000000: 97e2 833f 7187 6d3f 4693 703f 316a 6d3f
00000010: ac9e 813f 608b 833f bd18 6e3f 7ff5 893f
00000020: a69f 6c3f e593 833f 5767 903f dd2d 823f
00000030: 3967 823f 9f2b 8b3f 6fbe 903f 1fa5 7d3f
00000040: ae67 7b3f d700 713f 31da 7c3f 52b3 863f
00000050: 09f6 813f a220 833f 5d35 8a3f 9b53 833f
00000060: 9131 723f af6a 823f 14ea 8b3f aff6 753f
00000070: 9087 893f 1d25 763f 3c71 713f a18a 793f
00000080: 733c 733f c887 7a3f 20a0 6e3f dee7 813f
00000090: 5dd5 8a3f ef56 773f e176 843f cb6f 6c3f
000000a0: 1745 833f 3774 873f 4ca9 7a3f a755 8b3f
000000b0: 3f54 763f 4b6a 833f 1af7 713f a076 6d3f
000000c0: dca4 7a3f 8653 8a3f fc23 683f 02f2 703f
000000d0: ff45 773f d7be 913f b4a8 903f ab04 8c3f
000000e0: b0a7 6f3f 54da 7a3f 1715 813f f384 883f
000000f0: 60f4 713f 6c5b 733f df0a 903f 88b0 803f
00000100: cdb5 6f3f 666c 8c3f a0d9 763f 68a3 933f
00000110: af9a 803f 1084 7f3f 125c 7a3f 43ff 793f
00000120: cdeb 6e3f 24ec 883f 2649 7a3f 4b05 873f
00000130: dc0a 763f d94d 883f c9e2 7a3f 2f2f 8a3f
00000140: 955b 863f 2057 7f3f 6052 6a3f 42be 713f
00000150: 998d 7b3f 68a3 823f c1c5 8d3f dcf0 8a3f
00000160: 72cc 8e3f 5f30 893f f77f 813f 711d 703f
00000170: 1177 7f3f 339f 7a3f 0565 693f e7ef 803f
00000180: 0e17 743f ca56 7a3f 155d 873f cfa7 723f
00000190: b834 6f3f 853e 7b3f 9cc1 6d3f 98bb 8f3f
000001a0: ceca 6b3f ad3e 843f 7ac7 813f 8d90 873f
000001b0: 4e76 803f bbe9 723f 5ccd 7e3f ce67 823f
000001c0: 3a79 6a3f 3e3e 833f c1c5 733f cad3 793f
000001d0: fdc6 8f3f ee00 773f 10f5 803f f8f6 843f
000001e0: feba 683f fa1b 6f3f a8fb 753f 1679 663f
000001f0: 23f6 773f b4fa 7c3f 2078 713f 6b5e 6b3f

network.1.bias f4 [128]
-0.11016025 -0.06342913 -0.028471785 0.043674674 0.019812686 -0.00045095605 0.032049783 -0.1486287
-0.19841552 0.06296967 0.1212248 0.03087203 -0.06557625 0.008544371 0.07363815 -0.040103666
-0.14971417 -0.040724345 0.0036549866 0.03239774 0.034774497 -0.10009864 0.07687841 -0.05813062
-0.19028191 -0.035665013 0.028004158 -0.10873749 -0.061324358 -0.09296541 -0.054060716 -0.16375479
-0.15765825 -0.10039695 -0.07015325 -0.03786788 -0.038737368 0.08806253 0.058383428 -0.10229308
0.056393597 -0.08951146 -0.076239154 -0.077118225 -0.04022451 -0.0564141 -0.20120427 -0.05967942
-0.055357233 -0.09122951 -0.1834914 0.05182215 -0.12065218 -0.026384613 0.111243196 -0.07415519
-0.10519482 0.06965629 -0.080690354 0.2675322 0.058948506 0.059518974 -0.036640927 -0.097502805
-0.05975648 -0.0935863 -0.012825237 0.12604159 -0.013332663 0.009776246 -0.0029365341 -0.04605296
0.15750687 -0.06795779 -0.15714186 -0.07238995 -0.07617784 -0.045770936 -0.12818375 0.050771948
0.022427525 -0.021084363 -0.024408769 -0.046472892 -0.062704235 0.089209914 0.047713015 0.097410455
0.020277252 -0.12121208 0.008353392 0.049835376 -0.049783293 -0.1718393 0.07565802 0.047228377
0.061767254 -0.062436905 -0.050829075 -0.024685096 0.00526293 -0.0018845733 -0.12585878 0.18909739
0.07126485 -0.06692117 0.06368297 -0.21150497 -0.051330905 -0.040841058 0.020679003 0.011113883
-0.09850837 0.031368785 -0.02214879 -0.13238823 0.12229022 -0.08534274 -0.062095344 0.07375338
-0.16032752 0.014897319 0.028392298 0.07034286 -0.016268998 -0.05456908 -0.038178783 -0.17509785
00000000: b29b e1bd 22e7 81bd a93d e9bc 37e4 323d
00000010: 374e a23c 4c6e ecb9 a246 033d 1f32 18be
00000020: 702d 4bbe 3ef6 803d b544 f83d 57e7 fc3c
00000030: d74c 86bd b1fd 0b3c 99cf 963d be43 24bd
00000040: ac4e 19be 92ce 26bd 8088 6f3b 7eb3 043d
00000050: b46f 0e3d 8400 cdbd 6e72 9d3d 5f1a 6ebd
00000060: 43d9 42be 7a15 12bd fa68 e53c c3b1 debd
00000070: 402f 7bbd a664 bebd c56e 5dbd 56af 27be
00000080: 2a71 21be eb9c cdbd 82ac 8fbd 5a1b 1bbd
00000090: 13ab 1ebd 215a b43d 7623 6f3d 097f d1bd
000000a0: f9fc 663d c951 b7bd 4623 9cbd 29f0 9dbd
000000b0: 75c2 24bd 7912 67bd 7e08 4ebe 6872 74bd
000000c0: 44be 62bd 8ad6 babd 2be5 3bbe 7643 543d
000000d0: 7d18 f7bd 8b24 d8bc 79d3 e33d adde 97bd
000000e0: 6270 d7bd f5a7 8e3d fc40 a5bd fbf9 883e
000000f0: fd73 713d 2bca 733d cc14 16bd 8daf c7bd
00000100: 36c3 74bd 2daa bfbd f120 52bc 0c11 013e
00000110: 3e71 5abc 8c2c 203c de72 40bb 07a2 3cbd
00000120: 7b49 213e 742d 8bbd cce9 20be 2f41 94bd
00000130: 2103 9cbd 4e7a 3bbd 9a42 03be 3ff6 4f3d
00000140: eeb9 b73c 1db9 acbc e6f4 c7bc 5c5a 3ebd
00000150: 146b 80bd b0b3 b63d b96e 433d 227f c73d
00000160: 7b1c a63c 0a3e f8bd aadc 083c 2e20 4c3d
00000170: 91e9 4bbd a4f6 2fbe 98f2 9a3d 8b72 413d
00000180: a9ff 7c3d d7bd 7fbd 2632 50bd 6638 cabc
00000190: a874 ac3b c903 f7ba 20e1 00be bfa2 413e
000001a0: 4ef3 913d f70d 89bd 386c 823d c294 58be
000001b0: 5b40 52bd f448 27bd 0367 a93c 0117 363c
000001c0: c2be c9bd 8e7c 003d 6171 b5bc c890 07be
000001d0: 4b73 fa3d 2dc8 aebd b057 7ebd 030c 973d
000001e0: e62c 24be e213 743c f796 e83c eb0f 903d
000001f0: 9046 85bc d483 5fbd 5b61 1cbd da4c 33be

network.1.running_mean f4 [128]
1.0015233 1.3936802 0.9630182 2.854308 -3.9039526 1.6220423 1.0702088 -2.8545365
0.50552124 -2.1653214 -0.23088765 -0.72788906 -1.9567517 -3.0519893 -3.8940876 1.2618775
0.23170817 -0.15158327 0.019458458 -2.4662614 -2.8337605 -3.9964993 1.5356882 -4.4071684
-1.2383012 -3.5338335 -1.6469219 0.32388264 -3.9607377 1.5200843 0.87533754 0.8849358
1.9389659 -1.7459348 1.0476843 -0.8399499 -1.1746156 1.6073407 -1.780837 1.1135716
-1.9616957 1.1365432 -0.56519884 -1.3195739 2.2778127 -2.9258316 0.05463773 0.21879622
-2.3721812 -3.5491824 1.8627346 0.3429973 -3.4426882 -1.1388832 1.3787838 -2.289645
2.3450444 -2.9150925 -3.7260222 2.057532 2.7138505 -3.302155 -3.8395846 -2.2444508
3.3328302 -2.2684639 -0.25995862 3.0193586 0.66592985 -3.0735579 -0.39231408 0.4025361
3.1476612 -0.026518574 -0.43573424 1.3608844 -0.1652247 -1.5554061 -0.25884897 -2.396694
-1.2990189 0.17525008 1.1932024 2.883649 -3.4093688 -2.8592718 -1.9761118 -2.8115153
-1.301697 2.1051803 2.5285141 2.585837 1.7051129 -3.7532856 0.918441 -1.3387821
3.0667324 -2.0828295 0.25212088 3.4333236 -1.9346371 -2.1798296 1.6117458 -1.6257881
1.2049778 0.59161174 -2.7844687 -2.3499162 -3.4936574 -3.5219064 -2.0996308 0.6916377
2.8946187 -3.8534737 2.5264292 -1.4138284 -2.2369382 0.122347854 -1.8624749 -1.2048843
0.4772623 0.7748781 -0.7612848 2.058373 0.9254012 -0.042973563 0.18416475 -1.1478306
00000000: ea31 803f 1d64 b23f 5c88 763f fbac 3640
00000010: 5cda 79c0 159f cf3f 9afc 883f bab0 36c0
00000020: d769 013f a094 0ac0 d06d 6cbe f056 3abf
00000030: d776 fabf cb53 43c0 bb38 79c0 3485 a13f
00000040: e844 6d3e a538 1bbe 5867 9f3c 3ad7 1dc0
00000050: 555c 35c0 a5c6 7fc0 6e91 c43f 8607 8dc0
00000060: a780 9ebf 542a 62c0 56ce d2bf f2d3 a53e
00000070: ba7c 7dc0 1f92 c23f 1f16 603f 278b 623f
00000080: 0930 f83f cb7a dfbf 851a 863f f506 57bf
00000090: ce59 96bf 57bd cd3f 78f2 e3bf 8489 8e3f
000000a0: d818 fbbf 3f7a 913f dfb0 10bf cce7 a8bf
000000b0: afc7 1140 d340 3bc0 d0cb 5f3d 1e0c 603e
000000c0: d1d1 17c0 ce25 63c0 166e ee3f 589d af3e
000000d0: 0155 5cc0 edc6 91bf fd7b b03f 8b89 12c0
000000e0: 3515 1640 e090 3ac0 2677 6ec0 9bae 0340
000000f0: baaf 2d40 8256 53c0 c1bb 75c0 15a5 0fc0
00000100: 174d 5540 832e 11c0 4c19 85be 2c3d 4140
00000110: 617a 2a3f 2cb5 44c0 64dd c8be 3619 ce3e
00000120: 4873 4940 7b3d d9bc 8f18 dfbe 7631 ae3f
00000130: aa30 29be 8c17 c7bf da87 84be 6f63 19c0
00000140: 4046 a6bf c274 333e dbba 983f b58d 3840
00000150: 1933 5ac0 4ffe 36c0 3bf1 fcbf deef 33c0
00000160: 029e a6bf 46bb 0640 2dd3 2140 5a7e 2540
00000170: 2441 da3f d535 70c0 f31e 6b3f 365d abbf
00000180: 5845 4440 144d 05c0 fd15 813e 93bb 5b40
00000190: 30a2 f7bf 5482 0bc0 b04d ce3f d319 d0bf
000001a0: b63c 9a3f de73 173f bc34 32c0 0765 16c0
000001b0: 1598 5fc0 ea66 61c0 5a60 06c0 2b0f 313f
000001c0: 6f41 3940 509f 76c0 04b1 2140 54f8 b4bf
000001d0: ff29 0fc0 8391 fa3d 9465 eebf a639 9abf
000001e0: b95b f43e 695e 463f 90e3 42bf 62bc 0340
000001f0: 18e7 6c3f 0c05 30bd af95 3c3e 1dec 92bf

network.1.running_var f4 [128]
333.66245 1226.6495 110.86938 428.6062 1125.9476 2665.5767 652.1817 1348.5709
121.75945 1895.8999 59.332527 63.342525 416.1766 410.4393 136.99431 185.29962
497.2904 147.20433 226.41214 1091.108 1213.779 1298.8684 124.982765 1516.7892
766.3057 1021.7147 149.7503 1789.1921 1636.094 141.96402 2868.4675 365.3823
122.31609 710.8256 1420.6178 717.12897 235.21968 344.2388 61.49811 747.05634
119.90916 333.53925 1297.8328 118.923874 1215.6672 2276.5928 841.5955 683.08105
443.04657 630.03284 595.2225 1052.1249 2719.992 52.160053 31.724646 476.6869
126.3484 827.811 1213.2516 128.22888 226.69194 1672.9186 1869.6731 1123.9697
3502.0327 337.7465 123.181404 73.76339 1259.63 775.8549 424.32538 867.93774
115.65818 256.60657 547.92426 116.36566 188.44135 220.31297 414.5957 302.56525
181.1885 133.55553 1125.3619 918.1084 1473.6501 274.37418 128.73091 99.16364
75.37079 48.072315 52.524185 2204.7412 64.606316 1726.4542 130.98668 66.99995
454.31198 909.9149 198.11021 2636.3123 269.8678 1121.2042 1946.2399 229.52403
897.4257 326.79797 924.43585 1363.6532 715.782 1147.6226 162.8135 1011.80896
3265.6694 820.31396 1884.07 1163.6404 58.7258 333.09723 840.21826 154.77452
706.61945 949.4859 441.92938 249.53316 613.379 651.2391 685.2763 1761.2695
00000000: cbd4 a643 c954 9944 1fbd dd42 984d d643
00000010: 53be 8c44 3a99 2645 a10b 2344 4592 a844
00000020: d784 f342 ccfc ec44 8254 6d42 bf5e 7d42
00000030: 9b16 d043 3b38 cd43 8bfe 0843 b44c 3943
00000040: 2ca5 f843 4f34 1343 8269 6243 7563 8844
00000050: eeb8 9744 ca5b a244 2df7 f942 4199 bd44
00000060: 9193 3f44 be6d 7f44 14c0 1543 26a6 df44
00000070: 0283 cc44 caf6 0d43 7b47 3345 efb0 b643
00000080: d7a1 f442 d7b4 3144 c593 b144 4148 3344
00000090: 3d38 6b43 911e ac43 11fe 7542 9bc3 3a44
000000a0: 7dd1 ef42 06c5 a643 a63a a244 06d9 ed42
000000b0: 5af5 9744 7c49 0e45 1d66 5244 30c5 2a44
000000c0: f685 dd43 1a82 1d44 3dce 1444 ff83 8344
000000d0: dfff 2945 e5a3 5042 13cc fd41 ec57 ee43
000000e0: 61b2 fc42 e7f3 4e44 0da8 9744 983a 0043
000000f0: 23b1 6243 651d d144 8ab5 e944 087f 8c44
00000100: 86e0 5a45 8ddf a843 e15c f642 db86 9342
00000110: 2974 9d44 b7f6 4144 a629 d443 04fc 5844
00000120: fd50 e742 a44d 8043 27fb 0844 38bb e842
00000130: fc70 3c43 1f50 5c43 404c cf43 5a48 9743
00000140: 4230 3543 378e 0543 95ab 8c44 f086 6544
00000150: ce34 b844 e52f 8943 1dbb 0043 c953 c642
00000160: d8bd 9642 0d4a 4042 c418 5242 dccb 0945
00000170: 6f36 8142 89ce d744 97fc 0243 f9ff 8542
00000180: ef27 e343 8e7a 6344 371c 4643 ffc4 2445
00000190: 14ef 8643 8926 8c44 ad47 f344 2786 6543
000001a0: 3f5b 6044 2466 a343 e51b 6744 e774 aa44
000001b0: 0cf2 3244 ec73 8f44 42d0 2243 c6f3 7c44
000001c0: b61a 4c45 1814 4d44 3d82 eb44 7e74 9144
000001d0: 38e7 6a42 728c a643 f80d 5244 47c6 1a43
000001e0: a5a7 3044 195f 6d44 f6f6 dc43 7d88 7943
000001f0: 4258 1944 4dcf 2244 af51 2b44 a028 dc44

network.4.weight f4 [64, 128]
-0.08363724 -0.09135551 0.12501605 -0.17442662 -0.1350689 -0.09237932 0.040157814 -0.058973935
0.027557248 -0.22746342 -0.11876361 0.028062696 -0.022904523 -0.05876412 0.051735394 -0.09936034
-0.092318974 -0.0034886163 -0.07226689 -0.10311712 -0.17621171 -0.19186299 0.20663771 -0.14247386
-0.056093708 0.05223914 -0.009805645 0.06433344 -0.11209938 0.03405379 0.037199937 0.04445151
0.14821002 -0.121764414 0.044753615 -0.10154677 -0.10068948 0.06337119 -0.0891131 0.086846426
-0.10717387 0.08516182 0.10072083 -0.17171337 0.07101637 0.055406805 -0.14389038 -0.18803549
-0.03483134 -0.09703885 -0.10583228 -0.12603536 -0.008498822 0.15793774 0.2723578 -0.073979385
0.04983986 0.09719256 -0.19360623 -0.008709996 -0.08337651 -0.010151701 -0.07267043 -0.06777812
0.1061168 -0.18773545 -0.026932554 0.097573824 -0.079969704 -0.07047621 -0.1476245 -0.119924866
0.14438625 -0.053973988 -0.08961628 0.02138893 -0.1615775 -0.06331341 0.045319997 -0.10882475
0.0035890636 -0.042011354 -0.020839803 -0.09925798 -0.10146157 -0.020470712 -0.061529506 -0.07825907
-0.09863153 0.126076 0.06118381 -0.018960826 0.023091989 -0.16412416 -0.09811755 0.05148217
-0.043842807 -0.17180453 0.014225146 -0.05882551 0.008290117 0.05798171 -0.043572478 0.087186955
0.058208454 -0.02851594 -0.08666176 -0.05100122 -0.042951647 0.07036184 0.09491506 -0.11666912
0.10900381 -0.11612277 -0.009713927 -0.13544017 -0.14135559 -0.06797321 -0.08428408 -0.19118834
0.095190294 -0.083668135 -0.107842654 0.10792977 0.03240564 -0.022982765 -0.03962408 -0.14166924
0.16696543 -0.01607653 0.10615263 0.00829493 -0.053100727 -0.084845975 -0.035949916 -0.011866671
0.0059456076 0.008536401 -0.118474334 0.12667218 -0.13950738 -0.15971956 -0.15611301 0.044519
0.07211675 0.07675232 -0.20066863 -0.031190787 -0.040490087 -0.076351956 0.1334382 0.048666902
0.014941681 0.020733336 -0.16098335 -0.04640675 0.033143226 -0.023989461 -0.10932254 0.13120994
0.15974307 0.18889385 -0.14168784 0.056408416 -0.25781402 0.09470137 0.09032261 -0.098381765
0.004479413 0.1008966 -0.0030310727 -0.1787142 -0.046844862 -0.17020415 0.06499409 -0.033622198
-0.009690689 -0.087378316 0.04167531 0.062517054 0.12333985 0.040615313 -0.11105642 -0.104010925
-0.03585178 -0.053087007 0.008948356 0.00045037697 0.02954529 -0.12109214 -0.0330266 -0.15832634
0.016893001 -0.015390084 0.09979899 0.15766394 0.05739891 -0.13764676 0.019841507 0.025722625
0.14480124 0.08421224 0.043390498 0.05814562 0.16328962 -0.08862038 -0.037277896 -0.23391871
-0.15449768 0.084401004 -0.06320563 0.08931183 -0.14320205 -0.031940132 -0.07743843 -0.07325877
-0.037520193 -0.24931782 0.15565717 -0.065024726 -0.1490245 -0.1384256 0.05236211 0.046129655
-0.07058159 0.1432578 0.13487636 -0.057439733 0.080203526 -0.16059534 -0.17282586 0.09192561
0.09952288 0.18121915 0.015446317 -0.045841333 0.13662528 -0.17588548 0.19111545 0.05523729
-0.0075905044 -0.10280608 0.06180217 -0.15860197 -0.0616301 0.02437408 0.12046456 0.02058309
-0.16223101 -0.05959634 -0.06310646 0.079445496 0.14526258 -0.050379448 0.16866028 -0.045122612
00000000: 004a abbd 9918 bbbd 3504 003e e49c 32be
00000010: 804f 0abe 5e31 bdbd 857c 243d a78e 71bd
00000020: bdbf e13c 2cec 68be 563a f3bd bde3 e53c
00000030: 44a2 bbbc a5b2 70bd 7ee8 533d 6f7d cbbd
00000040: bb11 bdbd 45a1 64bb aa00 94bd 122f d3bd
00000050: d870 34be bb77 44be d698 533e abe4 11be
00000060: 84c2 65bd b5f8 553d dba7 20bc 40c1 833d
00000070: 5c94 e5bd fd7b 0b3d f65e 183d c912 363d
00000080: 5ec4 173e 9f5f f9bd 914f 373d c1f7 cfbd
00000090: 4936 cebd c1c8 813d ee80 b6bd 8adc b13d
000000a0: f97d dbbd 5269 ae3d b946 ce3d a1d5 2fbe
000000b0: 0871 913d 3ff2 623d 0058 13be 608c 40be
000000c0: 4fab 0ebd 4ebc c6bd 98be d8bd 6a0f 01be
000000d0: a53e 0bbc 6eba 213e 7b72 8b3e 8182 97bd
000000e0: e224 4c3d e50c c73d b640 46be 5fb4 0ebc
000000f0: 4ec1 aabd 5253 26bc 3cd4 94bd 41cf 8abd
00000100: c453 d93d b93d 40be a9a1 dcbc c9d4 c73d
00000110: 28c7 a3bd d555 90bd e02a 17be 2b9b f5bd
00000120: fdd9 133e d413 5dbd bd88 b7bd d637 af3c
00000130: 9274 25be 76aa 81bd 76a1 393d 83df debd
00000140: 7f36 6b3b 1914 2cbd 3cb8 aabc c547 cbbd
00000150: 15cb cfbd 32b2 a7bc 5d06 7cbd 4b46 a0bd
00000160: 54ff c9bd 111a 013e e09b 7a3d bc53 9bbc
00000170: 692b bd3c 2a10 28be dbf1 c8bd f8de 523d
00000180: 8494 33bd 87ed 2fbe 9610 693c 05f3 70bd
00000190: 45d3 073c 3b7e 6d3d 0e79 32bd 138f b23d
000001a0: fd6b 6e3d 439a e9bc b97b b1bd a8e6 50bd
000001b0: 11ee 2fbd de19 903d d462 c23d 38f0 eebd
000001c0: 643d df3d c6d1 edbd 2a27 1fbc d4b0 0abe
000001d0: 85bf 10be 8a35 8bbd 229d acbd e0c6 43be
000001e0: 21f3 c23d 335a abbd 9cdc dcbd 490a dd3d
000001f0: c7bb 043d 5a46 bcbc dc4c 22bd be11 11be
00000200: fcf8 2a3e edb2 83bc 8d66 d93d 75e7 073c
00000210: 2680 59bd bac3 adbd 3840 13bd 6d6c 42bc
00000220: 5fd3 c23b 43dc 0b3c aca2 f2bd 5ab6 013e
00000230: 06db 0ebe 868d 23be 17dc 1fbe 8e59 363d
00000240: f2b1 933d 5230 9d3d 147c 4dbe d283 ffbc
00000250: efd8 25bd 6a5e 9cbd 06a4 083e f256 473d
00000260: f4cd 743c f5d8 a93c d2d8 24be 0115 3ebd
00000270: 31c1 073d 8c85 c4bc 7fe4 dfbd e65b 063e
00000280: b093 233e 646d 413e 9e16 11be 830c 673d
00000290: 3300 84be cbf2 c13d 10fb b83d 617c c9bd
000002a0: 0ac8 923b e0a2 ce3d f6a4 46bb db00 37be
000002b0: 66e0 3fbd ff49 2ebe 9f1b 853d 6eb7 09bd
000002c0: b2c5 1ebc 67f3 b2bd bbb3 2a3d f108 803d
000002d0: 9a99 fc3d 3e5c 263d 8c71 e3bd ae03 d5bd
000002e0: 51d9 12bd c371 59bd 209c 123c 9320 ec39
000002f0: f708 f23c 28ff f7bd e646 07bd 4d20 22be
00000300: 3163 8a3c b126 7cbc 6a63 cc3d a872 213e
00000310: 1f1b 6b3d 46f3 0cbe a88a a23c 41b8 d23c
00000320: c746 143e 7877 ac3d 3cba 313d 1a2a 6e3d
00000330: 6535 273e 9a7e b5bd b5b0 18bd 6388 6fbe
00000340: a434 1ebe 6fda ac3d f471 81bd 1fe9 b63d
00000350: 8fa3 12be a8d3 02bd 0a98 9ebd b208 96bd
00000360: c6ae 19bd 2c4d 7fbe 9864 1f3e af2b 85bd
00000370: e199 18be 71bf 0dbe a779 563d 73f2 3c3d
00000380: 158d 90bd 2cb2 123e 071d 0a3e ed45 6bbd
00000390: bf41 a43d 1b73 24be 43f9 30be 7f43 bc3d
000003a0: a7d2 cb3d 8391 393e 8d12 7d3c 1fc4 3bbd
000003b0: 7fe7 0b3e 531b 34be c5b3 433e 7f40 623d
000003c0: c4b9 f8bb fe8b d2bd 4624 7d3d 8e68 22be
000003d0: d86f 7cbd 27ac c73c 20b6 f63d de9d a83c
000003e0: e31f 26be 4b1b 74bd f63d 81bd 52b4 a23d
000003f0: b7bf 143e ae5a 4ebd 48b5 2c3e 7dd2 38bd

network.4.bias f4 [64]
0.0069201 0.009634297 -0.0043387963 -0.0019493973 0.005243863 0.000712941 0.0015603246 0.002093265
-0.0013935742 -0.0019335455 -0.0023758172 0.008644293 0.00054508075 0.005877628 -0.00094825594 0.0059566884
-0.0017883253 -0.0005882412 0.00058537995 0.0040431246 -0.00030294136 0.0033442017 0.001475286 -0.0009080688
0.00067237456 0.00024823073 -0.0056307362 -0.012964469 0.0017224633 -0.0017927168 0.0017697131 0.004997927
-0.0025797426 0.00016761366 -0.0061245514 -0.0021233105 0.00026452512 -0.0010407373 0.0046672095 0.0020785383
0.0066096103 0.008729351 0.0009098766 -0.0017574402 0.0015541177 0.001147949 -0.002320124 -0.0074023562
0.0023954534 -0.0015497706 0.0068335286 0.002391484 0.0001077508 0.0052466253 0.00273306 0.0014065785
0.0061119082 0.0046448437 0.001265767 0.0040461267 -0.0054837526 0.00035554473 0.0009988417 -0.0027933922
00000000: 02c2 e23b 2cd9 1d3c 762c 8ebb eb82 ffba
00000010: b6d4 ab3b a9e4 3a3a ce83 cc3a 292f 093b
00000020: 97a8 b6ba 056f fdba 99b3 1bbb cba0 0d3c
00000030: c0e3 0e3a 1e99 c03b 6194 78ba 5330 c33b
00000040: 3d66 eaba 3334 1aba 2f74 193a 307c 843b
00000050: 1ad4 9eb9 652a 5b3b 625e c13a 770b 6eba
00000060: 4b42 303a f724 8239 0a82 b8bb ed68 54bc
00000070: 47c4 e13a 98f9 eaba b8f5 e73a a7c5 a33b
00000080: e610 29bb 73c1 2f39 76b0 c8bb 3d27 0bbb
00000090: f6af 8a39 5969 88ba 64ef 983b 1638 083b
000000a0: 6e95 d83b 8d05 0f3c c984 6e3a e859 e6ba
000000b0: 89b3 cb3a c776 963a 390d 18bb 778f f2bb
000000c0: 0afd 1c3b ac21 cbba cbeb df3b 72ba 1c3b
000000d0: 45f8 e138 e2eb ab3b 231d 333b f15c b83a
000000e0: 6746 c83b c633 983b 18e8 a53a 5f95 843b
000000f0: 0db1 b3bb 6868 ba39 91eb 823a 5811 37bb

network.5.weight f4 [64]
0.9419007 0.92891926 0.9835954 1.0169451 0.9508773 0.8859705 0.99064636 1.1980616
0.9706361 0.9447457 1.071266 0.8895238 0.927906 0.94707364 0.98522407 1.0444331
0.92480063 0.9807058 1.0156584 1.1145111 0.99282265 1.0019602 0.9321349 1.010996
1.1045 1.0362593 0.97382516 0.9864713 1.1503383 0.88635445 1.1043751 0.99838024
1.1186442 0.8427494 0.98435515 0.96520853 0.8494563 1.0439061 0.97170544 0.9487751
0.9606806 1.1936662 1.0047307 1.1862546 1.0095793 0.99934953 0.9278343 0.9162154
0.96470994 0.9800443 0.9861765 1.036899 1.2371937 0.8968658 0.8755973 0.93821573
0.97622997 0.88030744 0.97870237 0.97683275 1.0200621 1.1305261 1.1334829 1.0758097
00000000: 6720 713f a7cd 6d3f e8cc 7b3f 422b 823f
00000010: b26c 733f f6ce 623f 009b 7d3f 155a 993f
00000020: 9c7b 783f dbda 713f 3f1f 893f d5b7 633f
00000030: 3f8b 6d3f 6b73 723f a537 7c3f fcaf 853f
00000040: bcbf 6c3f 890f 7b3f 1801 823f 4da8 8e3f
00000050: a029 7e3f 3b40 803f 65a0 6e3f 5168 813f
00000060: 4260 8d3f 25a4 843f 9b4c 793f 6289 7c3f
00000070: 493e 933f 20e8 623f 2a5c 8d3f d995 7f3f
00000080: bc2f 8f3f 6dbe 573f b3fe 7b3f e817 773f
00000090: f875 593f b79e 853f b0c1 783f ede2 723f
000000a0: 2aef 753f 0eca 983f 049b 803f 31d7 973f
000000b0: e539 813f 5fd5 7f3f 8c86 6d3f 188d 6a3f
000000c0: 3bf7 763f 2fe4 7a3f 1076 7c3f 1bb9 843f
000000d0: 5d5c 9e3f ff98 653f 2527 603f e82e 703f
000000e0: 35ea 793f d45b 613f 3d8c 7a3f b611 7a3f
000000f0: 6591 823f 14b5 903f f815 913f 22b4 893f

network.5.bias f4 [64]
-0.031656735 0.019133195 -0.0701023 -0.09719931 0.027284157 -0.07560249 0.014197522 0.10911883
0.040435318 -0.072068855 0.11468467 -0.0641448 -0.060155414 -0.021202577 -0.0068872496 -0.026143322
-0.0862835 -0.104947664 -0.033498935 0.22390789 0.14191358 -0.2703044 -0.046253797 -0.074928164
0.14045054 0.07873908 -0.094633564 0.09056788 0.26625445 -0.042943142 0.06502446 -0.0026794411
-0.066937126 -0.13123527 0.07363382 -0.05866594 -0.092648014 0.11838549 0.0062372442 -0.03927611
-0.09789993 0.10005938 -0.052276604 0.3176061 -0.07503491 -0.0077366373 -0.07144321 -0.19760934
-0.07248653 -0.019850668 -0.06824018 0.065017834 0.180801 -0.08699799 -0.03002312 -0.021937756
-0.043284215 -0.12975708 -0.007316119 -0.07907108 -0.08809927 0.0812543 0.19113126 -0.046948507
00000000: 7eaa 01bd 38bd 9c3c cb91 8fbd 6f10 c7bd
00000010: 0683 df3c 7ad5 9abd b99c 683c b179 df3d
00000020: 819f 253d d698 93bd ccdf ea3d 595e 83bd
00000030: 8665 76bd 07b1 adbc 70ae e1bb 852a d6bc
00000040: 67b5 b0bd cdee d6bd 2e36 09bd 1c48 653e
00000050: cb51 113e 5765 8abe 9f74 3dbd f073 99bd
00000060: 44d2 0f3e f441 a13d 3ecf c1bd a77b b93d
00000070: 8152 883e 26e5 2fbd 8b2b 853d 9099 2fbb
00000080: 5516 89bd 8a62 06be 54cd 963d b24b 70bd
00000090: 3ebe bdbd 1774 f23d cc61 cc3b fcdf 20bd
000000a0: c27f c8bd efeb cc3d fe1f 56bd 449d a23e
000000b0: e7ab 99bd 9e83 fdbb d150 92bd 1a5a 4abe
000000c0: d173 94bd de9d a2bc 82c1 8bbd 1228 853d
000000d0: e623 393e 012c b2bd 0cf3 f5bc cfb6 b3bc
000000e0: ca4a 31bd 0adf 04be 0ebc efbb 05f0 a1bd
000000f0: 646d b4bd a868 a63d eab7 433e 144d 40bd

network.5.running_mean f4 [64]
-1.462534 -0.39510772 -0.7248593 -1.2156379 -0.25735483 -0.8329088 0.35518676 0.96382374
-1.0393307 -1.1877443 0.2662118 -0.69073665 -1.0038205 0.07926081 0.26562214 1.2826666
0.06660183 -1.1638179 -1.13414 -0.5576954 -0.040129248 1.8305308 0.63575226 1.4704983
0.984406 0.69926596 0.5874142 0.110909425 0.15137528 0.013074905 0.6763358 -0.29556626
1.5778235 -0.21431726 -0.35495085 -0.7168216 -0.40488407 0.40240467 -1.2663859 -0.22183113
-0.55227834 0.20776172 -0.79780394 0.21413226 -1.1279188 -0.01666408 0.34978816 0.47342634
1.0372545 0.68616235 0.09139205 -1.1679175 1.2817976 -0.5712027 -1.003156 -1.1154191
-1.0926963 -0.65402955 -0.5272297 -0.6232334 0.98708653 0.14212586 0.5328559 0.32501665
00000000: 5034 bbbf 8f4b cabe 6190 39bf 069a 9bbf
00000010: 03c4 83be 8339 55bf 0adb b53e 27bd 763f
00000020: ca08 85bf 0108 98bf ea4c 883e 1ed4 30bf
00000030: 317d 80bf 7e53 a23d a0ff 873e 6b2e a43f
00000040: 8a66 883d fcf7 94bf 802b 91bf 20c5 0ebf
00000050: 915e 24bd d54e ea3f a9c0 223f 4a39 bc3f
00000060: 0802 7c3f 1803 333f c760 163f 7b24 e33d
00000070: 1f02 1b3e 2038 563c 5824 2d3f 7654 97be
00000080: 1ff6 c93f fc75 5bbe 1ebc b5be 9f81 37bf
00000090: f74c cfbe fc07 ce3e ef18 a2bf b327 63be
000000a0: 1d62 0dbf 7dbf 543e e13c 4cbf 7d45 5b3e
000000b0: a55f 90bf 1c83 88bc 6f17 b33e f064 f23e
000000c0: c1c4 843f 56a8 2f3f c12b bb3d 527e 95bf
000000d0: f211 a43f 573a 12bf 6a67 80bf 0ec6 8ebf
000000e0: 79dd 8bbf 7b6e 27bf 87f8 06bf 398c 1fbf
000000f0: b4b1 7c3f 7189 113e 3f69 083f 9568 a63e

network.5.running_var f4 [64]
2.8555853 1.9750491 2.3345761 3.9037519 4.3624806 1.2009482 2.7993398 5.834573
3.0435705 1.9717736 3.3690565 5.5325084 5.907266 3.186802 3.1318574 4.9935603
1.7032628 3.2846267 1.7097622 7.0283093 3.0890176 6.913803 2.4121304 3.291391
3.5395732 2.8459055 1.6503742 2.6028252 4.720069 1.3895245 3.1463294 2.9683633
6.4947453 2.5493507 2.122996 3.6007884 2.1953247 4.2545843 4.055396 3.2244616
2.9168599 2.5657163 2.118542 4.5829587 3.3724449 3.5155263 2.1183984 2.7004087
4.2406464 3.1595016 4.2792845 4.544899 4.00356 2.4974408 4.2577176 4.3595037
1.4659158 1.7370073 3.4135027 1.6606746 2.4624898 2.9157495 3.8929965 3.1025145
00000000: e9c1 3640 69ce fc3f b269 1540 12d7 7940
00000010: 7199 8b40 acb8 993f 6228 3340 d2b4 ba40
00000020: dcc9 4240 1463 fc3f 9f9e 5740 4f0a b140
00000030: 5308 bd40 90f4 4b40 5a70 4840 3fcb 9f40
00000040: 8404 da3f 5337 5240 7dd9 da3f e9e7 e040
00000050: 77b2 4540 e03d dd40 5860 1a40 26a6 5240
00000060: 5e88 6240 5123 3640 763f d33f b094 2640
00000070: ce0a 9740 f0db b13f 765d 4940 aaf9 3d40
00000080: f4d4 cf40 9028 2340 2bdf 0740 5173 6640
00000090: 3380 0c40 8e25 8840 cec5 8140 945d 4e40
000000a0: d5ad 3a40 b234 2440 3196 0740 99a7 9240
000000b0: 23d6 5740 62fe 6040 d793 0740 7fd3 2c40
000000c0: 60b3 8740 4635 4a40 e6ef 8840 d06f 9140
000000d0: 2a1d 8040 12d6 1f40 393f 8840 0e81 8b40
000000e0: 21a3 bb3f 4156 de3f d476 5a40 fc90 d43f
000000f0: 6f99 1d40 a49b 3a40 db26 7940 998f 4640

network.8.weight f4 [32, 64]
0.19021796 -0.1824109 -0.0811698 0.04492794 0.0073362924 -0.16858189 -0.19444045 0.17872225
-0.040549684 -0.072798684 -0.1671579 0.00917486 -0.10196728 -0.1664847 0.26406577 -0.2550863
-0.030744398 0.07802344 0.051156532 -0.23621684 -0.07350043 0.1260294 0.041428905 -0.17555012
-0.22221291 -0.36561123 -0.19098869 -0.22206335 -0.34494552 0.010021561 -0.25155577 -0.12964028
-0.27836168 -0.14006332 -0.14674592 0.113701396 -0.09308137 -0.10319443 -0.07353709 0.005382578
-0.05995486 -0.24693288 0.1015549 -0.14855105 -0.07486267 -0.09020236 -0.12823504 0.09161221
0.062474724 -0.015025536 -0.21107958 -0.066162825 0.073325664 0.08943787 0.046793714 -0.16175503
-0.2129954 -0.2292067 -0.098163776 -0.079364344 -0.12590906 -0.1555467 0.22616026 0.07448042
0.040602364 -0.017183814 0.19632457 0.027917452 -0.10205821 0.021146791 -0.03034504 -0.066955484
0.042603366 -0.020077145 0.15202633 0.050497428 0.15274638 0.13221881 0.0059845634 -0.17811449
-0.028069867 0.0567445 -0.20790382 0.019522613 -0.046709966 -0.3037505 0.18777908 -0.031577013
0.018409906 0.11255331 0.092720784 -0.062886044 -0.08154265 -0.04616596 -0.20424537 -0.110758
-0.28155094 0.13661017 0.14660572 0.05282987 0.06278911 -0.13165602 -0.109820254 0.13834268
-0.06342451 -0.27802956 -0.23328473 -0.32303166 -0.03213961 0.24591336 -0.011358248 0.22938459
0.009575872 0.10340164 -0.032396473 -0.01653656 -0.4269571 -0.026807815 0.17943133 -0.128076
-0.10315294 -0.13903502 0.020590013 -0.083419055 0.21186869 0.15568368 0.08696971 -0.097980864
0.0051177572 -0.010272301 -0.10545987 0.0607439 -0.017161928 0.049178448 -0.04894251 0.012100597
-0.022079535 -0.078934245 -0.054416455 -0.06698359 -0.20032528 0.13667959 -0.1804085 0.07304221
0.16982523 0.14692037 0.22080266 0.09291243 0.07737152 -0.027176157 0.061503295 0.0142565975
0.05897638 0.16402535 0.21105815 0.22898363 0.051428437 0.025573665 -0.018750332 -0.13277422
0.08393556 0.046108495 0.11198278 -0.20752077 0.04516128 0.20549718 0.10828388 0.17199296
0.2968827 0.15835509 0.25477472 -0.17692308 -0.39486364 -0.23577204 0.26483455 0.08330406
0.006380966 -0.047892798 0.008785897 -0.1502465 0.046802327 -0.08720157 0.15759805 0.10667013
0.32648343 -0.040968984 0.19820985 0.08634654 0.015739905 0.08705788 -0.0062641124 0.2463118
-0.18870902 -0.18392058 0.058247242 0.14389026 0.15527564 -0.14272365 -0.20085771 0.20614249
0.1014256 -0.19667214 0.23627575 -0.020193972 -0.19900326 -0.11549047 -0.29252318 -0.14914641
0.13782278 0.015704805 -0.07607266 -0.13632694 -0.0062627993 -0.12334208 0.12500605 -0.14199865
0.023015855 -0.01624422 0.25394887 -0.29547587 -0.13797553 -0.21430057 -0.18312784 0.20525676
-0.31314087 0.053389378 -0.16618368 -0.14033516 -0.058616623 -0.034579217 -0.01093352 -0.21752109
-0.09085661 -0.37625867 0.08142286 0.108158335 0.19554664 -0.19753742 0.073437154 0.055226434
-0.100960754 -0.19187644 0.016817136 0.21407092 0.08742727 0.09447581 -0.083714955 0.051535156
-0.012509724 -0.1848626 -0.12522231 -0.12086565 0.090168685 -0.21011691 -0.13126187 -0.22932853
00000000: 7fc8 423e ecc9 3abe 5a3c a6bd 5c06 383d
00000010: 4865 f03b bba0 2cbe 661b 47be f702 373e
00000020: 6d17 26bd 7a17 95bd 712b 2bbe 2752 163c
00000030: 39d4 d0bd f77a 2abe a133 873e ac9a 82be
00000040: addb fbbc c1ca 9f3d 8389 513d d4e2 71be
00000050: 6587 96bd da0d 013e 5bb1 293d 69c3 33be
00000060: c88b 63be 6531 bbbe 8a92 43be 9364 63be
00000070: b39c b0be 7931 243c ebcb 80be 6cc0 04be
00000080: 6c85 8ebe c26c 0fbe 9044 16be 47dc e83d
00000090: 72a1 bebd 9a57 d3bd 9d9a 96bd 5660 b03b
000000a0: 3a93 75bd f9db 7cbe 04fc cf3d c41d 18be
000000b0: 9951 99bd 04bc b8bd 0c50 03be 2f9f bb3d
000000c0: 7fe5 7f3d aa2d 76bc 3f25 58be 6080 87bd
000000d0: c42b 963d 342b b73d c4aa 3f3d 1ca3 25be
000000e0: 771b 5abe 29b5 6abe 170a c9bd c689 a2bd
000000f0: 4eee 00be a247 1fbe 8e96 673e 3189 983d
00000100: aa4e 263d 12c5 8cbc 4f09 493e 24b3 e43c
00000110: e503 d1bd 093c ad3c 2996 f8bc f51f 89bd
00000120: de80 2e3d d378 a4bc caac 1b3e 64d6 4e3d
00000130: 8c69 1c3e 5e64 073e 281a c43b a563 36be
00000140: c7f2 e5bc ec6c 683d bde4 54be e3ed 9f3c
00000150: f352 3fbd 2f85 9bbe 2949 403e e656 01bd
00000160: 5fd0 963c 5a82 e63d 65e4 bd3d 66ca 80bd
00000170: d5ff a6bd 8518 3dbd b325 51be 17d5 e2bd
00000180: 7227 90be 89e3 0b3e cf1f 163e 2264 583d
00000190: 9497 803d d6d0 06be 71e9 e0bd b4a9 0d3e
000001a0: b6e4 81bd e459 8ebe 31e2 6ebe 6864 a5be
000001b0: d3a4 03bd b6d0 7b3e f217 3abc cbe3 6a3e
000001c0: 1ee4 1c3c 3dc4 d33d 2ab2 04bd ae77 87bc
000001d0: 1f9a dabe 109c dbbc d9bc 373e 5b26 03be
000001e0: d941 d3bd 325f 0ebe 63ac a83c 9cd7 aabd
000001f0: 1bf4 583e 8b6b 1f3e 2d1d b23d 31aa c8bd
00000200: dcb2 a73b 274d 28bc 58fb d7bd 98ce 783d
00000210: 2c97 8cbc 576f 493d f177 48bd 9541 463c
00000220: 24e0 b4bc 47a8 a1bd cae3 5ebd b12e 89bd
00000230: 1222 4dbe bcf5 0b3e 01bd 38be 2797 953d
00000240: aae6 2d3e 4b72 163e 181a 623e df48 be3d
00000250: f674 9e3d 88a0 debc e1ea 7b3d 8194 693c
00000260: 3791 713d 43f6 273e a11f 583e af7a 6a3e
00000270: a0a6 523d dd7f d13c 4c9a 99bc f7f5 07be
00000280: 68e6 ab3d 43dc 3c3d 3a57 e53d 5380 54be
00000290: 09fb 383d da6d 523e f0c3 dd3d ec1e 303e
000002a0: 0201 983e d627 223e d571 823e 532b 35be
000002b0: 912b cabe 3a6e 71be 6598 873e 529b aa3d
000002c0: 6c17 d13b 3d2b 44bd b9f2 0f3c 38da 19be
000002d0: ccb3 3f3d bd96 b2bd 6261 213e de75 da3d
000002e0: d628 a73e 18cf 27bd 86f7 4a3e 74d6 b03d
000002f0: f9f0 803c 674b b23d 2f43 cdbb 2939 7c3e
00000300: f03c 41be ad55 3cbe a994 6e3d f857 133e
00000310: 9400 1f3e 2626 12be a5ad 4dbe 0417 533e
00000320: 3ab8 cf3d 6c64 49be 45f2 713e d46d a5bc
00000330: 83c7 4bbe 4486 ecbd 99c5 95be d6b9 18be
00000340: 6a21 0d3e 5da7 803c fccb 9bbd 4a99 0bbe
00000350: 2b38 cdbb c69a fcbd 9601 003e 1868 11be
00000360: bf8b bc3c 9912 85bc 9605 823e 9d48 97be
00000370: 7549 0dbe 9c71 5bbe dd85 3bbe d42e 523e
00000380: 0054 a0be d2ae 5a3d 0e2c 2abe 05b4 0fbe
00000390: fc17 70bd f0a2 0dbd 8222 33bc d9bd 5ebe
000003a0: 0813 babd faa4 c0be 07c1 a63d 1e82 dd3d
000003b0: 613d 483e 4047 4abe 3866 963d 1d35 623d
000003c0: 83c4 cebd 427b 44be 17c4 893c 6835 5b3e
000003d0: 120d b33d 897c c13d bf72 abbd 8716 533d
000003e0: 96f5 4cbc 9f4c 3dbe 473a 00be 6988 f7bd
000003f0: 5caa b83d e328 57be 8369 06be 19d5 6abe

network.8.bias f4 [32]
0.013999475 0.0002593387 -0.004184495 -0.0024970793 0.006962984 -0.0071206875 -0.0088271415 -0.0005001972
-0.0020525912 0.008023038 0.010863988 -0.0060316897 -0.0013362627 -0.0037684985 -0.0031058178 0.003805001
0.0066189873 0.01571 0.0015828969 0.0066402294 0.006506859 -0.0010826527 -0.003232627 -0.009232001
-0.0019405558 0.00849915 -0.0024779812 -0.008279661 -0.0024219553 0.006341078 -0.009739633 0.007596663
00000000: 0e5e 653c daf7 8739 171e 89bb 0aa6 23bb
00000010: be29 e43b a854 e9bb b79f 10bc aa1f 03ba
00000020: c484 06bb 0f73 033c defe 313c 7ba5 c5bb
00000030: 8925 afba eaf8 76bb fa8a 4bbb 535d 793b
00000040: 17e4 d83b 42b2 803c 3579 cf3a 4896 d93b
00000050: 7d37 d53b cce7 8dba 7bda 53bb d241 17bc
00000060: 3f5a feba 0540 0b3c a065 22bb 6aa7 07bc
00000070: abb9 1ebb d1c8 cf3b fb92 1fbc 6eed f83b

network.9.weight f4 [32]
0.7566404 0.73900056 0.8133749 0.748401 0.79044056 0.64653623 0.76250684 0.7416095
0.7214665 0.8303343 0.80292356 0.8728565 0.6590962 0.7662234 0.8022641 0.7419324
0.77196896 0.8635131 0.7428765 0.74366623 0.865719 0.77993137 0.7073322 0.7824518
0.825914 0.7668274 0.9355912 0.75049794 0.71503943 0.7621859 0.7689616 0.6934346
00000000: 2fb3 413f 242f 3d3f 5639 503f 3597 3f3f
00000010: 505a 4a3f 6683 253f a633 433f 1fda 3d3f
00000020: 07b2 383f ca90 543f 668c 4d3f 8673 5f3f
00000030: 87ba 283f 3727 443f 2e61 4d3f 48ef 3d3f
00000040: c29f 453f 320f 5d3f 282d 3e3f e960 3e3f
00000050: c39f 5d3f 95a9 473f b913 353f c34e 483f
00000060: 1a6f 533f cd4e 443f e882 6f3f a220 403f
00000070: d30c 373f 9d1e 433f abda 443f ee84 313f

network.9.bias f4 [32]
-0.17034453 -0.15963723 0.07351685 -0.030375192 -0.07751519 -0.28206596 -0.26268792 -0.18586938
-0.21386696 -0.08506394 -0.24905467 -0.13854516 -0.20200162 -0.048870448 -0.0079290895 -0.07009802
-0.13408338 0.07489237 -0.25556642 -0.065664284 -0.1085777 -0.07745829 0.0043194415 -0.15853992
-0.21766977 -0.17233707 -0.058267772 -0.38580126 -0.1762904 0.021176323 -0.32712525 -0.11500792
00000000: cc6e 2ebe f177 23be 0190 963d 65d5 f8bc
00000010: 49c0 9ebd f36a 90be 087f 86be 8b54 3ebe
00000020: f1ff 5abe 0136 aebd 3008 7fbe c8de 0dbe
00000030: 83d9 4ebe 612c 48bd 03e9 01bc 8d8f 8fbd
00000040: 274d 09be 2c61 993d 9ad9 82be ff7a 86bd
00000050: fc5d debd 74a2 9ebd 1a8a 8d3b 4a58 22be
00000060: d3e4 5ebe 2179 30be 30aa 6ebd be87 c5be
00000070: 7885 34be f879 ad3c f67c a7be 4689 ebbd

network.9.running_mean f4 [32]
-1.8103852 -0.595811 0.93919444 -1.1506985 -1.4242514 -0.47195715 -0.58390796 -0.56550324
-1.4696206 -0.96472484 -0.9315417 -0.4813203 -1.2433689 -0.84899676 -1.5856256 -1.0182121
-0.3720254 -1.5318502 -0.005256692 -1.5252101 -0.5265613 -0.66369313 -0.01086454 -0.960671
-0.41397995 -1.0174506 -0.42783877 -0.3837229 -1.1753099 -1.8800653 -0.6312961 -0.9945841
00000000: b4ba e7bf 1287 18bf 0c6f 703f 174a 93bf
00000010: df4d b6bf 5ea4 f1be fe7a 15bf d2c4 10bf
00000020: 871c bcbf 35f8 76bf 8479 6ebf 9d6f f6be
00000030: b626 9fbf da57 59bf c8f5 cabf c654 82bf
00000040: 1d7a bebe ab13 c4bf 5440 acbb 163a c3bf
00000050: b9cc 06bf cbe7 29bf 2f01 32bc 89ee 75bf
00000060: 2ef5 d3be d23b 82bf af0d dbbe 5477 c4be
00000070: 8e70 96bf fba5 f0bf 9f9c 21bf 109d 7ebf

network.9.running_var f4 [32]
3.4330466 4.2374997 4.2044635 4.0896745 5.464402 2.919018 6.1667356 3.3220122
8.391162 3.6924915 5.905612 6.6217813 7.627738 4.794932 5.98844 3.735306
3.1561666 4.399395 1.2950946 5.641167 3.7973347 3.881931 3.6178842 5.5849175
2.201163 4.02296 4.5389614 4.194287 7.143051 5.4846373 4.4381833 3.320665
00000000: 09b7 5b40 9999 8740 f78a 8640 9dde 8240
00000010: 62dc ae40 31d1 3a40 e655 c540 d99b 5440
00000020: 3342 0641 c851 6c40 c6fa bc40 a2e5 d340
00000030: 6e16 f440 1570 9940 4da1 bf40 410f 6f40
00000040: a2fe 4940 d8c7 8c40 a9c5 a53f 7184 b440
00000050: 8807 7340 8f71 7840 6a8b 6740 a5b7 b240
00000060: dbdf 0c40 17bc 8040 2c3f 9140 9937 8640
00000070: e093 e440 2682 af40 9905 8e40 c685 5440

network.12.weight f4 [4, 32]
-0.16388872 0.067879476 0.07493096 -0.09415032 -0.11810036 -0.018722007 0.20237117 0.0060933908
0.13817786 -0.0010962145 0.1866854 0.14070961 -0.070728324 0.005992235 -0.12987915 -0.10572317
0.058045994 -0.10130893 0.10319671 -0.10891616 0.1044384 0.020538459 -0.0011519346 0.12321957
0.13203196 0.025030656 0.10236579 0.17138302 0.13331047 -0.13485143 0.18390745 -0.11477962
-0.13809064 0.07277795 0.05185389 -0.08811902 -0.08000316 0.072066434 0.20302296 -0.03077946
0.21628925 -0.03132097 0.17062664 0.14362706 0.074463606 -0.03079245 -0.127027 -0.11388384
0.02005578 -0.097559385 0.07735931 -0.079712264 0.10790347 -0.006699517 -0.024403064 0.14500564
0.122749195 -0.016164793 0.11806409 0.21965665 0.11098067 -0.14543687 0.11975452 -0.11197677
-0.017634813 -0.08469731 0.094437204 -0.1134617 -0.07736843 -0.123067036 0.045037825 0.05239487
0.15012842 0.030598987 0.13467309 0.09459365 -0.14450179 0.04061624 -0.08917519 -0.14782104
0.105353296 -0.073984444 0.100979805 -0.046051413 0.070229456 0.057258975 0.050138853 0.0021999716
0.11269668 0.090031445 0.04395738 0.13288067 0.01675236 -0.08686764 0.12861723 -0.13414244
-0.06156631 -0.16965646 0.07790003 -0.12779737 -0.15866402 -0.19658813 -0.07617702 0.18956015
-0.13705258 0.17880347 -0.058250748 -0.050098896 -0.19125621 0.18828063 0.021580167 0.004977141
0.16005039 0.012995193 0.048661675 -0.14026861 -0.035149798 0.13968806 0.13146508 -0.11019522
-0.013030378 0.23020212 -0.07566164 0.0076089255 -0.24195799 0.08434679 -0.03521423 0.044762902
00000000: 72d2 27be 6504 8b3d 6775 993d e2d1 c0bd
00000010: 9ade f1bd e55e 99bc 633a 4f3e 11ab c73b
00000020: 7f7e 0d3e dbae 8fba 752a 3f3e 2e16 103e
00000030: 03da 90bd 835a c43b 0aff 04be 6485 d8bd
00000040: a3c1 6d3d 0e7b cfbd cc58 d33d 700f dfbd
00000050: cde3 d53d 4540 a83c 83fc 96ba 8b5a fc3d
00000060: 6333 073e 170d cd3c 28a5 d13d 087f 2f3e
00000070: 8a82 083e 7e16 0abe 3c52 3c3e 9411 ebbd
00000080: a267 0dbe 9b0c 953d bf64 543d bf77 b4bd
00000090: b2d8 a3bd 9197 933d 40e5 4f3e 3525 fcbc
000000a0: ee7a 5d3e 6b4a 00bd c0b8 2e3e f912 133e
000000b0: 6080 983d 7340 fcbc 5e13 02be ee3b e9bd
000000c0: 054c a43c 37cd c7bd 8f6e 9e3d 2f40 a3bd
000000d0: 7ffc dc3d 9f87 dbbb efe8 c7bc 5c7c 143e
000000e0: ee63 fb3d 076c 84bc 96cb f13d aced 603e
000000f0: d549 e33d 67ed 14be dc41 f53d 1454 e5bd
00000100: e276 90bc c975 adbd 4b68 c13d 9c5e e8bd
00000110: 5773 9ebd 920a fcbd 9579 383d 019c 563d
00000120: 44bb 193e baaa fa3c bee7 093e 51ba c13d
00000130: 47f8 13be 375d 263d 7ba1 b6bd 665e 17be
00000140: 78c3 d73d 2885 97bd 80ce ce3d 68a0 3cbd
00000150: 76d4 8f3d 6388 6a3d 665e 4d3d 662d 103b
00000160: 84cd e63d 6862 b83d a70c 343d df11 083e
00000170: 3f3c 893c a9e7 b1bd 3cb4 033e a35c 09be
00000180: f42c 7cbd 6cba 2dbe 0d8a 9f3d 50dd 02be
00000190: d278 22be 664e 49be b302 9cbd 0e1c 423e
000001a0: 8357 0cbe 4218 373e 5698 6ebd 8034 4dbd
000001b0: abd8 43be a3cc 403e e4c8 b03c 4917 a33b
000001c0: 40e4 233e cae9 543c 7751 473d 93a2 0fbe
000001d0: 3cf9 0fbd 630a 0f3e c89e 063e 08ae e1bd
000001e0: 5e7d 55bc 1bba 6b3e 7df4 9abd 4b54 f93b
000001f0: d6c3 77be 03be ac3d cc3c 10bd 4e59 373d

network.12.bias f4 [4]
-0.091981724 -0.086959705 -0.062438123 -0.002662706
00000000: ea60 bcbd ee17 b2bd 1ebf 7fbd cb80 2ebb
