soil_salinity_multi_sensor/outputs/models/stage1/stage1_epoch_20.pth (torch, 72297 bytes, 20 tensors)

network.0.weight f4 [128, 36]
-0.3673366 -0.23669367 -0.39882168 -0.34482345 -0.065193504 0.09781266 0.18356404 0.15697508
0.023708552 -0.09684971 -0.24776869 -0.0981901 0.019939192 -0.021742454 -0.055655267 -0.00047124104
-0.15940997 -0.44208267 -0.1475895 -0.31272042 0.015154671 -0.10096242 0.059977796 0.12066758
-0.22959909 -0.022907872 0.059638165 0.088021025 -0.0032093066 -0.2546564 0.06262286 -0.10946605
0.045790583 0.055491537 0.08265332 0.17614493 -0.05826331 -0.07599685 0.08834848 -0.06793143
-0.09738791 -0.11301321 0.10871228 -0.11218516 0.13238133 0.012230562 -0.03288987 0.13012303
0.066000134 0.14539097 -0.12362425 0.06252222 -0.048095074 -0.08351596 0.21368939 0.20186217
0.124783635 0.0859095 0.15109117 0.14978825 -0.009539134 -0.045665186 -0.010212547 -0.05193468
-0.09808992 0.16436303 -0.003710649 0.10611042 0.14299393 -0.1828988 -0.18538933 -0.1808907
0.17925686 0.2290604 -0.13170215 -0.14106879 -0.13753158 -0.0951858 -0.07498016 0.14968392
0.1417335 0.19227393 0.07463215 0.18384948 -0.15543209 0.028825084 0.19217695 -0.0872218
-0.10116224 0.03695294 -0.10329873 0.16118024 0.06925589 0.058092725 -0.19745338 0.08439344
-0.04291147 -0.13253233 -0.025345288 -0.14513245 0.0054755528 -0.10540228 0.12930316 0.026686503
-0.18361491 0.0060290885 0.09209452 -0.1358659 -0.019973468 0.120832056 0.04148371 0.059684288
0.16425791 0.18478937 0.20174247 0.10300792 0.20818493 0.16826737 0.018650515 -0.0937238
0.2278433 -0.056909557 -0.06981352 0.16637492 -0.016772432 0.11338536 0.16675827 0.04205825
-0.20335957 -0.036967795 -0.1817857 -0.097304754 -0.018513568 -0.09323096 0.1368509 -0.08035254
-0.03399321 0.16760676 -0.21341413 0.17768112 -0.10486977 0.026728334 0.14821029 0.117319904
0.214551 0.25273275 0.29120955 0.2871044 0.026672008 0.041294087 0.1298531 0.048887867
0.02056334 0.11018787 0.25104198 0.1922924 0.04920786 0.007352339 0.15940401 -0.08033815
0.047824454 0.03812091 0.3371442 0.11348392 -0.059303362 -0.13435051 -0.002137034 -0.03943241
0.058614295 0.055749185 0.020588048 0.034829754 0.17589313 -0.13247132 -0.15611544 0.05786682
-0.023603616 0.05307528 -0.0721517 -0.105645806 0.022403399 -0.039556436 -0.019669272 -0.08049751
-0.10289857 -0.083458744 -0.051988397 -0.1007532 -0.16847715 0.12464645 -0.030523961 -0.098242
-0.2978794 -0.04100901 -0.22473034 -0.022752468 0.034548208 0.025293373 -0.05719935 -0.25197577
0.19109698 -0.05891835 -0.028946226 0.05854303 -0.25828508 -0.08401725 -0.16388907 0.11427223
-0.048990395 -0.06787899 0.2089951 0.047746047 -0.0019024598 -0.103793755 0.14856684 0.12712409
0.10595789 0.09451879 0.051892444 -0.050349195 -0.08111101 -0.10065711 -0.18419796 -0.06953566
0.14359783 0.023109708 0.15372795 0.08035249 0.14941391 0.18824284 -0.059640322 0.010717794
-0.021576064 -0.15630838 0.05765821 -0.2126121 -0.09133833 0.05224362 0.08875651 0.09717351
-0.09140943 0.09981929 -0.057762716 0.02423669 -0.0655849 -0.15208144 0.12268749 -0.17976771
-0.18980676 -0.1727237 -0.043470073 -0.16718826 -0.15734607 -0.016219554 -0.18110615 -0.20983854
00000000: 8b13 bcbe d35f 72be 5b32 ccbe b38c b0be
00000010: 2c84 85bd 0152 c83d 36f8 3b3e 13be 203e
00000020: 7038 c23c 2459 c6bd 13b7 7dbe e417 c9bd
00000030: 8457 a33c 3b1d b2bc c7f6 63bd e710 f7b9
00000040: 5e3c 23be a958 e2be b421 17be e41c a0be
00000050: 4c4b 783c 63c5 cebd 47ab 753d 9020 f73d
00000060: 061c 6bbe 4aa9 bbbc 2647 743d 5e44 b43d
00000070: 3b53 52bb 5362 82be 6a40 803d bd2f e0bd
00000080: e88e 3b3d 184b 633d 2546 a93d 565f 343e
00000090: 82a5 6ebd 3da4 9bbd 0cf0 b43d a21f 8bbd
000000a0: 5073 c7bd 7873 e7bd 8ba4 de3d 55c1 e5bd
000000b0: f98e 073e b262 483c 87b7 06bd f93e 053e
000000c0: 142b 873d 5fe1 143e b62e fdbd a60b 803d
000000d0: 57ff 44bd 6a0a abbd 64d1 5a3e f5b4 4e3e
000000e0: 908e ff3d 52f1 af3d a5b7 1a3e 1762 193e
000000f0: 074a 1cbc 6b0b 3bbd 8752 27bc 76b9 54bd
00000100: 5ee3 c8bd c84e 283e 5c2e 73bb 6b50 d93d
00000110: 006d 123e d349 3bbe b3d6 3dbe 693b 39be
00000120: 1c8f 373e cf8e 6a3e eedc 06be 5674 10be
00000130: 14d5 0cbe c6f0 c2bd 338f 99bd be46 193e
00000140: 9622 113e 75e3 443e bed8 983d 0a43 3c3e
00000150: 9729 1fbe 9522 ec3c 09ca 443e 58a1 b2bd
00000160: 262e cfbd f75b 173d 498e d3bd 6f0c 253e
00000170: 08d6 8d3d a3f2 6d3d 3831 4abe 78d6 ac3d
00000180: f0c3 2fbd 8eb6 07be eca0 cfbc 9a9d 14be
00000190: 446c b33b 27dd d7bd 0c68 043e a79d da3c
000001a0: 8c05 3cbe a98f c53b 0d9c bc3d 6e20 0bbe
000001b0: 669f a3bc cc76 f73d d3ea 293d 8377 743d
000001c0: 3a33 283e 6d39 3d3e 9495 4e3e d1f5 d23d
000001d0: 6e2e 553e 484e 2c3e f7c8 983c 43f2 bfbd
000001e0: c14f 693e ff19 69bd 64fa 8ebd 305e 2a3e
000001f0: 5766 89bc 9536 e83d aec2 2a3e 4645 2c3d
00000200: 7e3d 50be 8b6b 17bd 0826 3abe b747 c7bd
00000210: c4a9 97bc e0ef bebd a422 0c3e df8f a4bd
00000220: 773c 0bbd 1ba1 2b3e 3c89 5abe 0af2 353e
00000230: f6c5 d6bd 61f5 da3c 70c4 173e 6b45 f03d
00000240: 42b3 5b3e 3066 813e 6b19 953e 59ff 923e
00000250: 417f da3c fd23 293d 36f8 043e a53e 483d
00000260: 7374 a83c 2eaa e13d 9388 803e 4de8 443e
00000270: 2e8e 493d e4eb f03b ce3a 233e 5488 a4bd
00000280: 93e3 433d ac24 1c3d 2a9e ac3e 426a e83d
00000290: 15e8 72bd 2e93 09be 7b0d 0cbb e183 21bd
000002a0: 8b15 703d 4259 643d 44a8 a83c a5a9 0e3d
000002b0: 541d 343e 90a6 07be badc 1fbe c205 6d3d
000002c0: 5f5c c1bc 7765 593d 45c4 93bd d45c d8bd
000002d0: 5587 b73c ee05 22bd 7421 a1bc e1db a4bd
000002e0: 7cbc d2bd 6bec aabd c9f1 54bd b257 cebd
000002f0: 4685 2cbe a346 ff3d 630d fabc 1a33 c9bd
00000300: a683 98be 10f9 27bd b61f 66be 6263 babc
00000310: 6c82 0d3d 0c34 cf3c de49 6abd f802 81be
00000320: edae 433e 5e54 71bd a320 edbc d1ca 6f3d
00000330: f13d 84be 3c11 acbd 89d2 27be 8f07 ea3d
00000340: 27aa 48bd 2404 8bbd d002 563e 5c91 433d
00000350: f55b f9ba d291 d4bd e821 183e d12c 023e
00000360: 7300 d93d 1193 c13d 2c8d 543d f53a 4ebd
00000370: 871d a6bd 5125 cebd 649e 3cbe b668 8ebd
00000380: 4f0b 133e 9250 bd3c dc6a 1d3e d98f a43d
00000390: f6ff 183e bbc2 403e 6949 74bd b099 2f3c
000003a0: 49c0 b0bc 4e0f 20be 042b 6c3d fdb6 59be
000003b0: 970f bbbd 68fd 553d f9c5 b53d e802 c73d
000003c0: de34 bbbd 0e6e cc3d 9998 6cbd 068c c63c
000003d0: 6051 86bd 3dbb 1bbe 9443 fb3d 0715 38be
000003e0: b45c 42be 7bde 30be ad0d 32bd 6633 2bbe
000003f0: 541f 21be dfde 84bc e473 39be eadf 56be

network.0.bias f4 [128]
8.059988e-05 -0.00021005297 -5.6098317e-05 -4.2600186e-05 5.3004773e-05 6.6386296e-05 0.0011161505 0.00010530202
7.428365e-05 0.00018063896 -0.0008493548 3.9770235e-05 -6.2908344e-05 0.00012641725 0.00038556283 -0.00017712408
-2.3530363e-05 0.0001259451 -7.2817456e-06 5.5516663e-05 0.00021723236 7.960953e-05 0.00025058456 -1.0893788e-05
0.00010725925 0.00014211096 5.9694343e-05 1.9044445e-06 0.00017873051 -8.719794e-05 8.5682e-05 -0.00026238733
3.1388623e-05 -0.00056049234 0.000112506015 -4.6551264e-05 -7.486747e-06 0.0001647959 -7.509772e-05 0.000132097
0.000755675 3.5371468e-05 -0.00016409469 1.7665614e-05 -0.00051295926 -5.8034024e-05 0.000140169 -1.3535621e-05
2.5358515e-05 -0.00015787201 0.00027568714 5.6801815e-05 0.00025267602 -0.0009120188 7.698558e-06 0.00035317842
9.277863e-05 -7.22918e-05 3.2368214e-05 -0.0005418981 -0.00010562901 -0.0001255235 -7.469679e-05 0.00078125414
4.4940475e-06 -0.00011450499 -6.480611e-05 0.0005061502 -0.00038153125 7.475705e-05 0.00080071244 -3.1893756e-05
-0.00028007265 -0.00012676945 -8.667288e-05 0.0007172157 9.850441e-06 -5.922045e-05 7.3016476e-05 -6.569064e-05
-0.00013677635 -3.157345e-05 3.849038e-05 -0.0002055643 0.00096206926 -5.8852595e-05 0.0002443626 6.366872e-05
-3.0118572e-05 8.567664e-05 2.358884e-05 -1.6679596e-05 0.00011824668 0.0003255458 -2.6202884e-05 0.000840519
0.00013064817 -0.00091193855 0.00022424207 -5.8572357e-05 8.7579365e-06 0.00023020184 -0.00039524236 7.566214e-05
-6.518777e-05 4.8412905e-05 -0.00055050035 -4.8621816e-05 -0.00014552005 -9.2603375e-05 -5.034361e-05 -0.0002941678
0.00011120866 -4.493813e-05 2.6805457e-05 0.00044181902 6.833322e-05 -2.522197e-05 -4.285447e-05 -0.0009778999
-2.818223e-05 3.9414757e-05 5.507787e-05 8.209655e-05 0.00014413786 2.8247756e-05 -8.212476e-05 -0.0001580334
00000000: bb07 a938 aa41 5cb9 1c4b 6bb8 9aad 32b8
00000010: 7151 5e38 df38 8b38 cc4b 923a 97d5 dc38
00000020: bbc8 9b38 e769 3d39 3ca7 5eba f7ce 2638
00000030: a9ed 83b8 df8e 0439 5e25 ca39 62ba 39b9
00000040: 1263 c5b7 2110 0439 b855 f4b6 90da 6838
00000050: dec8 6339 0af4 a638 e460 8339 77c4 36b7
00000060: 5ff0 e038 9f03 1539 5060 7a38 379c ff35
00000070: 9b69 3b39 0ade b6b8 2cb0 b338 0891 89b9
00000080: 47a7 0338 01ee 12ba 35f1 eb38 0a40 43b8
00000090: ab36 fbb6 10cd 2c39 c87d 9db8 8583 0a39
000000a0: 7e18 463a d35b 1438 d510 2cb9 9e30 9437
000000b0: 1d78 06ba 8f69 73b8 54fa 1239 0d17 63b7
000000c0: ffb8 d437 728a 25b9 1a8a 9039 7c3e 6e38
000000d0: 9a79 8439 8c14 6fba 0e29 0137 ce2a b939
000000e0: 2692 c238 5d9b 97b8 1bc3 0738 2a0e 0eba
000000f0: 2585 ddb8 f59e 03b9 89a6 9cb8 14cd 4c3a
00000100: 93cb 9636 6622 f0b8 84e8 87b8 2aaf 043a
00000110: 4208 c8b9 e3c6 9c38 e7e6 513a a9c5 05b8
00000120: b7d6 92b9 6aed 04b9 26c4 b5b8 8803 3c3a
00000130: 5243 2537 7963 78b8 6c20 9938 65c3 89b8
00000140: 9f6b 0fb9 bc6d 04b8 bb70 2138 bf8c 57b9
00000150: 6033 7c3a 7ed8 76b8 cb1d 8039 e285 8538
00000160: 24a7 fcb7 4cad b338 a6e0 c537 29eb 8bb7
00000170: 34fb f738 05ae aa39 44ce dbb7 4656 5c3a
00000180: 9afe 0839 290f 6fba 8622 6b39 97ab 75b8
00000190: 0def 1237 5662 7139 8838 cfb9 cdac 9e38
000001a0: 6bb5 88b8 f60e 4b38 744f 10ba 47ef 4bb8
000001b0: be96 18b9 0f34 c2b8 0a28 53b8 893a 9ab9
000001c0: b238 e938 f37b 3cb8 48dc e037 f2a3 e739
000001d0: 1e4e 8f38 c593 d3b7 a3be 33b8 e02c 80ba
000001e0: e168 ecb7 4651 2538 6a03 6738 402b ac38
000001f0: b623 1739 98f5 ec37 653a acb8 c5b5 25b9

network.1.weight f4 [128]
1.0130042 1.0032128 0.96895075 1.0000184 0.99374926 1.0329773 0.9569689 1.0138614
1.0033377 0.98046285 1.1255426 0.9434534 0.99881387 1.0281917 0.9735777 0.9584406
0.9756331 1.01019 1.0089396 1.0218021 0.9516952 1.0049719 0.9815835 0.9589563
1.0418912 0.99733335 1.0129123 1.0535862 1.0148312 1.000051 1.0222543 1.0827929
1.040635 1.0115787 0.98182845 0.98361385 1.0185966 1.0540096 1.0463239 1.0714059
0.9878797 0.98113036 0.9730262 1.0063182 0.97004443 1.0097244 0.97650385 0.9967759
0.9975122 1.0360912 0.97847766 0.99870867 0.94640756 1.0053304 0.99638677 0.961753
0.9913094 0.98305845 1.0062269 1.0205929 0.98869485 1.0133284 1.0020382 1.0303323
0.9521572 0.9468528 0.9875675 0.9996536 1.0181917 0.98513764 0.99884 1.0456364
0.99034977 1.0955944 1.0038701 0.97402304 1.012131 0.980446 1.0234581 1.0100615
1.0129985 1.0310465 0.9875663 0.9954102 1.0415819 0.98385763 0.97812986 1.0122337
1.0080744 0.99116385 1.0211633 0.98237216 0.9593349 1.0030643 0.9597358 0.9786986
1.0084096 1.0932738 0.978225 0.98388994 1.0248034 0.9805964 0.9637399 0.9688799
1.0386066 1.0273086 0.9680941 0.9848889 1.0235256 1.0151608 1.006526 0.9321626
1.0006008 0.9994156 0.9448929 1.0084851 0.9791486 0.99081784 1.0089589 1.0221208
1.0109881 0.99604136 0.9708863 0.9897603 0.9989737 0.9898483 1.0070317 0.96582294
00000000: 1faa 813f 4769 803f 280d 783f 9a00 803f
00000010: 5a66 7e3f 9a38 843f eafb 743f 36c6 813f
00000020: 5f6d 803f 9dff 7a3f c811 903f 2986 713f
00000030: 44b2 7f3f c99b 833f 633c 793f 5d5c 753f
00000040: 17c3 793f e84d 813f ef24 813f 69ca 823f
00000050: 4ca2 733f eba2 803f 0e49 7b3f 297e 753f
00000060: b15c 853f 3d51 7f3f 1ca7 813f eadb 863f
00000070: fde5 813f ac01 803f 3bd9 823f f598 8a3f
00000080: 8733 853f 697b 813f 1c59 7b3f 1ece 7b3f
00000090: 6061 823f c9e9 863f f1ed 853f d423 893f
000000a0: afe5 7c3f 5c2b 7b3f 3f18 793f 09cf 803f
000000b0: d554 783f a63e 813f 28fc 793f b52c 7f3f
000000c0: f65c 7f3f a39e 843f 837d 7a3f 5fab 7f3f
000000d0: c447 723f abae 803f 3413 7f3f 7235 763f
000000e0: 74c6 7d3f b8a9 7b3f 0bcc 803f caa2 823f
000000f0: 1b1b 7d3f bfb4 813f ca42 803f eee1 833f
00000100: 93c0 733f f264 723f 39d1 7c3f 4ce9 7f3f
00000110: 1b54 823f fb31 7c3f fab3 7f3f 6ad7 853f
00000120: 9087 7d3f 703c 8c3f d17e 803f 9359 793f
00000130: 828d 813f 82fe 7a3f ad00 833f b249 813f
00000140: efa9 813f 55f9 833f 25d1 7c3f 34d3 7e3f
00000150: 8e52 853f 18de 7b3f b866 7a3f e090 813f
00000160: 9508 813f eabc 7d3f 7bb5 823f be7c 7b3f
00000170: f996 753f 6964 803f 3fb1 753f fe8b 7a3f
00000180: 9113 813f 65f0 8b3f f46c 7a3f 36e0 7b3f
00000190: c22c 833f 5e08 7b3f a8b7 763f 8308 783f
000001a0: 10f1 843f d97e 833f 04d5 773f ae21 7c3f
000001b0: e302 833f caf0 813f d8d5 803f 35a2 6e3f
000001c0: b013 803f b3d9 7f3f 80e4 713f 0a16 813f
000001d0: 7ca9 7a3f 3da6 7d3f 9125 813f dbd4 823f
000001e0: 0f68 813f 91fc 7e3f 018c 783f ee60 7d3f
000001f0: bebc 7f3f b366 7d3f 6ae6 803f 2c40 773f

network.1.bias f4 [128]
0.01678356 -0.031193396 -0.0122736655 -0.020428017 0.015892394 0.016232768 -0.017355155 0.0076876385
-0.05013037 -0.04735138 0.031182433 -0.060977876 -0.081286274 -0.03057351 -0.064712815 -0.0460309
-0.023900097 0.01459949 0.014770445 -0.03646158 -0.0154485945 -0.020242702 -0.07336478 -0.053760204
0.04484741 -0.0050935405 0.031508908 -0.015147577 0.052712686 0.019871486 -0.07239914 0.035979245
-0.028512882 -0.010034308 -0.044790078 -0.024729183 -0.029699706 0.062310174 -0.013875986 -0.008927075
-0.023219956 0.00835496 -0.019264443 -0.026287979 -0.07000885 0.01559446 -0.01573583 -0.028208895
-0.05661267 0.0011734016 -0.036739487 -0.008960428 -0.06507714 0.0014822196 -0.008690729 -0.011240449
-0.044429854 -0.010933658 0.016421346 -0.06207251 -0.03226967 0.016997263 -0.009743454 -0.013843366
-0.048066247 -0.06567773 -0.026278256 -0.015026976 0.00832052 -0.026106706 -0.034607194 -0.013266929
-0.0021436778 0.094848484 -0.06262461 -0.0108485585 -0.013940293 -0.030413652 -0.007404416 0.031166075
0.029577695 -0.0058940304 -0.05978908 0.034394406 0.07093477 -0.011112472 -0.025404679 -0.0074812947
-0.027413065 -0.026422203 -0.07678812 0.018715693 -0.024581436 -0.0014419308 -0.05095383 0.022561729
-0.016431466 0.1264162 -0.086689055 0.02669968 -0.02973482 -0.020317232 -0.026089808 -0.03816092
-0.021349505 0.0053560077 -0.014971113 -0.0009559007 -0.02094058 -0.02794918 0.003851392 -0.10263212
-0.009580542 -0.015973754 -0.03781616 -0.012268453 -0.039353378 -0.021394327 -0.06000325 -0.0014794103
0.015295906 -0.045425776 -0.038035557 -0.027355867 0.028008213 -0.047380332 -0.059540592 -0.030963814
00000000: ad7d 893c 4b89 ffbc 7c17 49bc a858 a7bc
00000010: c430 823c 95fa 843c 662c 8ebc 96e8 fb3b
00000020: 8155 4dbd 85f3 41bd 4d72 ff3c f0c3 79bd
00000030: 6b79 a6bd 4c75 fabc 2788 84bd e68a 3cbd
00000040: 23ca c3bc b332 6f3c bdff 713c bd58 15bd
00000050: 1a1c 7dbc 06d4 a5bc 4640 96bd a933 5cbd
00000060: ebb1 373d b7e7 a6bb 7c0f 013d 8b2d 78bc
00000070: 42e9 573d 87c9 a23c 0046 94bd f95e 133d
00000080: d993 e9bc f066 24bc cd75 37bd db94 cabc
00000090: cc4c f3bc f438 7f3d 1b58 63bc de42 12bc
000000a0: c737 bebc 3ee3 083c 77d0 9dbc e359 d7bc
000000b0: cd60 8fbd e87f 7f3c 6de8 80bc 5716 e7bc
000000c0: b0e2 67bd d3cc 993a 257c 16bd c2ce 12bc
000000d0: 2a47 85bd 0947 c23a 8f63 0ebc dc29 38bc
000000e0: 14fc 35bd 1623 33bc 0f86 863c bf3f 7ebd
000000f0: 342d 04bd d83d 8b3c 02a3 1fbc 49cf 62bc
00000100: 1de1 44bd 0c82 86bd 7f45 d7bc b533 76bc
00000110: ca52 083c bbdd d5bc 46c0 0dbd 895d 59bc
00000120: f27c 0cbb ec3f c23d 5541 80bd 27be 31bc
00000130: d465 64bc 0d26 f9bc bea0 f2bb ff4f ff3c
00000140: ec4c f23c b622 c1bb 65e5 74bd 26e1 0c3d
00000150: 4046 913d 1611 36bc 791d d0bc a625 f5bb
00000160: 5d91 e0bc 6073 d8bc 1743 9dbd a751 993c
00000170: 025f c9bc 2bff bcba f7b4 50bd 60d3 b83c
00000180: 489b 86bc 4073 013e 088a b1bd 4ab9 da3c
00000190: 7096 f3bc 5370 a6bc 4bba d5bc a04e 1cbd
000001a0: 28e5 aebc 7381 af3b 6649 75bc 6995 7aba
000001b0: 948b abbc aef5 e4bc a367 7c3b ca30 d2bd
000001c0: b5f7 1cbc 64db 82bc 1ee5 1abd 9f01 49bc
000001d0: 0231 21bd 2843 afbc f8c5 75bd c6e8 c1ba
000001e0: ae9b 7a3c 6110 3abd 2ccb 1bbd 6919 e0bc
000001f0: 7b71 e53c e111 42bd d6e0 73bd d3a7 fdbc

network.1.running_mean f4 [128]
0.043796815 1.9357038 -1.9022256 -1.7131262 0.6275076 -1.4630367 1.1647586 2.1634426
-0.36299458 -1.5771427 1.8028868 -0.07780618 1.0249869 -1.1808195 1.5263793 2.1674447
0.7236084 -0.8041914 1.9171376 -0.11370861 0.4496258 2.6938555 -0.87138623 -2.541085
-1.1232588 -0.7191931 0.986947 -0.15783827 3.8727434 -1.3387308 1.9041277 -1.4328372
-1.2955229 1.8481076 -0.31254762 0.08546264 -2.6306465 -1.7386844 -1.6333548 0.03811144
1.5472183 -0.18341325 0.8061857 -1.9402138 1.4939638 1.0236902 -1.394022 -0.7221601
1.4826419 4.4757137 -1.3694181 -0.12626112 0.039387982 -0.27850422 2.5364375 1.4866033
-0.15616895 0.5005404 0.018409792 2.4834054 2.3757272 -1.8099617 -0.40187776 -2.0620925
0.3803996 0.96915436 2.1829345 2.2557137 2.0860066 2.5140326 0.75839525 1.3061992
0.5853845 -1.4677405 0.31035465 0.7994721 1.7417539 1.1841205 1.7790664 2.0209508
2.1509032 1.3084962 0.04196244 1.7734125 -0.3841824 -1.0945477 1.5792185 2.1622984
0.26655823 -0.9296306 -0.3702599 0.85787004 0.22437441 1.5674325 -1.8637944 -0.39775124
-2.17188 -0.86076885 0.84161335 1.5466273 -1.5250156 0.04872369 0.99926007 2.9393978
0.0681914 1.6567867 -0.844002 -0.33234593 -1.7481636 -0.8466537 2.4519258 -2.3953626
0.9283793 -2.7067823 0.7581552 0.35171923 1.0257843 0.3289906 0.45072064 2.1783397
0.16834159 -0.5054236 -0.30981314 1.9001515 1.8694602 1.3513938 1.634644 0.5930911
00000000: 4a64 333d 24c5 f73f 217c f3bf b847 dbbf
00000010: 57a4 203f c944 bbbf cf16 953f d875 0a40
00000020: 6dda b9be d0df c9bf ffc4 e63f d958 9fbd
00000030: c532 833f 1825 97bf 6660 c33f 6ab7 0a40
00000040: 663e 393f 7ddf 4dbf c464 f53f 0fe0 e8bd
00000050: 5a35 e63e 2168 2c40 2b13 5fbf 23a1 22c0
00000060: f2c6 8fbf 0a1d 38bf 8fa8 7c3f 5ba0 21be
00000070: 07db 7740 885b abbf 75ba f33f 3667 b7bf
00000080: b2d3 a5bf ca8e ec3f 3e06 a0be 0907 af3d
00000090: 835c 28c0 368d debf c511 d1bf be1a 1c3d
000000a0: 400b c63f afd0 3bbe 3062 4e3f ed58 f8bf
000000b0: 353a bf3f 4808 833f 506f b2bf 7cdf 38bf
000000c0: 36c7 bd3f 0c39 8f40 1849 afbf 984a 01be
000000d0: 4b55 213d 1b98 8ebe fe54 2240 0449 be3f
000000e0: c1ea 1fbe 6a23 003f 22d0 963c 1df0 1e40
000000f0: ea0b 1840 d3ac e7bf ecc2 cdbe 53f9 03c0
00000100: bdc3 c23e 801a 783f 33b5 0b40 9d5d 1040
00000110: 2281 0540 e9e5 2040 3126 423f 8931 a73f
00000120: c2db 153f ecde bbbf cee6 9e3e 34aa 4c3f
00000130: cbf1 de3f 4391 973f 73b8 e33f 4257 0140
00000140: 66a8 0940 ce7c a73f cfe0 2b3d 2eff e23f
00000150: 8eb3 c4be 241a 8cbf d523 ca3f 1963 0a40
00000160: 527a 883e 45fc 6dbf b592 bdbe 5f9d 5b3f
00000170: 68c2 653e a1a1 c83f d190 eebf 0da6 cbbe
00000180: 1500 0bc0 595b 5cbf f973 573f e2f7 c53f
00000190: b633 c3bf 7e92 473d 82cf 7f3f 181f 3c40
000001a0: efa7 8b3d 9611 d43f 8410 58bf 3f29 aabe
000001b0: d3c3 dfbf 4cbe 58bf 5aec 1c40 9f4d 19c0
000001c0: 44aa 6d3f ec3b 2dc0 7616 423f 8b14 b43e
000001d0: e64c 833f 7571 a83e dbc4 e63e eb69 0b40
000001e0: bd61 2c3e 7163 01bf d49f 9ebe 2a38 f33f
000001f0: 794a ef3f 79fa ac3f 043c d13f d1d4 173f

network.1.running_var f4 [128]
378.1413 956.00714 1916.4735 1505.7275 440.5282 1794.025 349.78595 1069.3873
536.3185 907.6543 23.731712 3009.759 1684.7928 1159.1986 972.4979 1096.2544
833.916 744.9338 3078.3254 379.66132 1386.2269 1417.78 679.2743 2187.4448
107.94662 282.69766 983.01355 1520.3209 710.70703 2111.733 619.20715 841.95044
2553.1067 139.70593 267.70126 828.1487 3068.2415 568.36 1466.3059 1952.0338
628.37933 667.8828 901.8138 1862.3344 82.299126 419.88315 1299.2047 1095.507
2444.8635 895.86255 1089.7137 1442.9764 693.5106 367.21445 804.4526 796.61053
3021.3916 474.8414 575.2664 313.1357 610.04926 1246.1628 1199.3029 328.28326
802.52405 1049.499 1169.9025 455.88437 655.86115 1958.9712 191.75403 1665.6771
781.32605 63.384686 275.475 450.95322 1257.2206 1465.4579 1636.9354 267.3587
1227.4897 280.5389 96.2971 1149.3337 665.74927 1307.3745 334.19907 1278.3323
1528.4999 1070.2523 2551.2664 1700.8102 268.5385 373.4205 642.0344 146.31786
917.26154 54.113396 294.12878 481.52478 1158.5746 390.49622 438.76044 1324.62
969.802 566.5513 627.45996 1667.6842 279.26123 540.7413 1488.9066 1301.1241
2320.9807 1648.9036 1228.5391 770.26544 973.6863 799.60785 259.36926 86.54105
978.23956 1086.1283 426.0645 1070.1431 659.91864 372.81125 279.30902 215.3653
00000000: 1612 bd43 7500 6f44 278f ef44 4837 bc44
00000010: 9c43 dc43 cd40 e044 9ae4 ae43 65ac 8544
00000020: 6214 0644 e0e9 6244 8cda bd41 251c 3c45
00000030: 5f99 d244 5be6 9044 de1f 7344 2408 8944
00000040: a07a 5044 c33b 3a44 3565 4045 a6d4 bd43
00000050: 4347 ad44 f638 b144 8ed1 2944 1eb7 0845
00000060: abe4 d742 4d59 8d43 dec0 7544 450a be44
00000070: 40ad 3144 bafb 0345 42cd 1a44 d47c 5244
00000080: b591 1f45 b8b4 0b43 c3d9 8543 8409 4f44
00000090: ddc3 3f45 0a17 0e44 ca49 b744 1501 f444
000000a0: 4718 1d44 80f8 2644 1574 6144 b3ca e844
000000b0: 2799 a442 0bf1 d143 8d66 a244 39f0 8844
000000c0: d1cd 1845 34f7 5f44 d736 8844 3f5f b444
000000d0: ae60 2d44 739b b743 f71c 4944 1327 4744
000000e0: 44d6 3c45 b36b ed43 0dd1 0f44 5f91 9c43
000000f0: 2783 1844 36c5 9b44 b1e9 9544 4224 a443
00000100: 8aa1 4844 f82f 8344 e13c 9244 33f1 e343
00000110: 1df7 2344 14df f444 08c1 3f43 ab35 d044
00000120: de54 4344 eb89 7d42 cdbc 8943 037a e143
00000130: 0f27 9d44 a72e b744 ef9d cc44 eaad 8543
00000140: ac6f 9944 fb44 8c43 1d98 c042 aeaa 8f44
00000150: f46f 2644 fc6b a344 7b19 a743 a2ca 9f44
00000160: ff0f bf44 13c8 8544 4374 1f45 ed99 d444
00000170: ee44 8643 d3b5 ba43 3482 2044 5f51 1243
00000180: bd50 6544 1e74 5842 7c10 9343 2cc3 f043
00000190: 63d2 9044 843f c343 5661 db43 d793 a544
000001a0: 5473 7244 48a3 0d44 70dd 1c44 e575 d044
000001b0: 70a1 8b43 712f 0744 031d ba44 f9a3 a244
000001c0: b10f 1145 ea1c ce44 4091 9944 fd90 4044
000001d0: ec6b 7344 e7e6 4744 44af 8143 0515 ad42
000001e0: 558f 7444 1bc4 8744 4208 d543 94c4 8544
000001f0: cbfa 2444 d767 ba43 8ea7 8b43 845d 5743

network.4.weight f4 [64, 128]
0.14264901 0.10069839 0.093405575 -0.17307584 -0.12900107 0.038502075 -0.08662813 -0.10630936
0.12906487 -0.07057503 0.07888133 0.10936061 -0.10047122 -0.062783286 0.13989046 0.032965485
0.053798705 0.032734465 -0.15874936 0.17093918 -0.056238074 -0.053196594 0.11766446 -0.13725814
0.055093307 0.058600727 0.029253103 0.16884342 0.04974134 -0.029204082 0.09336569 0.12580016
0.12590182 0.06532161 0.11745057 0.06643062 0.09584858 0.018627916 -0.14952494 0.085937776
-0.1083408 0.09148577 -0.07262696 -0.06919034 0.093850315 -0.019310722 0.03781094 0.054593034
-0.118713915 0.060249776 0.118381135 0.18064761 -0.16764946 0.058601554 -0.13696536 0.15455537
-0.099539086 -0.032614794 0.1659998 0.10579111 -0.1054803 0.11588595 0.17801648 -0.10954066
-0.014662232 -0.040169567 -0.13836722 -0.15986887 0.07713146 0.07241879 -0.19707805 0.029286524
0.08769161 -0.13657565 -0.076383024 0.032445263 -0.08589045 0.16852026 -0.17102462 0.117946535
-0.043036867 0.04061348 -0.023499092 -0.14819963 -0.16418321 -0.16354549 -0.024208263 -0.03926493
-0.06421455 -0.05290311 0.11402082 0.103101745 0.119009905 0.045545362 0.13162936 0.13990504
0.021649802 0.096750274 -0.012123412 -0.14741118 0.008814816 0.11342922 0.06878473 -0.15087147
0.11278551 -0.05721728 -0.116318405 0.11833172 -0.020883584 0.21362078 0.11153227 -0.100444146
0.09427506 0.06799775 -0.0026997763 -0.095244385 0.08771928 -0.120500796 0.1496304 -0.0028627857
-0.17079578 0.15930879 -0.08250614 0.12770614 0.03500296 -0.04344247 0.026289433 -0.14040627
0.17196065 0.0635209 -0.03430021 -0.03193024 -0.020288808 0.19623478 0.011267918 0.004630542
-0.1076523 -0.07550846 0.056617346 -0.015589427 0.005812923 -0.15691504 -0.08445307 0.12432195
-0.015135046 -0.12257092 0.1009453 0.045203187 -0.102226466 -0.14349693 -0.096915424 -0.036619414
0.022133363 0.15887512 -0.086521626 0.13694592 0.08189076 0.042471956 0.13884695 0.010210451
-0.046325788 -0.15858997 0.011267122 0.0128692025 0.17047511 0.14058952 -0.00948832 -0.027074603
0.13987523 0.19028746 0.0143380435 -0.027954336 -0.04242999 -0.097075276 -0.085507035 0.04256737
-0.028897822 0.032875508 0.062369283 -0.037145372 -0.014271432 0.074495606 -0.103450224 0.0021308253
-0.1280201 0.16633688 -0.057495806 0.20175092 0.08995594 -0.083800405 0.19732945 -0.18655492
-0.00056851667 -0.15786274 -0.028695967 -0.106016204 0.1333342 -0.08471689 -0.10273933 0.08655616
-0.08496611 0.078675106 -0.094740875 0.10918204 0.17405672 0.17680298 -0.01938269 -0.034045078
0.02206988 0.10019309 -0.08973847 0.007885655 -0.16363722 -0.08464263 -0.060931243 0.17579044
0.19054623 -0.11571177 -0.013714824 -0.09430978 -0.121981576 -0.12289511 0.033492077 -0.012243745
0.113679215 0.15187545 -0.121473245 -0.010032339 0.20562325 0.0995931 0.11871661 0.13367245
0.11373257 -0.05585652 0.09224706 0.038789794 -0.057260714 0.07906809 0.032654405 0.09799709
-0.13851362 0.14553033 0.077776834 0.11660475 -0.0717174 0.14977467 -0.039311424 0.15578644
0.08070973 0.023710616 0.1288846 -0.053653486 -0.060630027 0.02660729 0.0060632383 -0.13548513
00000000: 9512 123e f53a ce3d 6c4b bf3d cb3a 31be
00000010: db18 04be 5ab4 1d3d 176a b1bd b9b8 d9bd
00000020: 9529 043e a489 90bd 898c a13d 75f8 df3d
00000030: dbc3 cdbd 8694 80bd 723f 0f3e d106 073d
00000040: 085c 5c3d 9314 063d 318f 22be ae0a 2f3e
00000050: e559 66bd ace4 59bd 10fa f03d 668d 0cbe
00000060: 85a9 613d 5107 703d 34a4 ef3c 4ae5 2c3e
00000070: 93bd 4b3d 663d efbc 8336 bf3d c2d1 003e
00000080: 68ec 003e 56c7 853d ed89 f03d c70c 883d
00000090: 434c c43d 9299 983c 111d 19be 2500 b03d
000000a0: c8e1 ddbd e45c bb3d 72bd 94bd aab3 8dbd
000000b0: 9834 c03d 8531 9ebc a5df 1a3d f29c 5f3d
000000c0: 4820 f3bd 78c8 763d cf71 f23d b0fb 383e
000000d0: 4dac 2bbe 2f08 703d a640 0cbe c343 1e3e
000000e0: 26db cbbd 1797 05bd dafb 293e 02a9 d83d
000000f0: 0e06 d8bd 9d55 ed3d f449 363e db56 e0bd
00000100: dc39 70bc d888 24bd 23b0 0dbe aab4 23be
00000110: 19f7 9d3d 4d50 943d d4ce 49be 4bea ef3c
00000120: a997 b33d 7dda 0bbe b46e 9cbd 53e5 043d
00000130: 55e7 afbd 9390 2c3e 1421 2fbe f48d f13d
00000140: 6d47 30bd 525a 263d 2b81 c0bc a5c1 17be
00000150: a51f 28be 7878 27be 6850 c6bc 43d4 20bd
00000160: eb82 83bd eeb0 58bd bf83 e93d 0227 d33d
00000170: 77bb f33d c68d 3a3d d9c9 063e 4443 0f3e
00000180: ed5a b13c 0225 c63d 47a1 46bc f5f2 16be
00000190: 056c 103c 944d e83d 02df 8c3d 0d7e 1abe
000001a0: 17fc e63d ab5c 6abd 5838 eebd e757 f23d
000001b0: 0d14 abbc 68bf 5a3e 086b e43d a9b5 cdbd
000001c0: 4813 c13d 6842 8b3d bbee 30bb 7d0f c3bd
000001d0: 2aa6 b33d 1fc9 f6bd b638 193e 939d 3bbb
000001e0: 17e5 2ebe d821 233e fbf8 a8bd 66c5 023e
000001f0: 445f 0f3d bbf0 31bd f05c d73c a9c6 0fbe
00000200: 7416 303e 3f17 823d 617e 0cbd 49c9 02bd
00000210: b734 a6bc c5f1 483e 139d 383c cdbb 973b
00000220: cf78 dcbd 2ea4 9abd 97e7 673d cc6a 7fbc
00000230: 557a be3b 56ae 20be bbf5 acbd 829c fe3d
00000240: fcf8 77bc 7606 fbbd 69bc ce3d fa26 393d
00000250: 1c5c d1bd dcf0 12be 987b c6bd 3dfe 15bd
00000260: 0751 b53c 29b0 223e 4032 b1bd 8d3b 0c3e
00000270: 58b6 a73d 13f7 2d3d e52d 0e3e bc49 273c
00000280: 1cc0 3dbd 6965 22be bc99 383c 59d9 523c
00000290: 0791 2e3e b3f6 0f3e e674 1bbc 8fcb ddbc
000002a0: 743b 0f3e b7da 423e 1dea 6a3c 7e00 e5bc
000002b0: 12cb 2dbd 67cf c6bd 501e afbd 1f5b 2e3d
000002c0: 20bb ecbc 78a8 063d ef76 7f3d bf25 18bd
000002d0: b9d2 69bc 2791 983d b6dd d3bd 51a5 0b3b
000002e0: b317 03be 3754 2a3e b980 6bbd cb97 4e3e
000002f0: d23a b83d 8c9f abbd bb10 4a3e 4108 3fbe
00000300: 8208 15ba c5a6 21be ce13 ebbc 061f d9bd
00000310: c388 083e 0c80 adbd ff68 d2bd 5b44 b13d
00000320: b602 aebd 6a20 a13d 8107 c2bd d59a df3d
00000330: ed3b 323e d70b 353e 72c8 9ebc da72 0bbd
00000340: e5cb b43c 0932 cd3d cec8 b7bd d632 013c
00000350: 8490 27be 1d59 adbd 0a93 79bd 6902 343e
00000360: 8d1e 433e 4bfa ecbd 24b4 60bc 7c25 c1bd
00000370: 7ad1 f9bd 6eb0 fbbd fd2e 093d fd99 48bc
00000380: a6d0 e83d 3d85 1b3e f7c6 f8bd ae5e 24bc
00000390: e78e 523e 78f7 cb3d b221 f33d 6ee1 083e
000003a0: 9fec e83d cec9 64bd 07ec bc3d 0ce2 1e3d
000003b0: 368a 6abd 73ee a13d a0c0 053d b3b2 c83d
000003c0: 84d6 0dbe e705 153e 7649 9f3d 79ce ee3d
000003d0: 92e0 92bd 885e 193e 0405 21bd 7b86 1f3e
000003e0: 254b a53d c43c c23c 53fa 033e c2c3 5bbd
000003f0: 3157 78bd 88f7 d93c 21ae c63b 9dbc 0abe

network.4.bias f4 [64]
0.00013130701 -0.0022550216 0.009420039 -0.0029582623 0.0054441914 0.0026053207 0.0046380996 0.0047895634
0.0024227852 0.0032693027 6.7229375e-05 0.004084756 0.0020782137 0.004349309 0.0009063757 -0.00016666675
0.00797393 -0.0011073896 -0.0019113702 -0.0016727884 -0.0019498778 0.0023385647 0.005449217 -0.009709229
-0.002967593 0.002922331 0.00025605533 -0.0047521926 0.0030535276 -0.0056465454 0.0038095948 0.003662403
-0.0024598343 0.004233732 -0.0021896365 0.0017722703 0.00264756 0.0009921874 -0.0023051957 0.0007794451
0.00067331933 -0.0016340152 0.0024469795 -0.0021618265 -0.00018673745 0.0077303518 0.006343743 -0.002351919
0.0065146643 0.0017602484 0.0046219314 0.0016313795 -0.0031879735 -0.00330651 0.0014493847 0.00064950564
0.0056932494 0.0018302314 -0.007397894 0.0018915364 -0.0033686531 0.0014699079 0.008613469 -0.0057291947
00000000: 75af 0939 fcc8 13bb 8256 1a3c 68df 41bb
00000010: 3065 b23b 07be 2a3b 33fb 973b c5f1 9c3b
00000020: 97c7 1e3b cc41 563b 7ffd 8c38 6bd9 853b
00000030: a432 083b a684 8e3b d899 6d3a 44c3 2eb9
00000040: 16a5 023c d425 91ba f186 faba 7741 dbba
00000050: 0b93 ffba 9b42 193b 588f b23b 7513 1fbc
00000060: f37b 42bb 9484 3f3b 2a3f 8639 48b8 9bbb
00000070: b11d 483b a806 b9bb 65aa 793b ed04 703b
00000080: 2c35 21bb 1ebb 8a3b 0180 0fbb 864b e83a
00000090: b082 2d3b 490c 823a c412 17bb ad53 4c3a
000000a0: b281 303a 742c d6ba 815d 203b 6ead 0dbb
000000b0: f4ce 43b9 e44e fd3b 2cdf cf3b a722 1abb
000000c0: f778 d53b 23b8 e63a 9273 973b 03d4 d53a
000000d0: 52ed 50bb 08b2 58bb 48f9 bd3a 9643 2a3a
000000e0: 708e ba3b 60e4 ef3a 086a f2bb 6eed f73a
000000f0: 9fc4 5cbb eda9 c03a 821f 0d3c f8bb bbbb

network.5.weight f4 [64]
1.0359199 0.97053826 1.0971648 1.0375265 1.0380805 1.0651696 1.0562063 0.9937678
1.020513 1.0453832 0.9745935 0.9770877 0.9924573 1.0563742 0.9575303 0.90109146
1.0648228 0.9661926 0.9210132 1.0294731 0.9989146 0.92972744 1.0636674 0.9549195
1.0614682 0.92175156 0.93257016 0.99952614 1.048325 0.9271474 1.0230572 0.9802094
1.0514143 1.037431 0.881969 0.94297266 0.8448264 1.107642 0.9478764 0.9388378
0.9496146 0.9630453 0.985646 1.0670342 1.0327532 0.9799563 0.9021951 0.95841366
0.94183123 1.0658658 0.9323456 0.98758537 1.0023421 1.0066133 1.0168015 0.9672476
0.985222 1.0297912 1.0293964 1.0286989 1.075404 0.9483775 0.9354202 1.0164611
00000000: 0699 843f 3275 783f e56f 8c3f abcd 843f
00000010: d2df 843f 7a57 883f c531 873f 9167 7e3f
00000020: 2ca0 823f 1ecf 853f f67e 793f 6b22 7a3f
00000030: ae11 7e3f 4537 873f b520 753f eead 663f
00000040: 1d4c 883f 6658 773f 85c7 6b3f c6c5 833f
00000050: deb8 7f3f 9e02 6e3f 4126 883f 9b75 743f
00000060: 31de 873f e9f7 6b3f ebbc 6e3f f2e0 7f3f
00000070: 832f 863f 8859 6d3f 8af3 823f 01ef 7a3f
00000080: be94 863f 8aca 843f b8c8 613f a866 713f
00000090: 8b46 583f 37c7 8d3f 07a8 723f ad57 703f
000000a0: f119 733f 238a 763f 4c53 7c3f 9494 883f
000000b0: 4231 843f 6bde 7a3f 42f6 663f 995a 753f
000000c0: da1b 713f 4a6e 883f 34ae 6e3f 65d2 7c3f
000000d0: bf4c 803f b4d8 803f 8d26 823f 8a9d 773f
000000e0: 8237 7c3f 33d0 833f 43c3 833f 68ac 833f
000000f0: d7a6 893f dec8 723f b377 6f3f 661b 823f

network.5.bias f4 [64]
0.017977409 -0.03561681 0.044643886 0.013934085 0.048874483 0.027168863 -0.03494074 0.012527099
0.032899924 0.12198102 -0.07483687 0.0069044186 -0.024951993 -0.0019477715 -0.021167664 -0.1144962
0.064991444 -0.019511396 -0.10317282 0.0147025455 -0.08008539 -0.06286615 0.045819204 -0.07259362
-0.031904396 -0.07424379 -0.05874493 -0.026261782 -0.015180562 -0.059772007 -0.061331827 -0.05065655
0.07459645 -0.000304588 -0.118643194 -0.085423164 -0.15279524 -0.040023148 -0.0688401 -0.027545046
-0.032494858 -0.06460934 0.012102241 0.0061274623 0.054672908 -0.061103787 -0.09379655 -0.02191916
-0.07370772 0.0040041707 -0.120238066 -0.01881383 0.044291843 0.02288158 0.05537576 -0.04467091
-0.090726934 0.036470037 0.03567742 0.0050020306 0.03387732 -0.05403892 -0.0812142 -0.016065508
00000000: 5c45 933c efe2 11bd 82dc 363d ca4b 643c
00000010: 9c30 483d 3c91 de3c 051e 0fbd 763e 4d3c
00000020: 12c2 063d 2fd1 f93d 1344 99bd 763e e23b
00000030: 1f68 ccbc 5e4c ffba cf67 adbc fc7c eabd
00000040: 3c1a 853d 5dd6 9fbc 454c d3bd f2e2 703c
00000050: cf03 a4bd f8bf 80bd ebac 3b3d f7ab 94bd
00000060: 2fae 02bd 210d 98bd 869e 70bd f322 d7bc
00000070: e4b7 78bc 7ed3 74bd 1537 7bbd 3e7d 4fbd
00000080: 06c6 983d 1cb1 9fb9 34fb f2bd 57f2 aebd
00000090: 5b76 1cbe 50ef 23bd 0afc 8cbd 26a6 e1bc
000000a0: 5419 05bd e751 84bd 7a48 463c e1c8 c83b
000000b0: b3f0 5f3d f747 7abd 6818 c0bd cf8f b3bc
000000c0: 13f4 96bd 6b35 833b 603f f6bd 761f 9abc
000000d0: 5d6b 353d 2772 bb3c b1d1 623d d8f8 36bd
000000e0: 0bcf b9bd 9b61 153d 7d22 123d 13e8 a33b
000000f0: f2c2 0a3d ea57 5dbd a153 a6bd d09b 83bc

network.5.running_mean f4 [64]
0.4544739 0.6901146 0.64198935 0.52085 0.54610133 1.0074642 0.62063444 0.24692029
0.051054418 -0.13782056 -0.12093666 -0.6750621 0.34566042 1.3674133 -0.88176453 -0.6055507
-0.148318 -0.023402395 0.8103108 -0.390117 -0.54205406 -0.22699584 0.49401093 0.5051999
0.74835145 -0.98072624 0.31164095 1.0668836 0.5068868 -0.8512593 1.5248927 0.22332571
0.16122857 -0.32909125 -0.88767976 -0.80059373 -0.55193055 -0.40130836 -0.35094753 -0.6798383
-0.34022462 0.5092676 0.7262255 1.0007064 -0.2703963 0.03645147 -0.27309301 -0.7184644
-0.30806723 0.6051401 -0.2939382 0.13843343 -0.029028151 0.7485589 0.6091027 -0.35251462
-0.38535753 -0.38971314 0.4456306 1.0107348 0.6954834 -0.34420165 -0.51494014 -0.06359427
00000000: ceb0 e83e 5aab 303f 6a59 243f 6d56 053f
00000010: 4ccd 0b3f 96f4 803f e6e1 1e3f acd8 7c3e
00000020: 701e 513d d520 0dbe a4ad f7bd dfd0 2cbf
00000030: 67fa b03e 6607 af3f 52bb 61bf 5f05 1bbf
00000040: ace0 17be 61b6 bfbc 8770 4f3f 6abd c7be
00000050: 0ec4 0abf 9971 68be 00ef fc3e c854 013f
00000060: f693 3f3f e010 7bbf 678f 9f3e a48f 883f
00000070: 55c3 013f 21ec 59bf af2f c33f 7faf 643e
00000080: 1a19 253e a67e a8be fb3e 63bf b6f3 4cbf
00000090: 524b 0dbf 4a78 cdbe 65af b3be e209 2ebf
000000a0: ec31 aebe 5d5f 023f eae9 393f 2617 803f
000000b0: 6271 8abe 234e 153d d9d2 8bbe 48ed 37bf
000000c0: fdba 9dbe 76ea 1a3f 117f 96be 7ec1 0d3e
000000d0: 72cc edbc 8ea1 3f3f 28ee 1b3f cc7c b4be
000000e0: 954d c5be 7b88 c7be b229 e43e c25f 813f
000000f0: 330b 323f 333b b0be 1ed3 03bf b63d 82bd

network.5.running_var f4 [64]
3.0600471 2.5027497 2.6052015 2.6264753 2.3037694 4.3542004 3.1956131 3.1352966
1.8697165 3.432897 1.2976328 4.1340637 2.3523905 2.8888094 2.783431 2.4803362
1.2644622 1.1260991 1.1509904 1.5838416 1.1265824 1.9810451 1.7076832 2.4192052
2.420269 2.495482 0.93697965 1.4224299 2.8935416 3.0140402 5.6986976 2.114634
3.4693856 1.2619579 1.3911153 1.2961918 0.9250519 0.904402 0.7195014 3.0831273
1.7443647 2.9540849 1.5302514 3.434704 3.0394235 2.0215387 3.2634256 3.1591604
1.3009611 1.7147571 0.99448895 0.6308588 2.7840874 3.2099605 2.8699887 2.0458636
1.6658849 2.33657 2.3764668 3.1714833 4.068219 4.228566 1.0270084 0.9924751
00000000: d0d7 4340 0d2d 2040 9fbb 2640 2c18 2840
00000010: f570 1340 9c55 8b40 ed84 4c40 b3a8 4840
00000020: df52 ef3f 96b4 5b40 d518 a63f 404a 8440
00000030: 918d 1640 41e2 3840 bc23 3240 d4bd 1e40
00000040: e6d9 a13f 0424 903f a753 933f 52bb ca3f
00000050: da33 903f e392 fd3f 5d95 da3f 42d4 1a40
00000060: b0e5 1a40 fab5 1f40 e6dd 6f3f 2f12 b63f
00000070: c92f 3940 09e6 4040 bb5b b640 2a56 0740
00000080: 6a0a 5e40 d687 a13f 1110 b23f 9de9 a53f
00000090: 34d0 6c3f e486 673f 3e31 383f f551 4540
000000a0: 5847 df3f ba0f 3d40 47df c33f 31d2 5b40
000000b0: ea85 4240 e460 0140 f7db 5040 af2f 4a40
000000c0: e585 a63f 297d db3f d496 7e3f f67f 213f
000000d0: 7d2e 3240 fe6f 4d40 e5ad 3740 6eef 0240
000000e0: b73b d53f 5d8a 1540 0818 1840 95f9 4a40
000000f0: da2e 8240 6a50 8740 0375 833f d912 7e3f

network.8.weight f4 [32, 64]
-0.23192501 0.15764078 -0.18898313 0.12978536 0.111817054 -0.19744305 -0.11601751 0.04141098
-0.19709004 -0.2718376 0.006826007 -0.21363494 -0.0390396 0.16150074 0.16373418 0.10735438
-0.04027364 -0.2917544 0.070434205 0.12500753 -0.06309959 -0.08893524 -0.19867378 0.031356804
-0.016817288 0.18293487 0.13823913 0.22218439 -0.0815635 0.082589984 -0.2232396 -0.022278216
-0.17707065 -0.1617937 -0.08210256 0.096645825 0.09130612 -0.11320823 -0.14818858 -0.05872643
-0.091393165 -0.09786787 0.07373359 -0.16399816 0.0538446 -0.070442416 0.19526367 -0.091550425
-0.1287018 -0.08214416 0.1648757 -0.11378153 0.04146797 0.02456063 0.0002369102 0.10670692
0.058949184 0.108288586 -0.17429987 0.19449149 -0.2001919 0.14104615 0.071517564 -0.17953187
0.12802151 -0.20526905 -0.31117463 0.08091463 -0.040184136 -0.26713067 0.016051773 -0.2631586
0.19219385 0.09556729 -0.12933585 -0.20394221 0.047536343 0.09816958 0.06107599 0.03341924
0.14465477 -0.18298523 0.076835096 -0.0101506 0.020624623 -0.12141585 0.12394801 0.0380605
-0.16774778 -0.03628871 0.038076434 0.19536334 -0.22795224 0.15976311 -0.25806847 0.10599328
0.04033784 0.09380598 -0.06011146 -0.1630396 -0.18385477 0.24895258 0.005012144 -0.006019217
0.19058545 -0.102223694 -0.063375734 0.057985302 0.14725766 0.023772337 0.19472985 0.07550842
0.045825556 -0.2347815 0.11394276 0.042358853 -0.16445023 -0.05397523 0.23641498 0.089024656
-0.1822849 0.16986358 -0.09105599 0.0853389 0.050127156 0.07386563 0.080888934 -0.117727466
0.246281 0.12288397 0.13993342 0.013833647 0.09625518 0.32058698 0.12951247 0.022395616
-0.060160447 0.18226802 -0.29545176 0.18468897 0.10898822 0.09340573 -0.012443508 0.108660236
-0.25094897 -0.141775 -0.11318651 -0.16489615 0.13839924 -0.12821317 0.15126142 0.048906736
0.24768929 0.007654353 0.18169384 -0.08332416 0.18391925 0.21266337 0.08356049 0.2606815
-0.23622707 0.09743516 -0.030483993 0.025364792 -0.05798354 -0.111993976 0.089393765 0.12342796
0.1705873 0.26374966 0.11386774 -0.060357027 0.13220897 -0.097933106 0.11692963 0.12981096
0.28004953 0.09186295 -0.16146569 0.17425986 -0.05513258 -0.023660323 0.16890086 0.06346257
0.25917777 0.033954293 0.16480526 0.05461624 -0.011885438 0.13092698 -0.19425358 0.17227043
0.11265141 -0.2270954 0.13569316 -0.08466877 -0.009513553 -0.031237578 0.06755506 0.18843696
-0.16347659 0.21204977 -0.062078904 0.118157625 -0.21939583 -0.19394931 0.14763033 0.124004215
0.055224318 0.06291924 0.030372739 -0.14639726 -0.0074614473 0.13646637 0.21950115 -0.13936718
-0.11025637 -0.12447612 0.20121159 0.11181513 -0.074798115 0.2322222 0.083806865 -0.12895527
-0.21440144 -0.30613378 -0.019378383 0.16993316 -0.06517092 0.1131336 0.12916529 -0.13050354
0.20573443 -0.10332787 0.12515193 0.04805698 0.058090765 0.015975313 0.21610697 0.10027001
-0.12239605 -0.116609685 -0.11461403 0.08442803 -0.35288686 -0.12932506 0.10741613 -0.19746697
0.13929863 0.053237326 -0.2071119 -0.21084486 -0.17074826 -0.25288054 -0.10040722 -0.07891056
00000000: c07d 6dbe 966c 213e cb84 41be 74e6 043e
00000010: 5700 e53d 832e 4abe 979a edbd 8f9e 293d
00000020: f9d1 49be 4c2e 8bbe b2ac df3b 1ec3 5abe
00000030: fde7 1fbd 7360 253e efa9 273e 9ddc db3d
00000040: f9f5 24bd d560 95be cf3f 903d f901 003e
00000050: 5c3a 81bd ae23 b6bd 2471 4bbe fe6f 003d
00000060: 69c4 89bc 4753 3b3e 8f8e 0d3e 4e84 633e
00000070: c40a a7bd f024 a93d ec98 64be ce80 b6bc
00000080: 0252 35be 3fad 25be 6325 a8bd 3fee c53d
00000090: b4fe ba3d b7d9 e7bd bfbe 17be 208b 70bd
000000a0: 572c bbbd f36e c8bd a301 973d 22ef 27be
000000b0: 288c 5c3d 1d44 90bd 33f3 473e ca7e bbbd
000000c0: 68ca 03be 333b a8bd 2dd5 283e 4a06 e9bd
000000d0: 51da 293d 6033 c93c 196b 7839 2889 da3d
000000e0: b374 713d 68c6 dd3d aa7b 32be c728 473e
000000f0: 1bff 4cbe 676e 103e cd77 923d 34d7 37be
00000100: 1218 033e 0d32 52be 4852 9fbe 92b6 a53d
00000110: 1f98 24bd 5ac5 88be 027f 833c b9bc 86be
00000120: 77ce 443e c9b8 c33d 9e70 04be 3ad6 50be
00000130: 78b5 423d 220d c93d d12a 7a3d 9de2 083d
00000140: 6120 143e 7b60 3bbe b85b 9d3d b44e 26bc
00000150: f8f4 a83c e0a8 f8bd 74d8 fd3d 54e5 1b3d
00000160: 13c6 2bbe 78a3 14bd 09f6 1b3d 540d 483e
00000170: 506c 69be f198 233e 8d21 84be 0113 d93d
00000180: 4a39 253d 5a1d c03d 6f37 76bd daf3 26be
00000190: 6d44 3cbe 6ded 7e3e e93c a43b da3c c5bb
000001a0: d528 433e a85a d1bd 23cb 81bd ff81 6d3d
000001b0: b6ca 163e 34be c23c 4367 473e 29a4 9a3d
000001c0: 94b3 3b3d 906a 70be d25a e93d 7a80 2d3d
000001d0: a465 28be 2115 5dbd c516 723e 8f52 b63d
000001e0: e5a8 3abe b8f0 2d3e 907b babd 29c6 ae3d
000001f0: 2252 4d3d dd46 973d 19a9 a53d 191b f1bd
00000200: 1631 7c3e 97aa fb3d b54a 0f3e 85a6 623c
00000210: 7021 c53d fa23 a43e eb9e 043e 0377 b73c
00000220: cd6a 76bd 78a4 3a3e 7445 97be 1b1f 3d3e
00000230: 3735 df3d 814b bf3d dbdf 4bbc 4289 de3d
00000240: 627c 80be 772d 11be 54ce e7bd 89da 28be
00000250: 88b8 0d3e 504a 03be 46e4 1a3e 6e52 483d
00000260: 43a2 7d3e 5ed1 fa3b f30d 3a3e dba5 aabd
00000270: 5455 3c3e 6dc4 593e c321 ab3d 0c78 853e
00000280: 82e5 71be 168c c73d 91b9 f9bc d3c9 cf3c
00000290: 2680 6dbd 195d e5bd 1414 b73d ccc7 fc3d
000002a0: 70ae 2e3e 320a 873e 7d33 e93d ee38 77bd
000002b0: ca61 073e 2791 c8bd cd78 ef3d 2aed 043e
000002c0: a762 8f3e a422 bc3d 4357 25be 2d71 323e
000002d0: b3d2 61bd 4bd3 c1bc 59f4 2c3e aaf8 813d
000002e0: f3b2 843e a813 0b3d b6c2 283e 47b5 5f3d
000002f0: 24bb 42bc b911 063e 69ea 46be a967 303e
00000300: c8b5 e63d b28b 68be 26f3 0a3e d266 adbd
00000310: bcde 1bbc f3e5 ffbc 4f5a 8a3d 9ef5 403e
00000320: 6866 27be 9323 593e 7346 7ebd a0fc f13d
00000330: 4da9 60be a69a 46be 682c 173e ecf5 fd3d
00000340: e532 623d cddb 803d 40d0 f83c 2ae9 15be
00000350: 287f f4bb d7bd 0b3e e9c4 603e 45b6 0ebe
00000360: 17ce e1bd 56ed febd 690a 4e3e 55ff e43d
00000370: c12f 99bd a8cb 6d3e efa2 ab3d da0c 04be
00000380: 0d8c 5bbe 91bd 9cbe 6abf 9ebc f502 2e3e
00000390: 5578 85bd 97b2 e73d e843 043e b8a2 05be
000003a0: 0cac 523e 909d d3bd d427 003e 65d7 443d
000003b0: 95f0 6d3d a9de 823c 254b 5d3e 5d5a cd3d
000003c0: c8aa fabd 0fd1 eebd c3ba eabd 9ae8 ac3d
000003d0: 96ad b4be ca6d 04be fdfc db3d c834 4abe
000003e0: 4da4 0e3e 620f 5a3d 2415 54be b7e7 57be
000003f0: a2d8 2ebe 8f79 81be 4da2 cdbd dc9b a1bd

network.8.bias f4 [32]
0.009793026 -0.010511664 -0.007246978 -0.006453782 0.00038296828 -0.003934957 0.00546644 -0.0004981394
-0.00164538 0.010737041 -0.0040201484 0.011089155 -0.0034426348 0.0009144019 0.0050651897 0.009320554
0.0005806802 -0.0019187818 -0.009322146 0.0018817992 -0.0021838748 0.00363967 0.0044860886 0.0053969473
-0.005237083 0.0004892068 0.0022615877 0.0032990337 -0.003773604 0.0049065864 0.0027502084 0.0025769558
00000000: ee72 203c 1d39 2cbc 0f78 edbb 3f7a d3bb
00000010: 22c9 c839 d0f0 80bb d31f b33b 9295 02ba
00000020: cba9 d7ba 6aea 2f3c 73bb 83bb 4aaf 353c
00000030: d49d 61bb 79b4 6f3a e4f9 a53b 3db5 183c
00000040: ca38 183a a27f fbba eabb 18bc b4a6 f63a
00000050: 571f 0fbb 8887 6e3b 0a00 933b e0d8 b03b
00000060: d69b abbb 1d3e 003a 2537 143b 9a34 583b
00000070: 924e 77bb 6ec7 a03b d73c 343b 25e2 283b

network.9.weight f4 [32]
0.8398284 0.8611644 0.8112571 0.77809095 0.80799663 0.887346 0.86425203 0.7770458
0.83003 0.87242895 0.9169212 0.8047762 0.83238614 0.88044107 0.81889766 0.76319623
0.8235735 0.92200255 0.8408265 0.77735126 0.81981575 0.71875495 0.81102324 0.8445067
0.8219211 0.8152481 0.9131186 0.8026714 0.75073767 0.7213392 0.8063749 0.7293674
00000000: fefe 563f 4575 5c3f 8cae 4f3f f830 473f
00000010: ded8 4e3f 1c29 633f 9f3f 5d3f 79ec 463f
00000020: d97c 543f 8157 5f3f 59bb 6a3f d005 4e3f
00000030: 4217 553f 9664 613f 47a3 513f d460 433f
00000040: b7d5 523f 5c08 6c3f 6840 573f 7e00 473f
00000050: 72df 513f 5300 383f 389f 4f3f 9731 583f
00000060: 6c69 523f 19b4 503f 24c2 693f df7b 4d3f
00000070: 5830 403f b0a9 383f 966e 4e3f d2b7 3a3f

network.9.bias f4 [32]
-0.10343229 -0.16251071 -0.058614306 -0.07992932 -0.14872707 -0.08419614 -0.18713173 -0.14714146
-0.13325404 -0.0551622 -0.13594723 -0.17707407 -0.09033822 -0.04847405 -0.15744795 -0.21967486
-0.18561582 -0.039215967 -0.15049179 -0.12395524 -0.09342498 -0.3173858 -0.13447094 -0.095982395
-0.18925215 -0.14224899 -0.05857734 -0.08656007 -0.14444576 -0.20901567 -0.15404193 -0.29554367
00000000: 4fd4 d3bd 3569 26be 8e15 70bd fcb1 a3bd
00000010: e94b 18be 076f acbd 769f 3fbe 40ac 16be
00000020: bf73 08be c2f1 61bd c035 0bbe e852 35be
00000030: 3f03 b9bd ba8c 46bd 093a 21be 72f2 60be
00000040: 1312 3ebe eca0 20bd 851a 1abe 3fdc fdbd
00000050: 9955 bfbd 6480 a2be c0b2 09be 6b92 c4bd
00000060: 51cb 41be b8a9 11be cbee 6fbd 6846 b1bd
00000070: 97e9 13be 3408 56be 2bbd 1dbe 8051 97be

network.9.running_mean f4 [32]
-0.6091929 -0.052020222 1.3899976 -0.32203686 -1.0295506 0.046218216 -0.17817567 -0.25877964
-0.035861615 -1.4480746 -0.39846253 -0.7734424 -1.0704261 -1.3102338 -1.2848696 -1.0733813
-0.75262135 -0.028259069 -0.15715294 0.1439124 -0.1466424 -0.87142766 -0.93203694 -0.9107071
-0.1813111 -1.0549406 -0.44113603 -0.7974653 -1.079798 -1.0960833 -0.674631 -0.43941823
00000000: 11f4 1bbf 2813 55bd 71eb b13f 04e2 a4be
00000010: 50c8 83bf 504f 3d3d af73 36be c47e 84be
00000020: a1e3 12bd 825a b9bf 4803 ccbe 5200 46bf
00000030: b903 89bf beb5 a7bf 9b76 a4bf 8f64 89bf
00000040: cbab 40bf 907f e7bc b3ec 20be c65d 133e
00000050: 6d29 16be e215 5fbf f999 6ebf 1a24 69bf
00000060: 9ea9 39be 4b08 87bf 95dc e1be b026 4cbf
00000070: d236 8abf 754c 8cbf 9eb4 2cbf 6dfb e0be

network.9.running_var f4 [32]
1.9689181 1.3633654 4.8623815 2.2022634 3.2228265 2.4227154 2.224764 3.6105607
1.2216611 5.0821176 3.5578957 4.068304 3.9319208 2.3559034 5.6775794 3.6533322
2.0033386 4.4940457 1.7191917 3.8792067 3.47657 3.1698012 2.8953862 2.3307872
0.9234788 2.7380912 2.166711 2.741689 3.3563325 4.65641 1.9833652 1.7266694
00000000: 8205 fc3f c282 ae3f a198 9b40 e2f1 0c40
00000010: ca42 4e40 c50d 1b40 8962 0e40 6d13 6740
00000020: 645f 9c3f b5a0 a240 90b4 6340 8c2f 8240
00000030: 97a4 7b40 1fc7 1640 bbae b540 32d0 6940
00000040: b336 0040 39cf 8f40 790e dc3f ec44 7840
00000050: 1f80 5e40 06de 4a40 024e 3940 9e2b 1540
00000060: 1b69 6c3f e33c 2f40 65ab 0a40 d577 2f40
00000070: 27ce 5640 5001 9540 e9de fd3f 8103 dd3f

network.12.weight f4 [4, 32]
-0.045811173 0.14563595 0.019052045 -0.070170596 0.0033189605 0.025917517 0.19401427 0.081317045
0.102330506 -0.11457594 0.2685192 0.19916452 0.018288443 -0.11916646 -0.1689483 -0.20423935
-0.049755525 0.14144596 0.14313151 0.024824467 0.18081684 0.16331448 -0.04292338 -0.11109084
0.038780037 -0.11841938 0.075149834 -0.12922578 -0.1628688 -0.19730546 -0.20083392 -0.1274018
-0.07463831 0.15550415 -0.004617926 -0.126034 -0.22478561 -0.019594057 0.15143622 -0.07417454
0.056484528 -0.04933275 0.23703872 0.011081847 0.021997519 -0.1304724 0.10040864 -0.098439835
-0.08712071 0.14605737 0.13718066 -0.0117047755 0.19092733 -0.12121559 -0.18774016 -0.19544001
0.072420724 -0.13388416 0.16303864 -0.061519068 -0.036054507 0.17613527 -0.21431297 0.12879635
-0.15346995 0.1056427 0.11121198 -0.07466563 0.014595044 0.06625869 0.2189739 0.11119802
0.14127962 -0.07798078 0.07367888 -0.13844897 0.069427386 -0.14519463 -0.25086623 0.09706832
-0.19135378 0.018587457 0.04715789 -0.017229525 0.11534939 -0.06326026 -0.16857845 -0.126881
0.104287185 0.018899793 0.09658181 -0.14212559 -0.15999296 -0.139668 -0.00019600021 0.14071526
-0.22483845 0.039727423 0.13648525 0.18852344 0.07862496 0.13168573 0.025418673 0.20517723
0.07548789 -0.12703839 -0.08072034 -0.24773413 -0.1933534 -0.046624653 -0.23769207 0.1342418
0.06813465 -0.11589722 -0.0034810214 0.24157842 -0.13175872 0.116979636 -0.1699916 -0.134826
-0.055413134 0.08897024 -0.094315544 0.20197128 0.2091704 -0.23077306 -0.10095796 0.17425175
00000000: 7fa4 3bbd 9721 153e 0913 9c3c 9ab5 8fbd
00000010: eb82 593b f950 d43c adab 463e 8d89 a63d
00000020: a892 d13d caa6 eabd 597b 893e c9f1 4b3e
00000030: a5d1 953c 8c0d f4bd c800 2dbe 1f24 51be
00000040: 73cc 4bbd 36d7 103e 1191 123e ae5c cb3c
00000050: 0d28 393e e93b 273e 6dd0 2fbd 9883 e3bd
00000060: d1d7 1e3d dc85 f2bd 28e8 993d c353 04be
00000070: 14c7 26be 710a 4abe 68a7 4dbe 9e75 02be
00000080: f8db 98bd 7b3c 1f3e f951 97bb 0f0f 01be
00000090: 332e 66be b783 a0bc 1912 1b3e d2e8 97bd
000000a0: 525c 673d 2311 4abd 47ba 723e a390 353c
000000b0: 2434 b43c 8f9a 05be 0ca3 cd3d d39a c9bd
000000c0: 586c b2bd 1090 153e 1679 0c3e 63c5 3fbc
000000d0: 7482 433e e13f f8bd f53e 40be 6d21 48be
000000e0: 5151 943d ee18 09be 9af3 263e 6bfb 7bbd
000000f0: e4ad 13bd ce5c 343e dc74 5bbe 31e3 033e
00000100: 3a27 1dbe 335b d83d 1bc3 e33d 4bea 98bd
00000110: 0d20 6f3c a3b2 873d b23a 603e cabb e33d
00000120: 9bab 103e 63b4 9fbd f4e4 963d 91c5 0dbe
00000130: f22f 8e3d e7ad 14be 8a71 80be c1cb c63d
00000140: 3ff2 43be b944 983c a228 413d ef24 8dbc
00000150: 4d3c ec3d 988e 81bd d49f 2cbe 18ed 01be
00000160: 8594 d53d bdd3 9a3c afcc c53d 5f89 11be
00000170: 32d5 23be 2105 0fbe 6885 4db9 a917 103e
00000180: 0d3c 66be 39b9 223d cac2 0b3e 4a0c 413e
00000190: 1f06 a13d a0d8 063e d23a d03c fb19 523e
000001a0: 6599 9a3d 5a16 02be b550 a5bd 04ae 7dbe
000001b0: 6ffe 45be 7ef9 3ebd 8d65 73be af76 093e
000001c0: 2e8a 8b3d 865b edbd d921 64bb 5560 773e
000001d0: c2eb 06be 0593 ef3d 4712 2ebe d40f 0abe
000001e0: e2f8 62bd 0736 b63d 8228 c1bd 8fd1 4e3e
000001f0: c430 563e c64f 6cbe 0cc3 cebd 0d6f 323e

network.12.bias f4 [4]
-0.026112473 0.018542988 0.05743531 0.07632486
00000000: d3e9 d5bc 77e7 973c 4a41 6b3d 3550 9c3d
