soil_salinity_multi_sensor/outputs/models/stage1/stage1_epoch_20.pth (torch, 72297 bytes, 20 tensors)

network.0.weight f4 [128, 36]
000000 a8 94 c6 3d b1 b5 a3 3d 2f 36 99 3e b1 25 9f 3d
       0.09696323 0.07993639 0.2992415 0.07770861
000010 4a 4b 39 bd 41 70 99 3d 61 bd b6 3d 31 dd c5 bd
       -0.045237817 0.07492114 0.0892284 -0.096613295
000020 9f ac 11 3e 08 a7 13 be c2 2d 34 3e 75 0e 7e 3d
       0.14226006 -0.14419186 0.1759558 0.062025506
000030 af 64 6a 3e f1 08 4c 3e a2 85 8a 3d eb 19 30 be
       0.2288997 0.19925286 0.0676377 -0.17197387
000040 05 20 75 3e d0 ad 88 3d 59 04 a6 3e 18 17 d8 3e
       0.23937996 0.06673777 0.32425192 0.4220512
000050 90 ce 01 3e 9d 75 f7 bd 97 e7 0b bd 0e aa 8b 3d
       0.12676454 -0.1208298 -0.03415641 0.06819545
000060 29 c8 a0 3e fe 18 3c 3e 17 12 7e 3c 55 f8 43 bd
       0.3140271 0.18368909 0.015507243 -0.04784425
000070 fb 1b 4e be 0a f4 12 3e c7 9c ab be a7 4e bd 3e
       -0.20127861 0.14350906 -0.3351805 0.3697407
000080 d5 7d 35 3e b5 53 2b be e8 08 9d be e2 1e 20 3d
       0.17723782 -0.1673115 -0.30670857 0.039091952
000090 bc 6c bf 3d 3c 43 83 3c d6 ed e4 3c b6 bb 20 3e
       0.09346911 0.01602327 0.02794544 0.15696606
0000a0 e6 b5 db bc 4d bf 38 bc be 1e 94 3d 80 47 cc 3d
       -0.026820134 -0.011276078 0.07232426 0.09974575
0000b0 37 00 e0 bd b3 e8 db 3d fd 60 93 3c 85 ed 77 bd
       -0.10937541 0.10737743 0.017990584 -0.06052925
0000c0 a9 a0 28 bd 49 06 f9 bd 10 01 41 3e 95 c3 96 bc
       -0.041168842 -0.12159402 0.18848062 -0.018403808
0000d0 79 ec 24 3e b8 88 92 3d a5 33 b7 bc f6 0f 4b bd
       0.16105832 0.07154983 -0.022363493 -0.04957577
0000e0 2c 41 71 bb 0e 9a 08 bd 79 99 09 3e 72 19 15 3e
       -0.0036812527 -0.033350043 0.13437451 0.14560488
0000f0 f2 a5 02 3e d8 5b 2e 3e 4d a6 2a be 52 66 3c 3e
       0.12758616 0.17027223 -0.16665001 0.18398407
000100 e4 c0 c8 bd e3 a3 b6 bd 94 c8 cd bd 60 2e 63 ba
       -0.09802416 -0.08917978 -0.10048023 -0.0008666273
000110 68 02 43 3e c7 2d fc bc 2e 84 f1 bd da ab 8e 3d
       0.19043887 -0.030783547 -0.117927894 0.06966372
000120 4d 41 86 3e 3e 16 bd 3e 66 44 74 3e 1f ac c9 3e
       0.26221696 0.36931032 0.23854217 0.3938913
000130 11 3a a0 bd 40 ef cf bb a3 54 9b bd fb af 53 3b
       -0.07823575 -0.0063456595 -0.075845025 0.0032300937
000140 ed 33 5d 3d f6 b3 57 3e ee 18 87 3e c5 f0 a2 3e
       0.0540046 0.21064743 0.26386207 0.31824318
000150 21 21 8b 3e dd 86 95 3e 48 ea 7c 3c e4 e6 15 3e
       0.27173713 0.29204455 0.015436716 0.14638859
000160 21 69 aa 3e 98 37 df 3e 96 10 3a 3e 69 4d e5 3e
       0.33283332 0.43597102 0.1817039 0.44785622
000170 76 b4 43 bc 4b 77 9c bd 44 ac da 3b 1a 0f 3e bd
       -0.011944881 -0.07639941 0.0066733677 -0.04640112
000180 40 f0 b5 bb 40 81 48 bd f3 cb fb bd 29 a7 e1 bc
       -0.0055523217 -0.048951387 -0.122947596 -0.027545528
000190 6d cb 71 3d ba f6 2b 3e c0 44 98 be 9b 57 1a 3e
       0.059031893 0.16793337 -0.29739952 0.15072481
0001a0 12 a6 0e 3d 57 0d a2 3d 70 29 a5 bd c4 dc c3 bd
       0.034826346 0.079127006 -0.08064544 -0.09563592
0001b0 93 c6 28 3e 36 12 cb 3e 2a a9 6f 3e 89 91 e5 3e
       0.16482 0.3966233 0.23404375 0.44837597
0001c0 93 15 11 3d 2e 55 6c bd cd 33 05 be 9e c4 1a be
       0.035420965 -0.05769842 -0.13008042 -0.15114066
0001d0 a6 ea 5b 3d bd 54 88 3e d0 95 81 3e 34 1a 51 3e
       0.053690575 0.2662715 0.2530961 0.20420152
0001e0 3d e6 78 3e d8 65 85 3e 45 5c ec 3d 07 d2 e0 bd
       0.24306579 0.26054263 0.115410365 -0.109775595
0001f0 7c 30 d2 3e 49 47 3c 3e 5b 16 0d 3f b4 bd d6 3e
       0.41052616 0.18386568 0.55112237 0.41941607
000200 82 41 30 3e b7 82 20 be 38 79 dc bd 09 59 2a bd
       0.17212489 -0.15674864 -0.10765308 -0.041588817
000210 60 5c 71 3e 2b b8 26 3e c6 c9 0e be 9e f2 26 bd
       0.23570395 0.16281192 -0.13944158 -0.04075872
000220 30 7a 11 be 10 18 9e bd a3 7f a6 3d 0c f0 61 3e
       -0.14206767 -0.07719433 0.081298135 0.22064227
000230 f3 5f a0 3c 86 26 3a 3e 82 b9 75 be ca 87 f6 bd
       0.019577002 0.18178758 -0.23996547 -0.120376185
000240 71 6f 72 bd 91 ef a3 3d c4 f8 4c 3e 51 98 2c 3d
       -0.05918831 0.08004678 0.20016772 0.042137448
000250 e4 64 f6 3d a6 63 59 3d 0b 4a ee bd 93 be 79 3d
       0.12030962 0.053073548 -0.11635216 0.06097276
000260 bc 81 2c be d0 a0 1e 3e b0 3b 21 3e ab 35 bc bd
       -0.16846365 0.15491033 0.15745425 -0.09189924
000270 e9 95 97 bd a1 5c df 3d 9b 09 5e be 0c 8c 31 3c
       -0.0740164 0.109063394 -0.21683352 0.010836612
000280 89 b9 45 3e a8 22 0e 3e dd 47 7c 3d 31 c7 71 bb
       0.19309057 0.13880408 0.06159197 -0.003689241
000290 06 bf 9a 3c 04 c0 07 bc 88 59 78 bd bd 2d ba 3c
       0.018889915 -0.008285526 -0.06063226 0.022726888
0002a0 27 9c 14 3e 8f 48 a8 bd 27 c7 bf 3d 3e a6 22 bc
       0.14512692 -0.082169645 0.09364157 -0.009927331
0002b0 47 7c f1 bd dc de fa 3d 59 c6 45 3e 8c e4 81 3d
       -0.11791282 0.12249538 0.19313945 0.0634242
0002c0 db 05 2e be 10 32 e5 bd 4d 2f 92 3b 69 43 c3 bd
       -0.16994421 -0.11191189 0.004461205 -0.09534342
0002d0 92 ce e5 bd 18 ed 47 3d 12 93 d6 bd c2 08 9b bd
       -0.11221041 0.048810095 -0.1047727 -0.0757003
0002e0 52 05 49 bc c8 51 08 be 51 9c ce bd 24 6e ac bd
       -0.012269335 -0.13312447 -0.10088409 -0.08419445
0002f0 04 1e dd 3d b9 13 06 bd 12 5d 9c bd a2 7a 0a be
       0.10796741 -0.032733653 -0.07634939 -0.13523343
000300 13 fa 18 be ab 16 49 3d c6 d6 f9 3d 66 c2 2b 3e
       -0.14939146 0.049093883 0.12199168 0.16773376
000310 35 2e 04 be 00 f1 63 3e 8f 75 9e bd 76 a6 17 bd
       -0.12908252 0.22259903 -0.07737266 -0.037023984
000320 6c ef fb 3b f5 27 98 3d 1b 1b d2 bd 5a 03 97 bd
       0.0076884534 0.07429496 -0.10259076 -0.07373686
000330 c0 af 88 bd 45 bd 8c 3c 32 6e df 3c 3e 23 db bd
       -0.06674147 0.017180094 0.027274225 -0.10700081
000340 8c 33 dc 3d f4 fd 4f be 8a 81 80 bd 9b 09 7c bc
       0.10752019 -0.20311719 -0.062747076 -0.0153831495
000350 b6 2d 41 3e b6 09 26 3e f0 de f3 bd 8e c5 8b 3d
       0.18865094 0.16214642 -0.11907756 0.0682479
000360 b2 df 9c 3e 3c 78 ab 3e 7b bf 9f 3e b7 e9 89 3e
       0.30639416 0.3349017 0.31200776 0.26936123
000370 11 a3 03 be 6b 08 13 3e 39 0b ed bd 56 48 f9 3b
       -0.12855174 0.1435868 -0.11574406 0.0076075
000380 f5 3b 36 bd 7c 62 66 bd c7 7e 76 3d a8 b2 00 3e
       -0.044490773 -0.056246266 0.060179498 0.12568152
000390 3d 2f be 3d f8 27 7d 3e 05 9b 03 3e 35 64 f7 bd
       0.09286354 0.24722278 0.12852104 -0.1207966
0003a0 42 b0 7a 3e 7e b7 65 3d 9a 96 d9 3e 65 50 05 3e
       0.244813 0.056083195 0.42497712 0.1301895
0003b0 e5 bb df 3d 06 84 e3 bc ed c9 2a be 76 19 c3 bc
       0.1092451 -0.027772915 -0.16678591 -0.023815852
0003c0 d1 9b 51 3e 51 15 79 3d 9f c2 9f 3d 72 c3 dd bd
       0.20469595 0.060811345 0.07800793 -0.10828294
0003d0 93 48 d8 bd 2b d7 52 3e f3 c0 e7 bc ba 64 59 3e
       -0.105607174 0.20589893 -0.028290248 0.2122983
0003e0 97 65 99 3d 01 27 28 be eb aa ad bd c5 f8 0e be
       0.0749008 -0.16421129 -0.08479866 -0.13962086
0003f0 12 3b bc bd 1f b7 f8 bd d7 0d d4 bb d1 4b 92 be
       -0.09190954 -0.121443026 -0.0064713764 -0.28573468

network.0.bias f4 [128]
000000 e4 43 2f b8 81 cd 13 b8 ba e6 4e 37 fd a2 22 ba
       -4.178648e-05 -3.523892e-05 1.2332277e-05 -0.0006204097
000010 12 41 0f 38 ef b9 84 b6 93 b1 e4 38 79 f2 6b b7
       3.415446e-05 -3.955552e-06 0.00010904963 -1.4063547e-05
000020 b2 1d f9 37 d7 b5 06 39 e1 a7 83 b7 3e 9e 3e 38
       2.9696941e-05 0.00012846976 -1.5694592e-05 4.5446905e-05
000030 4d 57 b1 b9 e3 07 68 38 23 da ac 37 88 4b 10 3a
       -0.00033825115 5.5320455e-05 2.0605576e-05 0.0005504419
000040 f7 08 2f b7 ae dd 34 b9 f2 ee af 36 2a a6 84 b8
       -1.04329e-05 -0.0001724872 5.2432233e-06 -6.325201e-05
000050 6f 8b c4 39 66 d0 6c 36 1f 06 ab b9 0c 4c 36 39
       0.0003748792 3.5288044e-06 -0.00032620222 0.00017385202
000060 25 ee 90 b8 5d 6b 51 b9 e2 4e 87 ba 09 04 3e b9
       -6.910813e-05 -0.00019971789 -0.0010323192 -0.00018121315
000070 df 54 43 b7 de e3 94 b9 73 19 32 38 75 eb 4f b9
       -1.1642666e-05 -0.00028398534 4.246221e-05 -0.00019828773
000080 84 eb 9b b8 2d 6c 56 b9 8a c3 29 b9 68 02 9d b8
       -7.434844e-05 -0.00020448929 -0.0001618994 -7.4867916e-05
000090 d5 1b a1 b9 28 8c 10 b9 3f 0b f6 39 6d 50 2d 39
       -0.0003072905 -0.00013785122 0.00046929155 0.00016528527
0000a0 86 27 66 b9 47 40 f0 38 98 4b 92 38 7a cf 0d b9
       -0.00021949233 0.000114560644 6.975903e-05 -0.00013524099
0000b0 77 8e a5 38 6c d0 f9 37 c9 3b be 38 7d 26 8c b8
       7.894349e-05 2.9780167e-05 9.071042e-05 -6.682889e-05
0000c0 19 e6 b9 b9 fa b4 30 b8 bd 00 ab b9 a5 3a 54 38
       -0.00035457386 -4.2130217e-05 -0.00032616212 5.0599356e-05
0000d0 fe 71 a9 b6 39 7b 70 39 ac 8f ff 39 bb f7 70 b8
       -5.049863e-06 0.00022934088 0.00048744434 -5.7451176e-05
0000e0 db 5e 73 39 40 b7 99 39 d6 80 15 39 49 a7 64 3a
       0.00023209622 0.00029318966 0.00014257742 0.0008722437
0000f0 b7 4c 82 39 c8 fc b1 b6 12 14 da b8 b7 7b 53 38
       0.0002485269 -5.3044387e-06 -0.000103987884 5.042154e-05
000100 1f 0e 11 b9 24 2f d8 38 99 b6 6e b9 27 f0 8c b9
       -0.00013833538 0.00010308463 -0.00022765472 -0.00026881808
000110 e1 77 cf b8 8e 2d ac 38 0f ae b3 b9 1a b0 53 39
       -9.892858e-05 8.210084e-05 -0.00034271224 0.00020188131
000120 0e f0 48 38 be 3f 73 b9 69 27 f9 38 12 2c 64 39
       4.7907284e-05 -0.00023198032 0.00011880586 0.00021760192
000130 81 1a 0c 3a 2f ed eb 37 ed cc 1d 39 2d f4 90 b8
       0.00053445256 2.812463e-05 0.00015049028 -6.911936e-05
000140 c3 cc b0 38 6a 59 a8 38 c0 8f cd b9 fa 56 a8 b8
       8.430474e-05 8.027519e-05 -0.0003920775 -8.027065e-05
000150 37 53 21 b8 35 a4 08 38 58 af 12 39 fc 41 23 39
       -3.846289e-05 3.2577856e-05 0.00013988966 0.00015569472
000160 2f f1 1f b9 ce 69 ff 39 69 7d 1f 3a 60 6b 01 38
       -0.0001525327 0.0004871622 0.0006084056 3.0855997e-05
000170 d5 48 fd b8 57 14 7e 38 65 b8 37 39 6e ff 35 b8
       -0.00012077546 6.0577262e-05 0.00017520932 -4.339165e-05
000180 39 3c 2c 3a 10 cc 41 3a 77 07 a5 b8 cc c6 b0 b7
       0.0006570253 0.00073927734 -7.8692035e-05 -2.1073407e-05
000190 6c 14 28 36 04 2f a5 38 70 39 09 37 d3 59 78 38
       2.5045838e-06 7.8765705e-05 8.1792095e-06 5.9211463e-05
0001a0 35 17 80 3a f1 6d c3 b4 66 0d 0d 39 38 b6 6a 38
       0.0009772541 -3.6401573e-07 0.00013451799 5.5959652e-05
0001b0 ca 22 81 b7 af 0f 7f b7 9a d6 01 b9 23 90 2a 38
       -1.5394198e-05 -1.5202836e-05 -0.00012382344 4.0665396e-05
0001c0 92 a3 a1 b7 56 f6 5a 39 07 0d 44 38 e1 0d 66 38
       -1.9268864e-05 0.00020881867 4.6742174e-05 5.48492e-05
0001d0 a8 a4 52 b8 e0 37 44 b9 ba 5e 0e 38 04 ad 78 b8
       -5.022125e-05 -0.00018712832 3.394366e-05 -5.928894e-05
0001e0 45 fa f6 38 3c c4 1e 38 07 36 1c b9 2a 91 f6 b7
       0.000117768104 3.7852893e-05 -0.00014897446 -2.9393083e-05
0001f0 c8 90 c6 39 c3 4f 2a b9 26 38 80 b8 d4 cc 4e 39
       0.00037873373 -0.00016242177 -6.113974e-05 0.00019721995

network.1.weight f4 [128]
000000 23 e9 8b 3f c6 7e 79 3f fe 1a 7a 3f 31 9d 7e 3f
       1.0930523 0.97459066 0.97697437 0.99458605
000010 55 5d 81 3f 5b 40 83 3f 0e 41 7e 3f d9 9f 87 3f
       1.0106608 1.0254015 0.99318016 1.0595657
000020 49 e9 77 3f da 74 83 3f d6 79 88 3f 9d d3 7c 3f
       0.9684034 1.0270035 1.0662181 0.98760396
000030 f6 b7 7a 3f b7 b6 82 3f 46 a9 8a 3f 3c 91 80 3f
       0.9793695 1.021201 1.0832908 1.0044322
000040 83 40 6f 3f 8d 5e 7a 3f ae d5 73 3f 23 96 84 3f
       0.9345781 0.97800523 0.95247924 1.0358318
000050 53 08 76 3f a4 75 83 3f 29 e0 80 3f f5 62 82 3f
       0.9610645 1.0270276 1.0068408 1.0186449
000060 cb b8 75 3f 07 18 82 3f c1 ab 7e 3f 40 cc 77 3f
       0.95985097 1.0163583 0.99480826 0.96796036
000070 7d 22 86 3f a5 a8 79 3f 08 4a 80 3f 6d 3d 76 3f
       1.0479275 0.97522956 1.0022593 0.9618748
000080 9b 6b 75 3f a0 eb 7d 3f 96 58 7e 3f f5 04 82 3f
       0.9586732 0.9918766 0.9935392 1.0157763
000090 e9 4b 7d 3f d3 f7 75 3f 67 ad 79 3f 18 25 7a 3f
       0.98943955 0.96081275 0.97530216 0.9771285
0000a0 c8 70 81 3f 86 61 89 3f 6e b9 80 3f 12 67 87 3f
       1.0112543 1.0732887 1.0056589 1.057833
0000b0 50 c6 7d 3f 6d 0d 7e 3f 0b c6 80 3f e8 61 80 3f
       0.99130726 0.99239236 1.0060438 1.0029879
0000c0 1d 5e 73 3f f6 9f 8a 3f b6 70 71 3f d2 95 78 3f
       0.9506548 1.0830066 0.9431261 0.9710361
0000d0 a2 85 81 3f a4 a8 82 3f 37 9b 8c 3f 4d db 87 3f
       1.0118906 1.0207715 1.0984868 1.06138
0000e0 9d b6 7a 3f e6 e7 7e 3f 8c 98 84 3f 97 c0 8a 3f
       0.97934896 0.995726 1.0359054 1.0840024
0000f0 dd 68 7e 3f 76 9e 7c 3f 2b 39 8b 3f 60 d5 75 3f
       0.9937876 0.9867929 1.0876821 0.9602871
000100 3a 91 79 3f 44 33 8b 3f 4e 3d 74 3f ca 45 8e 3f
       0.97487223 1.087502 0.95406044 1.1115048
000110 b7 c3 7e 3f 2a 97 7e 3f 8b d6 77 3f 99 14 7a 3f
       0.9951739 0.9944941 0.9681174 0.9768768
000120 39 8c 7e 3f 5e fa 81 3f 9e 47 7d 3f c7 75 8a 3f
       0.9943271 1.0154531 0.98937404 1.0817193
000130 48 25 7d 3f da e2 87 3f 80 c2 76 3f d1 85 81 3f
       0.9888501 1.0616105 0.96390533 1.0118963
000140 d5 49 82 3f b3 19 70 3f 3d 4b 72 3f 71 f7 78 3f
       1.0178782 0.93789214 0.94646055 0.97252566
000150 09 65 7c 3f b8 60 84 3f a6 2a 7f 3f 43 d4 80 3f
       0.9859167 1.0342016 0.9967445 1.0064777
000160 e4 48 7f 3f fe 7d 82 3f 10 67 7b 3f 3c 64 80 3f
       0.997206 1.01947 0.98204136 1.0030589
000170 bf 9f 75 3f 9f 2a 83 3f 90 32 7f 3f b9 1a 81 3f
       0.9594688 1.0247382 0.9968653 1.008628
000180 ce 9c 7d 3f 8b 0d 77 3f 4c 29 89 3f be 9c 7c 3f
       0.9906739 0.9650504 1.0715728 0.9867667
000190 51 13 7f 3f 24 e7 7c 3f 16 c5 7f 3f 1d 57 84 3f
       0.9963885 0.9879019 0.99910104 1.0339085
0001a0 50 b6 75 3f cb 99 84 3f c2 61 82 3f 12 e8 84 3f
       0.9598131 1.0359434 1.0186083 1.0383322
0001b0 18 a7 7d 3f 60 92 81 3f ec 8f 7c 3f c8 27 7d 3f
       0.9908309 1.0122795 0.9865711 0.98888826
0001c0 98 1e 79 3f cc 12 86 3f e5 c6 76 3f b4 8e 7e 3f
       0.9731231 1.0474486 0.9639724 0.994365
0001d0 f4 19 87 3f 58 ee 7b 3f 06 21 7a 3f b8 38 78 3f
       1.0554795 0.9841056 0.9770664 0.96961546
0001e0 6e 9d 6b 3f a2 d6 77 3f bf 76 7c 3f 87 86 7c 3f
       0.92037094 0.9681188 0.9861869 0.9864277
0001f0 8f ae 7a 3f ec 97 84 3f 74 6b 71 3f 6e 03 78 3f
       0.97922605 1.0358863 0.94304585 0.96880233

network.1.bias f4 [128]
000000 ff c0 78 bb 57 fd 9c bc 18 22 ce bc c4 b5 9b 3c
       -0.0037956832 -0.01916377 -0.025162742 0.019007571
000010 3b 05 85 bc 8a d6 8b ba fe 90 88 3c 86 b6 89 bc
       -0.016237846 -0.0010668796 0.0166707 -0.016810667
000020 fd 20 ad bd dc c4 12 3d 67 32 de 3d da e0 a6 bc
       -0.08453558 0.03583227 0.10849457 -0.02037089
000030 c8 5e 60 bd e9 ea 94 3c b6 b8 aa ba b0 05 cd ba
       -0.05477789 0.01817842 -0.0013025019 -0.0015641954
000040 d5 53 1d bd 28 8b da bc d6 97 27 bd 95 b3 d8 3c
       -0.038410027 -0.026677683 -0.040916286 0.026452819
000050 6d a7 13 bd 44 d4 f7 bc 09 7b 05 bd 9a 2e b2 bc
       -0.03604834 -0.030252583 -0.03258804 -0.021750737
000060 65 89 85 bd d9 15 c0 bc 6d 46 a7 bc f6 94 04 bd
       -0.065203466 -0.023447918 -0.020419324 -0.032368623
000070 71 a7 e9 bc b5 5b 4b bd 80 c3 51 bc 46 0a 83 bd
       -0.028522225 -0.049648006 -0.0128029585 -0.06398444
000080 66 a4 a3 bd 88 f4 8b bd d7 12 34 bc 06 7c 16 3c
       -0.07990341 -0.0683375 -0.01099082 0.009184843
000090 c9 4d 2b bd 22 d2 71 3c 0b 2d b5 bc ff c5 f9 bc
       -0.04182223 0.014759572 -0.022116205 -0.03048992
0000a0 83 4e 91 bc a0 b7 fe bc a0 a7 3d bc e2 50 d4 bc
       -0.017737633 -0.031093419 -0.011575609 -0.025917474
0000b0 8b f3 56 bc 78 30 d6 bc 81 d0 fa bc 6e b0 46 bc
       -0.013119589 -0.026146159 -0.030617 -0.012127025
0000c0 f9 75 2f bd 8a 4f f7 3a 2d 85 4c bd 21 71 3a 3b
       -0.042837117 0.0018868309 -0.049931694 0.0028448778
0000d0 df 00 a8 bb 3e b4 77 b8 d4 3e ee 3c c4 ee 60 3c
       -0.005127057 -5.9057253e-05 0.029082693 0.013728801
0000e0 7c 43 09 bd fa 70 51 3c 40 65 ba bc 66 05 e9 3d
       -0.033511624 0.012783283 -0.022753358 0.11377983
0000f0 27 c2 9a 3c c3 b5 53 bc bc 0e a8 3c af 08 41 bd
       0.018891407 -0.012921753 0.020514838 -0.047127422
000100 64 83 61 bc 81 f3 af 3b 92 ea 73 bd 9e ff 8d 3c
       -0.013764236 0.005369604 -0.059549876 0.017333802
000110 f6 2e 68 bc 2c a7 33 bc 7e 91 20 bd 18 df 72 bb
       -0.014171353 -0.01096515 -0.039201252 -0.0037059244
000120 e9 63 2f 3d ae d1 80 bc ce 1e 38 bd e8 08 9f 3b
       0.04281989 -0.015724983 -0.044951253 0.0048533566
000130 80 a2 0a bd 3c a1 2e 3c cd 88 c0 bc 58 c2 1f 3d
       -0.03384638 0.010658558 -0.023502732 0.0390037
000140 71 4a 2f 3c 0f ab 23 bd 6b 66 ea bc 2e 31 ab bb
       0.010698901 -0.039958056 -0.02861329 -0.0052243685
000150 e1 8b a1 bc 78 08 90 3c 6e a8 f7 bc d1 63 d1 bc
       -0.01972002 0.017582163 -0.03023168 -0.025560291
000160 28 30 e9 bb 18 e3 61 bd ae a3 2a bb 4d 83 23 3d
       -0.0071163364 -0.055148214 -0.0026037502 0.03992014
000170 0d 98 e0 bc 26 8c 54 bd eb e0 0c 3d 27 ca 07 3c
       -0.027416253 -0.05189147 0.034394186 0.008287943
000180 52 6d ee 3b 77 17 3a bd bf 68 c5 bc c6 0a a9 bb
       0.0072762156 -0.045432534 -0.024097798 -0.005158755
000190 1d b8 6a bc 4e 2b 4d bd 93 a5 ad bb 29 62 88 3d
       -0.014326123 -0.050090127 -0.005299279 0.066593476
0001a0 18 29 1c 3b f0 b3 da bc 49 bf 3c 3c 60 e2 f0 bc
       0.0023828205 -0.026697129 0.011520215 -0.029404819
0001b0 95 c1 1a bd 36 47 3f 3c c8 80 0e 3c 26 bd 56 bd
       -0.03778227 0.011674693 0.008697696 -0.05242648
0001c0 c7 92 fa bc 49 34 0b 3d 8c 65 be bc ee 1f 3b bd
       -0.030587567 0.03398541 -0.02324178 -0.045684747
0001d0 97 b6 bb 3a 06 af 63 bd 8e 01 3d bd ff 02 31 bd
       0.0014321384 -0.055586837 -0.04614406 -0.043215748
0001e0 db c6 9d bd ac 45 d4 39 28 69 b8 3c 42 d4 01 3d
       -0.07703944 0.000404877 0.02251108 0.031696565
0001f0 26 74 80 bc 3d c1 fd bc dc 52 f3 bb 01 c0 80 bd
       -0.015680384 -0.030975932 -0.007425649 -0.06286622

network.1.running_mean f4 [128]
000000 ba 16 80 3f d6 4c 80 3f ec aa 82 3f 96 03 58 3f
       1.0006936 1.0023448 1.0208411 0.8438047
000010 92 1e 3b bf 51 c1 78 bd c6 df 96 be 90 12 9f bf
       -0.7309352 -0.060731236 -0.294676 -1.242754
000020 3f db 6c 3f bf 98 30 bf e9 9d a1 3d 9c 00 6f bf
       0.92522043 -0.6898307 0.07891447 -0.93360305
000030 dd 50 6e bf 08 90 98 bf 33 46 b5 be 31 f1 c2 3e
       -0.9309214 -1.1918955 -0.3540512 0.3807464
000040 8d d7 2e bf 8e 14 65 be e7 0e f8 3e 7b 1a 6d be
       -0.68297654 -0.22371122 0.4844887 -0.23154633
000050 6c 53 56 bf 0f 28 47 bf 89 77 b5 3f b4 4e ce bf
       -0.8372104 -0.777955 1.4177104 -1.6117768
000060 31 07 1e bf a2 55 91 be b8 c6 0e bf ef 64 e0 3c
       -0.61729723 -0.28385645 -0.5577197 0.027391879
000070 f9 ec 96 bf e7 fe c5 3f df c5 a8 3d 1a 2b 18 3f
       -1.1791068 1.5468415 0.08240866 0.5944077
000080 8b aa 29 3f ce 41 d8 3e 91 59 3d 3f 03 a9 11 be
       0.6627585 0.42237705 0.7396479 -0.14224629
000090 54 2d 0e bf c7 72 a3 3f 75 b7 97 bf b3 10 72 be
       -0.55537915 1.2769402 -1.1852862 -0.23639183
0000a0 b4 53 3d bf 74 5f 28 3f 96 0d d5 3e 5f ce 13 3e
       -0.73955846 0.6577065 0.41611928 0.14434193
0000b0 ca ab 9a 3f a9 82 2c be 9c 5a 06 3f f3 3c 3e 3f
       1.2083676 -0.16846718 0.5248201 0.7431175
0000c0 08 49 8f bf 7f 91 38 bf 99 3d bb 3e 5e 33 90 3f
       -1.1194162 -0.7209701 0.36570433 1.1265676
0000d0 9f 78 40 bf c2 8f a1 bf de fe 84 3f cf 78 5e bf
       -0.75184053 -1.2621996 1.0390279 -0.8690309
0000e0 3b d8 8a 3f 3a ed b9 be 46 8c 40 bd 23 12 eb 3f
       1.0847238 -0.36313802 -0.047008775 1.836491
0000f0 a0 17 bc 3f 63 7a e9 bd 18 89 a7 be 71 1c 7f 3e
       1.469471 -0.114002965 -0.32721782 0.24913193
000100 01 02 55 3f 18 3c 98 bf ff ac 85 3f 24 fa 30 40
       0.8320618 -1.1893339 1.0443419 2.7652674
000110 58 88 ed 3e 01 c8 12 3f 44 57 11 3e 70 d9 bb 3e
       0.46393085 0.5733643 0.14193445 0.3668933
000120 b6 c0 c4 3f 10 ab 98 3d 98 90 80 be 1e c4 34 3f
       1.5371311 0.074545026 -0.25110316 0.7061175
000130 b7 0f 32 bf de 4f 94 be 2f f7 f9 bc ff f8 e6 be
       -0.6955523 -0.28967184 -0.030513374 -0.45111844
000140 90 40 92 bf 8c cc 74 3e e0 98 15 be 80 23 d1 3f
       -1.1425953 0.23906153 -0.14609098 1.6338959
000150 c8 49 ca bc 91 36 f6 be e1 9b 45 3e 82 b6 09 c0
       -0.024693385 -0.48088506 0.19297744 -2.1517644
000160 2d 03 90 bf 63 20 b0 3f 58 f0 db 3f d7 f6 11 3f
       -1.1250969 1.3759884 1.7182722 0.5701727
000170 03 b0 9e 3e c9 d8 e6 bf 87 80 76 3f 0d 63 ce be
       0.3099366 -1.8034908 0.9628987 -0.40309945
000180 7c 1a 52 3f 49 41 2b bf e7 ce bf 3c 37 64 97 3f
       0.8207166 -0.6689649 0.023414088 1.1827458
000190 c9 21 ca 3d 50 8e 53 be 7e b5 8b 3d 46 15 5b bf
       0.09869725 -0.20659757 0.06821726 -0.85579336
0001a0 61 39 1f 3f 96 21 a5 3e 69 45 77 3f a6 ad 6d bf
       0.6219693 0.32252187 0.96590286 -0.9284309
0001b0 ff b3 c6 be fe d4 ab bf c7 b7 04 3e 77 1f 6c 3f
       -0.388092 -1.3424375 0.1296073 0.9223551
0001c0 ac 0d 70 3f 76 34 cc be 46 c8 ca 3e 91 02 03 bf
       0.9377086 -0.39883775 0.39605922 -0.5117579
0001d0 f7 51 90 bf af 6a 8c be 15 6b a2 be ef 50 d5 3e
       -1.1275014 -0.27425143 -0.31722322 0.4166331
0001e0 02 13 cb 3e c6 ad 53 bd 61 42 42 be 09 78 ba 3d
       0.3966294 -0.051679395 -0.18970634 0.09104926
0001f0 41 00 94 3e 28 97 11 3f 8e 01 27 3e d7 5b dc 3e
       0.28906444 0.5687127 0.16309187 0.43038818

network.1.running_var f4 [128]
000000 ab 3b 3d 43 8d f6 86 44 c3 0f 04 44 55 3a d8 43
       189.23308 1079.7047 528.2463 432.45572
000010 5e ed 96 44 b3 1e f9 44 5b 4a 11 44 03 86 06 45
       1207.4177 1992.9594 581.1618 2152.3757
000020 f3 c3 b6 43 ff 07 bf 44 07 2e c8 42 b6 64 12 44
       365.53085 1528.2499 100.0899 585.5736
000030 ba ba 1d 44 3a 73 44 44 88 ad 52 44 8c c3 f0 42
       630.9176 785.8004 842.7114 120.38193
000040 ed d7 ba 43 d2 69 16 44 33 bd a6 43 53 c3 cc 44
       373.68692 601.65344 333.47812 1638.1039
000050 56 37 1c 44 8f 1e 04 45 3e 27 82 43 18 71 f9 44
       624.8646 2113.91 260.30658 1995.5342
000060 63 cc 8e 44 b7 3b 17 44 db f3 bc 42 0b 1b 8c 44
       1142.3871 604.93304 94.47628 1120.8451
000070 f3 13 1b 45 a8 76 88 43 a6 f1 38 45 3b bd 89 43
       2481.2468 272.927 2959.103 275.47836
000080 29 a6 6d 43 30 67 bf 44 fd bb d1 44 a8 d6 f6 43
       237.64906 1531.2246 1677.8746 493.677
000090 6f c9 8a 43 e4 40 05 44 8e 05 d1 42 02 2c aa 44
       277.5737 533.0139 104.51085 1361.3752
0000a0 b6 c5 e9 42 ff a1 84 43 95 05 67 44 96 f7 71 43
       116.886154 265.2656 924.0872 241.96713
0000b0 de 7e ac 44 99 a8 39 45 31 ea 8d 44 c2 31 26 44
       1379.9646 2970.5374 1135.3185 664.77747
0000c0 f3 62 54 43 75 c5 9f 44 1c 13 ac 43 28 f6 7d 44
       212.38652 1278.1705 344.1493 1015.8462
0000d0 5e 5b 51 45 0a 3d 91 42 08 05 27 41 f5 99 63 44
       3349.7104 72.61922 10.438728 910.4056
0000e0 4b fa a1 43 39 d0 ed 43 da 4e ae 44 fc 33 d8 42
       323.9554 475.62674 1394.4641 108.10153
0000f0 6d 09 06 43 d6 e8 64 44 0a c6 86 44 aa 60 c8 44
       134.03682 915.63806 1078.1887 1603.0208
000100 34 55 33 45 f3 7a b2 43 b9 72 11 43 ea 59 10 43
       2869.3252 356.96054 145.44814 144.35123
000110 70 c3 49 44 86 7a 55 44 30 9a a7 43 8d 90 1e 44
       807.0537 853.9144 335.2046 634.2586
000120 91 b4 05 43 ea 7f ca 43 40 95 8e 43 4d 4a 28 43
       133.70534 404.99933 285.16602 168.29024
000130 f0 ed a0 43 7b 2b dd 43 95 62 2d 44 cb de 47 43
       321.8589 442.3397 693.54034 199.87029
000140 82 e3 dc 43 a0 12 97 43 99 d2 0e 44 49 2b 05 44
       441.7774 302.1455 571.2906 532.67633
000150 6d 75 74 44 5b 17 ee 43 b7 0a 3d 43 89 3c d5 42
       977.8348 476.18246 189.04185 106.61823
000160 46 3a dc 42 9c 06 59 42 43 17 cb 41 e4 bb f0 44
       110.113815 54.256454 25.386358 1925.8716
000170 8f 4f 27 43 f4 af 30 45 84 15 ee 43 52 ac e1 43
       167.31078 2826.997 476.1681 451.34625
000180 ef fd a8 43 d6 16 f0 43 0b b9 94 43 35 27 0c 45
       337.98386 480.1784 297.44565 2242.4504
000190 78 6b 6f 44 00 ff d9 44 44 f1 04 45 dd 35 0b 44
       957.6792 1743.9688 2127.079 556.8416
0001a0 ba 00 d0 43 5e 48 3c 44 ac ef dc 44 f0 a3 7e 44
       416.00568 753.13074 1767.4897 1018.5615
0001b0 ad 06 f1 43 31 fc 8d 44 4a ce 0c 44 fe 23 ea 43
       482.05215 1135.881 563.22327 468.2812
0001c0 80 bb 4e 45 1d 94 24 44 7e 3f 01 45 0e 82 86 44
       3307.7188 658.3143 2067.9683 1076.0642
0001d0 26 74 53 43 ce 26 16 43 d3 d4 db 43 14 41 d1 43
       211.4537 150.15158 439.6627 418.50842
0001e0 15 bb 23 44 d7 f2 3d 44 5d 2c e9 43 c9 b7 df 43
       654.92316 759.7944 466.3466 447.43582
0001f0 fd 7d a5 43 01 d1 e9 43 29 05 93 43 3f d6 7c 44
       330.98428 467.63284 294.0403 1011.3476

network.4.weight f4 [64, 128]
000000 c6 97 8e bd 7a 85 90 bd 8a 8c 0a 3e f0 d1 26 be
       -0.06962542 -0.07056709 0.13530174 -0.16291022
000010 46 31 b8 bd 77 c0 b8 bd 97 40 9d 3d 10 3d 0b 3c
       -0.08993773 -0.09021085 0.07678335 0.008498445
000020 4d 48 77 3d ef 29 29 be 27 9d ad bd 2f 54 43 3d
       0.060371686 -0.16519903 -0.0847724 0.047687706
000030 7d ef a7 3c b9 e8 51 3c a9 fc da 3d d9 1b b5 bd
       0.02049994 0.012811833 0.10692722 -0.08843202
000040 27 db 52 bd c0 5e c3 3b f0 70 e7 bc 53 f1 84 bd
       -0.05147853 0.005962223 -0.028252095 -0.064913414
000050 a1 10 10 be 08 4e 10 be 17 15 2c 3e 04 58 b6 bd
       -0.14068843 -0.14092267 0.1680492 -0.089035064
000060 06 5e 5b 3c 4b 7e b5 3d f3 1c 1f 3d 65 72 c5 3d
       0.013389116 0.08861979 0.038845968 0.0964096
000070 67 58 54 bd dc c5 fe 3c 15 82 59 3d ce a5 6b 3d
       -0.05184212 0.031100206 0.05310257 0.05753117
000080 ee 95 2d 3e df 24 e2 bd 4f 0e 77 3d 18 e0 95 bd
       0.16951725 -0.11042189 0.06031638 -0.07318133
000090 9a e6 9d bd 52 c4 d9 3d 70 2b 1f bd 8f 9a fb 3d
       -0.077099994 0.10633148 -0.038859785 0.12285339
0000a0 45 ec 0c be d3 b6 44 3d 8c 5b aa 3d ef b3 04 be
       -0.13762005 0.048025917 0.083182424 -0.12959264
0000b0 1a 82 c9 3d 88 66 fd 3d 72 71 df bd f0 48 31 be
       0.09839268 0.12373072 -0.1091031 -0.1731298
0000c0 fc 07 5f 3c bf fc 20 bd 8a 6d fc bd 00 7b 08 be
       0.0136127435 -0.039303537 -0.123255804 -0.13328171
0000d0 c6 04 18 3d 5a 37 fe 3d 37 16 81 3e 7c d1 0d bd
       0.037113927 0.12412901 0.2521226 -0.034623608
0000e0 4b 94 22 3d 1b ab 18 3e 95 26 fb bd dc c2 80 bb
       0.039692204 0.14909022 -0.12263218 -0.003929479
0000f0 ab 1f 7d bd f6 0d 2e 3d 7e ed 1b 3c 77 da 9f bc
       -0.06179778 0.042493783 0.009517072 -0.019513352
000100 d5 23 d8 3d 12 b0 10 be c1 1f 62 bd ac d4 8a 3d
       0.105537094 -0.14129665 -0.055206064 0.06778845
000110 37 df f9 bc 86 2f 00 bd f9 d9 0e be 82 91 e5 bd
       -0.030501945 -0.031295322 -0.13950337 -0.11209394
000120 5c 7a 2e 3e 17 10 42 bd 7a ac 44 bd 30 34 f1 3c
       0.17038864 -0.047378626 -0.04801605 0.02944383
000130 a1 df 21 be cd 19 e8 3b 6e 5d da 3d d8 9c 09 be
       -0.15807964 0.007083154 0.106623515 -0.13438737
000140 78 b2 71 3c 44 b4 c4 3c 69 8e ac bc 2f ab c7 bd
       0.014752023 0.024011739 -0.021064 -0.097494476
000150 20 f0 aa bd 0a d1 f3 3a 92 7f 8a 3b 8e f4 e8 bc
       -0.083465815 0.0018601727 0.0042266333 -0.028436925
000160 72 af ab bd 6c e2 16 3e 88 82 a3 3c 39 f8 cb bc
       -0.08383073 0.1473481 0.019959703 -0.024898635
000170 de a2 0b 3d 46 69 cf bd c6 df 09 be 2e 63 91 3d
       0.03409087 -0.10127501 -0.13464269 0.07098995
000180 bd 75 4b bd e5 30 d8 bd 74 4c 77 3c ea 5d f9 bc
       -0.04967283 -0.10556201 0.015093911 -0.03044029
000190 1e f4 79 3c f4 10 c7 3d cd eb 46 bd 18 6d be 3d
       0.015255956 0.097200304 -0.04856472 0.09298152
0001a0 0f 74 ad 3d bb bd d5 bc 9c 50 47 bd fa b9 d2 3c
       0.08469402 -0.026091447 -0.04866086 0.025723446
0001b0 84 7d a2 3c d6 d8 08 3e fa 8e 06 3e 1c c2 06 be
       0.019835241 0.13363966 0.13140479 -0.13159984
0001c0 ad 07 02 3e 84 2e b4 bd ab 52 d9 3b f7 08 ca bd
       0.1269824 -0.08797935 0.0066321692 -0.09864991
0001d0 56 c3 94 bd 7c b0 9a bd 74 0d 2b bc 99 72 0c be
       -0.0726382 -0.07553193 -0.010440219 -0.1371559
0001e0 9d 6b 14 3e 34 cb b8 bd c9 a8 b4 bd 4d 86 1a 3e
       0.14494176 -0.09023133 -0.08821256 0.15090294
0001f0 11 7d f8 3c 3c 38 05 bc 04 40 b6 bc c6 95 df bd
       0.030333074 -0.008131083 -0.022247322 -0.10917239
000200 29 37 1c 3e d7 f9 85 3c bf b0 bf 3d 2c d7 90 3d
       0.15255417 0.016354484 0.093598835 0.07072291
000210 c3 f0 1d bd 4c df 8d bd db 85 3d 3c 1a e2 00 bd
       -0.038559686 -0.06927356 0.011567558 -0.031465627
000220 12 40 d1 3c 71 21 91 3c 4a 00 a6 bd b2 a3 f2 3d
       0.025543246 0.017716141 -0.08105524 0.11847629
000230 2d 03 9f bd bb c6 db bd ff 0d 22 be 10 01 be 3d
       -0.077642776 -0.10731264 -0.15825652 0.092775464
000240 30 19 c3 3d f5 f6 fc 3d 68 5c 30 be 12 fb 09 3d
       0.095262885 0.12351791 -0.1722275 0.033686705
000250 df 38 9b bd e7 19 9b bd 29 35 11 3e d5 4b 01 3d
       -0.07579207 -0.075733 0.14180435 0.03156646
000260 65 5b 0e 3d 80 15 27 3d dd 33 be bd 71 52 85 bd
       0.03475513 0.04079199 -0.09287236 -0.06509865
000270 2b 6a 27 3d 72 cd 44 bd fa db a9 bd 2f e7 09 3e
       0.040872734 -0.04804749 -0.0829391 0.13467096
000280 7c 13 1a 3e a7 37 0f 3e 1b b0 ec bd e3 82 a0 3d
       0.15046495 0.13986073 -0.11557027 0.07837465
000290 d1 90 1b be 5a a6 d5 3d c6 41 61 3d 84 46 ca bd
       -0.15191962 0.1043212 0.054994367 -0.09876731
0002a0 f5 a8 cc 3d ea bc b8 3d af ca 1d bc 7b d0 1b be
       0.099931635 0.090204075 -0.009630843 -0.15216248
0002b0 96 78 52 bc 8d 69 18 be 4e c6 a3 3d 57 83 55 bd
       -0.012846133 -0.14884014 0.07996808 -0.05212721
0002c0 20 6e 80 bd 35 ea 4a bd 03 b3 17 3d 85 7e e4 3d
       -0.06271005 -0.049539763 0.037035953 0.11156944
0002d0 74 fc d3 3d 51 40 b2 3d ab be b4 bd 81 b9 29 bd
       0.10350886 0.08703674 -0.088254295 -0.041436676
0002e0 01 85 2c 3c 47 b5 f5 bc d4 69 48 3c 1c 74 7a 3b
       0.0105297575 -0.029993666 0.012232263 0.003821618
0002f0 80 86 64 3d 65 8f d6 bd 9c 89 8e 3b e5 25 e5 bd
       0.05579233 -0.10476569 0.0043499004 -0.111888684
000300 fb 8f 52 3c bd 1d 10 bc ce a4 03 3e f7 16 28 3e
       0.01285171 -0.008796153 0.12855837 0.1641501
000310 bf ff ac 3d fa 9b 09 be e3 12 9a bd 05 7a 02 3c
       0.08447217 -0.13438407 -0.075231336 0.007963662
000320 b2 f4 e1 3d a3 a9 c3 3d 2d eb a8 3d 56 37 8f 3d
       0.11033 0.0955384 0.08247981 0.06992976
000330 cd c9 28 3e 08 6a b8 bd 10 9f f8 bc 00 f4 03 be
       0.16483231 -0.09004599 -0.030349284 -0.12886047
000340 1f 88 c6 bd ae aa 12 3e 47 ff 87 bd fb 63 bf 3d
       -0.09693932 0.14322922 -0.06640487 0.09345242
000350 a0 12 d9 bd e2 12 d2 bc e3 20 f7 3b e9 62 8b bd
       -0.105992556 -0.02564377 0.007541762 -0.06805975
000360 0f 65 42 3d 2e 41 31 be b1 8b 1c 3e 83 34 6f bc
       0.04745966 -0.1731002 0.15287663 -0.014599922
000370 d8 2d 03 be 30 d2 02 be 18 2c 0e 3d 47 0b ef 3d
       -0.12810457 -0.12775493 0.03471002 0.11672073
000380 99 d6 32 bd 0d 2f fe 3d c4 67 ec 3d 39 20 26 bd
       -0.043661688 0.12411318 0.11543229 -0.040558074
000390 e3 82 1a 3d a1 ed d1 bd 47 90 4d be ec 3e 0b 3e
       0.03772248 -0.10250402 -0.20074569 0.13598222
0003a0 3a 97 03 3e 6c 2d 22 3e da 28 c1 3c 89 33 0d bd
       0.12850657 0.1583764 0.02357905 -0.034472976
0003b0 66 95 8e 3d bb 51 3e be 0b bf 23 3e e2 b6 5d 3d
       0.06962089 -0.18585865 0.15990846 0.05412949
0003c0 61 d3 25 3d 1a 0d c1 bd d3 4e b1 3d 18 13 0e be
       0.04048479 -0.09426327 0.08657613 -0.13874471
0003d0 79 9b 92 bd 34 e5 98 3c 29 cc e5 3d 0d a1 0a 3c
       -0.0715856 0.01866398 0.11220581 0.008461249
0003e0 f0 15 17 be f0 d4 c9 bc e6 e8 80 bd 85 48 0b 3e
       -0.14754462 -0.02463767 -0.06294422 0.13601883
0003f0 a1 16 2e 3e fa 4b cd bd 8f 7b 1c 3e c0 dd 59 3b
       0.1700082 -0.10024257 0.15281509 0.0033243746

network.4.bias f4 [64]
000000 46 1f cb 3b 66 ae 30 3c 3c 7b 49 3a 13 6c 79 ba
       0.0061987964 0.010783767 0.0007685905 -0.00095147005
000010 c1 7c 7f 3b 51 d3 4c ba c3 62 9c 39 ae 0e 04 3b
       0.0038984271 -0.0007813471 0.00029828222 0.0020150351
000020 55 ac c6 b9 ee a3 27 bb e2 88 22 ba ca 9b 02 3c
       -0.000378939 -0.0025579887 -0.00062002067 0.007971713
000030 4d 46 a3 b9 73 19 a1 3b f4 fc 1f bb be 02 f7 3b
       -0.0003114216 0.004916364 -0.0024412246 0.0075381687
000040 e3 f1 ad b9 42 9f b1 39 9e 7b 96 3a 36 6f 8b 3a
       -0.0003317735 0.00033878727 0.0011480933 0.0010638002
000050 e9 db 9a ba 5c e2 3d 3b 2a de a8 3a 2d 0b 90 3a
       -0.0011814806 0.0028974032 0.0012883593 0.0010989659
000060 bd df 1a ba dd 9b 4a bb 2a 32 df ba 4b 46 df bb
       -0.00059079734 -0.0030915656 -0.00170285 -0.0068137995
000070 b5 2e d9 3a 6c c6 88 ba 76 9c bd b9 f1 92 3d 3b
       0.0016569706 -0.0010435111 -0.00036165462 0.0028926695
000080 35 ac 9f ba 35 0f 48 b9 26 12 f0 bb dd c7 c5 ba
       -0.0012182059 -0.00019079151 -0.007326382 -0.0015089471
000090 59 e5 40 3b cd 34 93 3a f3 66 7c 3b 74 83 42 3b
       0.0029433577 0.0011230946 0.003851351 0.0029680403
0000a0 a9 64 00 3c c6 92 cc 3b 5f 46 b2 39 88 e1 f3 b8
       0.007836499 0.0062430827 0.00034003236 -0.000116291514
0000b0 4c 1e 87 37 15 77 6f bb 65 6e 92 ba b9 ec d8 bb
       1.6107362e-05 -0.0036539484 -0.0011171816 -0.0066200164
0000c0 bc 5c 47 3b e4 ad be ba 87 24 b4 3b 41 e3 53 3b
       0.0030420264 -0.0014547673 0.0054975185 0.0032331499
0000d0 87 42 5e 3b 03 92 97 3a 60 e2 18 3a ca 65 d2 3a
       0.0033914165 0.0011563901 0.00058320723 0.0016052064
0000e0 54 b8 c5 3b 03 78 dd 3a d9 74 ac 3a 64 99 98 3b
       0.0060339365 0.0016896728 0.0013157382 0.0046569575
0000f0 26 ed 43 bb 70 12 9c b9 15 85 81 3a 1f 6e ac bb
       -0.002989599 -0.00029768376 0.000988158 -0.005262151

network.5.weight f4 [64]
000000 4a e3 75 3f ea cb 80 3f f8 cc 76 3f c2 c6 6e 3f
       0.9604994 1.006223 0.9640651 0.9327203
000010 23 c4 73 3f 49 42 6e 3f 95 e4 7c 3f 28 dc 93 3f
       0.95221156 0.93069893 0.9878629 1.1551561
000020 12 2e 6d 3f 6d 42 74 3f c2 74 7d 3f c0 98 65 3f
       0.9264842 0.9541386 0.99006283 0.89686203
000030 aa fa 75 3f 54 3b 72 3f bd 56 76 3f b9 10 87 3f
       0.9608561 0.9462178 0.962261 1.0551978
000040 91 c4 74 3f df 72 83 3f e9 3f 88 3f 38 1c 86 3f
       0.95612437 1.0269431 1.0644504 1.0477362
000050 82 3a 81 3f 65 5f 86 3f a4 82 7a 3f d3 31 81 3f
       1.009598 1.0497862 0.9785559 1.009333
000060 0f f0 86 3f 3a 5f 80 3f 20 a5 7f 3f 34 59 7a 3f
       1.054201 1.0029061 0.99861336 0.97792363
000070 e9 b4 8c 3f 57 0b 71 3f 49 fc 8b 3f c3 09 84 3f
       1.0992709 0.9415793 1.0936366 1.0315479
000080 e4 69 8e 3f cd 5b 64 3f f3 7a 7c 3f e7 55 7f 3f
       1.1126065 0.89202577 0.98625106 0.9974045
000090 1e 29 67 3f 91 f1 7b 3f ef 6a 6b 3f f8 e7 75 3f
       0.90297115 0.98415476 0.9196004 0.9605708
0000a0 b5 5c 81 3f ed 39 8d 3f 43 5b 80 3f 3b b7 90 3f
       1.0106417 1.1033303 1.0027851 1.1305918
0000b0 e7 4b 76 3f 3a f2 83 3f 5d 85 74 3f aa 91 71 3f
       0.9620957 1.0308297 0.95515996 0.9436289
0000c0 4b d1 84 3f 9d 0b 78 3f d9 28 83 3f 99 2f 78 3f
       1.0376371 0.9689272 1.0246841 0.9694763
0000d0 08 7a 90 3f df a0 73 3f be 59 6d 3f 18 10 6d 3f
       1.1287241 0.95167345 0.9271506 0.9260268
0000e0 d5 3e 72 3f b6 f0 6e 3f f2 47 7b 3f d3 45 71 3f
       0.94627124 0.93336046 0.98156655 0.9424717
0000f0 29 67 82 3f 4e d6 8e 3f 19 ee 88 3f f6 dc 83 3f
       1.0187732 1.1159151 1.0697662 1.0301807

network.5.bias f4 [64]
000000 a8 34 19 bd ce 2d b2 3c 47 69 0b bd 35 2b 6e bd
       -0.037403733 0.021750357 -0.034035947 -0.058146674
000010 ee d9 19 bd 98 7f 28 bd 48 56 22 bc 3e c4 e5 3c
       -0.03756135 -0.041137308 -0.009908266 0.028047677
000020 77 76 28 bd 47 15 c4 bd be 3b 21 bd 52 2c 8e bd
       -0.041128602 -0.09574371 -0.039363615 -0.06942047
000030 f5 ab d6 bc f8 63 08 bd b1 e4 9f bd 05 e9 04 bd
       -0.026205042 -0.033298463 -0.07807291 -0.032448787
000040 3e 3d 20 bd 85 9c a7 bd 3f bf 8c 3b 98 4c 8b 3d
       -0.039120905 -0.081841506 0.0042952592 0.068017185
000050 10 79 84 3d 75 29 d0 bd c1 c8 08 bc 56 ed 87 bd
       0.06468403 -0.10164157 -0.008348645 -0.06637065
000060 11 6f f2 3d 0a 0c 1d bd dd b6 cc bc 25 76 82 bc
       0.118375905 -0.03834156 -0.02498954 -0.015925476
000070 e2 bf df 3d 55 bd f4 bc 04 bf 24 3c 0f 5b 00 3d
       0.109252706 -0.029875437 0.010055307 0.03133684
000080 3e 0f ee bb a1 a2 03 be 0f c6 b5 bc 87 ae 33 bd
       -0.0072650006 -0.12855007 -0.022189168 -0.043867614
000090 a1 b3 81 bd f4 a2 c3 3c 52 bd ac bd 8d d8 57 bd
       -0.063330896 0.023881413 -0.084345475 -0.052696753
0000a0 fb 09 b2 bd c8 33 92 3d 0e 1e 1a bd 3b 82 cb 3d
       -0.0869331 0.07138783 -0.03762632 0.09936949
0000b0 48 da 2a bd 17 68 ff 3a 0f a6 7e bd 8a 58 a1 bd
       -0.041712075 0.0019485977 -0.062170085 -0.078782156
0000c0 d6 54 b8 3c 37 9b 41 bd 8e fc 35 3b 79 9e 9a bc
       0.02250139 -0.047267165 0.0027768943 -0.018874394
0000d0 4b 47 a0 3d 0c 60 2c bc fb ee bc bb 05 e5 5f bd
       0.07826098 -0.010520946 -0.0057657934 -0.05466177
0000e0 30 ad d5 bd 54 5b 4b bd 4a f7 c4 bc 23 cd c1 bd
       -0.104334235 -0.049647644 -0.024043698 -0.09462955
0000f0 99 b8 02 bd 14 1f 42 3d f8 f2 c0 3d 05 1a 39 bc
       -0.031914327 0.04739292 0.094213426 -0.011297707

network.5.running_mean f4 [64]
000000 3a 4e c9 be 5b 49 5c 3e 86 ea 5e bf 87 3a 2e bf
       -0.39317495 0.21512358 -0.87076604 -0.68058056
000010 bd 4e 08 3e bc 68 9c be 31 5d cb 3e a6 45 96 3f
       0.13311286 -0.30548656 0.39719537 1.1740005
000020 5c bc 54 bf 58 57 b6 be 31 61 0a 3f f4 c3 87 bf
       -0.83099914 -0.35613513 0.5405455 -1.0606675
000030 40 80 83 3d f2 4b 9b be 8f 2b d0 3e a1 00 9a 3f
       0.06420946 -0.3033138 0.40658233 1.2031442
000040 31 ce 29 3d 2b f3 ce be c3 96 26 bf 3f 17 29 bf
       0.041456405 -0.40419897 -0.65073794 -0.66051096
000050 49 82 a6 3e a4 21 c0 3f b0 05 8a be 14 bd aa 3f
       0.32521275 1.5010266 -0.26957464 1.3338952
000060 cb 43 63 3f b6 6d 7d 3f 61 89 ed 3e 74 62 d5 bd
       0.8877532 0.9899553 0.46393874 -0.10419169
000070 79 cb 66 3f b7 2e ea 3d 97 75 4b 3f 61 f8 72 bd
       0.90154225 0.114346914 0.794763 -0.059318904
000080 08 b8 b6 3f 67 26 9e be c4 f9 68 3e a6 b5 26 bd
       1.4274912 -0.30888674 0.22751528 -0.040700577
000090 f3 31 3b bf 41 ff 89 3d 63 8d 6d bf 0f fb 37 be
       -0.7312309 0.06738139 -0.92793864 -0.17966865
0000a0 81 83 f9 be fe fd 89 3f a2 df 6b 3e cc a1 8b 3f
       -0.48733142 1.0780637 0.23034528 1.0908751
0000b0 f3 3f 0b bf 1d 04 14 3f 78 38 88 ba 23 18 f6 3d
       -0.54394454 0.57818776 -0.0010392806 0.120163225
0000c0 d1 db 88 3f 44 c0 2e 3f a3 65 aa 3e 6e c2 d6 be
       1.0692083 0.68262124 0.33280668 -0.41945213
0000d0 99 3b 7b 3f 5c 90 56 3d 82 06 ac be d6 a8 bc be
       0.98137814 0.052383766 -0.33598715 -0.36847562
0000e0 19 ff f4 be 08 34 d1 be b5 58 0f bf d9 3d 8a be
       -0.47850874 -0.4086001 -0.5599473 -0.2700031
0000f0 41 69 b6 3f 00 5b 5c 3f 6b 60 9b be ff e3 8e 3f
       1.4250871 0.86076355 -0.30347 1.1163329

network.5.running_var f4 [64]
000000 45 c4 98 3f 81 f8 ab 3f 22 ef d7 3f a4 ed c5 3f
       1.1934897 1.3435212 1.6869853 1.5463147
000010 9c 03 17 40 4f 5c 0e 40 f3 cb 1c 40 3b 99 94 40
       2.3595953 2.224384 2.449948 4.643705
000020 1c 17 0c 40 cb 7d 44 3f 7f 5d db 3f 87 2a 6d 40
       2.1889105 0.76754445 1.7137908 3.7057207
000030 ac 49 99 40 11 72 60 40 16 22 e6 3f 2a 15 9c 40
       4.790243 3.506962 1.7979152 4.8775835
000040 95 ba 8f 3f 41 7a 0b 40 a5 fa c5 3f 34 40 a6 40
       1.1228815 2.1793368 1.5467116 5.1953373
000050 26 e2 0e 40 7a 2e 83 40 11 27 8e 40 0f 31 39 40
       2.232553 4.0994234 4.442269 2.8936193
000060 68 72 19 40 3c 09 b1 3f 97 96 c7 3f fc ef 5a 3f
       2.3976078 1.3830943 1.5592831 0.8552244
000070 39 12 a1 40 61 de 61 3f 32 b3 3c 40 41 75 10 40
       5.0334744 0.8822995 2.9484372 2.2571566
000080 e0 3c 88 40 20 40 af 3f 27 57 cd 3f 47 8d 43 40
       4.257431 1.3691444 1.6042222 3.055498
000090 dc d4 b0 3f 9d f2 1e 40 b0 33 0a 40 0e 55 cd 3f
       1.381496 2.483558 2.1594048 1.6041582
0000a0 67 a0 af 3f 3f 0b 1b 40 e7 ae f5 3f 76 67 68 40
       1.3720826 2.4225614 1.9194001 3.6313148
0000b0 48 d5 5a 3f 4a db 4c 40 fa ae 85 3f 05 c7 0d 40
       0.8548169 3.2008843 1.0444024 2.2152722
0000c0 db c8 7d 40 5a 5c 02 40 b5 23 3d 40 06 ab 1d 40
       3.9653842 2.0368867 2.9553044 2.4635634
0000d0 10 47 af 40 70 ec 46 40 45 ab 91 40 16 88 a3 40
       5.4774246 3.108181 4.552157 5.110362
0000e0 38 e8 43 3f b5 76 17 3f ff 3e 1f 40 18 cf a9 3f
       0.7652621 0.5916551 2.48822 1.3266325
0000f0 a1 bb 0b 40 09 95 5d 40 07 63 66 40 b3 2c 0d 40
       2.183327 3.4622214 3.5997941 2.2058532

network.8.weight f4 [32, 64]
000000 61 eb 3d 3e 64 bb 47 be b8 5c ee bc f5 e4 56 3d
       0.18546821 -0.19505078 -0.029096946 0.052464444
000010 cd 67 95 3d fc 33 1b be eb 9b 33 be 9e cb 15 3e
       0.07295189 -0.15156549 -0.17539947 0.14628455
000020 d6 bd c7 bc ab c6 a4 bd 77 ec c3 bd 82 c7 12 3d
       -0.024382513 -0.080457054 -0.095665865 0.035834797
000030 4d a2 3c bd 40 f5 11 be 6a 57 6f 3e ce 5e 91 be
       -0.04605322 -0.14253712 0.2337319 -0.28392643
000040 e9 ca cf bc 6c c4 99 3d 65 04 bc 3d 8f 4b 67 be
       -0.02536531 0.075081676 0.09180526 -0.22587417
000050 33 c8 8a bc 5b 2e d0 3d fb ab f5 3d b6 44 3d be
       -0.016941166 0.101650916 0.11995693 -0.18483242
000060 36 9a 1b be d4 9c 96 be 57 57 6e be b9 a9 4e be
       -0.15195546 -0.29416525 -0.23275505 -0.20181932
000070 f6 eb 9f be d9 75 4c 3d 89 7e 9f be 2d 84 18 be
       -0.3123471 0.049917076 -0.31151226 -0.14894171
000080 49 64 93 be 07 78 0a be 90 3d fe bd d7 8c 08 3e
       -0.2878745 -0.1352235 -0.12414086 0.13334976
000090 d5 51 05 be 2d 39 eb bd 56 c7 66 bd fd e0 bb 3b
       -0.13019498 -0.11485515 -0.056342445 0.005733608
0000a0 5f 5f b3 bc ee 01 4f be 9f 24 e6 3d e4 b7 33 be
       -0.021896062 -0.2021558 0.11237454 -0.17550617
0000b0 dc 43 b5 bd 43 56 8a bd 57 a0 2d be a9 e6 00 3e
       -0.08850834 -0.06754734 -0.16955696 0.1258799
0000c0 fa b9 8e 3d 7b 09 75 bd 83 3e 5b be d7 4d ee bd
       0.06969066 -0.059823494 -0.21410565 -0.116359405
0000d0 59 5a a3 3d 4c 27 b9 3d 1a 71 72 3d fd d2 18 be
       0.07976217 0.090406984 0.059189893 -0.14924236
0000e0 4f 9d 45 be 9f ae 82 be 8d 50 0a be d7 c8 da bc
       -0.1929829 -0.2552385 -0.1350729 -0.026707096
0000f0 22 b0 0a be b5 58 0c be 5d 77 37 3e ed 24 02 3e
       -0.13543752 -0.13705714 0.17916627 0.12709399
000100 29 43 0a 3e b2 84 01 bd cf 32 71 3e 37 ea f8 bc
       0.13502182 -0.03162069 0.23554538 -0.03038512
000110 c2 3f f9 bd 6c 9c 92 3d 3d b2 4f bd 4c d3 47 bd
       -0.12170364 0.07158741 -0.05070709 -0.048785493
000120 26 bd 95 3d 0e 7c f5 3d 8b 5b b5 3d 45 d2 85 bc
       0.07311468 0.11986552 0.08855351 -0.016335616
000130 cd c6 13 3e e8 d2 f6 3d b6 37 a7 3c db fb 60 be
       0.14431305 0.12051946 0.020412307 -0.21971075
000140 b9 f4 b8 bc 3e 56 74 3d 1d 5b 2b be a7 1b cf 3d
       -0.02257763 0.05965256 -0.16733976 0.10112696
000150 c1 1c 5c bd cd 1b a0 be 21 08 7c 3e 0a 4e 3d bd
       -0.05373836 -0.3127121 0.24612476 -0.046217002
000160 3c 31 32 bd bf 1e a3 3d 63 42 de 3b 34 47 4a bd
       -0.043503985 0.07964849 0.0067828163 -0.04938431
000170 8f ec 85 bd 8e 46 0f bd 5b 98 20 be c1 52 15 be
       -0.065392606 -0.034979396 -0.15683119 -0.1458235
000180 95 88 8f be 67 25 ea 3d c8 f8 1e 3e 99 28 c3 3c
       -0.2803389 0.11432915 0.1552459 0.02382307
000190 b9 9f 5c 3d af 5e 9a bd dc 2c 1f bd 7e 21 3a 3e
       0.05386326 -0.07537591 -0.03886114 0.18176839
0001a0 52 b5 59 bc 36 8b 96 be f9 0d 82 be b0 33 88 be
       -0.013287859 -0.29403085 -0.25401285 -0.26601934
0001b0 9e 50 e2 bc 30 9c 72 3e 66 31 a8 bd a1 e8 06 3e
       -0.027626332 0.23692393 -0.08212547 0.13174678
0001c0 5d 6e a3 bd 0a 8d d0 3d 52 22 a3 bd 87 d8 b5 bd
       -0.079800345 0.10183151 -0.079655305 -0.0887919
0001d0 c0 d8 b8 be 74 1b b6 bc 44 f5 4c 3e 4a 27 ed bd
       -0.36102867 -0.022229888 0.20015436 -0.115797594
0001e0 47 72 13 bd 3e ff 08 be 65 e1 98 bc 5d 5d cb bd
       -0.035997655 -0.13378617 -0.018662164 -0.09929917
0001f0 fe a5 19 3e 73 21 e8 3d 49 1e 0b 3e 5b bf 08 be
       0.15004727 0.11334505 0.13585772 -0.13354246
000200 09 d9 fb bd 33 8e 01 bd bf 45 47 3a eb 7c 1f 3e
       -0.122972555 -0.031629752 0.00076016405 0.15574996
000210 d5 c2 6d bd 11 07 9e 3b 8f 64 b0 b8 d6 fe da 3b
       -0.058047134 0.0048226197 -8.4110645e-05 0.006683211
000220 1c e4 33 bd b7 e4 7a be bb 58 3b 3c d2 99 64 3d
       -0.043918714 -0.2450131 0.011434729 0.055810757
000230 eb 3c 9f be 42 3e ef 3d c4 32 5e be 26 05 02 3e
       -0.31101164 0.116817966 -0.21699053 0.12697276
000240 62 bd 40 3e 28 d2 26 3e d9 52 f8 3d cb 63 23 3e
       0.18822244 0.16291106 0.12125177 0.15956037
000250 fc a6 0f 3e 84 c0 1d bd 69 29 11 3d 30 02 0d 3d
       0.14028543 -0.038513675 0.035439882 0.034425914
000260 a9 4d 84 3d 49 36 b3 3d 7f 9c 0e 3e 9b ba 9b 3d
       0.06460125 0.087505884 0.13926886 0.076039515
000270 90 c1 99 3d d5 f9 29 bd 4f bc 3a bc 21 c4 53 be
       0.07507622 -0.041498024 -0.011397435 -0.20680286
000280 8f 25 ca 3d 7e f9 a1 3d 47 ea a6 3c 1d c1 a1 be
       0.09870445 0.07908915 0.020375384 -0.31592646
000290 fb b7 9e ba 5b e4 3a 3e 6d 78 0e 3e 14 b1 1f 3e
       -0.0012109274 0.18251173 0.13913126 0.15594894
0002a0 e9 bf 4a 3e e7 a2 c8 3c 14 65 7b 3e c0 ef 3f be
       0.1979977 0.02449174 0.24550277 -0.18743801
0002b0 bd 9c 83 be 8b ef 8f be cd af 3e 3e 75 e6 20 3e
       -0.2570552 -0.28112444 0.1862175 0.15712912
0002c0 a0 7f a1 bc c0 de 6c bd d4 14 14 bd 1f 6f d0 bd
       -0.019714177 -0.05782962 -0.036152676 -0.10177445
0002d0 91 08 74 3d e0 fd 3b be e6 af 16 3e f2 31 e1 3d
       0.059578482 -0.18358564 0.14715537 0.109958544
0002e0 e3 d9 5c 3e d1 06 e8 bd db 09 3c 3e 2b 27 c1 3d
       0.21567492 -0.11329425 0.18363135 0.09431299
0002f0 c2 ea 0a 3d ce 82 a3 3d 99 de 53 bd b5 37 3a 3e
       0.03391529 0.079839334 -0.051725958 0.18185313
000300 a2 2b 3d be 14 d3 36 be a3 ab 1a bc 96 3d d9 3d
       -0.18473676 -0.17853957 -0.009440335 0.1060745
000310 6d dc 2a 3e d7 67 0f be 54 fa 4b be 9b 88 2d 3e
       0.16685648 -0.14004456 -0.19919711 0.16946642
000320 08 cc 02 3e 7f 55 f3 bd 31 6b 75 3e 64 87 c6 ba
       0.12773144 -0.118815415 0.23966672 -0.0015146551
000330 2f 52 25 be ea e5 16 be 0b 3f 8d be 6c 13 5a be
       -0.16144632 -0.14736143 -0.2758716 -0.21296471
000340 64 6a 36 3e d9 b3 e0 3c 99 31 06 bd 09 3e ec bd
       0.17814022 0.027429508 -0.032762144 -0.1153527
000350 de 8a 2c 3d 8e 20 e2 bd 55 d8 17 3e 25 35 57 be
       0.04212462 -0.110413656 0.14828618 -0.21016367
000360 74 cb 50 bc a0 8e a5 3c 6e ed 5f 3e a5 1d 8c be
       -0.0127438195 0.02020961 0.21867916 -0.27366367
000370 8a ff 09 be 6f 40 44 be 07 65 62 be d2 41 57 3e
       -0.13476387 -0.19165204 -0.22108851 0.21021202
000380 ec 1e b4 be 35 7b 1c 3d 8d 63 e4 bd 92 c6 3d be
       -0.35179842 0.038203437 -0.111518 -0.1853278
000390 95 2a bc bd 97 16 a3 bd 01 25 d9 3c bc e8 5d be
       -0.091878094 -0.07963293 0.026506903 -0.21670812
0003a0 87 7b df bc 8d 0a 92 be 01 4d d7 3d 2b b3 04 3d
       -0.027280582 -0.28523675 0.10512734 0.03239743
0003b0 f1 51 10 3e 68 31 32 be 8f 5d b7 3d b9 4b 48 3d
       0.14093758 -0.1740166 0.08953392 0.04890034
0003c0 5f ff 16 be 97 e1 67 be 87 34 8b 3c 94 d1 43 3e
       -0.14745854 -0.2264465 0.01699282 0.19122916
0003d0 56 ad ee 3d 85 1e 5b 3d 33 ba b9 bd 4b bf ca 3d
       0.11654155 0.053495903 -0.09068718 0.098997675
0003e0 f6 e7 7c 3d ba 31 00 be 0e a7 f7 bd 23 83 a4 bd
       0.061744653 -0.12518969 -0.1209241 -0.08032825
0003f0 aa 75 a0 3c c6 5b 54 be af 00 20 be d0 f0 2a be
       0.019587357 -0.20738134 -0.15625261 -0.16693425

network.8.bias f4 [32]
000000 cb a6 30 3c 6a 6e 71 bb f0 fd a4 ba af b6 b9 b9
       0.010781954 -0.0036839494 -0.0012587886 -0.0003542206
000010 4e 34 96 3b 95 47 9a ba 27 5c 5e bb df aa 6e 3b
       0.004583872 -0.0011770601 -0.0033929439 0.0036417765
000020 f6 cc 8d ba e3 97 8d 3b dd 89 44 3c 93 9a d0 bb
       -0.0010818529 0.004321085 0.01199576 -0.006366083
000030 25 4b 52 bb 03 81 8d bb eb 8a 5b b8 65 8a 64 3a
       -0.0032088247 -0.004318358 -5.2343046e-05 0.0008718132
000040 bb b3 b4 3b 03 d1 73 3c b0 15 04 3a 04 2e 4d ba
       0.0055145896 0.014881375 0.0005038632 -0.0007826986
000050 f4 04 be 3b 90 dd bc 3a b3 7b 2c bb 44 1f c4 bb
       0.0057989303 0.0014409292 -0.0026318848 -0.0059851725
000060 0d de 14 bc 2a 9f aa 3b 05 f1 4a bb 57 03 37 bc
       -0.009086144 0.005206962 -0.0030966413 -0.01117023
000070 72 9f a7 ba c3 93 33 3b 56 6b 73 bc cf 20 b9 3b
       -0.0012788607 0.0027401305 -0.014857134 0.005649663

network.9.weight f4 [32]
000000 13 90 4a 3f 2e ca 4e 3f 2c a6 58 3f bc 8d 48 3f
       0.7912609 0.8077725 0.8462856 0.7834127
000010 64 d0 54 3f 8b a7 39 3f 1f e3 4e 3f 2a c1 42 3f
       0.8313048 0.72521275 0.8081531 0.76075995
000020 08 c8 44 3f 6b 7e 5a 3f 14 5a 55 3f 2b 73 61 3f
       0.76867723 0.8534915 0.83340573 0.8806636
000030 91 0c 3b 3f 0a 87 51 3f e6 1e 57 3f 64 98 31 3f
       0.7306605 0.8184668 0.8403152 0.69373155
000040 57 3b 4a 3f 1a 58 5c 3f a1 95 4a 3f 45 5b 4d 3f
       0.78996795 0.8607193 0.79134566 0.8021739
000050 ba 4b 67 3f 59 1c 4d 3f ac a6 3f 3f 91 0f 54 3f
       0.90349925 0.8012138 0.74863696 0.8283625
000060 92 d4 5f 3f 92 7e 4d 3f f7 e6 77 3f 02 cc 4b 3f
       0.8743373 0.80271256 0.968368 0.79608166
000070 6f d0 40 3f 1a 15 53 3f 03 fb 54 3f bf db 40 3f
       0.75318044 0.82454073 0.83195513 0.75335306

network.9.bias f4 [32]
000000 7e e0 65 be 76 7d df bd 92 de dd bd f2 f0 b4 bd
       -0.22448918 -0.10912602 -0.108334675 -0.08835019
000010 71 1a 10 be 5a ca 68 be d4 17 6f be 0e 28 7d be
       -0.14072587 -0.22733441 -0.23348933 -0.24722311
000020 7c 7f 52 be b7 bf 8f bd 60 30 4f be 69 c4 ee bd
       -0.20556444 -0.070189886 -0.20233297 -0.11658556
000030 5c e4 4b be 91 cb dc bc 65 31 ab bd e9 82 50 be
       -0.19911331 -0.026952537 -0.08359031 -0.20362438
000040 7b 0a 2d be d4 f1 40 bd 02 2d 60 be 0d 01 f2 bd
       -0.16898529 -0.047105625 -0.21892169 -0.11816607
000050 12 08 9c bd 08 b4 ca bd ae d9 d6 bd 27 02 cf bd
       -0.07618727 -0.098976195 -0.10490738 -0.101078324
000060 55 2f 05 be 2b 30 1b be 38 79 44 3c 3b 0a 8d be
       -0.13006337 -0.15155093 0.011991791 -0.27546868
000070 9e d0 62 be 20 01 9d bd 2c 40 6b be 14 ab 22 be
       -0.22149894 -0.0766623 -0.22973698 -0.15885574
