soil_salinity_multi_sensor/outputs/models/stage1/stage1_epoch_90.pth (torch, 72297 bytes, 20 tensors)

network.0.weight f4 [128, 36]
-0.05487115 -0.19329013 -0.24055305 -0.15599312 -0.024619212 -0.24204707 0.52580905 0.003184663
-0.18537536 -0.17914893 -0.3817608 -0.06103728 -0.22877555 -0.09953016 0.010926466 0.08691738
-0.29351944 -0.1869795 -0.30352965 -0.055993605 -0.58351046 0.03416115 -0.72596 -1.4350723
-0.2919946 -0.3340652 0.13503414 -0.06108457 -0.1910013 0.060959887 0.17500967 -0.039358504
-0.07331393 -0.15150729 0.13284701 0.11112235 -0.047414757 0.06439043 -0.10528708 0.08410647
-0.071253106 -0.1616855 -0.52870053 -0.2110145 -0.10520771 -0.16445929 0.10760724 -0.031779334
-0.1352397 0.1465294 0.21986935 0.08766151 -0.1856585 0.11563655 0.07644393 -0.054716285
0.6691595 0.12697515 0.5559377 0.6588992 0.10176129 0.08255441 -0.40276712 -0.14774442
-0.23739602 -0.1264263 0.06062843 -0.077329695 0.08855483 0.21257415 -0.113654286 0.07935499
-0.33201015 -0.36094975 -0.14784734 -0.3737454 -0.34427026 -0.2865306 -0.8732785 -0.26641604
-0.3226253 -0.24146755 -0.30311045 -0.34488806 -0.53154504 -0.263185 -0.014720203 -0.08651422
-0.3227518 -0.43797755 -0.32138982 -0.24955526 0.577283 0.43157038 0.3664854 0.4406695
-0.29081863 -0.15822552 -0.57745504 -0.38074243 -0.057522837 -0.17586568 -0.472205 0.6145314
0.16533582 0.14370331 -0.27081585 0.040894818 0.15995994 0.24245922 0.11372431 0.21253486
-0.14734018 -0.1330394 -0.85283554 -0.09995242 0.2616781 -0.0064727734 0.21247907 0.03906723
0.12039491 0.024740497 0.1922164 -0.099868245 0.23416854 0.30629396 0.1747297 0.21624193
0.76594085 0.19902474 0.88921577 1.3582255 0.25747684 0.051711142 -0.26695886 -0.21126784
0.051919725 -0.09221594 -0.1787916 0.4586528 -0.050769597 0.07866912 -0.11420235 0.19272153
-0.008013798 0.0075806635 0.10917087 -0.052045103 -0.15110275 0.046001352 -0.38947728 0.23561656
-0.03683354 -0.10667699 -0.09637353 -0.028751109 -0.07173041 0.039385907 0.052384816 0.2027749
-0.021697035 -0.038210273 0.059613843 -0.0020458559 0.38784322 0.033100754 0.96314853 0.79079056
-0.062084805 -0.09530147 -0.2004077 0.2811793 -0.08819258 -0.34367186 0.051418487 -0.22436836
-0.23854432 -0.11008527 0.25398162 -0.07588909 0.21078958 0.09071288 0.20697278 -0.017693914
-0.09543179 -0.1713988 -0.78138375 -0.37095308 0.21185325 0.07698499 0.19189936 -0.09651007
0.04826899 -0.04988778 0.16744117 -0.11073885 0.19428824 -0.037088912 -0.15345417 0.011713286
0.8551073 0.14728618 0.8281844 1.6441569 0.062293503 -0.09012692 -0.38849044 -0.2548741
-0.17709586 0.12619217 -0.4042849 0.22332385 -0.06655182 0.122591995 -0.13971905 0.15267226
-0.45479172 -0.44954506 -0.31099924 -0.2695041 -0.22907345 -0.04241353 -0.55139315 -0.3844637
-0.44602475 -0.35059512 -0.4249374 -0.16824412 -0.55246586 -0.45213446 0.05198053 0.025733162
-0.6009251 -0.4805321 -0.19088532 -0.29200074 0.6240427 0.4652067 0.72255427 1.9060837
-0.15836063 -0.43362388 -0.7389327 -0.559568 -0.06860284 0.023084357 -0.27379066 0.18489537
-0.04467347 0.13448833 -0.37905172 0.09803318 -0.43658197 -0.2372129 -0.4304835 -0.24030267
00000000: 92c0 60bd d9ed 45be 8a53 76be a9bc 1fbe
00000010: 3bae c9bc 30db 77be 6c9b 063f c7b5 503b
00000020: 0ad3 3dbe d172 37be 2776 c3be 3a02 7abd
00000030: 2344 6abe 78d6 cbbd ec04 333c bd01 b23d
00000040: 2e48 96be 8e77 3fbe 3d68 9bbe 8d59 65bd
00000050: f160 15bf 90ec 0b3d 84d8 39bf 73b0 b7bf
00000060: 5180 95be 980a abbe 6446 0a3e d033 7abd
00000070: d895 43be 13b1 793d bc35 333e 6236 21bd
00000080: 9d25 96bd ba24 1bbe 0c09 083e 1d94 e33d
00000090: fa35 42bd 21df 833d c1a0 d7bd 0340 ac3d
000000a0: 26ed 91bd e290 25be eb58 07bf 2f14 58be
000000b0: 2477 d7bd 0468 28be 2f61 dc3d 0c2b 02bd
000000c0: 477c 0abe ce0b 163e 6e25 613e e187 b33d
000000d0: 431d 3ebe dbd2 ec3d a38e 9c3d 2f1e 60bd
000000e0: 094e 2b3f c605 023e ef51 0e3f 9ead 283f
000000f0: 3968 d03d 4912 a93d 7e37 cebe 504a 17be
00000100: f117 73be e575 01be 8455 783d 085f 9ebd
00000110: 3c5c b53d 0aad 593e 94c3 e8bd de84 a23d
00000120: 3cfd a9be 68ce b8be 4b65 17be 8f5b bfbe
00000130: 3144 b0be 24b4 92be 2e8f 5fbf af67 88be
00000140: 252f a5be 4543 77be 4b31 9bbe 2b95 b0be
00000150: 5613 08bf 2fc0 86be 022d 71bc 5e2e b1bd
00000160: b93f a5be 983e e0be 358d a4be 6a8b 7fbe
00000170: d2c8 133f cbf6 dc3e f9a3 bb3e 6f9f e13e
00000180: 2ee6 94be df05 22be 18d4 13bf acf0 c2be
00000190: 119d 6bbd 2216 34be dbc4 f1be ee51 1d3f
000001a0: cb4d 293e f626 133e 60a8 8abe 5381 273d
000001b0: 8acc 233e 3b47 783e 4be8 e83d bda2 593e
000001c0: 58e0 16be 7b3b 08be 6e53 5abf dbb3 ccbd
000001d0: acfa 853e 8f19 d4bb 1d94 593e f604 203d
000001e0: 9b91 f63d 95ac ca3c 60d4 443e b987 ccbd
000001f0: e1c9 6f3e 90d2 9c3e 58ec 323e 866e 5d3e
00000200: b314 443f 24cd 4b3e a5a3 633f 55da ad3f
00000210: 01d4 833e 10cf 533d d5ae 88be 9956 58be
00000220: c7a9 543d b6db bcbd 2515 37be 8ad4 ea3e
00000230: c8f3 4fbd 471d a13d ece2 e9bd cb58 453e
00000240: 4e4c 03bc 3767 f83b fa94 df3d 3f2d 55bd
00000250: aeba 1abe ea6b 3c3d 9169 c7be 7845 713e
00000260: c4de 16bd 7779 dabd 7c5f c5bd 7287 ebbc
00000270: 65e7 92bd 1e53 213d 7691 563d 39a4 4f3e
00000280: fbbd b1bc 6082 1cbd a52d 743d c413 06bb
00000290: 6393 c63e a894 073d e790 763f 4071 4a3f
000002a0: a34c 7ebd 6b2d c3bd ad37 4dbe bcf6 8f3e
000002b0: 509e b4bd c2f5 afbe 319c 523d d2c0 65be
000002c0: f644 74be 6374 e1bd e109 823e bd6b 9bbd
000002d0: 39d9 573e adc7 b93d acf0 533e d4f2 90bc
000002e0: be71 c3bd 2b83 2fbe c408 48bf 90ed bdbe
000002f0: 0ff0 583e 4eaa 9d3d 4481 443e 12a7 c5bd
00000300: b4b5 453d 2157 4cbd b375 2b3e 0dcb e2bd
00000310: 7ff3 463e 8bea 17bd 1723 1dbe 15e9 3f3c
00000320: 50e8 5a3f 30d2 163e e503 543f bc73 d23f
00000330: 7927 7f3d 7694 b8bd 38e8 c6be dc7e 82be
00000340: 9e58 35be 8538 013e 6efe cebe 02af 643e
00000350: 524c 88bd 8311 fb3d 8312 0fbe 1e56 1c3e
00000360: 76da e8be c52a e6be 4b3b 9fbe 71fc 89be
00000370: 3b92 6abe cfb9 2dbd 1a28 0dbf 6dd8 c4be
00000380: 5b5d e4be 3481 b3be 6591 d9be 3048 2cbe
00000390: 676e 0dbf 2b7e e7be 89e9 543d 5ace d23c
000003a0: 3ad6 19bf 4e08 f6be 7177 43be 1f81 95be
000003b0: 43c1 1f3f 932f ee3e 51f9 383f 8dfa f33f
000003c0: 4a29 22be f303 debe b22a 3dbf d93f 0fbf
000003d0: a57f 8cbd 681b bd3c 4a2e 8cbe 3655 3d3e
000003e0: 87fb 36bd 4fb7 093e 1113 c2be 9fc5 c83d
000003f0: ac87 dfbe f0e7 72be 5568 dcbe e711 76be

network.0.bias f4 [128]
0.023679113 0.07489841 -0.065460876 0.031221187 -0.14832574 0.06971668 0.019815512 -0.044521783
0.08565217 -0.033185925 -0.011149592 0.09378117 0.077430345 -0.03784914 -0.082079425 0.13509999
0.026919799 0.06233344 -0.09068357 0.087502904 -0.18398635 -0.04291837 -0.031115673 0.12304386
0.007851689 0.12544999 0.01709607 -0.035703994 0.07258451 0.08981176 0.053374387 0.015339934
0.12997071 -0.02927413 0.14697297 -0.12765403 0.04506438 0.09963758 -0.1357061 -0.013941666
0.13644898 -0.015582085 -0.012207989 0.18460192 -0.14666304 -0.017860666 0.05351435 0.01668716
0.07054903 -0.08571962 -0.2673748 -0.05286278 -0.054929674 0.075358786 -0.14227183 0.13933806
-0.07299181 0.05475721 -0.05726019 -0.07647882 0.09901712 0.104496114 -0.03225814 -0.056891803
-0.025135884 -0.06888815 -0.014382302 -0.127914 0.063270114 0.00712451 -0.113104045 0.18595771
0.059953388 -0.057918366 0.056939907 0.034643985 -0.09503751 0.16037145 -0.062062457 -0.030179512
0.0537621 -0.1556805 -0.03009101 0.014087226 -0.15118265 0.023429548 0.004828109 -0.09312105
0.059881523 -0.10799845 -0.049594764 -0.027101865 -0.089000486 -0.0396216 0.06353101 -0.05683373
0.05598853 0.13522153 -0.17796868 0.01877923 0.13523781 -0.0060434337 0.0034652012 -0.007902199
0.07730322 0.0549378 -0.037394777 -0.058836885 0.07318879 0.109145075 -0.004619565 0.048839267
0.02620234 -0.08525037 0.016145883 0.010446952 0.045935106 0.14886196 -0.07093232 0.0010111497
-0.043784164 0.08638506 0.05247573 -0.041852172 -0.039291203 0.092608005 0.038656462 -0.021173084
00000000: b3fa c13c 5664 993d 5a10 86bd 93c3 ff3c
00000010: b4e2 17be 9ec7 8e3d 2454 a23c 795c 36bd
00000020: 686a af3d f7ed 07bd c7ac 36bc 5810 c03d
00000030: cd93 9e3d b307 1bbd 4219 a8bd a757 0a3e
00000040: e986 dc3c 5951 7f3d 4fb8 b9bd b934 b33d
00000050: eb66 3cbe 2ccb 2fbd 4ce6 febc 6bfe fb3d
00000060: 5fa4 003c f675 003e 0f0d 8c3c 5a3e 12bd
00000070: 30a7 943d 3aef b73d 1a9f 5a3d 5954 7b3c
00000080: 0b17 053e 4dd0 efbc 1580 163e bdb7 02be
00000090: 6d95 383d ca0e cc3d 8af6 0abe 966b 64bc
000000a0: 48b9 0b3e 004c 7fbc 0404 48bc 4908 3d3e
000000b0: d62e 16be 8850 92bc dd31 5b3d 83b3 883c
000000c0: 037c 903d c58d afbd 5ae5 88be a486 58bd
000000d0: f0fd 60bd b555 9a3d b5af 11be a3ae 0e3e
000000e0: bb7c 95bd 1949 603d a989 6abd eda0 9cbd
000000f0: 7dc9 ca3d 0f02 d63d 1d21 04bd 6107 69bd
00000100: c5e9 cdbc 3b15 8dbd bfa3 6bbc e3fb 02be
00000110: c393 813d b974 e93b 18a3 e7bd b36b 3e3e
00000120: af91 753d cf3b 6dbd d239 693d dae6 0d3d
00000130: 07a3 c2bd 6a38 243e 3435 7ebd 063b f7bc
00000140: a635 5c3d b66a 1fbe 6c81 f6bc 1cce 663c
00000150: a0cf 1abe 53ef bf3c 1d35 9e3b 40b6 bebd
00000160: 5446 753d 4b2e ddbd e123 4bbd bb04 debc
00000170: e345 b6bd 424a 22bd 8c1c 823d 7cca 68bd
00000180: 3b54 653d 8377 0a3e 6c3d 36be e6d6 993c
00000190: c87b 0a3e ff07 c6bb 6e18 633b 3a78 01bc
000001a0: 2751 9e3d 7506 613d 442b 19bd f2fe 70bd
000001b0: 01e4 953d 7487 df3d b85f 97bb af0b 483d
000001c0: 4aa6 d63c bf97 aebd 5f44 843c b129 2b3c
000001d0: 7326 3c3d 456f 183e f744 91bd 8e88 843a
000001e0: 0657 33bd a6ea b03d cbf0 563d 2f6d 2bbd
000001f0: d0ef 20bd 44a9 bd3d 3d56 1e3d 2d73 adbc

network.1.weight f4 [128]
0.8408916 0.62544835 0.8197946 1.1600413 0.92105055 0.86287266 0.79522485 0.60818434
0.71544766 0.9707368 0.7963394 0.6780499 0.65807956 0.6572188 0.7734995 0.949218
0.9503848 1.3625802 0.7527341 0.794919 0.6969315 0.6583511 0.88151646 0.5987925
0.6098101 0.8838659 0.6810083 1.2759805 0.874549 0.84223306 0.9521754 0.80603516
0.59639126 0.7939412 0.68200415 0.6520341 0.82378346 0.7937818 0.6684191 0.7449922
0.9715874 1.0289402 0.67269725 0.5995695 0.7801663 0.816754 0.70331746 1.2757251
0.8315376 0.8122618 1.0155907 1.111979 0.66439044 0.5989851 1.3528723 0.741484
0.7309544 0.6462852 0.83063674 1.2212759 0.83168274 1.3300955 0.9589083 0.7777907
0.7227179 1.0010635 1.1696362 0.7030218 1.0613232 0.6616895 0.77027935 0.9454863
0.6656485 0.7066426 0.6164976 0.605905 0.67800015 1.0584174 0.88397354 0.79174536
0.6152254 0.77180094 0.90776175 0.999602 0.88660735 0.62444365 0.80726254 0.83133733
0.84668607 0.7090624 0.801907 0.8303221 1.1454103 0.67251205 0.75214756 1.0377594
0.78726846 0.7115502 0.7041426 0.70596397 0.7651245 0.7900279 0.71946526 0.70092165
0.7869892 0.9079951 0.59710467 1.1219958 1.1221887 0.6653753 0.8126867 0.89013684
0.7071502 0.8505213 1.0549093 0.71024233 0.94398236 0.7012714 0.7912985 1.5117671
0.72658676 1.3117348 0.686273 0.6316714 1.114743 0.78235644 0.79030305 0.6565346
00000000: ac44 573f 621d 203f 0fde 513f 3c7c 943f
00000010: f8c9 6b3f 39e5 5c3f db93 4b3f f8b1 1b3f
00000020: 9427 373f 3582 783f e6dc 4b3f ae94 2d3f
00000030: e777 283f 7e3f 283f 1004 463f f3ff 723f
00000040: 6b4c 733f 0769 ae3f 2fb3 403f d07f 4b3f
00000050: 1a6a 323f b389 283f 10ab 613f 774a 193f
00000060: 841c 1c3f 0945 623f 8f56 2e3f 5453 a33f
00000070: 71e2 5f3f 969c 573f c4c1 733f 5258 4e3f
00000080: 19ad 183f bb3f 4b3f d397 2e3f b5eb 263f
00000090: 79e3 523f 4935 4b3f 841d 2b3f cfb7 3e3f
000000a0: f4b9 783f 50b4 833f e335 2c3f 637d 193f
000000b0: fbb8 473f ca16 513f 9d0c 343f f64a a33f
000000c0: a6df 543f 64f0 4f3f e0fe 813f 5455 8e3f
000000d0: 7e15 2a3f 1657 193f eb2a ad3f e5d1 3d3f
000000e0: d41f 3b3f f272 253f 9ca4 543f c552 9c3f
000000f0: 29e9 543f 9240 aa3f 047b 753f 4b1d 473f
00000100: 0a04 393f d922 803f a4b6 953f 3df9 333f
00000110: 70d9 873f 7c64 293f 0731 453f 640b 723f
00000120: f167 2a3f 88e6 343f c9d2 1d3f 971c 1b3f
00000130: 6b91 2d3f 397a 873f 174c 623f d3af 4a3f
00000140: 697f 1d3f bf94 453f 1363 683f ebe5 7f3f
00000150: b3f8 623f 8adb 1f3f c2a8 4e3f 86d2 543f
00000160: 6bc0 583f 1d85 353f c749 4d3f fd8f 543f
00000170: ce9c 923f c029 2c3f be8c 403f 4dd5 843f
00000180: 6d8a 493f 2728 363f b042 343f 0eba 343f
00000190: 33df 433f 453f 4a3f e02e 383f 9a6f 333f
000001a0: 2078 493f 5e72 683f dadb 183f 8f9d 8f3f
000001b0: e1a3 8f3f 0956 2a3f 3c0c 503f 02e0 633f
000001c0: cc07 353f c4bb 593f 4507 873f 71d2 353f
000001d0: d4a8 713f 8686 333f 8a92 4a3f 9681 c13f
000001e0: 9701 3a3f ede6 a73f 96af 2f3f 38b5 213f
000001f0: e6af 8e3f 8348 483f 4d51 4a3f a712 283f

network.1.bias f4 [128]
-0.21466033 -0.35532433 -0.7429387 0.03718805 -0.0041125747 -0.21185671 -0.30696875 -0.5123642
-0.42348018 -0.74362063 -0.15105793 -0.27331746 -0.6005505 -0.49633935 -0.16570997 -0.09830182
0.0010156045 0.4993221 -0.5691182 -0.25022015 -0.7458727 -0.63254696 -0.08588102 -0.38964388
-0.40039843 -0.2317693 -0.45552716 0.28121543 -0.10035841 -0.72033364 -0.043812342 -0.54631263
-0.634252 -0.69552904 -0.33096752 -0.30904308 -0.06964772 -0.43852162 -0.13148734 -0.5850615
-0.7321206 0.30411714 -0.31594244 -0.34882256 -0.17946848 -0.09567634 -0.47450405 0.22337143
-0.13031603 -0.25661844 0.009691337 0.06610947 -0.43469617 -0.65314114 0.43449476 -0.5565507
-0.5441353 -0.45151833 -0.087630175 0.23122509 -0.7348283 0.19657424 -0.007955055 -0.6574462
-0.31786576 0.7289583 0.08604583 -0.24510889 0.20058994 -0.46764195 -0.2605015 -0.03557859
-0.304807 -0.3174769 -0.32129154 -0.40676704 -0.70087856 0.01513905 -0.15772942 -0.28516516
-0.3821093 -0.4981417 -0.22933227 0.0077240453 0.24571547 -0.41617233 -0.1540807 -0.099260285
-0.7574835 -0.4543307 -0.6085138 -0.43047255 0.23078601 -0.6734644 -0.35224843 -0.047926653
-0.25179735 -0.23255719 -0.31206506 -0.3698334 -0.4043309 -0.25477013 -0.3102454 -0.5811548
-0.383581 -0.12684599 -0.39021024 0.08100846 0.73779684 -0.4247592 -0.5677988 -0.07776966
-0.3641334 -0.6889445 -0.013210857 -0.27068087 0.02060191 -0.7061096 -0.23205699 0.45089483
-0.39134303 0.3493303 -0.41233367 -0.32041526 0.19791223 -0.67476183 -0.6181911 -0.5173107
00000000: ebcf 5bbe 12ed b5be 3b31 3ebf 7f52 183d
00000010: c7c2 86bb f7f0 58be 022b 9dbe 4d2a 03bf
00000020: 65d2 d8be ec5d 3ebf eeae 1abe 44f0 8bbe
00000030: adbd 19bf 3120 febe e0af 29be 7752 c9bd
00000040: 081e 853a 25a7 ff3e bbb1 11bf db1c 80be
00000050: 83f1 3ebf 99ee 21bf 63e2 afbd 677f c7be
00000060: 0601 cdbe ee54 6dbe db3a e9be 78fb 8f3e
00000070: b688 cdbd c967 38bf 9274 33bd 25db 0bbf
00000080: 575e 22bf 310e 32bf 9374 a9be e53a 9ebe
00000090: 77a3 8ebd e885 e0be 9ea4 06be 97c6 15bf
000000a0: 416c 3bbf 3eb5 9b3e 35c3 a1be df98 b2be
000000b0: 96c6 37be f5f1 c3bd 32f2 f2be 7bbb 643e
000000c0: 9171 05be 7e63 83be 6ac8 1e3c 6764 873d
000000d0: 7f90 debe 4234 27bf 1976 de3e 1b7a 0ebf
000000e0: 734c 0bbf 692d e7be 7377 b3bd 45c6 6c3e
000000f0: b51d 3cbf c24a 493e eb55 02bc 654e 28bf
00000100: 4dbf a2be 039d 3a3f cc38 b03d d3fd 7abe
00000110: 7367 4d3e c46e efbe 7460 85be dbba 11bd
00000120: aa0f 9cbe 558c a2be 5380 a4be c543 d0be
00000130: c76c 33bf c709 783c d283 21be 2b01 92be
00000140: d5a3 c3be 6e0c ffbe 14d6 6abe fd19 fd3b
00000150: d69c 7b3e 8a14 d5be 55c7 1dbe fa48 cbbd
00000160: 70ea 41bf 099e e8be 8fc7 1bbf e666 dcbe
00000170: 2b53 6c3e 2a68 2cbf e859 b4be bd4e 44bd
00000180: 95eb 80be 7923 6ebe fec6 9fbe ce5a bdbe
00000190: 7604 cfbe 3b71 82be 7cd8 9ebe 90c6 14bf
000001a0: bb64 c4be eae3 01be a3c9 c7be c3e7 a53d
000001b0: 41e0 3c3f 0a7a d9be 435b 11bf b345 9fbd
000001c0: b16f babe ab5e 30bf 5a72 58bc af96 8abe
000001d0: 56c5 a83c 99c3 34bf 59a0 6dbe b0db e63e
000001e0: 1d5e c8be 6cdb b23e 661d d3be 780d a4be
000001f0: 81a9 4a3e 31bd 2cbf c641 1ebf 796e 04bf

network.1.running_mean f4 [128]
-12232.347 -31967.113 3731.6655 -10510.77 -24259.113 -8736.287 -13036.418 5850.02
3996.8455 10721.456 -17473.34 -28813.01 -7252.9473 -17313.158 -8661.088 -6770.311
-35192.48 -11786.32 12145.578 -27016.293 -2145.7744 11540.679 -17500.66 -25920.24
-4703.596 7185.6133 -10027.868 -7351.5986 -9298.808 3062.3936 -7035.195 -9174.13
7072.38 3243.2932 -10997.802 -10206.597 -1179.1447 -9212.689 5845.8037 -6620.1924
2432.9146 2441.8628 12577.416 -13849.842 6019.215 -22550.797 18449.627 -7853.0254
-9823.961 -9337.968 -8672.95 -8936.577 -8117.068 -11117.719 -22330.203 -9896.096
9679.601 11986.58 -29060.023 -16785.213 3799.2073 -7208.0605 -16569.775 3774.3965
-20098.115 -415.49673 -6734.207 2431.7263 -20966.367 -15193.292 -4712.843 -24080.992
-45815.03 -19866.143 -4632.7695 -20063.78 -6262.083 -13088.386 5834.597 -26787.146
10437.482 -7744.319 -14795.028 -19553.355 1487.9009 -23870.979 -41251.78 -17799.723
11895.177 5925.637 -8334.9 5847.868 1927.5635 -7475.7744 -16698.666 -5292.6953
-10722.133 -14785.814 -30523.879 -12036.416 -18975.58 -15198.41 16092.7 -17522.215
-7285.445 -16020.435 15313.82 -7196.7954 304.0625 21356.627 8743.905 -41051.63
-18933.875 2644.6243 -16983.934 -25962.336 -19673.73 -8754.21 -23053.879 -10306.464
-10120.037 -31137.814 6308.8213 -17940.09 -36855.125 10450.7 11024.371 -14005.528
00000000: 6321 3fc6 3abe f9c6 a63a 6945 143b 24c6
00000010: 3a86 bdc6 2681 08c6 acb1 4bc6 29d0 b645
00000020: 87cd 7945 d385 2746 ae82 88c6 051a e1c6
00000030: 94a7 e2c5 5142 87c6 5a54 07c6 7d92 d3c5
00000040: 7b78 09c7 4829 38c6 50c6 3d46 9610 d3c6
00000050: 641c 06c5 b752 3446 52b9 88c6 7b80 cac6
00000060: c5fc 92c5 e88c e045 79af 1cc6 cabc e5c5
00000070: 3b4b 11c6 4c66 3f45 8fd9 dbc5 8558 0fc6
00000080: 0a03 dd45 b1b4 4a45 35d7 2bc6 637a 1fc6
00000090: a164 93c4 c2f2 0fc6 6eae b645 8ae1 cec5
000000a0: a20e 1845 ce9d 1845 aa85 4446 5e67 58c6
000000b0: b819 bc45 982d b0c6 4123 9046 3468 f5c5
000000c0: d87f 19c6 dfe7 11c6 cd83 07c6 4fa2 0bc6
000000d0: 8ba8 fdc5 e0b6 2dc6 6874 aec6 62a0 1ac6
000000e0: 673e 1746 524a 3b46 0c08 e3c6 6d22 83c6
000000f0: 5173 6d45 7c40 e1c5 8d73 81c6 58e6 6b45
00000100: 3b04 9dc6 95bf cfc3 a871 d2c5 9ffb 1745
00000110: bccc a3c6 2b65 6dc6 be46 93c5 fc21 bcc6
00000120: 08f7 32c7 4934 9bc6 28c6 90c5 8fbf 9cc6
00000130: aab0 c3c5 8b81 4cc6 c754 b645 4b46 d1c6
00000140: ee15 2346 8d02 f2c5 1d2c 67c6 b6c2 98c6
00000150: d4fc b944 f57d bac6 c823 21c7 720f 8bc6
00000160: b5dc 3946 192d b945 9a3b 02c6 f2be b645
00000170: 08f2 f044 329e e9c5 5575 82c6 9065 a5c5
00000180: 8888 27c6 4207 67c6 c277 eec6 aa11 3cc6
00000190: 293f 94c6 a479 6dc6 cd72 7b46 6ee4 88c6
000001a0: 8fab e3c5 bd51 7ac6 4847 6f46 5de6 e0c5
000001b0: 0008 9843 41d9 a646 9f9f 0846 a15b 20c7
000001c0: c0eb 93c6 fd49 2545 deaf 84c6 acd4 cac6
000001d0: 76b3 99c6 d7c8 08c6 c21b b4c6 db09 21c6
000001e0: 2620 1ec6 a143 f3c6 9226 c545 2e28 8cc6
000001f0: 20f7 0fc7 cd4a 2346 7c41 2c46 1dd6 5ac6

network.1.running_var f4 [128]
1.5657357e+08 1.1538953e+09 3.7307748e+07 1.26893464e+08 6.8226323e+08 8.158252e+07 1.681278e+08 7.311454e+07
1.9057262e+07 1.0965856e+08 3.688754e+08 9.4937235e+08 5.017005e+07 3.4343645e+08 8.317475e+07 4.429681e+07
1.3656256e+09 1.5924536e+08 1.4054022e+08 8.1477376e+08 7.9317335e+06 1.9061325e+08 3.457238e+08 7.450739e+08
3.191572e+07 7.301683e+07 1.09356264e+08 5.1331908e+07 1.0804438e+08 3.5750036e+07 4.982178e+07 8.264698e+07
6.777757e+07 3.394655e+07 1.5138475e+08 1.27554584e+08 9.783604e+06 8.2738216e+07 3.3868452e+07 4.291793e+07
3.292244e+07 1.57394e+07 1.9677491e+08 2.281962e+08 6.224768e+07 5.607105e+08 3.5245827e+08 5.9373504e+07
1.1153398e+08 9.2305576e+07 7.1361864e+07 7.628192e+07 7.413922e+07 1.29240824e+08 5.6759955e+08 1.0049532e+08
8.950823e+07 1.6243789e+08 9.5104045e+08 3.0172714e+08 4.0787468e+07 5.172836e+07 2.8357456e+08 4.087589e+07
4.3788464e+08 1.8867758e+07 4.326451e+07 2.0611234e+07 5.1120694e+08 2.719307e+08 4.8947344e+07 6.264227e+08
2.369888e+09 4.2638742e+08 4.7704612e+07 4.60438e+08 3.778178e+07 1.673756e+08 3.594566e+07 7.899475e+08
1.2129159e+08 5.6955224e+07 2.316778e+08 4.3724294e+08 1.5561401e+07 6.357541e+08 1.9104832e+09 3.3126643e+08
1.344232e+08 4.864215e+07 6.6693276e+07 3.5404984e+07 8.037936e+06 5.312525e+07 3.0669046e+08 2.6882708e+07
1.1546426e+08 2.727549e+08 1.1112558e+09 1.6937747e+08 3.9835536e+08 2.4649808e+08 3.1034592e+08 3.520669e+08
5.069641e+07 2.6472546e+08 2.644896e+08 5.3026772e+07 1.5932803e+07 4.8923504e+08 7.385887e+07 1.9172636e+09
3.986854e+08 2.7300902e+07 3.7174e+08 7.5605344e+08 4.542379e+08 7.469174e+07 5.910138e+08 1.01103096e+08
9.802344e+07 1.1252312e+09 3.8163092e+07 3.8131904e+08 1.5062839e+09 1.0391507e+08 1.1546519e+08 2.2342424e+08
00000000: f851 154d 178e 894e 5951 0e4c b307 f24c
00000010: 0baa 224e 379b 9b4c d456 204d 7674 8b4c
00000020: 3765 914b 3828 d14c bce4 af4d 1759 624e
00000030: 3062 3f4c 65c3 a34d aca4 9e4c 9afa 284c
00000040: 96cb a24e 43de 174d 9407 064d d841 424e
00000050: ab0e f24a 70c8 354d 9dda a44d b4a3 314e
00000060: 647f f34b c044 8b4c 9d94 d04c d1d0 434c
00000070: 0c14 ce4c 2560 084c 150e 3e4c f8a2 9d4c
00000080: 8446 814c ee7e 014c 2b5f 104d 834a f34c
00000090: 3449 154b 85cf 9d4c a932 014c 0ab8 234c
000000a0: a42d fb4b 082a 704b c0a8 3b4d f69f 594d
000000b0: c074 6d4c 0eaf 054e b110 a84d f07d 624c
000000c0: f4bb d44c 150f b04c a91c 884c 087f 914c
000000d0: ca68 8d4c df81 f64c 8753 074e fbad bf4c
000000e0: 31b9 aa4c b0e9 1a4d e7be 624e eddf 8f4d
000000f0: 8397 1b4c fa53 454c 0938 874d dced 1b4c
00000100: b7cc d04d 17f3 8f4b 800a 254c 5140 9d4b
00000110: 31c3 f34d aaaa 814d 24b8 3a4c cf59 154e
00000120: 9f41 0d4f 3f51 cb4d 89fa 354c d08d db4d
00000130: 4520 104c 2f9f 1f4d 2f1f 094c 9256 3c4e
00000140: 6958 e74c 5644 594c f6f1 5c4d 627e d04d
00000150: b972 6d4b 5a93 174e 52bf e34e ccf5 9d4d
00000160: 2a32 004d 1a8e 394c 276a 7e4c 2e0f 074c
00000170: 604c f54a 20a8 4a4c cd3d 924d 4a19 cd4b
00000180: 083b dc4c 470f 824d d678 844e ec87 214d
00000190: 5df3 bd4d 3214 6b4d 06fc 934d ebe0 a74d
000001a0: 3664 414c 3d76 7c4d a83c 7c4d f547 4a4c
000001b0: 831d 734b 1349 e94d e7df 8c4c 3e8e e44e
000001c0: a71b be4d 134a d04b 6b42 b14d d741 344e
000001d0: f698 d84d 9476 8e4c 9fe8 0c4e bfd6 c04c
000001e0: 02f7 ba4c 5523 864e a594 114c bcd3 b54d
000001f0: 2390 b34e c833 c64c 7d3b dc4c ef12 554d

network.4.weight f4 [64, 128]
0.038218264 0.0052890684 0.17539755 -0.092541054 0.07301142 -0.039903343 -0.031772863 -0.0055741277
-0.027482439 -0.078342356 0.07299844 -0.14718632 0.045706607 -0.18846695 -0.04232761 -0.039192308
-0.16438049 -0.11103349 -0.1672554 0.047890574 0.112958975 0.10293288 -0.12667368 -0.1433981
-0.023416689 0.04438712 0.063451976 -0.10168298 -0.08054982 0.078313366 -0.07603077 0.22919542
0.062385246 -0.053209826 -0.048048597 0.10170834 -0.023459274 0.028637791 -0.3500831 0.039210036
0.0923986 -0.37801033 0.030283103 -0.11577688 0.03617153 0.047210615 -0.07056373 -0.021505475
-0.23509929 -0.1914698 0.022568582 -0.1493665 -0.1375831 0.06299404 -0.23369673 -0.07808071
0.021741955 -0.06590847 -0.11115802 -0.062222183 0.035951693 0.011101113 -0.09662681 0.15476637
-0.06474577 -0.73513377 0.100477204 -0.010539621 -0.024050558 -0.06799416 -0.2737636 -0.12236642
-0.061672647 -0.07583183 -0.18628724 0.051995356 -0.03466757 -0.1414595 0.2317628 -0.13430116
0.07398884 -0.0068924516 -0.07076815 0.0060956697 -0.285405 0.007138552 -0.054482363 -0.057242535
-0.15187012 0.0432115 0.12278283 0.08768547 0.031623304 0.1676706 -0.21663257 0.13369226
0.15489216 -0.06502617 -0.04382169 0.035378695 -0.06506495 0.070620894 -0.06224569 0.02567394
0.08927713 0.022085326 0.15083854 0.07094588 -0.7225226 0.1088769 0.024195496 -0.05406735
-0.034752585 0.0002243257 -0.009832437 -0.047239263 0.0604362 0.20386277 -0.104007766 0.013496446
0.011085288 -0.15732285 -0.016430149 0.0036316712 -0.0015499258 -0.06862165 0.0004190206 0.05940239
-0.023076838 -0.27269962 -0.023422828 -0.17402796 -0.05285951 -0.24732998 -0.08696703 0.014938929
-0.15008467 -0.043236386 0.06775344 -0.07075859 -0.007971817 -0.031899218 -0.117493205 -0.13149257
-0.08944009 -0.3624575 -0.017299654 -0.09261535 0.11616142 0.12079431 -0.2318262 -0.28091794
0.011972934 -0.014024005 0.07100756 -0.17479937 -0.02374506 0.11754814 -0.23962426 0.081208564
-0.04917734 -0.037717454 -0.011886848 0.07906987 -0.29904336 -0.060256947 -0.17838283 -0.046625324
-0.0062739607 -0.29487267 0.14988618 -0.14994699 0.10322964 -0.053410824 -0.14471294 -0.120668605
-0.027015587 -0.0498741 -0.112379044 -0.042413503 -0.048778567 0.016069073 -0.2391518 -0.17929557
-0.045630682 0.006028182 -0.13391057 -0.033560723 0.050901346 -0.17009997 -0.17396599 -0.066728175
-0.10398851 -0.29025695 -0.2195279 -0.14124303 0.06759109 -0.018732613 -0.144483 -0.13643244
-0.18891324 -0.07596687 0.0048645716 -0.1968524 0.10449637 -0.14566435 0.025025045 -0.20527145
-0.051693268 0.034882654 -0.35233238 -0.22181417 -0.13781938 -0.121816665 -0.200366 -0.26669484
-0.005104072 0.11937553 0.016989052 -0.18027693 -0.17203449 0.15381676 0.08138779 -0.08555856
-0.24921906 -0.06337087 -0.1369158 -0.13298559 -0.0002599409 -0.02151979 -0.14745894 -0.09891428
0.0079905735 -0.16259557 -0.11643457 -0.08486231 -0.38688868 0.0938211 -0.15420057 -0.05005548
-0.117361434 0.041300587 -0.06442245 -0.18878797 -0.088964105 -0.109022975 0.002783375 -0.081981584
-0.1138599 -0.16488634 -0.19122681 -0.16820568 -0.19080783 -0.03492799 0.051391087 -0.11346558
00000000: c18a 1c3d ec4f ad3b 6a9b 333e 2a86 bdbd
00000010: 0387 953d b071 23bd 4324 02bd 2ca7 b6bb
00000020: da22 e1bc f571 a0bd 3580 953d 03b8 16be
00000030: da36 3b3d 7bfd 40be b75f 2dbd 1d88 20bd
00000040: 5c53 28be 8765 e3bd 0045 2bbe e828 443d
00000050: 0957 e73d 79ce d23d bfb6 01be f4d6 12be
00000060: 5bd4 bfbc 45cf 353d 1cf3 813d 2b3f d0bd
00000070: 4ef7 a4bd c262 a03d 05b6 9bbd 34b2 6a3e
00000080: ac87 7f3d 8cf2 59bd 9bce 44bd 764c d03d
00000090: aa2d c0bc cd99 ea3c 183e b3be b49a 203d
000000a0: 7a3b bd3d 928a c1be 4514 f83c 6e1c edbd
000000b0: 9928 143d eb5f 413d b883 90bd 402c b0bc
000000c0: debd 70be a910 44be bfe1 b83c 88f3 18be
000000d0: 96e2 0cbe 0503 813d 324e 6fbe c7e8 9fbd
000000e0: 2f1c b23c 05fb 86bd d1a6 e3bd b0dc 7ebd
000000f0: 1542 133d 71e1 353c 47e4 c5bd 137b 1e3e
00000100: 6e99 84bd ba31 3cbf fec6 cd3d 60ae 2cbc
00000110: ad05 c5bc 8640 8bbd be2a 8cbe 3f9b fabd
00000120: 759c 7cbd b84d 9bbd 15c2 3ebe 15f9 543d
00000130: 95ff 0dbd c2da 10be 3a53 6d3e 3e86 09be
00000140: 7687 973d 13da e1bb e4ee 90bd 2fbe c73b
00000150: 9b20 92be 84ea e93b e628 5fbd 2677 6abd
00000160: d783 1bbe 8bfe 303d 9075 fb3d 7194 b33d
00000170: 7087 013d d7b1 2b3e eed4 5dbe a0e6 083e
00000180: 0d9c 1e3e 712c 85bd 5f7e 33bd 40e9 103d
00000190: c640 85bd b0a1 903d 56f5 7ebd 2852 d23c
000001a0: eed6 b63d 49ec b43c 6b75 1a3e 134c 913d
000001b0: 3ef7 38bf dafa de3d a235 c63c ba75 5dbd
000001c0: ba58 0ebd f938 6b39 3b18 21bc f57d 41bd
000001d0: f38b 773d 67c1 503e 0602 d5bd 3320 5d3c
000001e0: 119f 353c 3e19 21be 8598 86bc 5501 6e3b
000001f0: e126 cbba 8289 8cbd feaf db39 ec4f 733d
00000200: a30b bdbc 499f 8bbe 3be1 bfbc 6334 32be
00000210: 3783 58bd 1244 7dbe c51b b2bd 69c2 743c
00000220: ccaf 19be a318 31bd 51c2 8a3d e1e9 90bd
00000230: 399c 02bc c1a8 02bd 47a0 f0bd fda5 06be
00000240: 5e2c b7bd 0894 b9be 01b8 8dbc 1ead bdbd
00000250: 0ae6 ed3d 0263 f73d d963 6dbe 7ad4 8fbe
00000260: 202a 443c f1c4 65bc 696c 913d 9bfe 32be
00000270: 0085 c2bc 14bd f03d 1060 75be ad50 a63d
00000280: 2e6e 49bd 9e7d 1abd 0ec1 42bc 62ef a13d
00000290: 361c 99be fdcf 76bd fda9 36be 32fa 3ebd
000002a0: cc95 cdbb 8df9 96be c37b 193e b48b 19be
000002b0: 106a d33d 4fc5 5abd a12f 14be 1a21 f7bd
000002c0: cb4f ddbc c948 4cbd fc26 e6bd c8b9 2dbd
000002d0: 09cc 47bd 4aa3 833c 36e4 74be 4299 37be
000002e0: 3de7 3abd 0e88 c53b da1f 09be f876 09bd
000002f0: ee7d 503d b02e 2ebe 2424 32be c8a8 88bd
00000300: eef7 d4bd 8f9c 94be eccb 60be 03a2 10be
00000310: 336d 8a3d 2375 99bc 5af3 13be f2b4 0bbe
00000320: 7972 41be 8594 9bbd fc66 9f3b ad93 49be
00000330: 3102 d63d 0929 15be 5301 cd3c ae32 52be
00000340: 52bc 53bd 1de1 0e3d e964 b4be 4123 63be
00000350: 8620 0dbe 047b f9bd bf2c 4dbe 3a8c 88be
00000360: 0f40 a7bb 287b f43d a02c 8b3c 849a 38be
00000370: cf29 30be 2482 1d3e a4ae a63d 5439 afbd
00000380: 4833 7fbe 96c8 81bd a833 0cbe 602d 08be
00000390: ad48 88b9 454a b0bc 7aff 16be 9293 cabd
000003a0: e5ea 023c 747f 26be 3f75 eebd 4acc adbd
000003b0: 4616 c6be 4725 c03d c1e6 1dbe fa06 4dbd
000003c0: 315b f0bd ce2a 293d ebef 83bd a251 41be
000003d0: d032 b6bd 7047 dfbd 4969 363b f6e5 a7bd
000003e0: 612f e9bd f7d7 28be f6d0 43be 1c3e 2cbe
000003f0: 2163 43be a710 0fbd 767f 523d a460 e8bd

network.4.bias f4 [64]
-0.11884963 -0.11286803 0.03781416 -0.044879727 -0.014708916 -0.01913866 -0.06470408 -0.05553595
0.03149955 -0.04894335 0.073354974 -0.10619863 0.124979064 0.022555701 -0.16581932 0.047278393
-0.024137137 0.04190586 0.09111822 0.21203461 0.17482226 -0.060631614 -0.0063099144 0.16799955
-0.025125999 -0.13649255 -0.029203359 0.107662976 -0.0056157047 0.28055337 0.13896303 0.10535206
-0.045246977 0.049081188 -0.17216001 0.0038512512 0.073422536 0.08322463 -0.026768515 0.23883739
0.17515507 0.04690012 0.07902287 0.0033398678 0.28839865 -0.01752897 0.068896025 -0.007608178
0.10897984 -0.2697058 0.11550205 -0.09131418 -0.08825473 -0.13503714 -0.1829576 0.051678903
0.06139075 0.040508676 0.17743547 0.0966977 0.085910164 -0.11041679 0.010368097 0.17200112
00000000: 6f67 f3bd 5b27 e7bd 05e3 1a3d ced3 37bd
00000010: aafd 70bc aec8 9cbc 9383 84bd aa79 63bd
00000020: ac05 013d d278 48bd 223b 963d ab7e d9bd
00000030: 06f5 ff3d bcc6 b83c 8acc 29be fda6 413d
00000040: 3fbb c5bc 7ba5 2b3d 309c ba3d 9a1f 593e
00000050: 9b04 333e db58 78bd 66c3 cebb 1308 2c3e
00000060: 0ad5 cdbc b4c4 0bbe e23b efbc 687e dc3d
00000070: f203 b8bb b1a4 8f3e 534c 0e3e d2c2 d73d
00000080: e554 39bd 5b09 493d b74a 30be 4665 7c3b
00000090: 8e5e 963d ad71 aa3d a549 dbbc ca91 743e
000000a0: da5b 333e 571a 403d bed6 a13d afe1 5a3b
000000b0: fda8 933e ea98 8fbc 5c19 8d3d 064e f9bb
000000c0: d330 df3d e116 8abe 578c ec3d ee02 bbbd
000000d0: e5be b4bd 2d47 0abe 3d59 3bbe 42ad 533d
000000e0: de74 7b3d 6dec 253d a5b1 353e 7209 c63d
000000f0: abf1 af3d 3322 e2bd f3de 293c 1021 303e

network.5.weight f4 [64]
0.9634838 0.893989 0.83029735 0.66336346 0.7863622 0.8418334 0.9507577 0.81040996
1.1421168 0.85562557 1.0089719 1.0359417 0.7679461 0.5864229 0.8255282 1.038973
0.94607854 1.0565044 0.7871885 0.9474939 1.002336 1.1100875 0.98548263 0.84160024
0.74976426 0.7969993 0.6635534 0.8640495 0.85987157 0.7811626 0.9529407 1.0555649
1.008887 0.56494707 1.0162659 0.8944571 0.8099118 0.76782227 0.70972717 0.89296544
1.0096563 1.1323138 0.97838193 1.3087939 0.8557855 0.9564629 0.96434623 0.93408006
0.91013396 0.87135696 0.7574658 0.7570312 0.8960594 0.9336263 1.0758911 1.0713766
1.0461134 0.6957481 0.9619751 0.7520958 0.8854344 0.72929853 1.0482032 1.094948
00000000: e0a6 763f 77dc 643f 5e8e 543f 30d2 293f
00000010: 084f 493f 6582 573f db64 733f 0777 4f3f
00000020: e230 923f 470a 5b3f fe25 813f bd99 843f
00000030: 1e98 443f d01f 163f d155 533f 11fd 843f
00000040: 3432 723f 893b 873f 2f85 493f f68e 723f
00000050: 8c4c 803f 5917 8e3f 9748 7c3f 1d73 573f
00000060: 8df0 3f3f 2508 4c3f a3de 293f 5932 5d3f
00000070: 8b20 5c3f 46fa 473f ecf3 733f c01c 873f
00000080: 3623 813f 5fa0 103f 0015 823f 24fb 643f
00000090: 6156 4f3f 0090 443f aeb0 353f 6299 643f
000000a0: 6b3c 813f a9ef 903f 3d77 7a3f 8f86 a73f
000000b0: c214 5b3f c1da 743f 65df 763f df1f 6f3f
000000c0: 8afe 683f 4011 5f3f 47e9 413f cccc 413f
000000d0: 2664 653f 2202 6f3f cdb6 893f de22 893f
000000e0: 0be7 853f 8c1c 323f 0044 763f 5a89 403f
000000f0: d4ab 623f 4fb3 3a3f 862b 863f 4227 8c3f

network.5.bias f4 [64]
-0.22512911 -0.4788105 -0.1043564 -0.06744446 -0.16829745 -0.16483526 -0.1976189 -0.30966574
-0.61358047 -0.20290332 -0.733493 -0.6932388 -0.23749816 -0.12971616 -0.108636245 -0.20774046
-0.09861242 -0.28173015 -0.14807916 -0.2159258 -0.78753424 -0.5426667 -0.2024811 -0.5197704
-0.34215844 -0.64056474 -0.18001418 -0.42864424 -0.06256281 -0.104842745 -0.55428046 -0.54118514
-0.19586636 -0.2115209 -0.5556283 -0.18346904 -0.07534336 -0.75431913 -0.27920082 -0.6709814
-0.7375889 -0.5840888 -0.63592756 -0.6545614 -0.15420176 -0.71072906 -0.493083 -0.31708643
-0.6687728 -0.09348728 -0.13255581 -0.13978784 -0.3112085 -0.27618197 -0.7740193 -0.43955335
-0.24185999 -0.83582604 -0.460771 -0.20523961 -0.36672077 -0.121009864 -0.84069735 -0.62685925
00000000: 3f88 66be a626 f5be cfb8 d5bd 5220 8abd
00000010: 2b56 2cbe 93ca 28be 9c5c 4abe 828c 9ebe
00000020: 9c13 1dbf e3c5 4fbe 32c6 3bbf 1978 31bf
00000030: b832 73be 50d4 04be ae7c debd eab9 54be
00000040: 4ff5 c9bd ef3e 90be 10a2 17be a71b 5dbe
00000050: d89b 49bf 34ec 0abf 3557 4fbe ac0f 05bf
00000060: 642f afbe 0dfc 23bf a355 38be 4277 dbbe
00000070: ee20 80bd cbb7 d6bd 53e5 0dbf 1c8b 0abf
00000080: 3191 48be ef98 58be a83d 0ebf 4fdf 3bbe
00000090: 9f4d 9abd 0f1b 41bf 69f3 8ebe 70c5 2bbf
000000a0: a0d2 3cbf d886 15bf 26cc 22bf 5691 27bf
000000b0: 11e7 1dbe 57f2 35bf 6075 fcbe 2759 a2be
000000c0: b234 2bbf 4276 bfbd b6bc 07be 8b24 0fbe
000000d0: b856 9fbe b967 8dbe 2126 46bf 230d e1be
000000e0: 25aa 77be b2f8 55bf 2dea ebbe 552a 52be
000000f0: d3c2 bbbe 05d4 f7bd f137 57bf d979 20bf

network.5.running_mean f4 [64]
-2.7496104 -4.426636 -0.08052177 2.6645012 2.0780349 -0.9603518 -2.4484813 -3.4559536
0.44145292 -2.0053372 0.22610684 0.23543525 -4.4580092 1.4333043 0.014711606 -1.479108
-1.9488238 -1.7667756 -2.2824793 -1.5488154 0.53042054 -1.1226057 -2.140513 0.51127
1.5930578 0.108103804 2.4098074 1.1455234 0.017407024 -3.59593 -1.1887553 1.0233276
-1.7832264 1.5376785 -1.954555 -2.3815236 -0.5497631 0.71828336 1.6605471 0.19940425
0.53928345 -1.5285275 0.36234537 -0.38553864 -1.0689931 0.34299985 -2.0996943 -2.752363
0.13605069 -0.91817003 -2.560701 -3.2211132 -5.0914617 -4.5897784 0.02677598 -1.7666824
-1.3984166 0.62911475 -0.5533221 -3.6790364 -0.5764002 1.9216781 0.40340716 -0.93390924
00000000: 9ef9 2fc0 01a7 8dc0 99e8 a4bd 3087 2a40
00000010: 86fe 0440 9ed9 75bf ebb3 1cc0 582e 5dc0
00000020: 1e06 e23e 7257 00c0 8d88 673e f015 713e
00000030: 03a8 8ec0 8476 b73f f308 713c 6953 bdbf
00000040: 0f73 f9bf b425 e2bf 2414 12c0 953f c6bf
00000050: a4c9 073f 8bb1 8fbf 2afe 08c0 97e2 023f
00000060: 51e9 cb3f 8765 dd3d 493a 1a40 83a0 923f
00000070: 2d99 8e3c b823 66c0 2229 98bf 66fc 823f
00000080: c340 e4bf a6d2 c43f dc2e fabf e26a 18c0
00000090: 46bd 0cbf 6be1 373f cf8c d43f a130 4c3e
000000a0: 7b0e 0a3f caa6 c3bf 5585 b93e 5265 c5be
000000b0: c4d4 88bf ad9d af3e 6461 06c0 b726 30c0
000000c0: df50 0b3e 310d 6bbf 86e2 23c0 b826 4ec0
000000d0: 41ed a2c0 77df 92c0 4d59 db3c a622 e2bf
000000e0: 51ff b2bf aa0d 213f 84a6 0dbf 5575 6bc0
000000f0: f78e 13bf 8cf9 f53f 628b ce3e ad14 6fbf

network.5.running_var f4 [64]
5.7242427 10.374788 2.4050465 6.322116 2.6626601 3.839093 3.783228 9.155288
1.2646638 4.963443 1.1306108 1.1247414 15.2630415 1.8869345 1.1041023 2.582725
4.470094 2.4608154 4.932048 2.3687632 1.1512786 1.4290091 3.562429 0.9698827
2.043963 1.2215383 4.6738176 1.2127053 1.9471483 11.843377 0.98760235 1.5262431
5.417097 8.709803 1.4972802 4.1386266 3.0230591 1.3302138 3.0720077 0.98936963
1.2712338 1.5442927 0.9987298 0.91367847 3.9173594 1.2309614 2.3348005 4.0874634
0.88974077 3.2056503 6.0279794 9.755511 16.024834 12.486201 1.1605741 1.9710743
1.9098884 1.5194421 1.0669037 11.065016 0.98220557 8.572993 1.2485974 1.0711958
00000000: ff2c b740 22ff 2541 48ec 1940 c64e ca40
00000010: 0669 2a40 b3b3 7540 6820 7240 0f7c 1241
00000020: 81e0 a13f 86d4 9e40 dbb7 903f 87f7 8f3f
00000030: 6b35 7441 1287 f13f 3953 8d3f 5e4b 2540
00000040: 030b 8f40 007e 1d40 56d3 9d40 d199 1740
00000050: 195d 933f c5e9 b63f d6fe 6340 3c4a 783f
00000060: 4ad0 0240 5e5b 9c3f ea8f 9540 ed39 9b3f
00000070: 283c f93f 797e 3d41 82d3 7c3f ef5b c33f
00000080: dc58 ad40 5a5b 0b41 e1a6 bf3f a16f 8440
00000090: cd79 4140 7244 aa3f c69b 4440 5447 7d3f
000000a0: cab7 a23f 62ab c53f c2ac 7f3f d5e6 693f
000000b0: 04b6 7a40 2590 9d3f 5f6d 1540 80cc 8240
000000c0: 0dc6 633f 6029 4d40 35e5 c040 9316 1c41
000000d0: dc32 8041 7bc7 4741 b18d 943f 2a4c fc3f
000000e0: 3977 f43f 147d c23f 4d90 883f 4e0a 3141
000000f0: d371 7b3f fb2a 0941 0ad2 9f3f f21c 893f

network.8.weight f4 [32, 64]
0.021665823 -0.088161275 0.14331175 0.074370235 -0.01137765 0.15259717 -0.005383711 -0.12625317
-0.20693187 0.09316836 -0.58544075 -0.5779906 -0.017285895 -0.016334377 0.22270201 -0.18310931
0.1656303 -0.07489562 0.088233024 -0.20459391 -0.42004165 -0.09292469 0.15842213 0.17833349
-0.2737607 -0.30961853 0.018381868 -0.18134943 0.1582832 0.011282772 0.03690937 -0.25900045
0.075358994 0.10437395 -0.09431288 0.1327348 0.14084475 0.18207271 -0.10059509 -0.47816688
-0.36151654 -0.06618749 -0.31972313 -0.21709357 0.105831094 -0.47611046 -0.20692836 0.04054901
-0.32973596 0.09690128 0.07694148 0.0011872002 0.041621987 -0.0064090486 -0.5079204 -0.12621461
-0.07718162 0.13874872 0.02258548 0.035069987 -0.12137135 -0.05758815 -0.40540072 -0.12804446
0.046169512 -0.011498755 0.12869662 0.093169786 -0.058136564 0.15473571 0.043925818 -0.11417028
-0.22101465 0.069094725 -0.4803403 -0.40703338 -0.052440893 -0.18438542 0.18842526 -0.2733624
0.15027659 -0.095094085 0.036302473 -0.20827827 -0.42231557 -0.093622334 0.18484965 0.1920044
-0.10459973 -0.3310212 -0.036696117 -0.019163875 0.18166056 0.021263354 -0.046316173 -0.38646585
0.12509958 0.008369914 0.028936325 0.12236528 0.13455483 0.14411965 -0.03693727 -0.41050917
-0.5501526 -0.08819036 -0.36962473 -0.30991852 0.17770879 -0.49781373 -0.16932589 0.014736659
-0.40510002 0.035495847 0.12626947 -0.02586463 0.03469917 -0.006821669 -0.62086207 -0.10392477
-0.12555772 0.14462675 -0.0498584 -0.031353757 0.051631533 0.10003718 -0.48082718 -0.104327485
0.16901907 0.034938738 0.09447251 0.031719115 -0.029644063 0.13356534 0.08223998 -0.07922975
-0.27992746 0.07372407 -0.6520302 -0.27235618 -0.051625296 -0.14618063 0.22332758 -0.17827632
0.07109194 -0.105547555 0.043740455 -0.22668314 -0.34014857 -0.10514571 0.06864851 0.26368102
-0.2920821 -0.43639144 0.03692257 -0.3510496 0.18091983 0.030298868 -0.04307118 -0.15123247
0.14215197 -0.11117104 -0.096135646 0.08583929 0.029151956 0.05773815 -0.20232204 -0.3245977
-0.3514399 -0.16705883 -0.37336984 -0.16526575 0.061891194 -0.2988948 -0.16337772 0.04430932
-0.38715675 0.11256141 0.067270555 0.0012269049 0.06974191 -0.012233091 -0.5308984 -0.25780708
-0.07222863 0.1371385 -0.070406005 -0.026532417 -0.011562165 0.12595437 -0.59398186 0.023842208
-0.24229074 -0.24768335 -0.107165426 0.12565096 0.20507999 -0.2639523 -0.21354727 -0.24485327
0.041844342 -0.22267276 0.014919374 0.08834788 -0.19643687 0.110058166 -0.04540837 0.1424553
-0.2694333 0.36103472 -0.19537522 0.062755756 0.061786562 0.27776244 -0.3467987 0.060390614
0.1745845 -0.017823141 0.09833805 0.051822513 -0.061630428 -0.20237555 0.27248004 0.095610924
-0.27129084 0.09674998 0.25458962 -0.27579626 -0.1738112 0.26427022 0.070710436 0.060792606
0.06728925 0.41849014 0.0696509 0.02132151 -0.23555571 0.06414274 0.29200447 -0.3308378
0.01460107 -0.2089833 -0.30118242 -0.18760209 -0.1977594 -0.22530325 -0.009013697 0.28000537
0.24850495 0.21103291 0.2156134 -0.16912909 0.24161743 0.105794944 0.0626356 0.3105819
00000000: 867c b13c e68d b4bd 51c0 123e 6c4f 983d
00000010: 5369 3abc 6f42 1c3e d769 b0bb 8348 01be
00000020: f3e5 53be 0ecf be3d 72df 15bf 31f7 13bf
00000030: 269b 8dbc accf 85bc ff0b 643e 0281 3bbe
00000040: fd9a 293e e062 99bd 84b3 b43d 1181 51be
00000050: b30f d7be 4d4f bebd 6939 223e 0e9d 363e
00000060: 5d2a 8cbe 5286 9ebe 9295 963c aab3 39be
00000070: fe14 223e 60db 383c 482e 173d b59b 84be
00000080: d155 9a3d 02c2 d53d 1c27 c1bd a2eb 073e
00000090: 9b39 103e 4571 3a3e cc04 cebd 4ad2 f4be
000000a0: b218 b9be 4f8d 87bd c0b2 a3be c74d 5ebe
000000b0: f9bd d83d c0c4 f3be 07e5 53be b816 263d
000000c0: 27d3 a8be 2e74 c63d 7f93 9d3d d49b 9b3a
000000d0: d17b 2a3d ff02 d2bb 1207 02bf 673e 01be
000000e0: 6611 9ebd 2514 0e3e 2f05 b93c 8ca5 0f3d
000000f0: 8b91 f8bd 8de1 6bbd af90 cfbe 161e 03be
00000100: 3e1c 3d3d 4665 3cbc 0cc9 033e cdcf be3d
00000110: 9b20 6ebd 0a73 1e3e 8feb 333d 1cd2 e9bd
00000120: aa51 62be 8981 8d3d 2aef f5be ae66 d0be
00000130: 43cc 56bd 88cf 3cbe 8df2 403e 28f6 8bbe
00000140: 1be2 193e b0c0 c2bd e7b1 143d e646 55be
00000150: bf39 d8be 11bd bfbd 3a49 3d3e cd9c 443e
00000160: 6238 d6bd 9c7b a9be ab4e 16bd 8ffd 9cbc
00000170: 3a05 3a3e 7c30 ae3c 07b6 3dbd dade c5be
00000180: 1b1a 003e f721 093c df0b ed3c a69a fa3d
00000190: bec8 093e 1a94 133e 894b 17bd 422e d2be
000001a0: cdd6 0cbf 269d b4bd 743f bdbe a4ad 9ebe
000001b0: 4bf9 353e 71e1 febe c463 2dbe 0772 713c
000001c0: 4569 cfbe 1864 113d c94c 013e 0fe2 d3bc
000001d0: b820 0e3d 4f88 dfbb d1f0 1ebf 83d6 d4bd
000001e0: 3492 00be 0919 143e 5238 4cbd cc6c 00bd
000001f0: 967b 533d 4be0 cc3d fb2e f6be a6a9 d5bd
00000200: 5613 2d3e ec1b 0f3d ce7a c13d e7eb 013d
00000210: 1bd8 f2bc 5ac5 083e 6f6d a83d 3543 a2bd
00000220: a752 8fbe a5fc 963d 74eb 26bf 4572 8bbe
00000230: 0c75 53bd 60b0 15be fcaf 643e 118e 36be
00000240: a798 913d 5129 d8bd 3129 333d a01f 68be
00000250: f427 aebe a256 d7bd 9797 8c3d 3301 873e
00000260: c98b 95be b36e dfbe 1f3c 173d c6bc b3be
00000270: 0c43 393e 5535 f83c 686b 30bd afdc 1abe
00000280: 4990 113e a4ad e3bd c4e2 c4bd 82cc af3d
00000290: 15d0 ee3c d77e 6c3d 822d 4fbe ab31 a6be
000002a0: eeef b3be 7811 2bbe 552a bfbe 6d3b 29be
000002b0: 9f81 7d3d bd08 99be 7d4c 27be b17d 353d
000002c0: 6939 c6be 9986 e63d 25c5 893d 19d0 a03a
000002d0: d9d4 8e3d 4d6d 48bc f5e8 07bf 4aff 83be
000002e0: 9bec 93bd 096e 0c3e 0631 90bd 835a d9bc
000002f0: 3c6f 3dbc 2ffa 003e 320f 18bf bc50 c33c
00000300: 101b 78be b4a0 7dbe 8c79 dbbd a5aa 003e
00000310: 7d00 523e c224 87be 23ac 5abe d1ba 7abe
00000320: f964 2b3d 5404 64be 6470 743c bcef b43d
00000330: bf26 49be 2d66 e13d 21fe 39bd cddf 113e
00000340: 29f3 89be 8bd9 b83e 7110 48be 1786 803d
00000350: e813 7d3d e136 8e3e 998f b1be 265c 773d
00000360: 47c6 323e d601 92bc 7665 c93d d843 543d
00000370: 3070 7cbd 893b 4fbe 8182 8b3e a9cf c33d
00000380: a2e6 8abe da24 c63d 9259 823e 2b35 8dbe
00000390: 90fb 31be 6d4e 873e a2d0 903d ab01 793d
000003a0: f2ce 893d 5744 d63e 22a5 8e3d 73aa ae3c
000003b0: 8435 71be 455d 833d 9c81 953e 9263 a9be
000003c0: 5439 6f3c b8ff 55be 9534 9abe c31a 40be
000003d0: 7181 4abe e5b5 66be 2fae 13bc dd5c 8f3e
000003e0: 1578 7e3e 0319 583e c2c9 5c3e 2d30 2dbe
000003f0: 8f6a 773e 05ab d83d 1847 803d 9704 9f3e

network.8.bias f4 [32]
-0.65650505 -0.9035522 -0.45903894 -0.82146406 -1.0260154 -0.84840655 -0.60429424 -0.5936777
-0.63810843 -0.95981777 -1.3119549 -0.7694003 -0.9735056 -0.4123898 -0.4187157 -0.97354764
-0.9703623 -0.42562303 -0.73822117 -0.8758209 -0.9547299 -0.91766137 -0.8250349 -0.26625124
-0.9465651 -0.8985267 -0.53097105 -0.7939473 -0.69045925 -0.4816238 -0.5294241 -0.38548118
00000000: b710 28bf 324f 67bf 2707 ebbe 784b 52bf
00000010: 7954 83bf 2c31 59bf 07b3 1abf 43fb 17bf
00000020: 135b 23bf 9eb6 75bf 23ee a7bf 6bf7 44bf
00000030: aa37 79bf c224 d3be e761 d6be 6b3a 79bf
00000040: aa69 78bf 43eb d9be 10fc 3cbf cc35 60bf
00000050: 2e69 74bf dbeb 6abf 7d35 53bf 1552 88be
00000060: 1752 72bf d905 66bf b8ed 07bf 2140 4bbf
00000070: f0c1 30bf 6597 f6be 5688 07bf ca5d c5be

network.9.weight f4 [32]
8.07647 8.266552 8.166266 8.24859 8.204603 8.060722 8.52957 8.138693
8.551602 8.575735 8.448068 8.544086 8.347211 8.574709 8.366306 8.412299
8.3090315 8.395243 8.468449 8.143439 8.452273 8.363639 8.135688 8.395397
8.5968 8.262794 8.4586115 8.304059 8.343136 8.460441 8.57574 8.300467
00000000: 3939 0141 cc43 0441 07a9 0241 3afa 0341
00000010: 0e46 0341 b8f8 0041 1e79 0841 1638 0241
00000020: 5dd3 0841 3636 0941 492b 0741 94b4 0841
00000030: 2d8e 0541 0232 0941 64dc 0541 c798 0641
00000040: cbf1 0441 ea52 0641 c47e 0741 874b 0241
00000050: 833c 0741 77d1 0541 c72b 0241 8c53 0641
00000060: 7e8c 0941 6734 0441 7956 0741 6ddd 0441
00000070: 7c7d 0541 f75d 0741 3b36 0941 b6ce 0441

network.9.bias f4 [32]
7.749587 7.9363165 7.8548913 7.660803 7.7649536 7.575024 7.9035096 7.704048
7.9431396 7.8778896 7.9661984 7.928497 7.9694185 7.9627275 7.796267 8.004406
7.692457 8.023841 7.8317595 7.768227 8.034708 7.997316 7.7369804 7.7918615
7.952343 7.8224382 7.8233566 7.8682957 8.014897 7.820568 7.9735527 7.948899
00000000: 9efc f740 4ef6 fd40 455b fb40 4c25 f540
00000010: 807a f840 9966 f240 8de9 fc40 9087 f640
00000020: 332e fe40 ac17 fc40 19eb fe40 3fb6 fd40
00000030: 7a05 ff40 aace fe40 057b f940 0c12 0041
00000040: 9c28 f640 a761 0041 c69d fa40 5195 f840
00000050: 2a8e 0041 03ea ff40 5895 f740 ee56 f940
00000060: 9879 fe40 6a51 fa40 f058 fa40 14c9 fb40
00000070: 053d 0041 1842 fa40 5827 ff40 615d fe40

network.9.running_mean f4 [32]
-1.414504 -1.7071323 -1.2892085 -1.3262396 -1.7939445 -1.6268537 -1.0810648 -1.4508961
-1.1329556 -2.0170913 -2.1704636 -1.1665459 -1.937892 -0.8864435 -0.9717513 -1.6630749
-1.6664914 -1.2274747 -1.3571053 -1.625345 -1.5780134 -1.7021209 -1.6084551 -0.74920535
-1.5670959 -1.7897855 -1.0267307 -1.6212629 -1.5088962 -1.0478739 -1.0244104 -1.0980927
00000000: 780e b5bf 5083 dabf c904 a5bf 38c2 a9bf
00000010: f99f e5bf be3c d0bf 5560 8abf f7b6 b9bf
00000020: b004 91bf 0618 01c0 e0e8 0ac0 6051 95bf
00000030: d80c f8bf f6ed 62bf b1c4 78bf a3df d4bf
00000040: 974f d5bf e41d 9dbf a0b5 adbf 4e0b d0bf
00000050: 58fc c9bf 19df d9bf dbe1 cdbf eccb 3fbf
00000060: 9996 c8bf b117 e5bf e96b 83bf 8b85 cfbf
00000070: 8323 c1bf bb20 86bf e11f 83bf 4d8e 8cbf

network.9.running_var f4 [32]
8.580438 9.08131 7.947869 5.1006956 7.9387407 7.1784754 5.2425013 8.2766905
5.44473 2.959324 5.8991227 4.6427174 10.381531 4.742726 5.0543575 5.899547
5.532543 9.711221 5.579348 7.407827 5.315017 8.631265 8.753526 5.1253953
5.6590576 9.412889 4.482689 7.365772 8.711824 5.3335047 4.898213 9.02258
00000000: 7949 0941 0c4d 1141 f154 fe40 e638 a340
00000010: 2a0a fe40 12b6 e540 92c2 a740 536d 0441
00000020: 3a3b ae40 9065 3d40 9dc5 bc40 2491 9440
00000030: c01a 2641 69c4 9740 4cbd a140 17c9 bc40
00000040: 980a b140 2961 1b41 058a b240 eb0c ed40
00000050: 9f14 aa40 a919 0a41 710e 0c41 3d03 a440
00000060: 0017 b540 319b 1641 3072 8f40 67b4 eb40
00000070: a263 0b41 12ac aa40 29be 9c40 7d5c 1041

network.12.weight f4 [4, 32]
6.2013793 6.5016875 6.262733 6.5900335 6.1627283 6.612463 6.5884767 6.1096616
6.4356794 6.6335015 6.0707655 6.26229 5.94929 6.07054 6.762062 6.246845
6.610779 5.9483666 6.619787 6.5699964 6.24151 6.125787 6.2534113 6.8387284
6.0684457 6.169909 6.5825977 6.201817 5.9419503 6.73478 6.656468 6.2755647
5.8128757 5.339002 5.207652 5.8448997 5.31492 5.6939044 6.392121 5.6933513
6.398713 6.0550857 5.380663 6.3765445 5.444508 6.3704824 5.820011 5.2337146
6.4491324 5.6865625 5.9845643 5.406788 5.2807164 5.412042 5.437201 6.237624
6.2442617 5.662185 6.1509047 5.899368 5.177364 6.0732856 6.1342697 5.139661
7.757477 7.2084007 7.419355 7.8182273 7.7677765 7.256596 7.168098 7.472543
7.3112345 7.2075458 7.6420417 7.7208705 7.289797 7.7942047 7.3886256 7.745031
7.690993 7.0502925 7.769716 7.4894686 7.7123218 7.4822927 7.244403 7.590962
7.7889996 7.5612354 7.3062024 7.4772177 7.307027 7.6423945 7.2285833 7.5302477
7.865557 7.838476 7.9675717 7.9201508 7.4814124 7.536947 7.6019073 7.55015
7.52132 7.6858435 7.4812956 7.3659034 7.692142 7.384641 7.847474 7.476025
7.738095 7.7711163 7.3666024 7.9067826 7.4611735 7.5713673 7.6464243 7.581408
7.4053006 7.5321016 7.595766 7.4502635 7.821267 7.35554 7.572508 7.6945987
00000000: b371 c640 d30d d040 4f68 c840 8ee1 d240
00000010: 1235 c540 4c99 d340 cdd4 d240 5982 c340
00000020: 16f1 cd40 a545 d440 b643 c240 ae64 c840
00000030: 9560 be40 dd41 c240 d062 d840 27e6 c740
00000040: 808b d340 0559 be40 4cd5 d340 693d d240
00000050: 73ba c740 7206 c440 f21b c840 ddd6 da40
00000060: b530 c240 e56f c540 a4a4 d240 4975 c640
00000070: 7524 be40 5183 d740 c901 d540 6dd1 c840
00000080: 1403 ba40 1bd9 aa40 16a5 a640 6b09 bb40
00000090: d313 aa40 7734 b640 418c cc40 ef2f b640
000000a0: 42c2 cc40 43c3 c140 642e ac40 a70c cc40
000000b0: 6939 ae40 feda cb40 883d ba40 977a a740
000000c0: 4b5f ce40 52f8 b540 8d81 bf40 6804 ad40
000000d0: a1fb a840 732f ad40 8dfd ad40 9e9a c740
000000e0: fed0 c740 9f30 b540 36d4 c440 9fc7 bc40
000000f0: f7ac a540 5b58 c240 f04b c440 1a78 a440
00000100: 403d f840 38ab e640 5b6b ed40 eb2e fa40
00000110: a091 f840 0936 e840 0f61 e540 121f ef40
00000120: a2f5 e940 37a4 e640 9b8b f440 5f11 f740
00000130: 0446 e940 206a f940 9f6f ec40 4bd7 f740
00000140: 9d1c f640 ff9b e140 83a1 f840 baa9 ef40
00000150: 57cb f640 f16e ef40 26d2 e740 29e9 f240
00000160: 7c3f f940 a4f5 f140 69cc e940 5e45 ef40
00000170: 2ad3 e940 7f8e f440 8e50 e740 caf7 f040
00000180: a5b2 fb40 ccd4 fa40 59f6 fe40 e071 fd40
00000190: bb67 ef40 ab2e f140 d342 f340 d49a f140
000001a0: a7ae f040 6ef2 f540 c666 ef40 7bb5 eb40
000001b0: 0726 f640 fb4e ec40 821e fb40 993b ef40
000001c0: 799e f740 fcac f840 35bb eb40 5d04 fd40
000001d0: efc1 ee40 a448 f240 82af f440 e59a f240
000001e0: 39f8 ec40 fa06 f140 8410 f340 8f68 ee40
000001f0: d247 fa40 9560 eb40 fc51 f240 273a f640

network.12.bias f4 [4]
4.832496 4.3768263 5.786739 5.9924145
00000000: cfa3 9a40 f60e 8c40 f72c b940 dcc1 bf40
