soil_salinity_multi_sensor/outputs/models/stage1/stage1_epoch_30.pth (torch, 72297 bytes, 20 tensors)

network.0.weight f4 [128, 36]
-0.56113183 -0.39056164 -0.65988326 -0.53769493 -0.051843524 0.11740046 0.16687329 0.16647238
0.10032457 0.024744477 -0.24705093 -0.099764556 0.081284486 0.06457394 0.0072039817 0.007586357
-0.33556446 -0.7202016 -0.4068174 -0.6451206 0.031845335 -0.11045984 0.032211162 0.14443648
-0.2572068 -0.06770404 0.061296653 0.04227408 -0.066066 -0.26271403 0.08228425 -0.1291273
0.0456789 0.055379853 0.10231465 0.17603326 -0.056305803 -0.06845757 0.09168733 -0.04806758
-0.08905003 -0.101766825 0.07766051 -0.1194281 0.076547846 -0.031039596 -0.06544638 0.10332877
0.013142073 0.0987179 -0.13588564 0.049827915 -0.04338948 -0.08072658 0.22753528 0.21428508
0.15583551 0.09315244 0.116321616 0.16104157 -0.03132322 -0.05679043 -0.013625787 -0.04220601
-0.08582887 0.17705698 0.0048009655 0.09759873 0.14305316 -0.18283957 -0.17687766 -0.18083146
0.188979 0.23724057 -0.122504845 -0.13765153 -0.14859587 -0.10394117 -0.08133746 0.1426422
0.12591715 0.17676081 0.06260747 0.17077976 -0.16932821 0.012617135 0.19796029 -0.08127875
-0.0921257 0.04689315 -0.09521311 0.17024638 0.075613186 0.06513439 -0.1669965 0.09653236
-0.051638573 -0.13921173 -0.06726598 -0.18184865 -0.0003076896 -0.11134534 0.0738243 0.082165405
-0.18360676 0.0060371524 0.036615554 -0.13585775 -0.0004810736 0.13619082 0.041342907 0.044008873
0.14598697 0.18255156 0.18467511 0.09693766 0.20505258 0.1604732 0.031101482 -0.080455974
0.22488916 -0.062103365 -0.043606147 0.18650575 0.0007812116 0.12474681 0.17472287 0.044036727
-0.18629222 -0.03089741 -0.19582886 -0.07978147 0.0030210852 -0.06948998 0.13742669 -0.08499425
-0.060199995 0.14747664 -0.24634473 0.2106117 -0.10480313 0.026794964 0.115279645 0.11738654
0.2720206 0.28920674 0.3309817 0.31939143 0.019907242 0.036305 0.13614084 0.064334914
0.037467077 0.13241538 0.27767694 0.21944821 0.06738554 0.020641182 0.1544777 -0.07478248
0.096097596 0.09108466 0.3828512 0.16548496 -0.06559114 -0.14979754 -0.006289982 -0.04882404
0.08060994 0.0823887 0.01271345 0.049158696 0.18081945 -0.13802668 -0.20995578 0.111706935
-0.0236823 0.052996535 -0.12599185 -0.1057245 -0.05552455 -0.12599082 -0.07234139 -0.1923679
-0.15494664 -0.0790341 -0.046352047 -0.11246674 -0.2562158 0.075493045 -0.11558544 -0.16364975
-0.39217436 -0.09403628 -0.19193952 0.022917653 -0.049069867 -0.05559312 -0.15921302 -0.35460433
0.18546058 -0.047204833 -0.016457573 0.022608677 -0.3452717 -0.13914455 -0.22510457 0.124237955
-0.081774145 -0.11354348 0.25607258 0.00066854025 -0.0018457577 -0.10373705 0.19564438 0.12718086
0.09115568 0.08057531 0.039987303 -0.063097335 -0.08948938 -0.09474605 -0.17465074 -0.039264366
0.14281291 0.0359469 0.14486405 0.07743714 0.14745227 0.19542141 -0.05900676 0.012279218
-0.03603489 -0.17016004 0.039094366 -0.23010325 -0.100885496 0.021972362 0.09402669 0.10999313
-0.10363669 0.09714915 -0.056880884 0.027386803 -0.06621835 -0.15364279 0.14302489 -0.20010512
-0.18982905 -0.17274599 -0.02313268 -0.16721055 -0.19578888 -0.04537838 -0.21179752 -0.21822363
00000000: 56a6 0fbf b2f7 c7be 1cee 28bf 60a6 09bf
00000010: e059 54bd a76f f03d d5e0 2a3e bc77 2a3e
00000020: f876 cd3d eeb4 ca3c ebfa 7cbe 5c51 ccbd
00000030: 7b78 a63d 583f 843d 610f ec3b fa96 f83b
00000040: 1bcf abbe 225f 38bf 5f4a d0be a026 25bf
00000050: 4170 023d c538 e2bd daef 033d 28e7 133e
00000060: 9cb0 83be 6aa8 8abd 3312 7b3d 9627 2d3d
00000070: 9c4d 87bd 7482 86be a584 a83d f239 04be
00000080: cc19 3b3d fcd5 623d 588a d13d 1042 343e
00000090: eaa0 66bd 7c33 8cbd 91c6 bb3d 83e2 44bd
000000a0: dd5f b6bd 206b d0bd 790c 9f3d b896 f4bd
000000b0: 1ec5 9c3d c046 febc c008 86bd 099e d33d
000000c0: d951 573c 9c2c ca3d 9b25 0bbe 5b18 4c3d
000000d0: 2bb9 31bd fa53 a5bd 02ff 683e 8c6d 5b3e
000000e0: 5893 1f3e b5c6 be3d 073a ee3d 15e8 243e
000000f0: c74c 00bd 159d 68bd b13e 5fbc 36e0 2cbd
00000100: 0cc7 afbd 6d4e 353e 6b51 9d3b d8e1 c73d
00000110: 877c 123e 4c3a 3bbe 6b1f 35be e22b 39be
00000120: b683 413e 31ef 723e d2e3 fabd 86f4 0cbe
00000130: 8429 18be 1cdf d4bd 4194 a6bd cc10 123e
00000140: 6df0 003e c900 353e 5838 803d e4e0 2e3e
00000150: 6064 2dbe 1ab8 4e3c 1ab6 4a3e 7975 a6bd
00000160: 66ac bcbd 0813 403d 17ff c2bd 1155 2e3e
00000170: 16db 9a3d 2e65 853d 2101 2bbe c2b2 c53d
00000180: f882 53bd 858d 0ebe bfc2 89bd 8836 3abe
00000190: 6651 a1b9 0709 e4bd 3231 973d 5646 a83d
000001a0: 6903 3cbe 4ed3 c53b 31fa 153d 4b1e 0bbe
000001b0: 9b38 fcb9 9b75 0b3e 2e57 293d a642 343d
000001c0: 9c7d 153e ccee 3a3e 791b 3d3e 4087 c63d
000001d0: 4ef9 513e 1653 243e 89c8 fe3c 1ac6 a4bd
000001e0: 5849 663e 1960 7ebd 5c9c 32bd 5dfb 3e3e
000001f0: 39ca 4c3a 417b ff3d 8dea 323e db5f 343d
00000200: 63c3 3ebe 911c fdbc 5c87 48be 7864 a3bd
00000210: 66fd 453b c350 8ebd 95b9 0c3e 7711 aebd
00000220: 4594 76bd 1e04 173e cb41 7cbe 98aa 573e
00000230: 06a3 d6bd 1d81 db3c bc17 ec3d 5b68 f03d
00000240: 4946 8b3e e812 943e 6f76 a93e 4687 a33e
00000250: 8314 a33c 8db4 143d 8168 0b3e 06c2 833d
00000260: 1477 193d e697 073e ac2b 8e3e 08b7 603e
00000270: 6e01 8a3d b217 a93c 672f 1e3e 8f27 99bd
00000280: d1ce c43d 988a ba3d 1305 c43e e474 293e
00000290: a654 86bd 8764 19be 311c cebb b7fb 47bd
000002a0: d316 a53d 68bb a83d 134c 503c a15a 493d
000002b0: bc28 393e de56 0dbe a6fe 56be 9bc6 e43d
000002c0: 6201 c2bc e512 593d 0204 01be 1686 d8bd
000002d0: b66d 63bd bd03 01be b927 94bd 17fc 44be
000002e0: 55aa 1ebe a1dc a1bd a5db 3dbd f654 e6bd
000002f0: b82e 83be 199c 9a3d 0fb8 ecbd cd93 27be
00000300: 14cb c8be 1896 c0bd cb8b 44be cdbd bb3c
00000310: 7cfd 48bd 9db5 63bd bd08 23be b38e b5be
00000320: 61e9 3d3e db59 41bd 08d2 86bc d535 b93c
00000330: 74c7 b0be e97b 0ebe d081 66be 7870 fe3d
00000340: 3479 a7bd 7c89 e8bd f21b 833e fa40 2f3a
00000350: 5aed f1ba 1774 d4bd 0057 483e b33b 023e
00000360: d4af ba3d ab04 a53d bac9 233d 2d39 81bd
00000370: 3546 b7bd 380a c2bd a5d7 32be acd3 20bd
00000380: 8c3d 123e 0e3d 133d 3e57 143e 5d97 9e3d
00000390: bafd 163e 8d1c 483e 13b1 71bd c62e 493c
000003a0: 5299 13bd 6f3e 2ebe 6a21 203d 30a0 6bbe
000003b0: 0e9d cebd 62ff b33c 1191 c03d 1444 e13d
000003c0: 793f d4bd 22f6 c63d eefb 68bd 4a5a e03c
000003d0: 7c9d 87bd 8954 1dbe 1e75 123e 5be8 4cbe
000003e0: 8c62 42be 53e4 30be bf80 bdbc 3e39 2bbe
000003f0: e17c 48be aede 39bd 73e1 58be 0476 5fbe

network.0.bias f4 [128]
0.00024725887 -0.00020481327 -3.3000146e-05 9.141277e-05 4.9661056e-05 9.590184e-05 0.0011332221 1.7924325e-05
7.335444e-05 0.00018412054 0.00015233358 6.0966828e-05 -6.0565308e-05 0.00030206793 0.00040359207 -0.00015563815
-3.1024636e-05 9.562768e-05 -2.029892e-05 0.00011724853 0.0002062249 0.00016796075 0.00026249408 2.5209021e-05
-0.0010730819 0.00013620987 0.000100016405 3.2058547e-06 0.0002270228 -9.4902716e-05 0.00013265539 -0.00028251437
2.0128396e-05 -0.00056297076 3.8300386e-05 -5.1447492e-05 -6.0780994e-06 0.00019358625 -8.232935e-05 0.0001494761
0.0010359902 -5.9514707e-05 -0.00012859385 5.6999093e-06 -0.0003187633 -4.5607663e-05 0.0002015235 -9.962722e-06
2.593858e-05 1.6727074e-06 0.0002597444 6.752014e-05 0.00028554362 -0.0007583921 0.00010272515 0.0002286016
0.000103738865 -7.3798044e-05 2.2702496e-05 -0.00070547906 -0.00012507655 -0.00019486216 -8.441149e-05 0.0007595115
-3.9904015e-05 -0.00014579114 8.85482e-05 0.0005322767 -0.00028783735 7.7321856e-05 0.00091688783 -1.8730036e-05
0.00019931386 -0.00059446297 -0.00057516113 0.0007841676 2.3673852e-05 -1.5533462e-05 1.50580845e-05 -0.00020998661
-0.00013894815 0.0003795264 4.1762938e-05 -0.00022406646 0.0010486015 -4.9984585e-05 0.00019974008 0.000118889955
-4.805251e-05 8.8239154e-05 1.6562644e-05 -2.5532543e-05 -8.3295015e-07 0.000395658 -6.0737108e-05 0.0008028506
0.0001771723 -0.0018661588 0.0002664036 -3.4310528e-05 5.5126002e-05 0.00023320889 -0.00056058407 -1.2573577e-06
-6.360424e-05 0.00013282865 -0.00061841187 -0.00012685623 0.00013551657 -5.820639e-05 -7.913042e-05 -0.00027555824
0.00012616116 -4.839598e-05 -2.4243516e-06 0.0005210192 6.6618704e-05 -1.370378e-05 -5.575043e-05 -0.0014998354
8.896069e-06 7.090721e-05 6.6361084e-05 0.00021557018 0.000100573954 -7.2911585e-05 -7.2240878e-06 1.7751294e-05
00000000: 86a2 8139 25c3 56b9 a369 0ab8 dbb4 bf38
00000010: 274b 5038 e91e c938 a088 943a 325c 9637
00000020: ddd5 9938 7b10 4139 bcbb 1f39 a2b6 7f38
00000030: 8107 7eb8 df5e 9e39 3699 d339 cc32 23b9
00000040: 7320 02b8 b88b c838 9947 aab7 53e3 f538
00000050: 133e 5839 9f1e 3039 5c9f 8939 f677 d337
00000060: a7a6 8cba 8fd3 0e39 e6bf d138 2a24 5736
00000070: f80c 6e39 8206 c7b8 6919 0b39 701e 94b9
00000080: 67d9 a837 5494 13ba baa4 2038 53c9 57b8
00000090: 7af2 cbb6 6afd 4a39 3ca8 acb8 afbc 1c39
000000a0: 10ca 873a 6e9f 79b8 26d7 06b9 d941 bf36
000000b0: b01f a7b9 db4a 3fb8 0d50 5339 9125 27b7
000000c0: ad96 d937 ca81 e035 4e2e 8839 9999 8d38
000000d0: 04b5 9539 d5ce 46ba 256e d738 c6b4 6f39
000000e0: 618e d938 06c4 9ab8 3d71 be37 e6ef 38ba
000000f0: fb26 03b9 ea53 4cb9 1306 b1b8 f419 473a
00000100: 9c5e 27b8 83df 18b9 f4b2 b938 7c88 0b3a
00000110: e0e8 96b9 db27 a238 4d5b 703a 721e 9db7
00000120: e8fe 5039 bcd5 1bba 69c6 16ba 9990 4d3a
00000130: 3697 c637 db4d 82b7 fba1 7c37 da2f 5cb9
00000140: 9cb2 11b9 2cfb c639 9d2a 2f38 62f3 6ab9
00000150: 3a71 893a 8aa6 51b8 5271 5139 8f54 f938
00000160: fd8b 49b8 090d b938 02f0 8a37 b82e d6b7
00000170: e697 5fb5 5170 cf39 f9bf 7eb8 6476 523a
00000180: 54c7 3939 e699 f4ba 16ac 8b39 a6e8 0fb8
00000190: 1837 6738 8989 7439 29f4 12ba 7bc2 a8b5
000001a0: 4463 85b8 eb47 0b39 eb1c 22ba b604 05b9
000001b0: 7419 0e39 a322 74b8 d2f2 a5b8 cd78 90b9
000001c0: 214a 0439 cafc 4ab8 0bb2 22b6 0295 083a
000001d0: a5b5 8b38 49e9 65b7 92d5 69b8 2096 c4ba
000001e0: 5340 1537 05b4 9438 562b 8b38 ae0a 6239
000001f0: 3beb d238 1ce8 98b8 7166 f2b6 9de8 9437

network.1.weight f4 [128]
1.0515584 0.9850485 0.96144503 1.0317976 0.98692507 1.041677 0.94500357 1.0000831
1.0256263 0.98386306 1.1944458 0.93962294 1.0091614 1.0400496 0.9757797 0.93427926
0.96711147 0.9863208 0.9988474 1.0223355 0.9321525 1.0070252 0.9808171 0.9399231
1.0568819 0.9978144 1.0046849 1.0453316 1.0234525 0.9809977 1.0142369 1.0990146
1.0388286 1.0126822 0.98238873 0.96284515 1.0244434 1.0778154 1.0534033 1.056913
0.9902978 0.98738307 0.9900185 0.9899883 0.9675181 1.0010066 0.9692042 0.98057145
1.0069922 1.0409364 0.99818796 0.9911435 0.9416278 1.0032047 0.99958616 0.94453335
0.9737393 0.9920468 0.98162246 1.0117047 0.9937155 1.0072228 0.998947 1.0661379
0.9520232 0.9289549 0.97499454 0.98693645 1.0074373 0.9769663 0.985659 1.0513351
0.9804867 1.1162102 1.0315363 0.9806012 1.0049254 0.9770497 0.9971413 0.9930522
1.0138438 1.0219393 0.9789186 0.9935288 1.0496287 0.98237514 0.9730601 1.0160315
0.99980193 0.98956245 1.0374901 0.970365 0.97711265 1.0109433 0.93905 0.9565376
1.0041043 1.1282411 0.9626274 0.9672288 1.0078079 1.0035506 0.95731914 0.95376533
1.0292192 1.0175358 0.9693154 0.9766326 1.0521358 1.013179 0.99455684 0.94709975
0.9937693 0.9875415 0.92544746 1.003084 0.9781353 1.0068325 1.0096337 1.0720868
1.020081 1.0045578 0.9475422 0.9655225 0.9705181 0.99091077 0.9974943 0.9654162
00000000: 7799 863f 232c 7c3f 4321 763f f211 843f
00000010: 1fa7 7c3f ac55 853f c1eb 713f b902 803f
00000020: b947 833f 73de 7b3f 9ae3 983f 218b 703f
00000030: 332c 813f 5820 853f b3cc 793f ed2c 6f3f
00000040: 9e94 773f 857f 7c3f 77b4 7f3f e4db 823f
00000050: 8ca1 6e3f 34e6 803f d416 7b3f cd9e 703f
00000060: e847 873f c470 7f3f 8499 803f 6dcd 853f
00000070: 7e00 833f aa22 7b3f 84d2 813f 83ac 8c3f
00000080: 56f8 843f 929f 813f d47d 7b3f 057d 763f
00000090: f620 833f dbf5 893f ebd5 863f ed48 873f
000000a0: 2884 7d3f 23c5 7c3f da71 7d3f e06f 7d3f
000000b0: 44af 773f fc20 803f c41d 783f bb06 7b3f
000000c0: 1fe5 803f 673d 853f 3f89 7f3f 95bb 7d3f
000000d0: 850e 713f 0369 803f e1e4 7f3f f0cc 713f
000000e0: fb46 793f c7f6 7d3f 9c4b 7b3f 8a7f 813f
000000f0: 2464 7e3f adec 803f feba 7f3f 3577 883f
00000100: cbb7 733f fdcf 6d3f 3e99 793f dea7 7c3f
00000110: b5f3 803f 771a 7a3f 2654 7c3f 2692 863f
00000120: 2d01 7b3f fadf 8e3f 6209 843f ae08 7b3f
00000130: 65a1 803f ee1f 7a3f a744 7f3f ab38 7e3f
00000140: a2c5 813f e8ce 823f 699a 7a3f e757 7e3f
00000150: 3c5a 863f f07c 7b3f 771a 793f 520d 823f
00000160: 05f3 7f3f f753 7d3f 7acc 843f d769 783f
00000170: 0e24 7a3f 9766 813f 9565 703f a6df 743f
00000180: 7d86 803f 346a 903f c06e 763f 4e9c 773f
00000190: d9ff 803f 5974 803f de12 753f f729 743f
000001a0: 74bd 833f 9d3e 823f 0e25 783f 9804 7a3f
000001b0: 63ac 863f d9af 813f 479b 7e3f 2175 723f
000001c0: aa67 7e3f 85cf 7c3f 20ea 6c3f 0e65 803f
000001d0: 1367 7a3f e3df 803f ad3b 813f 243a 893f
000001e0: 0492 823f 5a95 803f 2092 723f 7c2c 773f
000001f0: e073 783f 54ac 7d3f c95b 7f3f 8425 773f

network.1.bias f4 [128]
0.054865576 -0.027877878 -0.014598061 0.0037857837 0.019576985 0.010303283 -0.024526494 -0.012200368
-0.026040154 -0.0404701 0.07912526 -0.07927503 -0.11773714 -0.037567977 -0.06616224 -0.07925534
-0.074883714 -0.007966461 -0.023513386 -0.017334633 -0.029514525 0.0014212999 -0.08672479 -0.07293749
0.07865223 -0.031401798 0.038559247 -0.00564328 0.086205974 -0.0016470604 -0.1118257 0.005439924
-0.038010504 0.01636788 -0.041652653 -0.071497396 -0.04519206 0.07136822 -0.015735442 -0.008809963
-0.02717976 0.017602509 -0.01799816 -0.061105486 -0.08308623 0.02935852 -0.044207457 -0.049013775
-0.06272982 0.01430733 -0.023480166 -0.025495315 -0.07098618 0.012973718 -0.026093619 -0.0014747259
-0.054694463 -0.007724916 -0.0020988653 -0.047031127 -0.04092781 -0.008361135 0.0030163305 -0.010321248
-0.034062993 -0.0867113 -0.02603027 -0.052738618 -0.03533768 -0.039343387 -0.023768844 -0.013295409
0.039942287 0.17547822 -0.0024119734 -0.033977557 -0.023128293 -0.034922466 -0.03013177 0.043917477
0.034713607 0.020683544 -0.049278017 0.010634668 0.107288964 -0.032687187 -0.0148008345 -0.025420982
-0.027665926 -0.0063450006 -0.078230195 0.004826147 -0.019582124 0.0040344954 -0.07360949 0.045605753
-0.027784372 0.17382327 -0.08499863 0.045983102 -0.041566793 0.00018510042 -0.007414241 -0.04069759
-0.05721561 0.0055001294 -0.036369357 -0.0063176956 -0.0069093616 -0.02900375 -0.020993115 -0.08818924
-0.0052368804 -0.025745818 -0.03928863 0.0005180566 -0.041566905 -0.0027267805 -0.057573427 0.06449904
0.023197578 -0.06500207 -0.068399355 -0.032004803 0.035329625 -0.024355637 -0.08610332 -0.05021303
00000000: baba 603d 2660 e4bc b52c 6fbc e91a 783b
00000010: ea5f a03c 1acf 283c c9eb c8bc 0de4 47bc
00000020: 2952 d5bc fac3 25bd 6d0c a23d f25a a2bd
00000030: 2b20 f1bd e1e0 19bd 1280 87bd a050 a2bd
00000040: a25c 99bd c285 02bc 259f c0bc 5c01 8ebc
00000050: 72c8 f1bc e94a ba3a c49c b1bd 4060 95bd
00000060: 6c14 a13d 2c9f 00bd 4df0 1d3d 44eb b8bb
00000070: c28c b03d 2de2 d7ba df04 e5bd 6441 b23b
00000080: e7b0 1bbd ef15 863c f99b 2abd 3a6d 92bd
00000090: 4f1b 39bd 8029 923d 9de7 80bc aa57 10bc
000000a0: 17a8 debc 2333 903c e170 93bc bf49 7abd
000000b0: 1d29 aabd 4781 f03c e112 35bd abc2 48bd
000000c0: 7e78 80bd 4b69 6a3c 7a59 c0bc 8ddb d0bc
000000d0: 3461 91bd b88f 543c 49c2 d5bc 974b c1ba
000000e0: 4d07 60bd 4b21 fdbb 1e8d 09bb b6a3 40bd
000000f0: eba3 27bd 24fd 08bc a1ad 453b 741a 29bc
00000100: a385 0bbd b295 b1bd 6f3d d5bc 7304 58bd
00000110: 3ebe 10bd 8826 21bd e1b6 c2bc fdd4 59bc
00000120: 869a 233d 90b0 333e 3312 1ebb 0d2c 0bbd
00000130: 8c77 bdbc dc0a 0fbd e7d6 f6bc d0e2 333d
00000140: db2f 0e3d 8970 a93c bfd7 49bd 083d 2e3c
00000150: 51ba db3d 00e3 05bd 337f 72bc aa3f d0bc
00000160: a7a3 e2bc b9e9 cfbb 2737 a0bd a824 9e3b
00000170: b16a a0bc cd33 843b 93c0 96bd 19cd 3a3d
00000180: 0d9c e3bc bafe 313e c313 aebd c758 3c3d
00000190: f141 2abd 8417 4239 29f3 f2bb 84b2 26bd
000001a0: ea5a 6abd 6e3a b43b 09f8 14bd ac04 cfbb
000001b0: ed67 e2bb 4699 edbc c1f9 abbc 8f9c b4bd
000001c0: 239a abbb e5e8 d2bc 1ded 20bd 31ce 073a
000001d0: 0f42 2abd c9b3 32bb 1dd2 6bbd 1318 843d
000001e0: d908 be3c ce1f 85bd f614 8cbd 7817 03bd
000001f0: ccb5 103d 7985 c7bc f056 b0bd 2eac 4dbd

network.1.running_mean f4 [128]
0.18951988 0.26429674 -0.2800901 0.5335544 0.97163403 -2.0292523 0.2699271 0.29830897
-0.34721053 -0.9687088 2.0568104 1.2041774 -0.19203024 -2.811648 0.3621131 1.5617656
1.0202987 0.16628055 1.0326438 -0.08009014 -0.27236354 0.49498266 0.5817705 -1.1721839
-0.9344646 -0.26830345 -0.43748292 -0.08777254 2.6876473 -1.6637422 0.87346065 -1.2975698
-1.3064793 2.211808 -0.25390074 -0.6446988 -1.3122158 -0.68734324 -0.7140612 -0.00049622025
0.67940617 -1.333181 0.3965935 -0.83015156 2.060227 1.2814012 -0.51904565 -0.81816053
-0.10387021 3.4794433 -0.37106994 0.76126176 0.2204263 0.3639338 2.6452727 0.33087876
-0.8390419 0.14272517 0.69290525 1.9276953 1.8346444 -0.9756576 0.51462036 -1.4876945
-0.4668183 0.36269072 1.3303914 1.3242419 1.0405089 0.27290305 0.70808345 0.48913446
-1.1186209 -1.4044358 1.6356571 -0.30000076 0.09215851 0.11689333 0.06647457 0.862283
1.4810514 1.13984 -0.2412612 0.81216115 -1.0173088 -0.62511307 0.821852 2.0301888
-1.5675751 0.19103132 -0.590952 1.1961771 0.0024887212 0.91056806 -0.51960677 -0.5028765
-0.87114114 -0.8877933 0.9248522 1.5508201 -1.0691105 -0.54924464 1.6776973 1.0193434
-0.6943668 0.16240403 -1.3049277 0.3518427 -2.0151958 0.30925742 1.1583332 -1.3565497
-0.108579114 -1.6188385 -1.210492 -0.7733626 -0.3317034 0.8712512 -0.17594343 2.8777227
-0.47550255 -0.5756071 0.5315181 0.04041675 0.48606876 1.7511059 1.0914564 0.8644574
00000000: 8011 423e e751 873e f867 8fbe 0597 083f
00000010: 02bd 783f 45df 01c0 e333 8a3e f4bb 983e
00000020: 94c5 b1be 4dfd 77bf c8a2 0340 7c22 9a3f
00000030: 93a3 44be 0af2 33c0 e366 b93e efe7 c73f
00000040: 2699 823f 7345 2a3e ac2d 843f 4d06 a4bd
00000050: 3c73 8bbe 5e6e fd3e e9ee 143f 1f0a 96bf
00000060: 1239 6fbf 125f 89be c3fd dfbe 17c2 b3bd
00000070: 6a02 2c40 81f5 d4bf 1e9b 5f3f c416 a6bf
00000080: b73a a7bf 438e 0d40 47ff 81be fb0a 25bf
00000090: b0f6 a7bf baf5 2fbf b7cc 36bf c714 02ba
000000a0: 90ed 2d3f ada5 aabf 4e0e cb3e d084 54bf
000000b0: c2da 0340 f404 a43f 2de0 04bf f872 51bf
000000c0: e8b9 d4bd 33af 5e40 e1fc bdbe 0de2 423f
000000d0: 6fb7 613e 8855 ba3e 264c 2940 f168 a93e
000000e0: 73cb 56bf 8c26 123e 3d62 313f b8be f63f
000000f0: a1d5 ea3f b2c4 79bf 29be 033f c66c bebf
00000100: cf02 efbe 99b2 b93e 444a aa3f c280 a93f
00000110: 652f 853f f3b9 8b3e f544 353f d56f fa3e
00000120: f82e 8fbf 8dc4 b3bf 365d d13f b399 99be
00000130: 9abd bc3d c565 ef3d d223 883d 94be 5c3f
00000140: 1893 bd3f 47e6 913f 2d0d 77be cbe9 4f3f
00000150: 2d37 82bf 6907 20bf e564 523f 9dee 0140
00000160: 4da6 c8bf b79d 433e a148 17bf 551c 993f
00000170: d019 233b fd1a 693f f304 05bf 84bc 00bf
00000180: 1b03 5fbf 6c46 63bf 1dc3 6c3f 4681 c63f
00000190: 9dd8 88bf 4c9b 0cbf c9be d63f d879 823f
000001a0: 06c2 31bf 3e4d 263e df07 a7bf ba24 b43e
000001b0: f8f8 00c0 fd56 9e3e 4344 943f 6ca3 adbf
000001c0: ba5e debd 1a36 cfbf 67f1 9abf 17fb 45bf
000001d0: 07d5 a9be 520a 5f3f 842a 34be 9c2c 3840
000001e0: 1275 f3be fd5a 13bf 9211 083f 098c 253d
000001f0: 01de f83e 3d24 e03f d8b4 8b3f 154d 5d3f

network.1.running_var f4 [128]
67.64125 384.83908 834.4633 788.561 390.8502 977.7339 123.99255 383.34106
271.85214 517.8519 18.948973 2268.9824 642.9908 350.93027 334.73535 816.26685
380.13797 681.9927 2424.0068 441.01996 1273.7498 393.08444 264.38412 636.7768
70.99129 115.364174 803.15216 1285.7883 195.54375 1745.3236 544.94934 803.2343
2175.7139 87.14521 99.18226 682.9355 2042.4491 403.46957 872.5603 2114.971
110.199715 679.4198 729.79474 1779.6279 35.133442 373.11105 997.98413 1089.4126
1553.0809 176.93019 356.95496 1395.4056 620.3559 110.57772 146.82336 341.77014
3276.8564 501.4772 502.8358 239.5496 357.1324 377.0679 1136.7054 140.37375
686.2206 760.2398 479.17712 280.27704 198.3335 1114.6533 122.62784 1786.0668
127.02793 40.97432 73.273445 148.65839 583.8413 679.41644 734.8938 144.29231
564.29706 141.37733 83.55883 760.31714 218.79301 1002.27594 174.05322 1168.8019
629.8797 361.31448 2522.324 1689.6951 264.20123 169.7131 290.816 136.20595
568.0792 28.643953 323.7189 547.84814 711.2141 125.5729 201.72974 414.67307
838.7138 355.94028 315.9112 1017.2811 83.4132 133.1805 920.4371 203.9869
2162.0767 673.66766 462.10355 182.45107 439.7107 675.62854 158.64772 21.64709
832.6521 690.07635 261.4222 258.4035 300.7896 186.88297 271.17462 214.57724
00000000: 5248 8742 676b c043 a79d 5044 e723 4544
00000010: d36c c343 f86e 7444 30fc f742 a8ab bf43
00000020: 13ed 8743 8676 0144 7f97 9741 b8cf 0d45
00000030: 69bf 2044 1377 af43 205e a743 1411 4c44
00000040: a911 be43 887f 2a44 1c80 1745 8e82 dc43
00000050: fe37 9f44 cf8a c443 2b31 8443 b731 1f44
00000060: 8afb 8d42 75ba e642 bdc9 4844 3ab9 a044
00000070: 338b 4343 5b2a da44 c23c 0844 ffce 4844
00000080: 6cfb 0745 594a ae42 515d c642 dfbb 2a44
00000090: 5f4e ff44 1bbc c943 dc23 5a44 892f 0445
000000a0: 4166 dc42 deda 2944 dd72 3644 1874 de44
000000b0: a588 0c42 378e ba43 fc7e 7944 342d 8844
000000c0: 9722 c244 21ee 3043 3c7a b243 fb6c ae44
000000d0: c716 1b44 cb27 dd42 c8d2 1243 94e2 aa43
000000e0: b4cd 4c45 15bd fa43 fb6a fb43 b38c 6f43
000000f0: f290 b243 b188 bc43 9316 8e44 ae5f 0c43
00000100: 1e8e 2b44 590f 3e44 ac96 ef43 7623 8c43
00000110: 6055 4643 e854 8b44 7441 f542 2342 df44
00000120: 4d0e fe42 b4e5 2342 018c 9242 8ca8 1443
00000130: d8f5 1144 a7da 2944 34b9 3744 d54a 1043
00000140: 0313 0d44 9960 0d43 1f1e a742 4c14 3e44
00000150: 03cb 5a43 a991 7a44 a00d 2e43 a919 9244
00000160: 4d78 1d44 41a8 b443 2fa5 1d45 3e36 d344
00000170: c219 8443 8eb6 2943 7368 9143 b934 0843
00000180: 1205 0e44 d126 e541 05dc a143 48f6 0844
00000190: b4cd 3144 5325 fb42 d0ba 4943 2756 cf43
000001a0: afad 5144 5bf8 b143 a2f4 9d43 fe51 7e44
000001b0: 8fd3 a642 352e 0543 f91b 6644 a5fc 4b43
000001c0: 3a21 0745 bb6a 2844 410d e743 7973 3643
000001d0: f8da db43 3ae8 2844 d1a5 1e43 3e2d ad41
000001e0: bc29 5044 e384 2c44 0bb6 8243 a633 8143
000001f0: 1265 9643 0ae2 3a43 5a96 8743 c693 5643

network.4.weight f4 [64, 128]
0.12688549 0.08849106 0.09127583 -0.1903808 -0.117642015 0.032221217 -0.08847224 -0.107385635
0.12528135 -0.08203288 0.09746343 0.097112365 -0.12133014 -0.07585518 0.14216046 0.03349241
0.04855325 0.029011441 -0.17139184 0.16785349 -0.060341474 -0.054317117 0.13213205 -0.13659859
0.05090426 0.07565996 0.018595861 0.16911292 0.043725856 -0.043870933 0.08259059 0.121399164
0.119459964 0.07284135 0.11615224 0.0627665 0.092603736 -0.007359494 -0.1570177 0.0850863
-0.12132722 0.085792035 -0.07727756 -0.090214394 0.10981635 -0.015736697 0.018945867 0.06059733
-0.12057301 0.070515715 0.110825755 0.17908396 -0.16756655 0.05786948 -0.12855126 0.15998529
-0.10731918 -0.042217728 0.15989779 0.096756265 -0.11570954 0.1119501 0.17129858 -0.14527883
-0.0027744155 -0.045278158 -0.13714916 -0.1642574 0.07247712 0.0629738 -0.20094651 0.016903782
0.071264625 -0.1352278 -0.06721559 0.029019957 -0.09007108 0.16925849 -0.1761084 0.115931064
-0.058757033 0.064556696 -0.019950975 -0.15344444 -0.15965001 -0.19011882 -0.02729017 -0.04133499
-0.071178906 -0.052992105 0.101789616 0.09196595 0.13003427 0.049875326 0.13796778 0.118706726
0.013414864 0.077248536 -0.0048885816 -0.15360728 -0.0020527046 0.12233901 0.057727292 -0.15344167
0.113893285 -0.07428301 -0.11657578 0.10746447 -0.049821727 0.20873648 0.10208802 -0.121733844
0.08168529 0.062849596 -0.009172395 -0.090611644 0.08636418 -0.114999086 0.13666873 0.027998904
-0.17438745 0.14273329 -0.07115784 0.11583372 0.034587562 -0.03702618 0.02226914 -0.14930318
0.15316996 0.04757728 -0.04882333 -0.041477013 -0.023131622 0.1943284 0.01460943 -0.0051392256
-0.11417652 -0.07529554 0.06261375 -0.021129364 0.0031350963 -0.16663678 -0.09123465 0.11502171
-0.01966705 -0.12417796 0.09292187 0.052437384 -0.10341709 -0.14749712 -0.09307161 -0.045240525
0.0071313526 0.16029903 -0.09046458 0.13556309 0.07600954 0.034394324 0.13178165 0.015049282
-0.05474656 -0.15843326 0.008770235 0.013263922 0.17238657 0.13873897 -0.008359541 -0.028851386
0.12098061 0.19086687 0.003922861 -0.029461764 -0.04247913 -0.10444972 -0.09439334 0.05234193
-0.03679316 0.035222623 0.06538233 -0.036457423 -0.022917407 0.07148602 -0.102420084 -0.001545606
-0.12773478 0.16105816 -0.06843061 0.20693275 0.08553336 -0.07814314 0.18822199 -0.19921333
0.003641005 -0.1679842 -0.030625002 -0.12060337 0.13690203 -0.08692001 -0.10877628 0.08114919
-0.09701492 0.067240365 -0.08693644 0.092783265 0.17612816 0.17093249 -0.022299454 -0.041419614
0.00882796 0.09601203 -0.095802985 0.00018344403 -0.17387493 -0.09223444 -0.06990789 0.17132281
0.18610409 -0.107408 -0.014871653 -0.0979994 -0.12350148 -0.1290559 0.042244107 -0.016760819
0.10869424 0.14447656 -0.11444856 -0.010284313 0.20455858 0.0910946 0.11766976 0.13600568
0.10941978 -0.05142811 0.081138596 0.030537011 -0.06614008 0.07983307 0.023973146 0.09542956
-0.14840694 0.14590055 0.06996505 0.115015656 -0.07874496 0.15282635 -0.036889732 0.1684356
0.0797105 0.023490477 0.13023692 -0.057175677 -0.07344452 0.03106367 0.002771832 -0.14156458
00000000: 45ee 013e cd3a b53d d3ee ba3d 2ff3 42be
00000010: 4cee f0bd 65fa 033d ef30 b5bd 00ed dbbd
00000020: c149 003e db00 a8bd e89a c73d d9e2 c63d
00000030: f07b f8bd f659 9bbd 8392 113e 562f 093d
00000040: c6df 463d 67a9 ed3c 5881 2fbe c9e1 2b3e
00000050: 9f28 77bd a07b 5ebd a04d 073e 80e0 0bbe
00000060: fc80 503d 9cf3 9a3d 5956 983c f02b 2d3e
00000070: e219 333d 02b2 33bd 4125 a93d 20a0 f83d
00000080: 6da7 f43d d92d 953d 3ae1 ed3d b98b 803d
00000090: 07a7 bd3d e927 f1bb 3fc9 20be ba41 ae3d
000000a0: 687a f8bd bcb3 af3d b343 9ebd 53c2 b8bd
000000b0: 65e7 e03d 3fea 80bc 5d34 9b3c e834 783d
000000c0: fbee f6bd 8b6a 903d 9df8 e23d c961 373e
000000d0: 9196 2bbe 8c08 6d3d f1a2 03be 2fd3 233e
000000e0: 29ca dbbd 7fec 2cbd 3fbc 233e 2628 c63d
000000f0: 20f9 ecbd 1846 e53d e568 2f3e f9c3 14be
00000100: f8d2 35bb 9775 39bd d470 0cbe 1833 28be
00000110: e26e 943d 68f8 803d ecc4 4dbe cd79 8a3c
00000120: 30f3 913d 2879 0abe 54a8 89bd 43bb ed3c
00000130: 3077 b8bd 1952 2d3e c355 34be 446d ed3d
00000140: 37ab 70bd 4d36 843d 3a70 a3bc 8a20 1dbe
00000150: 4b7b 23be 82ae 42be a28f dfbc e14e 29bd
00000160: 3fc6 91bd 400e 59bd 1377 d03d a558 bc3d
00000170: b427 053e 124a 4c3d 6d47 0d3e 831c f33d
00000180: 05ca 5b3c 7b34 9e3d 6530 a0bb 3a4b 1dbe
00000190: ab86 06bb e08c fa3d 7473 6c3d d01f 1dbe
000001a0: e240 e93d b121 98bd 48bf eebd 5516 dc3d
000001b0: de11 4cbd 04bf 553e 8613 d13d 984f f9bd
000001c0: 9e4a a73d 4ab7 803d d047 16bc 9992 b9bd
000001d0: b4df b03d a484 ebbd e3f2 0b3e f55d e53c
000001e0: a092 32be ad28 123e 34bb 91bd 3b3a ed3d
000001f0: b0ab 0d3d c4a8 17bd c66d b63c efe2 18be
00000200: 96d8 1c3e 65e0 423d f9fa 47bd cde3 29bd
00000210: 877e bdbc 06fe 463e 645c 6f3c f366 a8bb
00000220: 61d5 e9bd 8c34 9abd a33b 803d 7d17 adbc
00000230: 3076 4d3b d5a2 2abe 3bd9 babd 8190 eb3d
00000240: cb1c a1bc 0451 febd d24d be3d 95c8 563d
00000250: 57cc d3bd 7c09 17be 549c bebd 214e 39bd
00000260: 1fae e93b 6e25 243e 7e45 b9bd 0dd1 0a3e
00000270: e4aa 9b3d 10e1 0c3d c5f1 063e 4491 763c
00000280: ee3d 60bd 543c 22be 08b1 0f3c ec50 593c
00000290: 1b86 303e 9711 0e3e 75f6 08bc be59 ecbc
000002a0: afc4 f73d 9b72 433e 588b 803b cc59 f1bc
000002b0: 99fe 2dbd bce9 d5bd 4c51 c1bd 7e64 563d
000002c0: 6db4 16bd 9945 103d 2ce7 853d 6154 15bd
000002d0: 49bd bbbc 4367 923d 9fc1 d1bd ee95 caba
000002e0: e8cc 02be 6eec 243e 5925 8cbd 2ee6 533e
000002f0: 1d2c af3d 8309 a0bd 44bd 403e 94fe 4bbe
00000300: ed9d 6e3b 0d04 2cbe 49e1 fabc e6fe f6bd
00000310: 0c30 0c3e 1e03 b2bd 19c6 debd 8c31 a63d
00000320: c2af c6bd 51b5 893d bb0b b2bd 2705 be3d
00000330: f15a 343e ed08 2f3e 58ad b6bc 9da7 29bd
00000340: 26a3 103c f5a1 c43d 5b34 c4bd e25a 4039
00000350: 450c 32be 69e5 bcbd de2b 8fbd 3f6f 2f3e
00000360: 1292 3e3e baf8 dbbd 3ca8 73bc e9b3 c8bd
00000370: 58ee fcbd 3b27 04be 2808 2d3d fc4d 89bc
00000380: 169b de3d aaf1 133e 0264 eabd 897f 28bc
00000390: ce77 513e ce8f ba3d d8fc f03d 1345 0b3e
000003a0: 7a17 e03d 48a6 52bd fe2b a63d c128 fa3c
000003b0: 7374 87bd 857f a33d 5563 c43c 9370 c33d
000003c0: fdf7 17be f466 153e d649 8f3d 548d eb3d
000003d0: 0a45 a1bd 837e 1c3e b019 17bd 627a 2c3e
000003e0: 423f a33d 1a6f c03c d45c 053e 0b31 6abd
000003f0: 156a 96bd 3d79 fe3c a0a7 353b 4ef6 10be

network.4.bias f4 [64]
0.00033867237 -0.0026547108 0.009802738 -0.0010924828 0.005925877 0.0016141378 0.0044491957 0.0022545261
0.0001187109 0.0029603343 -0.00043004862 0.003619044 0.0037950438 0.0034557001 0.00097259006 -0.0013116074
0.010704714 -0.0005313983 -0.0027946688 -0.005373649 -0.002379326 0.0015763555 0.004632172 -0.008677824
-0.0039275363 0.0018990182 0.0003116046 -0.004139553 0.0033809582 -0.0055166767 0.00372217 0.003635232
-0.002197568 0.0013272336 -0.0006297026 0.0009585077 0.0043228148 0.0032059464 -0.0021373278 0.00107133
-0.0010051109 -0.0011216743 0.0013778043 -0.001373256 -1.3438619e-05 0.007177783 0.0061846618 -0.004509996
0.007127141 0.001436833 0.0048010326 0.0035722586 -0.005058792 -0.00430889 0.00019007293 0.00068026327
0.0046689245 0.0022472383 -0.0061236816 0.0019183924 -0.002862916 0.002232536 0.008237569 -0.0047040377
00000000: d68f b139 a8fa 2dbb aa9b 203c a431 8fba
00000010: dc2d c23b 7a91 d33a 8fca 913b acc0 133b
00000020: 6ef4 f838 2b02 423b 2678 e1b9 7c2d 6d3b
00000030: 45b6 783b 0779 623b 6af5 7e3a 3eea abba
00000040: d362 2f3c 894d 0bba c326 37bb 6f15 b0bb
00000050: 77ee 1bbb b79d ce3a 7ac9 973b 6f2d 0ebc
00000060: 90b2 80bb 7ae8 f83a dd5e a339 16a5 87bb
00000070: 1193 5d3b 3dc5 b4bb a6ef 733b 133d 6e3b
00000080: 1305 10bb 92f6 ad3a a012 25ba 5d44 7b3a
00000090: 66a6 8d3b db1a 523b 6912 0cbb df6b 8c3a
000000a0: edbd 83ba 2505 93ba 7197 b43a d3fe b3ba
000000b0: 6e76 61b7 9c33 eb3b b4a8 ca3b 97c8 93bb
000000c0: cb8a e93b 1d54 bc3a fb51 9d3b 8e1c 6a3b
000000d0: 39c4 a5bb 9731 8dbb 504e 4739 b253 323a
000000e0: c7fd 983b 6746 133b 2aa9 c8bb 9172 fb3a
000000f0: c39f 3bbb bd4f 123b def6 063c 5424 9abb

network.5.weight f4 [64]
1.0323741 0.955907 1.0956379 1.0403284 1.0274191 1.0717362 1.0730433 1.0006351
1.0169108 1.0523238 0.9724994 0.9800295 1.0163507 1.0339501 0.99521756 0.92503154
1.0438056 0.97483855 0.9117927 1.0247403 0.9824757 0.92416084 1.0996286 0.9701375
1.0727583 0.89688915 0.8988253 0.98470753 1.0645626 0.9521494 1.0384727 0.9910591
1.0430534 1.0142393 0.85134065 0.9463465 0.83831 1.1360341 0.9414526 0.9370869
0.9775461 0.96435326 0.9733014 1.0658668 1.0427297 0.969283 0.9033478 0.945728
0.9192737 1.0771554 0.91362315 1.0258856 1.000804 1.0179782 0.9774058 0.94308734
0.97164947 1.0520239 1.0444345 1.0394053 1.1047354 0.94113433 0.9291084 1.014719
00000000: d624 843f 52b6 743f dd3d 8c3f 7b29 853f
00000010: 7882 833f a72e 893f 7c59 893f d014 803f
00000020: 222a 823f 8cb2 863f b8f5 783f 37e3 7a3f
00000030: c817 823f 7a58 843f 94c6 7e3f dece 6c3f
00000040: 6c9b 853f 058f 793f 3f6b 693f b12a 833f
00000050: 8783 7b3f ce95 6c3f a1c0 8c3f ee5a 783f
00000060: 2550 893f 879a 653f 6a19 663f cb15 7c3f
00000070: 9643 883f 10c0 733f acec 843f 0db6 7d3f
00000080: c682 853f 98d2 813f 76f1 593f c443 723f
00000090: 7c9b 563f 9169 913f 0a03 713f ede4 6f3f
000000a0: 7640 7a3f dbdf 763f 482a 793f 536e 883f
000000b0: 2b78 853f ee22 783f cd41 673f 3b1b 723f
000000c0: 8555 6b3f 3ae0 893f 35e3 693f 3850 833f
000000d0: 581a 803f 1c4d 823f 4437 7a3f 2c6e 713f
000000e0: 05be 783f b8a8 863f 08b0 853f 3c0b 853f
000000f0: f867 8d3f 2eee 703f 0cda 6d3f 50e2 813f

network.5.bias f4 [64]
0.0155182285 -0.036248386 0.052068856 0.021649756 0.06649683 0.061476935 -0.05417521 0.025960894
0.045409553 0.13901557 -0.052250553 -0.0041666715 0.0052732397 -0.059577055 0.006598195 -0.09316627
0.03929052 -0.016142072 -0.108049504 -0.0027983256 -0.07941262 -0.06486781 0.07651322 -0.050188676
-0.0781256 -0.085602224 -0.065331265 -0.03474927 0.026341468 -0.033375636 -0.054238614 -0.016932901
0.09225238 -0.033127353 -0.14703485 -0.07015711 -0.15742671 -0.011382609 -0.0622404 -0.04530208
-0.022166094 -0.046401385 0.028085165 -0.0058326675 0.06448547 -0.06096669 -0.060141698 -0.018208098
-0.11596918 0.021953395 -0.12815638 0.025682893 0.033024143 0.047089364 0.02954206 -0.055894338
-0.09906604 0.061682392 0.047710285 0.0022263362 0.092881344 -0.047926918 -0.08333205 -0.01982878
00000000: 2b40 7e3c 3079 14bd 2746 553d d45a b13c
00000010: 7d2f 883d 3dcf 7b3d d3e6 5dbd f1ab d43c
00000020: 5eff 393d 195a 0e3e ad04 56bd 9388 88bb
00000030: 24cb ac3b 1207 74bd ac35 d83b f5cd bebd
00000040: 19ef 203d 613c 84bc 0f49 ddbd 1d64 37bb
00000050: 15a3 a2bd 6ad9 84bd f7b2 9c3d a492 4dbd
00000060: 5100 a0bd 3850 afbd 66cc 85bd 4055 0ebd
00000070: 10ca d73c e4b4 08bd 4f29 5ebd deb6 8abc
00000080: d1ee bc3d 8cb0 07bd 4e90 16be 88ae 8fbd
00000090: 7834 21be 1f7e 3abc caef 7ebd ad8e 39bd
000000a0: ab95 b5bc 610f 3ebd dc12 e63c f61f bfbb
000000b0: f510 843d 35b8 79bd 2457 76bd 2629 95bc
000000c0: 4081 edbd 9bd7 b33c 6d3b 03be ee64 d23c
000000d0: 5344 073d c7e0 403d 3102 f23c 76f1 64bd
000000e0: 23e3 cabd ada6 7c3d dc6b 433d b9e7 113b
000000f0: 9338 be3d 044f 44bd fea9 aabd f76f a2bc

network.5.running_mean f4 [64]
0.2943792 0.53317994 0.25208595 0.6677747 0.6779878 0.76831245 0.87287545 0.1730442
-0.1400777 -0.24167398 -0.57681197 -0.44574916 -0.1057362 1.4597656 -0.9946176 -0.10222758
-5.7267942e-05 -0.041845616 0.9871479 -0.7631085 -0.58642536 -0.36106884 0.34527275 0.47744602
0.96461415 -1.074837 0.0956759 1.0869085 0.11589428 -0.77041966 1.538517 -0.23810787
0.19537993 -0.3201994 -0.90768147 -1.1471367 -0.8847665 -0.60564715 -0.67820424 -0.39601272
-0.20419042 0.14630702 0.7878844 1.185566 -0.2128523 -0.044098232 -0.5140934 -0.87288344
-0.48507306 0.4124152 -0.2455807 -0.07609063 -0.07456557 0.76163125 0.4010016 -0.21657479
-0.3391364 -0.55520815 0.3593558 0.8914392 0.56528103 -0.28223825 -0.67923254 0.12482384
00000000: dfb8 963e 7b7e 083f 6911 813e 48f3 2a3f
00000010: 9c90 2d3f 20b0 443f c474 5f3f 8032 313e
00000020: 8770 0fbe 6279 77be f3a9 13bf 3c39 e4be
00000030: 398c d8bd 99d9 ba3f 429f 7ebf b25c d1bd
00000040: fc32 70b8 4f66 2bbd bab5 7c3f 145b 43bf
00000050: f91f 16bf 04de b8be 97c7 b03e ce73 f43e
00000060: f4f0 763f 4294 89bf baf1 c33d d11f 8b3f
00000070: fb59 ed3d 393a 45bf 20ee c43f 8dd2 73be
00000080: ad11 483e 2df1 a3be d05d 68bf 60d5 92bf
00000090: 0f80 62bf b10b 1bbf cb9e 2dbf 2ec2 cabe
000000a0: 4b17 51be 82d1 153e cbb2 493f a0c0 973f
000000b0: f4f5 59be 59a0 34bd a09b 03bf 4a75 5fbf
000000c0: 7f5b f8be 1628 d33e 8279 7bbe 67d5 9bbd
000000d0: d5b5 98bd 44fa 423f 1550 cd3e c8c5 5dbe
000000e0: 49a3 adbe 1f22 0ebf 7cfd b73e 5c35 643f
000000f0: 42b6 103f 8881 90be 2fe2 2dbf a4a3 ff3d

network.5.running_var f4 [64]
3.4502037 2.631714 3.503216 3.2204955 2.4627187 5.8437138 3.8594232 2.51164
2.489918 4.4909244 1.6967602 5.714959 2.2538736 4.2023163 3.3151886 3.1414943
1.4897925 1.5372063 1.8079491 1.5482858 1.726791 1.6277063 2.8579223 2.5802488
3.1525807 2.1794522 1.0832719 1.5510606 2.588847 4.9541173 5.6311603 1.7655802
4.998247 1.282764 1.1527209 1.8688583 1.7282676 1.5902958 2.1405191 3.10226
2.4052086 3.7130425 2.2539847 4.69912 3.2032747 2.147637 3.1422381 3.9521272
1.2763382 1.8057457 1.2848405 1.1046735 3.1250439 2.9579291 2.682127 2.699912
1.4315177 2.6915576 3.322576 4.5803366 6.3444734 5.2072773 1.1196116 1.3722737
00000000: 23d0 5c40 016e 2840 b134 6040 991c 4e40
00000010: 2f9d 1d40 b4ff ba40 ca00 7740 b6be 2040
00000020: d15a 1f40 a7b5 8f40 702f d93f f2e0 b640
00000030: 773f 1040 6079 8640 0d2c 5440 3e0e 4940
00000040: 85b1 be3f 2dc3 c43f e06a e73f 3b2e c63f
00000050: 7d07 dd3f ae58 d03f 33e8 3640 cc22 2540
00000060: e2c3 4940 257c 0b40 a7a8 8a3f 2789 c63f
00000070: abaf 2540 2188 9e40 7732 b440 88fe e13f
00000080: a4f1 9f40 9c31 a43f 5c8c 933f c036 ef3f
00000090: df37 dd3f d08e cb3f 44fe 0840 6e8b 4640
000000a0: f0ee 1940 7da2 6d40 4941 1040 315f 9640
000000b0: 7402 4d40 e272 0940 6e1a 4940 a7ef 7c40
000000c0: 0d5f a33f ad22 e73f a775 a43f f165 8d3f
000000d0: b800 4840 b64e 3d40 f8a7 2b40 5ccb 2c40
000000e0: f93b b73f 7b42 2c40 16a5 5440 1e92 9240
000000f0: ed05 cb40 04a2 a640 6f4f 8f3f aaa6 af3f

network.8.weight f4 [32, 64]
-0.2448632 0.15820335 -0.19590199 0.121225655 0.09685315 -0.19333768 -0.10187523 0.06063117
-0.1953112 -0.2639901 -0.0037666028 -0.20500432 -0.04895476 0.1649642 0.18752441 0.11038857
-0.056038223 -0.29571292 0.06250033 0.104443766 -0.082276344 -0.07253342 -0.21968296 0.027442865
-0.0020065864 0.1633838 0.12900259 0.22063817 -0.08658727 0.07669033 -0.2114312 -0.04032395
-0.19348052 -0.19616926 -0.09692032 0.10080006 0.07474469 -0.14292979 -0.12957864 -0.04706693
-0.08696866 -0.106191896 0.07701363 -0.15433869 0.060202055 -0.07277523 0.18500495 -0.0793303
-0.14776118 -0.09318927 0.15519433 -0.13806847 0.016597182 0.03228538 -0.0021428321 0.08628626
0.06644924 0.12036826 -0.17956014 0.20612165 -0.17395516 0.11635129 0.06340025 -0.18653354
0.12310959 -0.20670193 -0.3328792 0.081054434 -0.03794779 -0.29724842 -0.01226555 -0.262401
0.20152356 0.073294416 -0.11757093 -0.2149542 0.07045905 0.087821566 0.04264158 0.03181006
0.14656414 -0.16762294 0.07706781 0.01233737 0.009067952 -0.13191487 0.14993815 0.046780776
-0.19268721 -0.0110458 0.043022938 0.17007942 -0.24286951 0.13883667 -0.2704586 0.11505617
0.046679847 0.09270203 -0.055845533 -0.15130672 -0.18069313 0.27499834 -0.012592045 -0.014666328
0.19161133 -0.11271271 -0.048798244 0.046734694 0.124236904 0.028358864 0.1759176 0.065528885
0.05247191 -0.23571108 0.11605471 0.09057408 -0.1415951 -0.04780999 0.21886376 0.09116005
-0.18207848 0.1763277 -0.081063166 0.07044991 0.036258176 0.08607298 0.07822841 -0.08876576
0.26041636 0.11724899 0.12728758 0.025441758 0.089686714 0.30983216 0.124687426 0.0026424816
-0.06361413 0.17333475 -0.31425425 0.17986038 0.107073806 0.08088116 -0.036356002 0.07374229
-0.2183739 -0.13703442 -0.10624304 -0.15306686 0.10978348 -0.11027973 0.19036897 0.020756107
0.2625889 0.00724032 0.18579364 -0.10397755 0.17649004 0.22809805 0.09881365 0.27596605
-0.24408488 0.09729428 -0.016053243 0.022544835 -0.07387632 -0.03309278 0.06659142 0.13080913
0.17953403 0.2669729 0.080290675 -0.06669856 0.1542054 -0.08614701 0.13779935 0.116553776
0.30124792 0.102496766 -0.12117185 0.20775618 -0.06827903 -0.05760004 0.14970908 0.04983031
0.2697459 0.05795248 0.14549103 0.046445232 -0.02754118 0.12180712 -0.2178038 0.1933094
0.114819095 -0.21823534 0.1398245 -0.071709454 -0.01775053 -0.03612624 0.074651174 0.19674215
-0.17421156 0.21337232 -0.08024889 0.11769669 -0.22925399 -0.1691194 0.13902678 0.0993952
0.074470595 0.06892028 0.03995654 -0.14131601 -0.006863714 0.13527201 0.23328866 -0.14558223
-0.09165321 -0.1572007 0.20223689 0.103050545 -0.049885035 0.23564188 0.09491144 -0.118395686
-0.23296358 -0.2780503 -0.040201906 0.14017235 -0.08425992 0.13820674 0.10944785 -0.10149544
0.20812443 -0.08821971 0.11737049 0.06624573 0.06266356 0.025002154 0.23119989 0.08230193
-0.10551853 -0.09834475 -0.09001961 0.096860744 -0.37724 -0.1320519 0.10058624 -0.21746384
0.14330462 0.05873266 -0.2221386 -0.17869796 -0.16491345 -0.2782737 -0.112286754 -0.05282294
00000000: 6bbd 7abe 0f00 223e 889a 48be 2845 f83d
00000010: f25a c63d 50fa 45be f6a3 d0bd 6458 783d
00000020: a9ff 47be b629 87be 1cd9 76bb a7ec 51be
00000030: c984 48bd 60ec 283e 6606 403e 6713 e23d
00000040: 5688 65bd af67 97be 2c00 803d 9de6 d53d
00000050: 8080 a8bd 678c 94bd 92f4 60be dccf e03c
00000060: ef80 03bb 154e 273e 4119 043e f9ee 613e
00000070: ab54 b1bd d20f 9d3d 6c81 58be ba2a 25bd
00000080: c21f 46be 98e0 48be 297e c6bd 4370 ce3d
00000090: be13 993d 305c 12be 43b0 04be 41c9 40bd
000000a0: a01c b2bd 237b d9bd 52b9 9d3d f60a 1ebe
000000b0: 6e96 763d 2e0b 95bd f071 3d3e ed77 a2bd
000000c0: b54e 17be 04da bebd 43eb 1e3e d261 0dbe
000000d0: d0f6 873c ad3d 043d c26e 0cbb dab6 b03d
000000e0: 8a16 883d a283 f63d 9dde 37be 8e11 533e
000000f0: 4d21 32be 9649 ee3d fed7 813d a602 3fbe
00000100: e120 fc3d aca9 53be 246f aabe deff a53d
00000110: 246f 1bbd f230 98be 72f5 48bc 6d59 86be
00000120: 315c 4e3e 621b 963d 07c9 f0bd f41c 5cbe
00000130: d64c 903d cbdb b33d f0a8 2e3d 444b 023d
00000140: e914 163e 59a5 2bbe bad5 9d3d ae22 4a3c
00000150: bf91 143c b114 07be 6389 193e 339d 3f3d
00000160: cc4f 45be 71f9 34bc d238 303d 4d29 2e3e
00000170: c9b2 78be 332b 0e3e 8d79 8abe 92a2 eb3d
00000180: 5e33 3f3d 90da bd3d 49be 64bd 26f0 1abe
00000190: 9f07 39be 95cc 8c3e dd4e 4ebc 0a4b 70bc
000001a0: c335 443e ecd5 e6bd abe0 47bd e16c 3f3d
000001b0: eb6f fe3d d950 e83c be23 343e 0234 863d
000001c0: c9ec 563d 3f5e 71be 17ae ed3d e77e b93d
000001d0: 4efe 10be 68d4 43bd d21d 603e 1fb2 ba3d
000001e0: c872 3abe 408f 343e 7204 a6bd 0b48 903d
000001f0: 7483 143d 0847 b03d 3736 a03d d3ca b5bd
00000200: 4b55 853e 3d20 f03d ad57 023e 3c6b d03c
00000210: abad b73d 52a2 9e3e 1f5c ff3d 7c2d 2d3b
00000220: 2048 82bd aa7e 313e efe5 a0be 522d 383e
00000230: 8349 db3d 06a5 a53d 08ea 14bd 3306 973d
00000240: 689d 5fbe c052 0cbe f395 d9bd 8fbd 1cbe
00000250: 29d6 e03d 57da e1bd 15f0 423e b608 aa3c
00000260: 0d72 863e 3540 ed3b b040 3e3e 2ff2 d4bd
00000270: ceb9 343e 8992 693e d05e ca3d 6c4b 8d3e
00000280: 63f1 79be 3942 c73d 1782 83bc f2af b83c
00000290: 784c 97bd 4b8c 07bd 1561 883d d4f2 053e
000002a0: c5d7 373e acb0 883e 706f a43d 4199 88bd
000002b0: 05e8 1d3e d86d b0bd 461b 0d3e bfb3 ee3d
000002c0: 2b3d 9a3e d3e9 d13d f228 f8bd 09be 543e
000002d0: e0d5 8bbd 05ee 6bbd 564d 193e de1a 4c3d
000002e0: 221c 8a3e 945f 6d3d 9afb 143e 5b3d 3e3d
000002f0: 0a9e e1bc 0376 f93d f607 5fbe e6f2 453e
00000300: 4626 eb3d 1679 5fbe 272e 0f3e 68dc 92bd
00000310: 8f69 91bc 1cf9 13bd b7e2 983d c676 493e
00000320: 8464 32be 467e 5a3e 8859 a4bd f60a f13d
00000330: 8fc1 6abe a32d 2dbe 095d 0e3e b68f cb3d
00000340: 0a84 983d 1326 8d3d 78a9 233d 25b5 10be
00000350: 02e9 e0bb bf84 0a3e 39e3 6e3e 8213 15be
00000360: aeb4 bbbd 38f9 20be 3017 4f3e 2a0c d33d
00000370: 4054 4cbd 1b4c 713e ee60 c23d 7079 f2bd
00000380: 018e 6ebe 9c5c 8ebe c1aa 24bd 5789 0f3e
00000390: 7790 acbd 1186 0d3e 3226 e03d d7dc cfbd
000003a0: 921e 553e 89ac b4bd f15f f03d d7ab 873d
000003b0: c155 803d 51d1 cc3c aabf 6c3e ea8d a83d
000003c0: 191a d8bd f968 c9bd 345c b8bd ed5e c63d
000003d0: 9a25 c1be 9d38 07be 2900 ce3d d7ae 5ebe
000003e0: 72be 123e a891 703d 4d78 63be 99fc 36be
000003f0: 12df 28be e479 8ebe 99f6 e5bd de5c 58bd

network.8.bias f4 [32]
0.0042044264 -0.01197365 -0.0073383395 -0.0064582266 0.00038215934 -0.0036813966 0.00850391 -0.00032469592
-0.0026519855 0.010620349 -0.0012731511 0.011159975 -0.0054710633 -0.0005131178 0.004278304 0.007562995
0.0006186746 -0.002966184 -0.008130754 0.0022818544 0.0017998985 0.0034279397 0.0070714736 0.010138276
-0.007715325 -0.00029128036 0.009649803 0.0056831236 -0.005439134 0.008419518 0.000416591 0.0024009035
00000000: 49c5 893b 212d 44bc 7476 f0bb 889f d3bb
00000010: 8f5c c839 9643 71bb fc53 0b3c f33b aab9
00000020: efcc 2dbb f900 2e3c dddf a6ba 54d8 363c
00000030: 9b46 b3bb c182 06ba 0431 8c3b 00d3 f73b
00000040: 8d2e 223a 4f64 42bb db36 05bc 2a8b 153b
00000050: 92ea eb3a 49a7 603b d2b7 e73b 031b 263c
00000060: d6d0 fcbb fdb6 98b9 351a 1e3c 7f39 ba3b
00000070: c33a b2bb 05f2 093c e669 da39 7a58 1d3b

network.9.weight f4 [32]
0.82083684 0.8436848 0.7930015 0.7560833 0.7890367 0.8936464 0.8590956 0.77056986
0.82470125 0.85594505 0.8767012 0.7576573 0.83238256 0.8635751 0.8033865 0.73385787
0.80895656 0.9229795 0.83219045 0.7672893 0.79990345 0.67518145 0.7885257 0.8278636
0.8326787 0.8141209 0.9125681 0.7717316 0.726548 0.7163485 0.7816689 0.6767941
00000000: 5d22 523f bafb 573f 2502 4b3f ad8e 413f
00000010: 4ffe 493f 03c6 643f b0ed 5b3f 1144 453f
00000020: 9f1f 533f 371f 5b3f 7d6f 603f d4f5 413f
00000030: 0617 553f 4213 5d3f bdaa 4d3f 1cde 3b3f
00000040: c717 4f3f 6248 6c3f 6f0a 553f 126d 443f
00000050: 79c6 4c3f b1d8 2c3f d2dc 493f deee 533f
00000060: 6e2a 553f 3a6a 503f 109e 693f 3490 453f
00000070: 0dff 393f 9e62 373f 741b 483f 6142 2d3f

network.9.bias f4 [32]
-0.09907575 -0.17199318 -0.022921272 -0.061671738 -0.11340137 -0.045686778 -0.21738458 -0.11600123
-0.10161124 -0.03801774 -0.19229333 -0.20896935 -0.06535846 -0.030631492 -0.1468177 -0.23656699
-0.16567777 -0.050571483 -0.18335177 -0.071753405 -0.110481225 -0.36555913 -0.11657153 -0.07606279
-0.17259553 -0.098239586 -0.06707227 -0.06575849 -0.12578107 -0.18555726 -0.16026664 -0.34030512
00000000: 3ae8 cabd fb1e 30be 64c5 bbbc 819b 7cbd
00000010: fa3e e8bd 0f22 3bbd 109a 5ebe 0e92 edbd
00000020: 8e19 d0bd 7db8 1bbd 8be8 44be 10fc 55be
00000030: a8da 85bd e5ee fabc 6157 16be 9e3e 72be
00000040: 6fa7 29be 0b24 4fbd 91c0 3bbe 73f3 92bd
00000050: fb43 e2bd 912a bbbe 0ebd eebd cfc6 9bbd
00000060: e2bc 30be d631 c9bd 305d 89bd 63ac 86bd
00000070: c1cc 00be b902 3ebe f01c 24be 793c aebe

network.9.running_mean f4 [32]
-0.72999233 -0.108857065 1.3823706 -0.23597138 -1.2097597 0.02420764 -0.19335689 -0.0319752
0.06654156 -1.5597888 -0.8589142 -0.9975557 -1.0892634 -1.3251235 -1.4212264 -1.1668756
-0.8245794 -0.16628635 -0.33970124 0.22568548 -0.3059143 -0.91567963 -1.0597441 -0.87298435
-0.19054413 -1.0421116 -0.6149397 -1.071896 -1.2034523 -1.1683478 -0.7732302 -0.43404284
00000000: c7e0 3abf 74f0 debd 85f1 b03f 7ba2 71be
00000010: 68d9 9abf 1a4f c63c 59ff 45be 6df8 02bd
00000020: f146 883d 29a7 c7bf cde1 5bbf cf5f 7fbf
00000030: fc6c 8bbf a69d a9bf bfea b5bf 2e5c 95bf
00000040: a317 53bf f846 2abe 52ed adbe 181a 673e
00000050: cda0 9cbe fb69 6abf b2a5 87bf e77b 5fbf
00000060: 001e 43be ea63 85bf b06c 1dbf e333 89bf
00000070: ba0a 9abf 6c8c 95bf 6af2 45bf dd3a debe

network.9.running_var f4 [32]
2.5343225 1.5603777 5.827642 1.9201491 3.4359303 3.5004501 2.3468041 3.7272792
1.3330697 4.945874 4.444656 5.7524133 5.069182 2.9534657 6.735961 3.9016273
2.2550125 5.0212255 1.9927537 4.0786276 3.4817042 3.2819889 4.545649 2.542958
1.365505 3.10254 3.2250016 2.8027918 3.2884808 5.099795 2.3808348 1.9405615
00000000: 5732 2240 75ba c73f 0b7c ba40 72c7 f53f
00000010: 48e6 5b40 6007 6040 0a32 1640 be8b 6e40
00000020: 07a2 aa3f 9a44 9e40 9f3a 8e40 c513 b840
00000030: bd36 a240 9505 3d40 fe8c d740 43b4 7940
00000040: 2052 1040 e1ad a040 8e12 ff3f 1e84 8240
00000050: 3ed4 5e40 1b0c 5240 f575 9140 d3bf 2240
00000060: dec8 ae3f 0490 4640 6d66 4e40 f160 3340
00000070: 7876 5240 8531 a340 995f 1840 5264 f83f

network.12.weight f4 [4, 32]
-0.03555348 0.13166766 0.014987412 -0.050151445 -0.0544008 0.021640444 0.20190622 0.06265142
0.096633 -0.09109423 0.22380033 0.18124546 0.05768649 -0.12407728 -0.11971358 -0.19309789
-0.06900502 0.15090838 0.13477619 0.015238979 0.1653944 0.1639072 -0.07202487 -0.102882035
0.08589813 -0.11734334 0.111226596 -0.12647437 -0.14481667 -0.15456723 -0.1745649 -0.081825785
-0.045138612 0.13189371 -0.009154546 -0.08859264 -0.17771591 -0.012768224 0.17258285 -0.018216964
0.06518116 -0.047738645 0.20752631 0.053102553 0.06383716 -0.12833396 0.07825552 -0.11117613
-0.088237405 0.15052386 0.12772717 -0.021797867 0.17241853 -0.10410817 -0.1497543 -0.15123874
0.103999965 -0.12835544 0.15679286 -0.10847429 -0.10005873 0.12669449 -0.1795043 0.091772385
-0.13131565 0.09983499 0.07674568 -0.02834713 -0.024778008 0.061016575 0.1998311 0.09875023
0.12019557 -0.05110062 0.082192264 -0.10333997 0.033054326 -0.095640466 -0.23142987 0.048016608
-0.14853172 0.047214296 0.078705624 0.035738356 0.09455438 -0.05989853 -0.12693386 -0.12366848
0.07665961 -0.05046534 0.07591205 -0.114825465 -0.15122224 -0.1518483 -0.034756124 0.10495774
-0.20703056 0.017948197 0.12962528 0.1820198 0.074897386 0.14603408 0.0056568645 0.20299736
0.084454745 -0.12027424 -0.0739573 -0.20905522 -0.18603009 -0.037893802 -0.25501886 0.09143669
0.05776186 -0.08252981 0.0013960068 0.21938406 -0.11036224 0.10331284 -0.14724924 -0.11899358
-0.06149509 0.04494854 -0.09763346 0.14076728 0.16040571 -0.25186098 -0.0877682 0.172733
00000000: 87a0 11bd e3d3 063e c38d 753c 9a6b 4dbd
00000010: 60d3 5ebd 4d47 b13c 81c0 4e3e 634f 803d
00000020: 86e7 c53d 9d8f babd ea2b 653e 6998 393e
00000030: ab48 6c3d 3b1c febd 652c f5bd 74bb 45be
00000040: 8152 8dbd ba87 1a3e c502 0a3e e9ac 793c
00000050: 265d 293e 4ad7 273e c681 93bd d1b3 d2bd
00000060: 5ceb af3d b451 f0bd c5ca e33d 7f82 01be
00000070: d24a 14be df46 1ebe 24c1 32be 4794 a7bd
00000080: 44e3 38bd 250f 073e f3fc 15bc 0f70 b5bd
00000090: 29fb 35be d031 51bc 8fb9 303e be3b 95bc
000000a0: b37d 853d 9989 43bd c781 543e 1082 593d
000000b0: 0fbd 823d fa69 03be 6e44 a03d 50b0 e3bd
000000c0: d0b5 b4bd ed22 1a3e e9ca 023e 7191 b2bc
000000d0: 7c8e 303e aa36 d5bd 3159 19be 54de 1abe
000000e0: effd d43d 9c6f 03be 4f8e 203e c527 debd
000000f0: 97eb ccbd 33bc 013e facf 37be 29f3 bb3d
00000100: 9c77 06be 4a76 cc3d d72c 9d3d 3e38 e8bc
00000110: 40fb cabc 84ec 793d 86a0 4c3e 903d ca3d
00000120: 1829 f63d e24e 51bd 6b54 a83d e8a3 d3bd
00000130: f963 073d 26df c3bd f4fb 6cbe 10ad 443d
00000140: b318 18be c763 413d 6a30 a13d 6262 123d
00000150: baa5 c13d 2958 75bd f3fa 01be e645 fdbd
00000160: b7ff 9c3d bfb4 4ebd c777 9b3d 9d29 ebbd
00000170: 01da 1abe 1f7e 1bbe 705c 0ebd 15f4 d63d
00000180: d2ff 53be 1908 933c 7dbc 043e 6663 3a3e
00000190: cd63 993d f589 153e 385d b93b 8ade 4f3e
000001a0: 9cf6 ac3d 5752 f6bd ed76 97bd 9212 56be
000001b0: ac7e 3ebe 8836 1bbd d591 82be 2943 bb3d
000001c0: b397 6c3d 6405 a9bd 37fa b63a 37a6 603e
000001d0: 9905 e2bd af95 d33d 81c8 16be e8b2 f3bd
000001e0: 47e2 7bbd f61b 383d 0df4 c7bd 4c25 103e
000001f0: 6541 243e ecf3 80be d0bf b3bd ebe0 303e

network.12.bias f4 [4]
-0.025087131 -0.00012224371 0.05337766 0.078722216
00000000: 8783 cdbc 8c2e 00b9 89a2 5a3d 1d39 a13d
