soil_salinity_multi_sensor/outputs/models/stage1/stage1_epoch_80.pth (torch, 72297 bytes, 20 tensors)

network.0.weight f4 [128, 36]
0	0xbd7452bd	-0.059649218
1	0xbe4bb86b	-0.19894569
2	0xbe800ed2	-0.25011307
3	0xbe2409fc	-0.16019434
4	0xbd07e607	-0.033178356
5	0xbe855be9	-0.26046684
6	0x3ee810dd	0.45325366
7	0xbbcefa79	-0.0063164798
8	0xbe433791	-0.19064166
9	0xbe3ea028	-0.18615782
10	0xbec54294	-0.38527358
11	0xbd87280f	-0.065994374
12	0xbe6fa0e8	-0.23401225
13	0xbddbba05	-0.1072884
14	0x3b6b6ca1	0.0035922902
15	0x3d8f14fe	0.06986426
16	0xbe98f87e	-0.29877084
17	0xbe470a60	-0.19437551
18	0xbe9df916	-0.308541
19	0xbd802a9c	-0.06258127
20	0xbf02cdf6	-0.5109552
21	0x3d32d740	0.04366231
22	0xbf21c59d	-0.6319216
23	0xbfa4b0ab	-1.2866415
24	0xbe9766c0	-0.2957058
25	0xbeadce68	-0.33946538
26	0x3dad8a6d	0.08473668
27	0xbd8d02f4	-0.06885329
28	0xbe3c1336	-0.18366703
29	0x3d9fc547	0.078012995
30	0x3e2a8600	0.1665268
31	0xbcfcef83	-0.030875927
32	0xbd9d5449	-0.07682092
33	0xbe1ebc09	-0.15501417
34	0x3dfeb2b5	0.124364294
35	0x3ddc6571	0.10761536
36	0xbdaeb8f4	-0.08531371
37	0x3ce7c613	0.028292691
38	0xbe102609	-0.1407701
39	0x3d43d655	0.047811825
40	0xbdd2755d	-0.102762915
41	0xbe42d15a	-0.19025174
42	0xbed0b80e	-0.40765423
43	0xbe74581e	-0.23861739
44	0xbe1196d6	-0.14217696
45	0xbe4d1da3	-0.20030837
46	0x3d8fd392	0.07022776
47	0xbd8b92a4	-0.06815079
48	0xbe304c3e	-0.17216584
49	0x3de3e868	0.11128312
50	0x3e568ee9	0.20952953
51	0x3d9ac7cc	0.075576395
52	0xbe63f2db	-0.22260611
53	0x3da4096f	0.08009612
54	0x3d22aee6	0.039717577
55	0xbdb95e45	-0.090511836
56	0x3f0c510d	0.54811174
57	0x3e1e49b9	0.1545781
58	0x3eccc339	0.39992693
59	0x3efeb8bc	0.49750316
60	0x3d84d731	0.06486357
61	0x3d400aa3	0.046885144
62	0xbea3c6ba	-0.31987554
63	0xbe342e02	-0.17595676
64	0xbe68816c	-0.2270562
65	0xbdea2bb8	-0.1143412
66	0x3d05ff82	0.032714374
67	0xbd4a67fd	-0.049415577
68	0x3dc19f8c	0.09454259
69	0x3e5fceb2	0.21856192
70	0xbe10f74c	-0.14156836
71	0x3daec82e	0.08534275
72	0xbeabbe2e	-0.33543533
73	0xbeb99f0a	-0.3625415
74	0xbe0b8bc8	-0.13627541
75	0xbec01198	-0.37513423
76	0xbeaed1f0	-0.34144545
77	0xbe905ba4	-0.28194916
78	0xbf5b0da3	-0.85567683
79	0xbe85c52e	-0.26127
80	0xbea66ca6	-0.32504767
81	0xbe75b71b	-0.2399563
82	0xbe9cf496	-0.30655354
83	0xbeb13a25	-0.34614673
84	0xbf08bd33	-0.53413695
85	0xbe8553ab	-0.26040396
86	0xbc5ccdf0	-0.013476834
87	0xbd96c095	-0.07360951
88	0xbea6882c	-0.32525766
89	0xbedf22ae	-0.43581146
90	0xbea585f6	-0.32328767
91	0xbe7f1c4b	-0.24913137
92	0x3f0f4747	0.55968136
93	0x3eda544b	0.42642435
94	0x3eb2b04e	0.34900135
95	0x3ed05019	0.4068611
96	0xbe9660fb	-0.29370865
97	0xbe228c3a	-0.15873805
98	0xbf135261	-0.57547575
99	0xbec03688	-0.37541604
100	0xbd70b4d1	-0.05876619
101	0xbe414d17	-0.18877064
102	0xbef34761	-0.47515395
103	0x3f1e132c	0.61748004
104	0x3e66fd01	0.22557451
105	0x3e50d62c	0.203942
106	0xbe8c2ae6	-0.2737648
107	0x3dcf1f16	0.10113351
108	0x3e27602f	0.16345285
109	0x3e7eea01	0.24893953
110	0x3deeb348	0.11655289
111	0x3e6315f0	0.22176337
112	0xbe0a365e	-0.13497302
113	0xbdf33071	-0.11874474
114	0xbf3a0087	-0.72657055
115	0xbda97d1b	-0.08275815
116	0x3e888685	0.2666513
117	0xba811396	-0.0009847756
118	0x3e60f585	0.21968658
119	0x3d3f0d46	0.046643518
120	0x3e009065	0.12555082
121	0x3cfb2ab4	0.03066001
122	0x3e31e77b	0.17373459
123	0xbdeb5da9	-0.11492474
124	0x3e74f989	0.23923315
125	0x3e9fbeb6	0.31200188
126	0x3e39cc8a	0.18144432
127	0x3e64ae17	0.22332035
128	0x3f23c1cc	0.63967586
129	0x3e3a31ae	0.18183014
130	0x3f3d805b	0.7402398
131	0x3f9c0c2b	1.2191213
132	0x3e881480	0.2657814
133	0x3d779525	0.06044497
134	0xbe29bfd5	-0.16577084
135	0xbe46b8ef	-0.19406484
136	0x3d902ebe	0.07040165
137	0xbd9e05cd	-0.0771595
138	0xbe244306	-0.16041192
139	0x3ee16b8a	0.44027358
140	0xbdb0811e	-0.08618377
141	0x3d312c1d	0.04325496
142	0xbdc43ea9	-0.09582264
143	0x3e211533	0.15730743
144	0xbd8097d0	-0.06278956
145	0xbd4dd019	-0.050247286
146	0x3d592c13	0.053020548
147	0xbde32c51	-0.11092437
148	0xbe5a5667	-0.21322022
149	0xbc8b284a	-0.016986985
150	0xbea44e08	-0.32090783
151	0x3e2fe844	0.17178446
152	0xbdbed791	-0.0931846
153	0xbe27796b	-0.16354911
154	0xbe1d6727	-0.15371381
155	0xbdb11f85	-0.0864859
156	0xbe034646	-0.12819776
157	0xbc9352f6	-0.017983895
158	0x3dac2edd	0.08407376
159	0x3e170547	0.14748107
160	0xbd9ff634	-0.078106314
161	0xbdc34191	-0.0953399
162	0x3b154b2d	0.0022780404
163	0xbd74d58a	-0.05977396
164	0x3ea377da	0.31927377
165	0x3dc684de	0.09693311
166	0x3f5ec5b6	0.8702043
167	0x3f3940e7	0.7236466
168	0xbdf69cc4	-0.120416194
169	0xbe1da100	-0.15393448
170	0xbe1d7afe	-0.15378949
171	0x3e5ed80e	0.21762106
172	0xbdf58479	-0.11988158
173	0xbe93a64a	-0.28837806
174	0xbc51858f	-0.0127881905
175	0xbe240180	-0.16016197
176	0xbe80f40f	-0.25186202
177	0xbdfcbae2	-0.123403326
178	0x3e425472	0.18977526
179	0xbdb6b234	-0.08920708
180	0x3e468c5f	0.19389485
181	0x3d9b4f3a	0.07583471
182	0x3e432b69	0.19059528
183	0xbd0a6886	-0.033791088
184	0xbddbf737	-0.10740512
185	0xbe357d82	-0.17723659
186	0xbf2e949e	-0.6819552
187	0xbeb95c71	-0.3620334
188	0x3e48b9d2	0.19602135
189	0x3d829f78	0.063780725
190	0x3e338b99	0.17533721
191	0xbde31526	-0.11088018
192	0x3d04dd4d	0.03243761
193	0xbd80076e	-0.06251417
194	0x3e3d681d	0.18496747
195	0xbd9d0487	-0.07666879
196	0x3e36bd44	0.17845637
197	0xbd4cccc2	-0.04999996
198	0xbe2d605a	-0.16931286
199	0xbb101088	-0.002198251
200	0x3f41742a	0.7556788
201	0x3e0db014	0.138367
202	0x3f368234	0.71292424
203	0x3fc2162e	1.5163019
204	0x3d3d1619	0.046163652
205	0xbdd3afff	-0.10336303
206	0xbe9f783b	-0.31146416
207	0xbe7b2bee	-0.24528477
208	0xbe474b09	-0.19462217
209	0x3dbcaa88	0.09212214
210	0xbec9ff73	-0.39452705
211	0x3e5ab109	0.21356596
212	0x3c275fbf	0.010215699
213	0x3e4c24e6	0.1993595
214	0xbe051492	-0.12996128
215	0x3e6af244	0.2294398
216	0xbf018f07	-0.5060887
217	0xbf02a474	-0.51032186
218	0xbec06846	-0.37579554
219	0xbe8a9120	-0.27063847
220	0xbe7ed16f	-0.2488458
221	0xbd36d98c	-0.044641063
222	0xbefbddd4	-0.4919268
223	0xbedfe58e	-0.43729824
224	0xbf00b16c	-0.50270724
225	0xbece5ab0	-0.40303564
226	0xbedfde72	-0.437244
227	0xbe3ac87d	-0.18240543
228	0xbf1bdad2	-0.6088077
229	0xbf013480	-0.50470734
230	0x3cf84627	0.030306889
231	0xbae64556	-0.0017568271
232	0xbf284dcf	-0.65743726
233	0xbf087587	-0.5330433
234	0xbe5dfb19	-0.21677817
235	0xbea24c48	-0.31698823
236	0x3f108813	0.5645763
237	0x3f049e56	0.518041
238	0x3f26854e	0.65047157
239	0x3fe6482b	1.7990774
240	0xbe2a5260	-0.16632986
241	0xbee34ac9	-0.44392994
242	0xbf31100b	-0.69165105
243	0xbf1f62eb	-0.6226031
244	0xbd4038cb	-0.046929162
245	0x3d4f26fe	0.050574295
246	0xbe97b788	-0.2963221
247	0x3e546791	0.20742632
248	0xbd4af8b3	-0.049553584
249	0x3e04b80f	0.12960838
250	0xbecd9c4f	-0.40158316
251	0x3dbec714	0.09315315
252	0xbee4e96c	-0.44709337
253	0xbe787a95	-0.24265511
254	0xbed7be57	-0.42137405
255	0xbe7d9308	-0.24763119

network.0.bias f4 [128]
0	0x39caec9e	0.00038704736
1	0x3d8ded37	0.06930011
2	0xbc259fa4	-0.010108862
3	0x3d52541b	0.05134974
4	0xbe2bd7fa	-0.16781607
5	0x3dee4f66	0.11636238
6	0x3d084989	0.033273254
7	0xbaa5b4f6	-0.0012642432
8	0x3db0a6b4	0.08625546
9	0xbc508aae	-0.012728376
10	0xbd33bc90	-0.043881
11	0x3da5b52e	0.08091198
12	0x3db01d0e	0.08599292
13	0xbc5acee9	-0.013354995
14	0xbc5592c2	-0.013035478
15	0x3dcc2a41	0.09968997
16	0xbc470325	-0.012146746
17	0x3d44cf46	0.048049234
18	0xbdb978fa	-0.090562776
19	0x3d7f2d85	0.06229927
20	0xbe4427d3	-0.19155817
21	0xbd9f5de4	-0.0778158
22	0xbd436d55	-0.04771169
23	0x3e04da45	0.12973888
24	0x39f19caa	0.00046083826
25	0x3de82e3b	0.11336943
26	0x3b97f02c	0.004636785
27	0x3c30e7d2	0.010797458
28	0x3dc55daa	0.096370056
29	0x3dd67aab	0.10472616
30	0x3d85b50f	0.06528675
31	0xbb8320ea	-0.0040017264
32	0x3d938f51	0.0720507
33	0x3ca90ff6	0.020637494
34	0x3e0ecc17	0.13945042
35	0xbd8a160c	-0.06742486
36	0xbcbfb569	-0.023401933
37	0x3dcefcf2	0.10106839
38	0xbe018d83	-0.12651639
39	0xbcffeb48	-0.03124012
40	0x3e035d97	0.1282867
41	0x3cde0583	0.027102238
42	0xbcd45630	-0.025920004
43	0x3e4225b3	0.18959694
44	0xbe16ad8f	-0.14714645
45	0x3bb7c6ff	0.005608439
46	0x3c975ca0	0.018476784
47	0x3c0797d0	0.008275941
48	0x3d2bae8f	0.04191452
49	0xbdc883eb	-0.09790786
50	0xbe56fccc	-0.20994872
51	0xbd7be3b9	-0.06149647
52	0xbd095e23	-0.03353704
53	0x3d8e2124	0.06939915
54	0xbe005ecf	-0.12536167
55	0x3e10897c	0.14114946
56	0xbde30f0f	-0.110868566
57	0x3d3879f2	0.04503817
58	0xbd7d2b10	-0.061808646
59	0xbda54bea	-0.0807112
60	0x3d97b44d	0.074074365
61	0x3d9e0993	0.0771667
62	0xbc3ca0e7	-0.0115129715
63	0xbd19d6ce	-0.03755837
64	0xbd3acd6d	-0.045606066
65	0xbd58e0e0	-0.052948833
66	0xbc831b24	-0.016004153
67	0xbe123499	-0.14277877
68	0x3d63ae01	0.055585865
69	0xbc4c38be	-0.0124647
70	0xbdc8b695	-0.0980045
71	0x3df2df86	0.1185904
72	0x3d44b9bf	0.048028704
73	0xbd138149	-0.036011968
74	0x3d085dba	0.03329251
75	0x3d664919	0.056222055
76	0xbdd31c9c	-0.10308191
77	0x3e47ebce	0.19523546
78	0xbd7c946e	-0.06166499
79	0xbca87cce	-0.020567324
80	0x3cbabbef	0.022794692
81	0xbdfcf238	-0.12350887
82	0xbd8603b7	-0.06543677
83	0x3cbabedd	0.022796089
84	0xbe0c2b91	-0.13688494
85	0x3cae20ce	0.021255877
86	0xbc8ae60d	-0.0169554
87	0xbc68ba18	-0.014204524
88	0x3d89941f	0.06717705
89	0xbe039cec	-0.1285283
90	0xbda1aa1d	-0.07893775
91	0xb9067f8d	-0.00012826752
92	0xbdd3ef6b	-0.103484
93	0xbc744b37	-0.014910511
94	0x3d2ac1a3	0.041688573
95	0xbcd016b0	-0.025401443
96	0x3ce2d614	0.027689971
97	0x3e0c1047	0.13678084
98	0xbe34a0a7	-0.17639409
99	0x3d15dc81	0.036587242
100	0x3e14dd13	0.14537458
101	0xbc2fa104	-0.010719541
102	0xba2f34cf	-0.00066835893
103	0xbbbfde5d	-0.005855365
104	0x3dce0721	0.100599535
105	0x3d9731aa	0.073825195
106	0xbd2c7cb9	-0.042111132
107	0xbc6c4014	-0.014419574
108	0x3d9920f4	0.074769884
109	0x3dbd594d	0.092455484
110	0xbc7b4620	-0.015336543
111	0x3ce5cd16	0.028051894
112	0x3c5a743c	0.0133333765
113	0xbd9eabd5	-0.07747618
114	0x3d0704d3	0.032963585
115	0x3a8966ac	0.0010482869
116	0x3ddf4a15	0.10902802
117	0x3e15bf59	0.14623775
118	0xbd2f5c70	-0.042812765
119	0x3c9fc81c	0.0195046
120	0xbd526a68	-0.05137101
121	0x3dd1a5cf	0.102367036
122	0x3c79de27	0.015250719
123	0xbcb0865e	-0.021548446
124	0xbdd7958a	-0.10526569
125	0x3d68a1bb	0.056794863
126	0x3d1c8982	0.038217075
127	0xbc42975b	-0.011876906

network.1.weight f4 [128]
0	0x3f5c3cef	0.8603048
1	0x3f233558	0.6375327
2	0x3f5124c9	0.81696755
3	0x3f92a77b	1.1457361
4	0x3f79f125	0.9763358
5	0x3f5e25d5	0.8677648
6	0x3f58589e	0.8451022
7	0x3f1263ac	0.5718334
8	0x3f4338e9	0.76258713
9	0x3f724d29	0.9464899
10	0x3f51a011	0.81884867
11	0x3f35e31d	0.7104967
12	0x3f2d4971	0.6769019
13	0x3f2ac962	0.66713536
14	0x3f4b3173	0.7937233
15	0x3f66a542	0.90095913
16	0x3f753cdc	0.9579599
17	0x3faa6585	1.3312231
18	0x3f403abd	0.7508963
19	0x3f54e851	0.83166987
20	0x3f32b7ed	0.698119
21	0x3f2f36b0	0.6844282
22	0x3f62979d	0.88512594
23	0x3f189d4c	0.59615016
24	0x3f2215b4	0.63314366
25	0x3f6a044e	0.9141282
26	0x3f326c58	0.6969657
27	0x3fa4aec4	1.2865834
28	0x3f577793	0.8416683
29	0x3f58d68d	0.8470238
30	0x3f738c28	0.95135736
31	0x3f49cf72	0.7883216
32	0x3f202113	0.6255047
33	0x3f4cbb85	0.7997363
34	0x3f1e7a18	0.6190505
35	0x3f1e3e66	0.6181396
36	0x3f5b701f	0.8571796
37	0x3f4d6797	0.8023619
38	0x3f387f56	0.720693
39	0x3f41f91d	0.7577074
40	0x3f7a229d	0.97709066
41	0x3f804fa2	1.0024302
42	0x3f2fcd8d	0.6867302
43	0x3f1e62c6	0.61869466
44	0x3f4e1166	0.804953
45	0x3f4d62f1	0.802291
46	0x3f31e104	0.6948397
47	0x3fa31af5	1.2742602
48	0x3f5f6e13	0.87277335
49	0x3f4f0da5	0.80880195
50	0x3f82b4bf	1.0211409
51	0x3f8d7f1a	1.1054413
52	0x3f261aca	0.64884627
53	0x3f19cf20	0.6008167
54	0x3fa7745c	1.3082385
55	0x3f3eb06e	0.7448796
56	0x3f377577	0.7166361
57	0x3f1c1611	0.6097117
58	0x3f57cde0	0.84298515
59	0x3fa1d114	1.264193
60	0x3f56b654	0.8387196
61	0x3faf7d89	1.3710185
62	0x3f76d3fc	0.9641721
63	0x3f40cf33	0.7531616
64	0x3f468578	0.7754741
65	0x3f84225f	1.0322989
66	0x3f91ccac	1.1390586
67	0x3f3b5fd0	0.73193073
68	0x3f84b028	1.0366259
69	0x3f22b8c3	0.63563174
70	0x3f49066d	0.7852543
71	0x3f797e90	0.97458744
72	0x3f30a359	0.6899925
73	0x3f246a44	0.6422465
74	0x3f23e8b9	0.6402698
75	0x3f241789	0.6409841
76	0x3f3c8d47	0.7365307
77	0x3f829e97	1.0204648
78	0x3f6ac16b	0.9170138
79	0x3f4f1435	0.8089021
80	0x3f16f22d	0.5896328
81	0x3f4772cc	0.7790954
82	0x3f78b869	0.9715639
83	0x3f82fee8	1.0234041
84	0x3f62f3db	0.88653344
85	0x3f2979ed	0.6620167
86	0x3f5328b1	0.82483965
87	0x3f5a8e4e	0.8537339
88	0x3f608c59	0.87714154
89	0x3f31c4f9	0.6944118
90	0x3f533974	0.8250954
91	0x3f5c34ec	0.8601825
92	0x3f9c5009	1.2211925
93	0x3f34785a	0.7049614
94	0x3f456d3e	0.77119815
95	0x3f815c0b	1.0106214
96	0x3f4ca1ea	0.7993456
97	0x3f37bb0b	0.7176978
98	0x3f4275c2	0.75960934
99	0x3f3adba9	0.72991425
100	0x3f40f85e	0.7537898
101	0x3f5196a5	0.8187049
102	0x3f2a0b2f	0.66423315
103	0x3f383613	0.7195751
104	0x3f4c0ce3	0.79707164
105	0x3f6da9a7	0.92836994
106	0x3f1b9e08	0.6078801
107	0x3f87bb46	1.0604026
108	0x3f96ba78	1.1775656
109	0x3f1f6968	0.6227021
110	0x3f50e3fa	0.81597865
111	0x3f6dd804	0.9290774
112	0x3f38b358	0.72148657
113	0x3f5b582b	0.8568141
114	0x3f8790a7	1.0591019
115	0x3f363056	0.71167505
116	0x3f61e267	0.8823609
117	0x3f3d9409	0.7405401
118	0x3f471356	0.7776388
119	0x3fc30bd9	1.5237991
120	0x3f41eca9	0.7575174
121	0x3fa16993	1.2610344
122	0x3f2013b4	0.62530065
123	0x3f2d6b3d	0.6774176
124	0x3f915525	1.1354109
125	0x3f48d4f7	0.7844996
126	0x3f49e840	0.7887001
127	0x3f2650b7	0.6496691

network.1.bias f4 [128]
0	0xbe47a3e4	-0.19496113
1	0xbeb2d15b	-0.3492535
2	0xbf382464	-0.7193053
3	0x3cdce79c	0.026965909
4	0x3d2a68fc	0.041604027
5	0xbe50a4d9	-0.20375384
6	0xbe84eeeb	-0.2596353
7	0xbf0789a4	-0.529444
8	0xbec6dda0	-0.3884096
9	0xbf4062bf	-0.75150675
10	0xbe02dc10	-0.1277926
11	0xbe7dd566	-0.24788436
12	0xbf152c6d	-0.58270913
13	0xbef614b5	-0.48062673
14	0xbe174816	-0.14773592
15	0xbe15708f	-0.14593719
16	0x3c03d7a9	0.008047023
17	0x3ef12bce	0.47103733
18	0xbf0b655e	-0.5445155
19	0xbe5d6ae2	-0.21622804
20	0xbf3ead4f	-0.744832
21	0xbf16dd59	-0.589315
22	0xbd9a51db	-0.07535144
23	0xbeca31f0	-0.39491224
24	0xbec3b973	-0.38227424
25	0xbe3dc153	-0.18530779
26	0xbee207f7	-0.44146702
27	0x3e9790fb	0.296028
28	0xbe0aadcc	-0.13542861
29	0xbf303054	-0.6882374
30	0xbd303715	-0.04302128
31	0xbf11a7da	-0.56896746
32	0xbf22b826	-0.6356224
33	0xbf289130	-0.6584654
34	0xbec9b452	-0.39395386
35	0xbeb043e7	-0.34426805
36	0xbd001b0c	-0.031275794
37	0xbeda42c6	-0.4262907
38	0xbdcf549d	-0.101235606
39	0xbf131b0d	-0.5746315
40	0xbf344a2c	-0.7042568
41	0x3e755e5e	0.2396178
42	0xbe973830	-0.29535055
43	0xbea95d26	-0.3307888
44	0xbe187e28	-0.14891875
45	0xbde4362d	-0.11143146
46	0xbef06c84	-0.4695779
47	0x3e673306	0.22578058
48	0xbdbbb490	-0.09165299
49	0xbe865b70	-0.26241636
50	0x3cbe146d	0.0232031
51	0x3d834687	0.064099364
52	0xbee9ce49	-0.45665196
53	0xbf2656c4	-0.64976144
54	0x3ec569b7	0.38557217
55	0xbf0f2949	-0.5592237
56	0xbf0664c8	-0.5249753
57	0xbef684f5	-0.48148313
58	0xbda7f7a7	-0.08201533
59	0x3e8dfb5e	0.2773084
60	0xbf3470a9	-0.70484406
61	0x3e6f5310	0.2337153
62	0x3b1f0a4b	0.002426761
63	0xbf25dbaf	-0.64788336
64	0xbe8761f6	-0.26441926
65	0x3f346c6c	0.7047794
66	0x3d515363	0.051104914
67	0xbe699a53	-0.22812776
68	0x3e2bb89f	0.16769646
69	0xbefa3f3c	-0.4887637
70	0xbe722cb4	-0.23649865
71	0xbbcd6534	-0.006268168
72	0xbe8fd611	-0.28093007
73	0xbec661f6	-0.38746613
74	0xbe93985f	-0.28827187
75	0xbebec355	-0.37258402
76	0xbf245c7e	-0.6420363
77	0xbcb6b0ff	-0.022301195
78	0xbe042128	-0.12903273
79	0xbe8796b6	-0.2648217
80	0xbecaa379	-0.39577845
81	0xbefe8d06	-0.49716967
82	0xbe30a664	-0.17250973
83	0x3cee48d4	0.029087462
84	0x3e460ee5	0.1934162
85	0xbec1c877	-0.37848255
86	0xbe0afab5	-0.135722
87	0xbda1fbba	-0.07909341
88	0xbf33fe9d	-0.70310384
89	0xbef2a085	-0.47388092
90	0xbf17bce0	-0.59272575
91	0xbed9bb79	-0.42525843
92	0x3e951c01	0.29122928
93	0xbf24e057	-0.64404815
94	0xbea90546	-0.33011836
95	0xbd9a159d	-0.07523654
96	0xbe756e50	-0.23967862
97	0xbe68e397	-0.22743069
98	0xbe824699	-0.25444487
99	0xbeb026ca	-0.34404594
100	0xbed60639	-0.41801623
101	0xbe694779	-0.22781171
102	0xbebf0f8f	-0.37316558
103	0xbf10aadd	-0.56510717
104	0xbebc87d3	-0.36822376
105	0xbddc74f9	-0.10764498
106	0xbebf0103	-0.3730546
107	0x3c72e167	0.014824248
108	0x3f2e90c9	0.68189675
109	0xbef43238	-0.47694564
110	0xbf0e74b8	-0.5564685
111	0xbd269be6	-0.04067602
112	0xbeb6d0df	-0.3570623
113	0xbf2bc289	-0.6709371
114	0xbc7fb745	-0.01560766
115	0xbe87c941	-0.26520732
116	0xbd1f00b4	-0.03881903
117	0xbf2aed54	-0.66768384
118	0xbe8330af	-0.2562308
119	0x3eeca92b	0.46222815
120	0xbebb27cd	-0.36553803
121	0x3e979803	0.29608163
122	0xbee4b3af	-0.44668338
123	0xbe90bdd3	-0.28269824
124	0x3e6259e1	0.22104599
125	0xbf285524	-0.65754914
126	0xbf19bcae	-0.6005353
127	0xbf0596b8	-0.52183104

network.1.running_mean f4 [128]
0	0xc618d731	-9781.798
1	0xc6dae50e	-28018.527
2	0x44f1a25a	1933.0735
3	0xc5d1f538	-6718.6523
4	0xc6ac625f	-22065.186
5	0xc64fb24f	-13292.577
6	0xc6008ee8	-8227.727
7	0x452fe736	2814.4507
8	0x458a6094	4428.0723
9	0x4629d7fc	10869.996
10	0xc678f517	-15933.272
11	0xc6cc0101	-26112.502
12	0xc5baa772	-5972.9307
13	0xc656d882	-13750.127
14	0xc5fc862b	-8080.771
15	0xc58e7087	-4558.066
16	0xc701ded5	-33246.832
17	0xc6283810	-10766.016
18	0x462918ab	10822.167
19	0xc6b33ac7	-22941.389
20	0xc50a89c5	-2216.6106
21	0x467c4d5c	16147.34
22	0xc66db951	-15214.329
23	0xc6b12105	-22672.51
24	0xc647f50b	-12797.261
25	0x45e79e81	7411.813
26	0xc612011e	-9344.279
27	0xc6056079	-8536.118
28	0xc5a5ab96	-5301.448
29	0x4482916d	1044.5446
30	0xc635d26e	-11636.607
31	0xc5c058ed	-6155.1157
32	0xc59de8cf	-5053.101
33	0x44fb7758	2011.7295
34	0xc581a74d	-4148.9126
35	0xc60342b2	-8400.674
36	0xc53c088e	-3008.5347
37	0xc6059192	-8548.393
38	0xc62c8561	-11041.345
39	0xc5bec1b3	-6104.2124
40	0x432c9f04	172.62115
41	0x451af5b4	2479.3564
42	0x461929f8	9802.492
43	0xc613782a	-9438.041
44	0x46028638	8353.555
45	0xc6a2b04e	-20824.152
46	0x468e452c	18210.586
47	0xc5fc035d	-8064.4204
48	0xc5c08a2b	-6161.271
49	0xc607d628	-8693.539
50	0xc6022bac	-8330.918
51	0xc5f42b4a	-7813.411
52	0xc5c4e9de	-6301.2334
53	0xc62d4663	-11089.597
54	0xc6908045	-18496.135
55	0xc60db1ee	-9068.482
56	0x461b8c55	9955.083
57	0x46383c72	11791.111
58	0xc6ccd5c2	-26218.879
59	0xc6659f4a	-14695.822
60	0x44910ab9	1160.3351
61	0xc5ed21d8	-7588.2305
62	0xc67009b5	-15362.427
63	0x44caf017	1623.5028
64	0xc6836dfc	-16822.992
65	0x446ae876	939.6322
66	0xc5c9c6cf	-6456.851
67	0x4401aa21	518.65826
68	0xc6815480	-16554.25
69	0xc62dc2fb	-11120.745
70	0x45b8b072	5910.0557
71	0xc695a9d9	-19156.924
72	0xc71c0aef	-39946.934
73	0xc6abe5f5	-22002.979
74	0xc5a5b2a7	-5302.3315
75	0xc6906853	-18484.162
76	0xc5b2248a	-5700.5674
77	0xc60d9b57	-9062.835
78	0x45dccaaa	7065.333
79	0xc6a89e3f	-21583.123
80	0x45dfc578	7160.6836
81	0xc5ce9f60	-6611.922
82	0xc5fe7ed6	-8143.8545
83	0xc6a9b6dd	-21723.432
84	0x44e02d07	1793.4071
85	0xc695a30e	-19153.527
86	0xc70e7757	-36471.34
87	0xc61d2061	-10056.095
88	0x464426b0	12553.672
89	0xc618984f	-9766.077
90	0xc5c95007	-6442.0034
91	0x459309bc	4705.217
92	0xc5a86e97	-5389.8237
93	0xc5a2d370	-5210.4297
94	0xc665f1f6	-14716.49
95	0xc60bc8c4	-8946.191
96	0xc6102b45	-9226.817
97	0xc63bd64a	-12021.572
98	0xc6f4b075	-31320.229
99	0xc6237f65	-10463.849
100	0xc6801f43	-16399.63
101	0xc63699c0	-11686.4375
102	0xc677bd66	-15855.35
103	0xc6703890	-15374.141
104	0xc4afa48a	-1405.1418
105	0xc644cd12	-12595.268
106	0x46364cdc	11667.215
107	0xc5bbfa2d	-6015.272
108	0x43f18253	483.01816
109	0x4696484c	19236.148
110	0x45dcff4b	7071.9116
111	0xc718cf78	-39119.47
112	0xc6715530	-15445.297
113	0xc442a1b7	-778.5268
114	0xc659768a	-13917.635
115	0xc6bc6412	-24114.035
116	0xc658f8a4	-13886.16
117	0xc5e64aac	-7369.334
118	0xc677e131	-15864.298
119	0xc62bdc04	-10999.004
120	0xc5c861e3	-6412.236
121	0xc6da98a8	-27980.328
122	0x45bce685	6044.815
123	0xc69f1d72	-20366.723
124	0xc700facb	-33018.793
125	0x462c07f9	11009.993
126	0x461673f6	9628.99
127	0xc62c8087	-11040.132

network.1.running_var f4 [128]
0	0x4cd8cce9	1.13665864e+08
1	0x4e7479ca	1.0254056e+09
2	0x4bb31fee	2.3478236e+07
3	0x4c725a87	6.3531548e+07
4	0x4e182feb	6.383193e+08
5	0x4d557cce	2.2385789e+08
6	0x4c8d02fc	7.393072e+07
7	0x4c133de3	3.859854e+07
8	0x4bc28d42	2.5500292e+07
9	0x4cf6ca53	1.2938921e+08
10	0x4da81649	3.525041e+08
11	0x4e58a733	9.0870906e+08
12	0x4c144ca8	3.887581e+07
13	0x4d74f240	2.568448e+08
14	0x4c9c6d33	8.201257e+07
15	0x4bb4f14f	2.371651e+07
16	0x4ea91f1f	1.4186945e+09
17	0x4d18459e	1.596687e+08
18	0x4cf3ffdd	1.2792599e+08
19	0x4e222c38	6.802017e+08
20	0x4b0bc20f	9.159183e+06
21	0x4db9cfa2	3.8967405e+08
22	0x4d91a7ee	3.0546272e+08
23	0x4e1dd556	6.62001e+08
24	0x4d5a0e02	2.2864694e+08
25	0x4ca768d7	8.777081e+07
26	0x4cd05266	1.0922066e+08
27	0x4c995e4e	8.04092e+07
28	0x4c323ea6	4.6725784e+07
29	0x4bae4ed4	2.2846888e+07
30	0x4d18dc71	1.6028648e+08
31	0x4c1f1e6c	4.171205e+07
32	0x4bda8031	2.863933e+07
33	0x4bc77a07	2.6145806e+07
34	0x4bf9af2b	3.2726614e+07
35	0x4cc51a34	1.033384e+08
36	0x4bbf0ae6	2.5040332e+07
37	0x4c9c9865	8.210103e+07
38	0x4d2b5680	1.796608e+08
39	0x4c1f377e	4.173772e+07
40	0x4b9c2c6f	2.0469982e+07
41	0x4b7d076d	1.6582509e+07
42	0x4d06cd03	1.4134891e+08
43	0x4cf46c39	1.2814791e+08
44	0x4cdf7417	1.17153976e+08
45	0x4e04f85d	5.577173e+08
46	0x4dbe8274	3.9952755e+08
47	0x4c8ac901	7.27634e+07
48	0x4c3482a7	4.7319708e+07
49	0x4cafacb4	9.21041e+07
50	0x4c90c461	7.5899656e+07
51	0x4c80654f	6.7316344e+07
52	0x4c454cef	5.1721148e+07
53	0x4d0e8ab1	1.4946587e+08
54	0x4ddfe17b	4.6951203e+08
55	0x4cb8a1d6	9.680043e+07
56	0x4ccdfcbf	1.07996664e+08
57	0x4d2f44ff	1.8378341e+08
58	0x4e57ecfc	9.056581e+08
59	0x4d7be869	2.6414453e+08
60	0x4b9ec7ea	2.0811732e+07
61	0x4c77adf9	6.4927716e+07
62	0x4d86fb7c	2.8307853e+08
63	0x4bbd520c	2.4814616e+07
64	0x4da8bea3	3.5388323e+08
65	0x4b74c03f	1.6039999e+07
66	0x4c2de97f	4.5590012e+07
67	0x4b17d4a7	9.950375e+06
68	0x4db394de	3.7660973e+08
69	0x4d21f230	1.6981274e+08
70	0x4c15f4e7	3.9310236e+07
71	0x4dd8ab2f	4.5438717e+08
72	0x4efc3757	2.1157426e+09
73	0x4e1557d3	6.263902e+08
74	0x4c777f84	6.4880144e+07
75	0x4dd6a07c	4.501052e+08
76	0x4c0a013a	3.617713e+07
77	0x4cacb68f	9.0551416e+07
78	0x4c6af59f	6.1593212e+07
79	0x4e0dd28f	5.9484666e+08
80	0x4c808549	6.738183e+07
81	0x4c35eba2	4.768935e+07
82	0x4c90a497	7.583455e+07
83	0x4e13e825	6.2036614e+08
84	0x4b758df0	1.6092656e+07
85	0x4ddfa35c	4.6900314e+08
86	0x4ed10dc5	1.7536703e+09
87	0x4ce1d28e	1.1839602e+08
88	0x4d249a63	1.7259883e+08
89	0x4cdf8b21	1.1720116e+08
90	0x4c304571	4.6208452e+07
91	0x4bcdea2d	2.6989658e+07
92	0x4c1702c4	3.9586576e+07
93	0x4becf954	3.1060648e+07
94	0x4d822f19	2.7301558e+08
95	0x4caee1fc	9.168893e+07
96	0x4cb9a3a0	9.732838e+07
97	0x4d4a57de	2.1217226e+08
98	0x4e9f7444	1.3375985e+09
99	0x4d0f28a3	1.5011282e+08
100	0x4da6f9f2	3.501748e+08
101	0x4d1e44b5	1.6595643e+08
102	0x4d97a7ab	3.180435e+08
103	0x4d930afe	3.083714e+08
104	0x4b3c68e6	1.2347622e+07
105	0x4d30614c	1.849479e+08
106	0x4d2ced67	1.8132747e+08
107	0x4c25dc24	4.3479184e+07
108	0x4b802744	1.679732e+07
109	0x4ddb9f14	4.6057946e+08
110	0x4c5456c9	5.5663396e+07
111	0x4eef45ea	2.0071683e+09
112	0x4d9144e8	3.0465152e+08
113	0x4b3335a5	1.1744677e+07
114	0x4d8eead7	2.997194e+08
115	0x4e391675	7.763142e+08
116	0x4d85139e	2.7908192e+08
117	0x4c6540e8	6.009744e+07
118	0x4d995b1e	3.216107e+08
119	0x4cfb880f	1.31874936e+08
120	0x4c2c83b2	4.5223624e+07
121	0x4e811603	1.0828517e+09
122	0x4c195081	4.0190468e+07
123	0x4e04f107	5.575971e+08
124	0x4ea8dcea	1.416525e+09
125	0x4cfc814c	1.3238538e+08
126	0x4cc15778	1.0136672e+08
127	0x4d178f5f	1.5892222e+08

network.4.weight f4 [64, 128]
0	0x3c945e6b	0.018111428
1	0x3a9caa34	0.001195258
2	0x3e44aa6a	0.19205633
3	0xbde27033	-0.110565566
4	0x3d9fcd44	0.07802823
5	0xbd26c505	-0.040715236
6	0xbd0a1833	-0.033714484
7	0x3cc2beba	0.023772586
8	0x3c7a2e64	0.015269849
9	0xbd87078e	-0.06593238
10	0x3da713a5	0.08158044
11	0xbe25100b	-0.16119401
12	0x3d2569a1	0.04038394
13	0xbe3f021f	-0.18653153
14	0xbd0b8049	-0.03405789
15	0xbd6e4da3	-0.05817951
16	0xbde90a09	-0.11378867
17	0xbdfeadaf	-0.12435471
18	0xbe213ba9	-0.15745415
19	0x3d8c8b6c	0.0686253
20	0x3de67fbd	0.11254833
21	0x3e15818f	0.14600204
22	0xbe10eb45	-0.14152248
23	0xbe1ec55b	-0.15504973
24	0xbcd85e11	-0.026412042
25	0x3cbe6921	0.023243489
26	0x3d8a4353	0.06751122
27	0xbdd5e9db	-0.10444995
28	0xbd82d565	-0.06388358
29	0x3db0ceb0	0.086331725
30	0xbdb37c29	-0.08763916
31	0x3e77f7f7	0.24215685
32	0x3dc49351	0.09598411
33	0xbd3e368f	-0.04643875
34	0xbd4fee7c	-0.050764546
35	0x3dced22f	0.10098683
36	0xbc969606	-0.018382084
37	0x3d59484e	0.05304747
38	0xbeb46275	-0.35231367
39	0x3d37f4a5	0.044911046
40	0x3dc90e21	0.09817148
41	0xbe9de797	-0.30840752
42	0x3cbbc983	0.022923237
43	0xbdfe1359	-0.12406034
44	0x3cbdb23b	0.023156276
45	0x3d2fcf74	0.042922452
46	0xbdcf7bb1	-0.10131014
47	0xbd0ea07c	-0.03482102
48	0xbe5312d3	-0.2061265
49	0xbe4b3c5e	-0.19847247
50	0x3ca49135	0.020088771
51	0xbe37b56c	-0.179403
52	0xbe07881f	-0.1323552
53	0x3d867184	0.0656462
54	0xbe94b222	-0.29042155
55	0xbd8d91e3	-0.06912591
56	0x3d0459c0	0.032312155
57	0xbd86c58e	-0.06580649
58	0xbdf895f0	-0.12137973
59	0xbd91c9fc	-0.071186036
60	0x3d90e15b	0.07074233
61	0xbab7679e	-0.0013992672
62	0xbdab33d7	-0.08359497
63	0x3e0d5343	0.13801293
64	0xbd8e168a	-0.06937893
65	0xbf3a31b9	-0.7273212
66	0x3e091ce8	0.13389933
67	0x3cb9994a	0.022656102
68	0xbc1433aa	-0.009045521
69	0xbd8a69f4	-0.0675849
70	0xbe622971	-0.22086121
71	0xbdc148e1	-0.09437729
72	0xbd56d06f	-0.05244487
73	0xbda5d7f6	-0.08097832
74	0xbe388d31	-0.1802261
75	0x3d7a3103	0.061081897
76	0xbd0be6a0	-0.034155488
77	0xbe43047e	-0.19044682
78	0x3e5498a0	0.20761347
79	0xbe092f25	-0.1339689
80	0x3b80da95	0.003932307
81	0x3b704423	0.0036661706
82	0xbd3fc51b	-0.046818834
83	0x3b3b2251	0.002855439
84	0xbe5b83fd	-0.21437068
85	0x3c633f8c	0.013870131
86	0xbd1d5d4b	-0.03841905
87	0xbd71bdb5	-0.05901881
88	0xbde56744	-0.11201337
89	0xbb6f07c2	-0.003647313
90	0x3dfb5508	0.12272078
91	0x3db5271d	0.08845351
92	0xbccb7ca1	-0.024839701
93	0x3e302039	0.17199792
94	0xbe651dbe	-0.22374627
95	0x3e1e9452	0.15486267
96	0x3e15be0c	0.14623278
97	0xbd5b842e	-0.053592853
98	0xbd411c64	-0.047146216
99	0x3d30ba97	0.043146696
100	0xbd1417d4	-0.036155537
101	0x3dc27861	0.09495617
102	0xbe023f65	-0.12719496
103	0x3c9c0eab	0.019049963
104	0x3dbdef66	0.09274177
105	0x3ba33600	0.0049808025
106	0x3e088bd7	0.13334595
107	0x3d9d31e7	0.07675534
108	0xbf358f3f	-0.709217
109	0x3e042f67	0.12908708
110	0x3d9e1c96	0.07720296
111	0xbd4d68d1	-0.05014879
112	0xbcdd3cd8	-0.027006552
113	0x3c4593d4	0.012059171
114	0xbcec0f82	-0.028815988
115	0xbc933752	-0.017970715
116	0x3d8b6d41	0.06807948
117	0x3e52ddda	0.20592442
118	0xbddebfbc	-0.10876414
119	0x3ca64b45	0.020299563
120	0xbc7d2ea7	-0.015453017
121	0xbe376b1d	-0.17911954
122	0x3c8b8924	0.017033167
123	0x3ca0689c	0.019581132
124	0xbc3540b5	-0.011062791
125	0xbd11def4	-0.035613015
126	0x3c28edb9	0.010310584
127	0x3d801882	0.062546745
128	0x3adf1564	0.0017019925
129	0xbe8379bf	-0.25678822
130	0xbd2e5472	-0.042561002
131	0xbe214e50	-0.1575253
132	0xbd14c7b4	-0.036323264
133	0xbe6632f7	-0.22480379
134	0xbd88448f	-0.066537015
135	0x3c88d617	0.016703648
136	0xbe59d8be	-0.21274087
137	0xbd82c550	-0.063852906
138	0x3da46450	0.080269456
139	0xbd509647	-0.050924566
140	0xbadb7391	-0.0016742815
141	0xbb86c125	-0.00411238
142	0xbdd6be3b	-0.10485502
143	0xbdf5cb94	-0.1200172
144	0xbd978a10	-0.0739938
145	0xbeab9e81	-0.33519366
146	0xbc63bcdd	-0.013900009
147	0xbda1fac0	-0.07909155
148	0x3dede9b1	0.11616839
149	0x3dd9f9ac	0.10643324
150	0xbe53d67f	-0.20687293
151	0xbe8a1a18	-0.26973033
152	0x3cbb320f	0.022851018
153	0xbc6fe0bf	-0.014640986
154	0x3dab9cdc	0.08379528
155	0xbe1b664c	-0.15175742
156	0xbd22bae3	-0.03972901
157	0x3db5a45e	0.08869241
158	0xbe5b0add	-0.21390863
159	0x3dbe0c4d	0.0927969
160	0xbd5011d2	-0.050798245
161	0xbd4c2b1a	-0.049845792
162	0xbad24640	-0.0016042665
163	0x3da1a84a	0.07893427
164	0xbe9921b3	-0.29908523
165	0xbd210918	-0.039315313
166	0xbe2ba93c	-0.16763777
167	0xbd175ad3	-0.03695185
168	0xbd05b429	-0.032642517
169	0xbe83a508	-0.25711846
170	0x3dfea9f7	0.12434762
171	0xbe0f8fad	-0.14019652
172	0x3d58da45	0.052942533
173	0xbd3b8126	-0.045777462
174	0xbe05015e	-0.12988803
175	0xbdba108d	-0.09085188
176	0xbb072885	-0.0020623517
177	0xbd17bc55	-0.03704484
178	0xbdbe0764	-0.092787534
179	0xbd168d4d	-0.03675585
180	0xbd13e02d	-0.036102463
181	0x3c939537	0.018015487
182	0xbe6641ad	-0.22485991
183	0xbe2ac682	-0.16677287
184	0xbcda58a8	-0.026653603
185	0x3d0c6477	0.0342755
186	0xbdfdf29d	-0.123997904
187	0xbc8bcb72	-0.017064784
188	0x3d275aae	0.040857963
189	0xbe1ef5e5	-0.15523489
190	0xbe229ae4	-0.15879399
191	0xbde0e997	-0.10982054
192	0xbdb11340	-0.0864625
193	0xbe859975	-0.2609364
194	0xbe43cf41	-0.1912203
195	0xbe17ad76	-0.14812264
196	0x3dbe09ba	0.09279199
197	0x3c3e1e4a	0.011603901
198	0xbe00a3f7	-0.12562548
199	0xbdf3fb98	-0.11913222
200	0xbe384d3b	-0.17998211
201	0xbd7d5d33	-0.06185646
202	0xbbfae95b	-0.0076572127
203	0xbe3c4f0a	-0.18389526
204	0x3dd963d1	0.106147416
205	0xbdd98463	-0.10620954
206	0x3b916751	0.004437365
207	0xbe404fdd	-0.18780465
208	0xbd80093f	-0.062517636
209	0x3d2d4f6e	0.04231208
210	0xbeab5b2f	-0.33468005
211	0xbe582793	-0.21108846
212	0xbe1c837b	-0.15284531
213	0xbdd47de2	-0.10375573
214	0xbe3e8d3d	-0.18608566
215	0xbe735dc2	-0.23766235
216	0xbc12e110	-0.008964792
217	0x3d9d664b	0.076855265
218	0x3cccf737	0.025020225
219	0xbe77d360	-0.24201727
220	0xbeab8206	-0.33497638
221	0x3e2153ea	0.15754667
222	0x3dca97d3	0.098922394
223	0xbd862165	-0.06549338
224	0xbe64bccf	-0.2233765
225	0xbd5edc78	-0.054409474
226	0xbdf4f737	-0.11961215
227	0xbdf8c859	-0.12147588
228	0x3c9efb07	0.019406809
229	0x3b56044b	0.0032656367
230	0xbe53650c	-0.20644015
231	0xbd9eb30c	-0.07748994
232	0x3c31a424	0.010842357
233	0xbe0b97c1	-0.13632108
234	0xbdb83147	-0.08993774
235	0xbd6be6f0	-0.057593286
236	0xbec6bb0a	-0.38814574
237	0x3e01f79d	0.12692113
238	0xbe2bfe2a	-0.16796175
239	0xbd257266	-0.040392302
240	0xbdd004a7	-0.10157137
241	0x3cf37f63	0.029723829
242	0xbd37c956	-0.044869743
243	0xbe3388f7	-0.17532717
244	0xbdabd9b3	-0.08391132
245	0xbdce9cb0	-0.100884795
246	0x3c9af2f2	0.018914673
247	0xbd6b30f0	-0.057419717
248	0xbdd64e50	-0.10464156
249	0xbe078b00	-0.13236618
250	0xbe3950ee	-0.18097278
251	0xbe1efb18	-0.15525472
252	0xbe2ad54d	-0.1668293
253	0xbc86edc3	-0.016470795
254	0x3d202b30	0.039103687
255	0xbdbf0445	-0.09326986

network.4.bias f4 [64]
0	0xbde41751	-0.1113726
1	0xbdb67755	-0.089094795
2	0x3d2f61d9	0.042817924
3	0xbbc6c125	-0.006065505
4	0xbc443170	-0.011974677
5	0xbd868e2e	-0.065700874
6	0xbdd455bd	-0.10367916
7	0xbd2286a2	-0.039679177
8	0xbc00b120	-0.00785473
9	0xbd75a59b	-0.059972387
10	0x3d98c626	0.07459669
11	0xbdfa0ba5	-0.12209252
12	0x3df4dc95	0.11956135
13	0xbc688e37	-0.014194063
14	0xbe30f766	-0.17281875
15	0x3d6cd619	0.057821367
16	0xbbcd0c3f	-0.0062575634
17	0x3ca29d6e	0.019850459
18	0x3dbdb8cd	0.092637636
19	0x3e50ef38	0.20403755
20	0x3e39587d	0.18100162
21	0xbd517f42	-0.051146753
22	0x3ca4942e	0.020090189
23	0x3e409604	0.18807226
24	0xbdd0171c	-0.10160658
25	0xbd9582e0	-0.07300353
26	0xbd7565b1	-0.059911434
27	0x3db0f07c	0.08639619
28	0xbc107c46	-0.008818692
29	0x3e8c06ce	0.27348942
30	0x3dcb9d1d	0.09942076
31	0x3dd40711	0.1035291
32	0xbd2d80d9	-0.042359207
33	0x3cdbdd93	0.026839053
34	0xbe37d0d1	-0.17950751
35	0x3a80be88	0.0009822408
36	0x3da852e7	0.08218937
37	0x3dc2a084	0.09503272
38	0xbd0753a6	-0.033038758
39	0x3e6424ad	0.22279616
40	0x3e4fab3d	0.20280166
41	0x3ca27897	0.019832892
42	0x3d94c547	0.0726419
43	0xbc4399c4	-0.011938516
44	0x3e8a30cf	0.26990363
45	0xbdbccfc7	-0.09219318
46	0x3d949cf6	0.072565004
47	0xbc193d75	-0.009353031
48	0x3dec0358	0.11524075
49	0xbe73cbd7	-0.23808227
50	0x3e22de00	0.15904999
51	0xbd3318bc	-0.04372476
52	0xbddc546b	-0.10758289
53	0xbe0cce64	-0.13750607
54	0xbe2df349	-0.16987337
55	0x3d189fc6	0.037261747
56	0x3d7478f5	0.059685666
57	0x3cc16aa1	0.023610415
58	0x3e3f7252	0.18695953
59	0x3ddf34e9	0.10898764
60	0x3dd429c7	0.10359531
61	0xbd964bbf	-0.07338666
62	0xb608399d	-2.0299115e-06
63	0x3e09e181	0.13464929

network.5.weight f4 [64]
0	0x3f772f04	0.96556115
1	0x3f6ea8a5	0.9322608
2	0x3f59df36	0.8510622
3	0x3f2ccb4d	0.6749771
4	0x3f41a9ee	0.7564992
5	0x3f536fbb	0.8259236
6	0x3f73d235	0.95242625
7	0x3f4cf47e	0.80060565
8	0x3f944dfc	1.1586299
9	0x3f5d3434	0.8640778
10	0x3f7ee5c7	0.9956936
11	0x3f85cbcb	1.0452818
12	0x3f4d9462	0.8030454
13	0x3f13ba67	0.577063
14	0x3f5b7f47	0.85741085
15	0x3f83edbf	1.0306929
16	0x3f6c04dd	0.9219492
17	0x3f84c2cd	1.0371948
18	0x3f51c9ed	0.8194874
19	0x3f6b46ca	0.9190489
20	0x3f871d22	1.0555766
21	0x3f92f276	1.1480243
22	0x3f761962	0.9613248
23	0x3f5ad2b6	0.8547777
24	0x3f39c2d2	0.725629
25	0x3f532dca	0.82491744
26	0x3f35cdf2	0.7101737
27	0x3f5eb76c	0.8699863
28	0x3f62dde8	0.8861985
29	0x3f48cdc1	0.78438956
30	0x3f6f3ad1	0.9344912
31	0x3f85426c	1.0410895
32	0x3f7f996f	0.99843496
33	0x3f103d03	0.56343096
34	0x3f80df33	1.0068115
35	0x3f654852	0.8956348
36	0x3f483b15	0.7821515
37	0x3f44ad53	0.7682697
38	0x3f331e22	0.69967854
39	0x3f6dd7bf	0.9290733
40	0x3f852299	1.0401183
41	0x3f923a4e	1.1424043
42	0x3f8335fb	1.0250849
43	0x3fad0f99	1.3520385
44	0x3f5643e8	0.83697367
45	0x3f845bab	1.0340475
46	0x3f7255fa	0.9466244
47	0x3f716019	0.9428726
48	0x3f6d504f	0.92700666
49	0x3f5ee72e	0.870715
50	0x3f44a857	0.76819366
51	0x3f48479c	0.7823427
52	0x3f727049	0.94702584
53	0x3f789aee	0.97111404
54	0x3f895910	1.0730305
55	0x3f87179b	1.0554079
56	0x3f831da9	1.0243427
57	0x3f3c6664	0.73593736
58	0x3f80c420	1.0059853
59	0x3f4cd25c	0.8000848
60	0x3f657be1	0.8964215
61	0x3f4322cd	0.76224977
62	0x3f8d31b6	1.1030796
63	0x3f8cad3d	1.0990368

network.5.bias f4 [64]
0	0xbe4d2923	-0.20035224
1	0xbee40b85	-0.4454004
2	0xbdbfc8f2	-0.09364499
3	0xbd8a6632	-0.067577735
4	0xbe3efe46	-0.18651685
5	0xbe1d30df	-0.15350674
6	0xbe1cafba	-0.1530141
7	0xbea18eec	-0.31554353
8	0xbf10ceed	-0.56565744
9	0xbe38fab0	-0.1806438
10	0xbf35431a	-0.70805514
11	0xbf233ec7	-0.63767666
12	0xbe531113	-0.20611982
13	0xbe3929ad	-0.18082304
14	0xbdad68aa	-0.08467229
15	0xbe60d059	-0.21954478
16	0xbded864f	-0.11597883
17	0xbea5d369	-0.32387856
18	0xbdd2e577	-0.10297673
19	0xbe544388	-0.20728886
20	0xbf38557e	-0.7200545
21	0xbefd1e23	-0.49437055
22	0xbe3af8f9	-0.18259038
23	0xbf01efd2	-0.5075656
24	0xbec0c8e6	-0.37653273
25	0xbf136e55	-0.5759023
26	0xbe1a535e	-0.15070865
27	0xbecfa647	-0.40556547
28	0xbd0cc481	-0.03436709
29	0xbdbcf001	-0.092254646
30	0xbf0528db	-0.52015465
31	0xbf082d6e	-0.5319432
32	0xbe395475	-0.18098624
33	0xbe72ff8d	-0.23730297
34	0xbf078903	-0.5294344
35	0xbe1a63e9	-0.15077175
36	0xbd8fcbea	-0.070213154
37	0xbf42542a	-0.75909674
38	0xbe9a93b6	-0.3019082
39	0xbf19bece	-0.6005677
40	0xbf31927b	-0.69364136
41	0xbf0cbcb9	-0.5497547
42	0xbf14159b	-0.5784547
43	0xbf199762	-0.59996617
44	0xbe2f8665	-0.17141111
45	0xbf1d36eb	-0.61411923
46	0xbef13fd1	-0.47119
47	0xbe939cd0	-0.28830576
48	0xbf1c6d5c	-0.6110437
49	0xbdc4f18c	-0.09616384
50	0xbddebf26	-0.108763024
51	0xbe01c99c	-0.12674564
52	0xbe87dd36	-0.26535958
53	0xbe7a7a89	-0.24460806
54	0xbf3b740a	-0.73223937
55	0xbed752d2	-0.42055374
56	0xbe69e25b	-0.22840254
57	0xbf493319	-0.78593594
58	0xbed03e94	-0.40672743
59	0xbe2085d7	-0.15676056
60	0xbeaff65a	-0.3436764
61	0xbddc74c9	-0.107644625
62	0xbf479e70	-0.7797613
63	0xbf13ebf8	-0.57781935

network.5.running_mean f4 [64]
0	0xc0301bb8	-2.7516918
1	0xc087413d	-4.2267137
2	0xbeaf0356	-0.34182233
3	0x40356af3	2.8346527
4	0x40066358	2.0998135
5	0xbfd9d631	-1.7018491
6	0xc01d87b4	-2.4614077
7	0xc074ef19	-3.8270934
8	0x3e7637cc	0.24044722
9	0xbfbbab50	-1.4661655
10	0x3e275ab8	0.163432
11	0x3e6d83b2	0.23194769
12	0xc08a757d	-4.326842
13	0x3ff83a11	1.939272
14	0x3dbcb26a	0.09213717
15	0xbfc329ef	-1.5247172
16	0xbfc8dd69	-1.5692569
17	0xbfd6d7b3	-1.6784576
18	0xc0232430	-2.5490837
19	0xbfe3e8c9	-1.7805415
20	0x3ee155c0	0.44010735
21	0xbfa290d1	-1.2700444
22	0xbfea0683	-1.8283237
23	0x3f664fdb	0.899656
24	0x3fb106fc	1.3830256
25	0xbd9581e7	-0.073001675
26	0x402f09ae	2.7349658
27	0x3f72b50d	0.9480751
28	0xbd557668	-0.052114874
29	0xc06cb02c	-3.6982527
30	0xbf84328c	-1.0327926
31	0x3f229ee0	0.63523674
32	0xc0027fcf	-2.0390508
33	0x3fc9b121	1.575718
34	0xbfe58bfa	-1.7933342
35	0xc039b532	-2.9016843
36	0xbf814f16	-1.010226
37	0x3f4c221a	0.79739535
38	0x3fc857fa	1.5651848
39	0x3e9a8eea	0.3018716
40	0x3e4fea45	0.2030421
41	0xbf9703ec	-1.1798072
42	0x3e8608b6	0.2617852
43	0xbe78d14c	-0.2429859
44	0xbf4f624a	-0.8100935
45	0x3e6a0bc8	0.22856057
46	0xc00bfef2	-2.1874356
47	0xc02e18f7	-2.7202737
48	0x3dc10b74	0.09426013
49	0xbfa784b2	-1.308737
50	0xc0318e54	-2.774312
51	0xc05be599	-3.4358885
52	0xc0a3ba5e	-5.1165
53	0xc0971794	-4.721628
54	0xbe58495b	-0.21121733
55	0xbfd7c561	-1.685711
56	0xbfb3be0b	-1.4042372
57	0x3f4e12ce	0.80497444
58	0xbe73ae54	-0.2379697
59	0xc06ede55	-3.73232
60	0xbed43ef5	-0.41454282
61	0x4007b8c2	2.1206517
62	0x3e438083	0.19091992
63	0xbf4961c3	-0.786648

network.5.running_var f4 [64]
0	0x40ad80d6	5.421977
1	0x410463f2	8.274401
2	0x402a0975	2.6568272
3	0x409d9ef4	4.9256535
4	0x40335c11	2.8024943
5	0x4070dc57	3.7634485
6	0x404ea817	3.2290094
7	0x411a042c	9.626019
8	0x3f645c76	0.89203584
9	0x4083fd83	4.1246963
10	0x3f5e65f9	0.8687435
11	0x3f539dd9	0.8266273
12	0x413c451b	11.766871
13	0x401c6512	2.4436688
14	0x3fa5180b	1.2897962
15	0x3ff5a85c	1.9192004
16	0x4078513a	3.8799577
17	0x3fe770ea	1.8081334
18	0x407d7a66	3.9605956
19	0x4020e0e1	2.5137255
20	0x3f50b882	0.81531537
21	0x3f824e33	1.0180115
22	0x406d9593	3.7122543
23	0x3f944dd1	1.1586248
24	0x3fa80962	1.3127863
25	0x3f45f602	0.77328503
26	0x40657629	3.585337
27	0x3f771490	0.9651575
28	0x40066888	2.10013
29	0x411dd99b	9.865626
30	0x3f7730f3	0.96559066
31	0x3f791a3d	0.9730566
32	0x40a2e1bd	5.090056
33	0x40b47da2	5.640336
34	0x3f8f929e	1.1216619
35	0x409729f6	4.723872
36	0x40542028	3.3144627
37	0x3fd7bbcd	1.6854187
38	0x40081292	2.1261334
39	0x3f64b444	0.89337564
40	0x3f52c94a	0.8233839
41	0x3fc87cbe	1.5663068
42	0x3f487287	0.78299755
43	0x3f5b96de	0.8577708
44	0x403b1f00	2.923767
45	0x3f5d8e7b	0.8654553
46	0x4007f089	2.124056
47	0x407b0a9e	3.922523
48	0x3f442254	0.7661488
49	0x406b3b65	3.6755002
50	0x40b02500	5.5045166
51	0x411bddac	9.741619
52	0x41632764	14.197117
53	0x414ecb25	12.924596
54	0x3f615937	0.88026756
55	0x3fc3c895	1.5295588
56	0x3fbb374d	1.4626251
57	0x3fa98492	1.3243582
58	0x3f3b3f4d	0.73143464
59	0x411ca2fc	9.789791
60	0x3f3936f1	0.7234946
61	0x40e4c2bc	7.1487713
62	0x3f65da01	0.8978577
63	0x3f46b6ed	0.7762287

network.8.weight f4 [32, 64]
0	0x3d68c925	0.05683245
1	0xbdedee7d	-0.11617754
2	0x3e145747	0.14486419
3	0x3d8a266d	0.067456104
4	0x3c5b5607	0.01338721
5	0x3deab57e	0.11460398
6	0xbcbb42d5	-0.022859016
7	0xbde420e3	-0.11139085
8	0xbe6bfae9	-0.23044933
9	0x3dadb650	0.08482039
10	0xbf103bbe	-0.5634116
11	0xbf13e36c	-0.57768893
12	0x3a93670b	0.0011245919
13	0xbd411406	-0.047138236
14	0x3e47b866	0.19503936
15	0xbe37a76d	-0.17934962
16	0x3e29cfd2	0.16583183
17	0xbd82364f	-0.06358015
18	0x3d4b07e0	0.049568057
19	0xbe23104f	-0.1592419
20	0xbee99b9a	-0.45626527
21	0xbd84149e	-0.06449245
22	0x3df433d1	0.11923946
23	0x3e1778c7	0.14792167
24	0xbeae573f	-0.34050938
25	0xbe9b76a8	-0.30363965
26	0x3d1b24b1	0.03787679
27	0xbe412c97	-0.18864666
28	0x3e024c13	0.12724333
29	0x3b098852	0.0020985794
30	0x3d30df71	0.04318184
31	0xbe90e0fd	-0.28296652
32	0x3cfb0305	0.030641088
33	0x3da75a39	0.081715055
34	0xbda28f3a	-0.079374745
35	0x3ddc5002	0.10757448
36	0x3e0bffed	0.13671847
37	0x3e1ed9d3	0.15512781
38	0xbdd798e5	-0.10527209
39	0xbee8897d	-0.45417395
40	0xbec50260	-0.38478374
41	0xbd654c7e	-0.05598115
42	0xbeac5e3e	-0.3366565
43	0xbe7438ca	-0.23849788
44	0x3d193368	0.03740254
45	0xbf0260d1	-0.5092898
46	0xbe32f1d1	-0.17475058
47	0x3d5346e4	0.05158128
48	0xbea6cc3c	-0.32577693
49	0x3db90051	0.090332635
50	0x3dc7aa48	0.097492754
51	0x3bf30e00	0.0074174404
52	0x3d0b0377	0.03393885
53	0xbc097647	-0.008390016
54	0xbef8b190	-0.4857297
55	0xbdbc63b3	-0.091987036
56	0xbd7ff874	-0.062492803
57	0x3e1fb1e3	0.15595202
58	0x3c5518ce	0.013006402
59	0x3d2167a5	0.039405484
60	0xbe1aefae	-0.15130493
61	0xbd6bb773	-0.057547998
62	0xbee5e1d1	-0.44898847
63	0xbdcf9ad9	-0.10136957
64	0x3ceea774	0.029132582
65	0xbd4b7487	-0.049671676
66	0x3de8bd6e	0.11364256
67	0x3d9d561e	0.07682441
68	0xbd0b1961	-0.03395975
69	0x3e1b5781	0.15170099
70	0x3d27c1c8	0.04095629
71	0xbe10c1f4	-0.14136487
72	0xbe69f863	-0.22848658
73	0x3dafc5db	0.0858266
74	0xbed771ad	-0.42078915
75	0xbec39d4f	-0.38205954
76	0xbd5a4ea9	-0.053297672
77	0xbe4d110e	-0.20026037
78	0x3e42f61d	0.19039197
79	0xbe908747	-0.28228208
80	0x3e291817	0.16513096
81	0xbdab7a11	-0.08372892
82	0x3b76ffab	0.003768901
83	0xbe2d8e25	-0.16948755
84	0xbecc6804	-0.39923108
85	0xbd80f02e	-0.06295811
86	0x3e2a4de9	0.16631283
87	0x3e35cc5a	0.17753735
88	0xbe0d195e	-0.13779208
89	0xbe929794	-0.2863127
90	0xbc71b500	-0.014752626
91	0xbc87f82a	-0.016597826
92	0x3e426a9e	0.18985984
93	0x3cdb975e	0.026805576
94	0xbd4c97e2	-0.049949534
95	0xbeb41c9f	-0.35178086
96	0x3e1d5eeb	0.1536824
97	0xbc94ad92	-0.018149171
98	0x3d419eb9	0.04727051
99	0x3dc5acba	0.096520856
100	0x3dbb62c5	0.09149698
101	0x3e4a19b0	0.19736362
102	0xbd8f92cd	-0.07010422
103	0xbecb77be	-0.39739794
104	0xbf082be0	-0.5319195
105	0xbd9737ac	-0.073836654
106	0xbec1ea4d	-0.3787407
107	0xbeae92d1	-0.34096387
108	0x3e1c5f97	0.1527084
109	0xbf02f7ae	-0.5115918
110	0xbe126ad8	-0.1429857
111	0x3c899961	0.01679677
112	0xbec9a5e4	-0.39384377
113	0x3dc06881	0.093949325
114	0x3dbf08b3	0.09327831
115	0xbc9d910a	-0.0192342
116	0x3c2fa369	0.010720112
117	0xbc518f81	-0.012790562
118	0xbf1a212f	-0.60206884
119	0xbe1426a8	-0.14467871
120	0xbde6e46a	-0.11274035
121	0x3e594a3c	0.21219724
122	0xbc6bc095	-0.014389177
123	0xbd9e9b8f	-0.07744514
124	0x3d2ab64b	0.041677754
125	0x3dc02439	0.09381909
126	0xbf00188a	-0.50037444
127	0xbdb98b6e	-0.09059797
128	0x3e2fb277	0.17157923
129	0x3cdb548f	0.02677372
130	0x3dfe7043	0.12423756
131	0x3d1bd4ec	0.038044855
132	0xbb248f92	-0.0025109989
133	0x3e06c913	0.13162641
134	0x3d9d5014	0.07681289
135	0xbd511723	-0.051047456
136	0xbe8f705d	-0.28015414
137	0x3db0cea4	0.086331636
138	0xbf19e6df	-0.60117906
139	0xbe8caf4e	-0.27477497
140	0xbd993f9c	-0.07482836
141	0xbe166fc5	-0.14691074
142	0x3e5ee696	0.21767649
143	0xbe460620	-0.19338274
144	0x3d750f4e	0.05982905
145	0xbd861a60	-0.065479994
146	0x3cb43fd1	0.022003086
147	0xbe41dbdb	-0.18931524
148	0xbeb2c3a6	-0.34914893
149	0xbd7b9398	-0.061420053
150	0x3d91963a	0.071087316
151	0x3e7115a2	0.23543409
152	0xbe8e19df	-0.27754113
153	0xbecea1ef	-0.4035792
154	0x3d8fc83c	0.070206136
155	0xbe9275ae	-0.28605407
156	0x3e4a366a	0.1974732
157	0x3d628f25	0.055312295
158	0xbb868f6c	-0.0041064527
159	0xbdf0d3d9	-0.11759157
160	0x3e34a25b	0.17640059
161	0xbdf74821	-0.12074304
162	0xbd7b9c08	-0.0614281
163	0x3da4a4cd	0.08039246
164	0x3d32a2f4	0.043612435
165	0x3d837aed	0.064199306
166	0xbe4a12ac	-0.19733685
167	0xbea7bd5c	-0.32761657
168	0xbec61728	-0.38689542
169	0xbda13443	-0.07871296
170	0xbec7b9dc	-0.39008987
171	0xbe3c1706	-0.18368158
172	0x3d34bf60	0.044127822
173	0xbea92820	-0.33038425
174	0xbe18410b	-0.14868562
175	0x3d81916e	0.06326567
176	0xbec0641b	-0.37576374
177	0x3db98355	0.09058253
178	0x3db615a3	0.088908456
179	0x3c0702a4	0.008240376
180	0x3d92bf3e	0.07165383
181	0xbd1ef23b	-0.038805228
182	0xbf03f31e	-0.5154284
183	0xbe7183d6	-0.23585448
184	0xbd9cc564	-0.07654837
185	0x3e345b27	0.17612897
186	0xbd875317	-0.06607645
187	0xbc0e7c12	-0.008696573
188	0xbc2e28b6	-0.010629823
189	0x3e2696c1	0.16268446
190	0xbf1ba7ea	-0.6080309
191	0x3c988513	0.018618142
192	0xbe75509a	-0.23956528
193	0xbe929a13	-0.28633174
194	0xbe095d74	-0.13414556
195	0x3df47a7e	0.11937426
196	0x3e4641fa	0.19361106
197	0xbe6e4d2a	-0.23271623
198	0xbe61296b	-0.21988456
199	0xbe59053e	-0.21193406
200	0x3d5d37bf	0.05400824
201	0xbe45c2ca	-0.19312587
202	0x3babf464	0.0052476395
203	0x3db4d1cb	0.08829077
204	0xbe6c6e35	-0.23088916
205	0x3dde2f8d	0.10848913
206	0xbda870ee	-0.08224665
207	0x3e22c771	0.15896393
208	0xbe4fda31	-0.20298077
209	0x3ea571d2	0.323134
210	0xbe56e396	-0.20985255
211	0x3da25605	0.07926563
212	0x3dbbbb4d	0.09166584
213	0x3e8ef122	0.27918345
214	0xbe93cb61	-0.28866103
215	0xbccac9e1	-0.024754466
216	0x3e255037	0.16143881
217	0xbc6b2148	-0.014351197
218	0x3e06c15f	0.13159703
219	0x3d2e7ce3	0.04259957
220	0xbdcdc38b	-0.100470625
221	0xbe6006ab	-0.21877544
222	0x3e6d7a74	0.23191243
223	0x3db2dd4f	0.087336175
224	0xbe72b0f7	-0.23700319
225	0x3dc7b095	0.09750477
226	0x3e7db1b2	0.24774817
227	0xbe8cb697	-0.27483055
228	0xbe21d8e8	-0.158054
229	0x3e57a805	0.21060188
230	0x3d663304	0.056200996
231	0x3d52710e	0.05137735
232	0x3d7d1136	0.06178399
233	0x3ee2030a	0.44142944
234	0x3d617a24	0.055048123
235	0x3cab82be	0.020936366
236	0xbe65cb15	-0.22440751
237	0x3d9f2d3b	0.07772299
238	0x3e93b749	0.28850773
239	0xbea4a93d	-0.3216037
240	0x3d04299c	0.032266244
241	0xbe3ab7b0	-0.18234134
242	0xbea04485	-0.31302276
243	0xbe59e83f	-0.21280001
244	0xbe614f35	-0.22002871
245	0xbe8ba9b0	-0.272779
246	0xbcb0e468	-0.021593288
247	0x3e8f487f	0.27984998
248	0x3e82333b	0.2542971
249	0x3e28e297	0.16492687
250	0x3e5dbedc	0.21654838
251	0xbe324191	-0.17407824
252	0x3e5eba1f	0.21750687
253	0x3dc67666	0.096905515
254	0x3d7980e2	0.060913928
255	0x3ea14e3b	0.31504998

network.8.bias f4 [32]
0	0xbf1b5608	-0.6067815
1	0xbf56f064	-0.83960557
2	0xbedd29c2	-0.4319592
3	0xbf2e8b44	-0.6818125
4	0xbf68b9a8	-0.9090829
5	0xbf3c8d0c	-0.7365272
6	0xbf0b7da1	-0.5448857
7	0xbf03d808	-0.5150151
8	0xbf192286	-0.59818304
9	0xbf50eeff	-0.8161468
10	0xbf998ae2	-1.1995509
11	0xbf1f5764	-0.6224272
12	0xbf57771f	-0.8416614
13	0xbec190ea	-0.37805873
14	0xbeba72ca	-0.36415702
15	0xbf5d60ac	-0.86475635
16	0xbf5b6e50	-0.857152
17	0xbec72006	-0.3889162
18	0xbf281103	-0.6565096
19	0xbf41f06a	-0.7575747
20	0xbf686bf3	-0.9078972
21	0xbf5ac6ad	-0.85459405
22	0xbf40b4de	-0.7527598
23	0xbe65b394	-0.22431785
24	0xbf62040b	-0.8828742
25	0xbf53e414	-0.82769895
26	0xbefa943f	-0.48941228
27	0xbf3549fe	-0.7081603
28	0xbf240383	-0.6406786
29	0xbede5161	-0.43421462
30	0xbef04d98	-0.469342
31	0xbeabdd6e	-0.33567375

network.9.weight f4 [32]
0	0x40ecfe04	7.406008
1	0x40f31ee5	7.5975213
2	0x40efe3d2	7.49656
3	0x40f24a04	7.571535
4	0x40f0fe4f	7.5310435
5	0x40ec87c1	7.3915715
6	0x40fb1bd0	7.847145
7	0x40eef99b	7.4679694
8	0x40fbc399	7.8676267
9	0x40fca0be	7.894622
10	0x40f90601	7.781983
11	0x40fbb3fe	7.8657217
12	0x40f5793d	7.6710496
13	0x40fc7f2a	7.890523
14	0x40f640f7	7.6954303
15	0x40f7cc04	7.7436543
16	0x40f48235	7.6408944
17	0x40f702d7	7.7190967
18	0x40f9036a	7.7816668
19	0x40ef4138	7.4767113
20	0x40f8c8e4	7.774523
21	0x40f5e5f6	7.6843214
22	0x40eeaa1f	7.4582667
23	0x40f6fd7e	7.718444
24	0x40fd94ca	7.9244127
25	0x40f2de22	7.589616
26	0x40f8deab	7.777181
27	0x40f47ac5	7.6399865
28	0x40f5880f	7.6728587
29	0x40f92ce8	7.7867317
30	0x40fce0d7	7.9024463
31	0x40f3b5e0	7.6159515

network.9.bias f4 [32]
0	0x40e1a04b	7.050817
1	0x40e792ae	7.236655
2	0x40e51786	7.1591215
3	0x40decc52	6.9624414
4	0x40e1e23b	7.058866
5	0x40dc1070	6.8770065
6	0x40e64a50	7.1965714
7	0x40dff943	6.9991775
8	0x40e7ae30	7.240013
9	0x40e57d9f	7.1715846
10	0x40e89249	7.267857
11	0x40e74e42	7.228303
12	0x40e899be	7.2687674
13	0x40e80a69	7.251271
14	0x40e2f813	7.0927825
15	0x40e9a709	7.30164
16	0x40dfe44e	6.996619
17	0x40ea42d3	7.3206573
18	0x40e3e6cc	7.1219234
19	0x40e233af	7.068809
20	0x40ea8946	7.329257
21	0x40e95e40	7.292755
22	0x40e108da	7.0323305
23	0x40e2e88c	7.090887
24	0x40e81000	7.251953
25	0x40e3c910	7.118294
26	0x40e3d03c	7.119169
27	0x40e59679	7.1746182
28	0x40ea1195	7.3146462
29	0x40e3c947	7.11832
30	0x40e8ad9e	7.2711935
31	0x40e7c049	7.2422223

network.9.running_mean f4 [32]
0	0xbfb0a243	-1.3799518
1	0xbfca5112	-1.5805991
2	0xbf894be6	-1.0726287
3	0xbf9f1672	-1.2428725
4	0xbfcbcf83	-1.5922703
5	0xbfc20cb2	-1.5160124
6	0xbf99fd56	-1.2030437
7	0xbf9833d7	-1.189082
8	0xbf8e3bbf	-1.1111983
9	0xc005d890	-2.091343
10	0xbff62a25	-1.9231611
11	0xbf8173d0	-1.0113468
12	0xbfe352bf	-1.7759627
13	0xbf60d6bc	-0.8782766
14	0xbf593f74	-0.84862447
15	0xbfbf7651	-1.4957982
16	0xbfbab55a	-1.4586594
17	0xbf865fb8	-1.0497961
18	0xbfa8635e	-1.3155324
19	0xbfb5b02c	-1.4194388
20	0xbfd06ff0	-1.6284161
21	0xbfd6e205	-1.6787726
22	0xbfc169f8	-1.5110464
23	0xbf5add0b	-0.85493535
24	0xbfc5f71e	-1.5466039
25	0xbfcdfe17	-1.6093167
26	0xbf8147d3	-1.0100044
27	0xbfc2a21e	-1.5205724
28	0xbfbb4c78	-1.4632711
29	0xbf82acdc	-1.0209002
30	0xbf8e92c7	-1.1138543
31	0xbf8ac51f	-1.0841407

network.9.running_var f4 [32]
0	0x40edcdd9	7.431378
1	0x40f4f059	7.6543393
2	0x40ea0d48	7.3141212
3	0x40a06911	5.0128255
4	0x40eab635	7.334742
5	0x40bf0133	5.9688964
6	0x40b4f95b	5.655439
7	0x40da32b5	6.81869
8	0x40a7492c	5.227682
9	0x408171aa	4.045125
10	0x4093b2fd	4.615599
11	0x40810995	4.0324197
12	0x410dbb85	8.858281
13	0x408b911e	4.3614645
14	0x4080d855	4.0264077
15	0x40a44da2	5.1344767
16	0x408fbd75	4.491877
17	0x40fbe0b5	7.87118
18	0x40a7d75c	5.245039
19	0x40c7fa4a	6.249303
20	0x4099fe06	4.8122587
21	0x40eac744	7.3368244
22	0x40e0b852	7.0225
23	0x409a2342	4.816804
24	0x40a6d920	5.2140045
25	0x4105dc17	8.366233
26	0x40800d5a	4.00163
27	0x40bd638c	5.9184017
28	0x40f32787	7.598575
29	0x409ff773	4.998956
30	0x40985864	4.76079
31	0x40e94c3e	7.290557
