soil_salinity_multi_sensor/outputs/models/stage1/stage1_epoch_50.pth (torch, 72297 bytes, 20 tensors)

network.0.weight f4 [128, 36]
0	0xbf2cd6db	-0.67515343
1	0xbee01e98	-0.4377334
2	0xbf6b87e7	-0.92004246
3	0xbf22a050	-0.6352587
4	0xbd8da25b	-0.069157325
5	0x3d2a26ed	0.04154103
6	0x3dffadb2	0.124843016
7	0x3d87d144	0.06631711
8	0x3e2359a0	0.15952158
9	0x3cdddd36	0.02708302
10	0xbe820074	-0.2539097
11	0xbe0a23fa	-0.13490286
12	0x3e058862	0.13040307
13	0x3dcf7168	0.101290524
14	0x3d39d70a	0.045371093
15	0xbd227ce4	-0.039669886
16	0xbed52b9f	-0.41634843
17	0xbf6ada3f	-0.9173927
18	0xbf0cf04a	-0.5505415
19	0xbf647c44	-0.89252114
20	0x3d974c11	0.073875554
21	0xbc28d4dc	-0.010304656
22	0x3cfa368b	0.030543586
23	0x3da83fa0	0.082152605
24	0xbe93c2fb	-0.28859696
25	0xbe325640	-0.17415714
26	0x3e11f70b	0.14254396
27	0x3c771f2a	0.015083114
28	0xbdd57801	-0.104232796
29	0xbe5ca121	-0.21545841
30	0x3d9324c4	0.07184747
31	0xbdf31403	-0.11869051
32	0x3d3da453	0.04629929
33	0x3d656083	0.056000244
34	0x3dbc2a79	0.091877885
35	0x3e34e4b7	0.17665373
36	0xbd8029ec	-0.06257996
37	0xbd845a0f	-0.0646249
38	0x3da73448	0.08164269
39	0xbd0bb4b8	-0.034107894
40	0xbdb5110a	-0.088411406
41	0xbde58b8c	-0.11208257
42	0x3d6c2125	0.057648797
43	0xbdd40c8c	-0.103539556
44	0xbcd90b5c	-0.026494674
45	0xbd8df59b	-0.06931611
46	0xbe0a1c6f	-0.13487409
47	0x3d631ad4	0.055445507
48	0xbdb177fe	-0.08665465
49	0x3cf172d4	0.0294737
50	0xbe14bc9d	-0.14525075
51	0x3d06886f	0.032844957
52	0xbd372b8f	-0.044719275
53	0xbdb757ac	-0.08952269
54	0x3e6f4bc4	0.23368746
55	0x3e5b6fdd	0.21429391
56	0x3e341140	0.17584705
57	0x3d9e3c5e	0.07726358
58	0x3daf4e3f	0.08559846
59	0x3e3d711a	0.18500176
60	0xbdac706d	-0.08419881
61	0xbd96cf7a	-0.07363792
62	0xbce37c96	-0.027769368
63	0xbd0b1f9a	-0.033965684
64	0xbd9c9948	-0.076464236
65	0x3e46b251	0.1940396
66	0x3d8b8897	0.06813162
67	0x3d0c5ca8	0.03426805
68	0x3e12844a	0.14308277
69	0xbe3b3289	-0.18280996
70	0xbde88b58	-0.11354703
71	0xbe39241f	-0.18080185
72	0x3e7c835a	0.24659482
73	0x3e851c9b	0.25998387
74	0xbdbc3b38	-0.091909826
75	0xbded31c6	-0.11581759
76	0xbe532467	-0.20619355
77	0xbdf7f259	-0.12106771
78	0xbdc0f9a6	-0.09422617
79	0x3e2a9b69	0.16660847
80	0x3e054f26	0.13018474
81	0x3e3b28a5	0.18277223
82	0x3daec8e4	0.085344106
83	0x3e476068	0.1947037
84	0xbe25df78	-0.16198528
85	0x3c686f39	0.014186674
86	0x3e4d2f17	0.20037495
87	0xbd913461	-0.070900686
88	0xbd4fff48	-0.050780565
89	0x3dc06fd6	0.09396331
90	0xbd679fe2	-0.05654896
91	0x3e5bf2c4	0.21479326
92	0x3db5407b	0.08850189
93	0x3d289ffb	0.041168194
94	0xbdf6e828	-0.12055999
95	0x3dc8d58e	0.09806357
96	0xbccd11e9	-0.025032954
97	0xbdd73e04	-0.105098754
98	0xbdea58e4	-0.11442736
99	0xbe594741	-0.21218587
100	0xbb326422	-0.0027220328
101	0xbdf949f2	-0.12172307
102	0xbd0064d9	-0.031346176
103	0x3e3fd500	0.18733597
104	0xbe3be317	-0.18348347
105	0x3bc9ded6	0.0061605973
106	0xbd8c6686	-0.06855492
107	0xbe0afdf9	-0.13573445
108	0x3d06aaf0	0.032877862
109	0x3e0f2fba	0.1398305
110	0x3d3bda65	0.045862574
111	0x3d4eec5d	0.050518382
112	0x3e0c5525	0.13704355
113	0x3e4b6f04	0.19866568
114	0x3e1bc92a	0.15213457
115	0x3dffcaf2	0.124898806
116	0x3e62e5ac	0.22157925
117	0x3e2b5727	0.16732465
118	0x3d490c4e	0.049084
119	0xbd922a03	-0.07136919
120	0x3e7747a2	0.2414842
121	0xbd75446b	-0.0598797
122	0xbd3aeb12	-0.045634337
123	0x3e3b0d8a	0.18266883
124	0x3ca16b20	0.019704401
125	0x3e16bf29	0.1472136
126	0x3e457e7f	0.19286536
127	0x3d8154cf	0.06315004
128	0xbe1d7114	-0.15375167
129	0xbd71156f	-0.05885833
130	0xbe3f96e8	-0.1870991
131	0xbe07e740	-0.13271809
132	0x3cc70241	0.024293067
133	0xbd7b0a6f	-0.061289247
134	0x3e076a06	0.13224038
135	0xbdff85ec	-0.124767154
136	0xbd6e459f	-0.058171865
137	0x3e1af1e0	0.1513133
138	0xbe9e8d86	-0.3096735
139	0x3e8c41f9	0.27394083
140	0xbdd6619e	-0.10467838
141	0x3cdc86c1	0.026919724
142	0x3d54ca74	0.051950887
143	0x3df0a9c3	0.117511295
144	0x3ec266d0	0.37969065
145	0x3eb25916	0.34833592
146	0x3ec90c7f	0.39267346
147	0x3ec7f383	0.39052972
148	0x3d844001	0.0645752
149	0x3d71ccdc	0.05903326
150	0x3e3c8fd7	0.18414246
151	0x3d25d799	0.040488813
152	0x3d79f309	0.061022792
153	0x3e427577	0.18990122
154	0x3e9d359f	0.30704972
155	0x3e7f010d	0.24902745
156	0x3dbd75fb	0.092510186
157	0x3d0f2dcd	0.03495579
158	0x3decfcd3	0.1157166
159	0xbdb2ec7e	-0.087365136
160	0x3e3adbcc	0.18247908
161	0x3e3ad380	0.18244743
162	0x3ef18ac2	0.47176176
163	0x3e86f9f2	0.26362568
164	0xbde8a369	-0.11359293
165	0xbe00f956	-0.12595114
166	0x3d108b69	0.035289202
167	0xbd54e328	-0.051974446
168	0x3dcace66	0.09902649
169	0x3de5ab4a	0.112143114
170	0xbc9d28ab	-0.019184431
171	0x3d46d30c	0.048541114
172	0x3e60d935	0.21957858
173	0xbe007467	-0.12544404
174	0xbe97b567	-0.29630587
175	0x3e4acfaf	0.19805788
176	0xbcc15130	-0.023598284
177	0x3d596b02	0.053080566
178	0xbe59705f	-0.21234272
179	0xbdd85a0e	-0.105640516
180	0xbe7e73c9	-0.24848856
181	0xbe873146	-0.2640478
182	0xbe52ac9d	-0.20573659
183	0xbeac3e0b	-0.33641085
184	0xbe0bcf01	-0.13653184
185	0xbdbbbb96	-0.091666386
186	0xbc174011	-0.009231583
187	0xbdf696e2	-0.12040497
188	0xbed6c70e	-0.41948742
189	0x3cb2b352	0.021814022
190	0xbe93baa7	-0.28853342
191	0xbe9de24c	-0.30836713
192	0xbf125e1f	-0.5717487
193	0xbe590b27	-0.2119566
194	0xbe33872a	-0.1753203
195	0x3d11e3c3	0.0356176
196	0xbe5ee8cd	-0.21768494
197	0xbe7d01ea	-0.24707761
198	0xbeb008ed	-0.3438181
199	0xbf0f14de	-0.55891216
200	0x3e17e67c	0.14834017
201	0xbd20d5a6	-0.03926625
202	0xbcea2105	-0.028580198
203	0xbb120597	-0.0022281164
204	0xbf05075e	-0.51964366
205	0xbe818d3d	-0.2530307
206	0xbe80907c	-0.25110233
207	0x3dff6024	0.12469509
208	0xbdc98153	-0.0983912
209	0xbe014583	-0.12624173
210	0x3e8e3f22	0.27782542
211	0xbcacb8ab	-0.02108415
212	0xbaf7f674	-0.0018918053
213	0xbdd48c34	-0.10378304
214	0x3e5e9d55	0.21739705
215	0x3e022f98	0.12713468
216	0x3cfdadc6	0.03096665
217	0x3ce51e01	0.027968409
218	0xbc398da3	-0.011325273
219	0xbdd47ba4	-0.10375145
220	0xbdaf68fd	-0.08564947
221	0xbdaf6f62	-0.085661665
222	0xbe2d99f5	-0.16953261
223	0xbd260428	-0.040531307
224	0x3e107d9c	0.14110416
225	0x3d4ab123	0.049485337
226	0x3de09432	0.10965766
227	0x3d36dea6	0.044645928
228	0x3e115062	0.1419082
229	0x3e4b17f0	0.1983335
230	0xbd7eaf26	-0.062178753
231	0x3bf3fae0	0.007445678
232	0xbdbe3096	-0.09286611
233	0xbe69aea3	-0.22820525
234	0xbcede210	-0.029038459
235	0xbe98372d	-0.29729596
236	0xbdd9185b	-0.106003486
237	0x3cbe6079	0.023239361
238	0x3ddcccb9	0.10781235
239	0x3dbbd3b8	0.091712415
240	0xbe1b8e60	-0.1519103
241	0x3d4dd316	0.050250135
242	0xbd7ae71b	-0.061255556
243	0x3ce3c1ba	0.027802337
244	0xbd811e61	-0.063046224
245	0xbe186175	-0.14880927
246	0x3e095c98	0.13414228
247	0xbe43cfd4	-0.19122249
248	0xbe4240ca	-0.18970028
249	0xbe30c291	-0.17261721
250	0xbd032286	-0.032015346
251	0xbe2b177c	-0.16708177
252	0xbe81abda	-0.25326425
253	0xbdb037cd	-0.08604393
254	0xbe994958	-0.2993877
255	0xbe7adabd	-0.24497505

network.0.bias f4 [128]
0	0x3a423483	0.00074083376
1	0xb9190a1f	-0.00014594987
2	0x3789ce4d	1.6427739e-05
3	0x395503b5	0.00020314644
4	0x394af9fd	0.00019357349
5	0x3947dba0	0.00019059936
6	0x3a939e9a	0.0011262477
7	0x388bb35f	6.661447e-05
8	0x364c2ee8	3.0425672e-06
9	0x395d2977	0.00021091649
10	0x397153e2	0.000230148
11	0x38537d8d	5.042325e-05
12	0xb7d645a8	-2.5543224e-05
13	0x39efa682	0.0004570969
14	0x39ad795b	0.00033087548
15	0xb93baf91	-0.00017899113
16	0xb783d557	-1.5715761e-05
17	0x38eb5001	0.00011220575
18	0xb8950cf1	-7.107284e-05
19	0x39587468	0.0002064273
20	0x397889fc	0.00023702526
21	0x3857f9d0	5.149265e-05
22	0x38fcd298	0.000120555225
23	0xb7e27a4a	-2.6998245e-05
24	0xbb165d1a	-0.0022943676
25	0x38d5ccf1	0.00010194805
26	0x3911459c	0.00013854209
27	0x359579e7	1.1136843e-06
28	0x396395b8	0.00021704182
29	0xb9081a5e	-0.00012979793
30	0x392e0e18	0.00016599183
31	0xb92fc59e	-0.00016762919
32	0x35de2b90	1.6552967e-06
33	0xba034630	-0.0005007712
34	0xb66ca438	-3.5262328e-06
35	0xb8a19db8	-7.706456e-05
36	0xb6a7d2a4	-5.0015096e-06
37	0x39993d95	0.00029228316
38	0xb825c748	-3.952466e-05
39	0x38fa20b2	0.00011927019
40	0x3a9da46b	0.001202715
41	0xb7de9134	-2.6532078e-05
42	0xb87073f0	-5.7328434e-05
43	0x36f366f5	7.25395e-06
44	0xb9b60889	-0.00034720104
45	0xb8b63d92	-8.689905e-05
46	0x3977e8a9	0.00023642428
47	0x36bb6961	5.585302e-06
48	0x36a8dad1	5.0322637e-06
49	0x39890ecc	0.000261417
50	0x3963f1ee	0.00021738533
51	0x38ad98b3	8.277725e-05
52	0x39840d3f	0.0002518687
53	0xba4edee2	-0.00078914885
54	0x38c06c42	9.175438e-05
55	0x39975fe9	0.00028872423
56	0x38d7b043	0.0001028483
57	0xb8929b9b	-6.990806e-05
58	0xb7c46146	-2.3410317e-05
59	0xba4d0165	-0.0007820337
60	0xb91b53b5	-0.00014813135
61	0xb90500c1	-0.00012684149
62	0xb88c3f5d	-6.6875225e-05
63	0x3a904459	0.0011006697
64	0xb871a5f7	-5.7613444e-05
65	0xb9838a01	-0.00025089088
66	0xb8919874	-6.9425354e-05
67	0x3a0e968f	0.0005439305
68	0xb9b0a85e	-0.0003369478
69	0x38b10f67	8.4428866e-05
70	0x3a743e93	0.00093171856
71	0xb80c0cf5	-3.339067e-05
72	0x394ea053	0.00019705416
73	0xba4384b7	-0.0007458436
74	0xba8e3cb5	-0.0010851832
75	0x3a3dfed3	0.00072477496
76	0xb7933c60	-1.755188e-05
77	0xb7941c87	-1.7656259e-05
78	0x3886ba33	6.4243e-05
79	0xb99475ed	-0.0002831662
80	0xb8addb27	-8.290103e-05
81	0x39e77f16	0.0004415444
82	0x37a5da13	1.9771081e-05
83	0xb98dc2ca	-0.00027038745
84	0x3a474649	0.0007601721
85	0xb8817dd6	-6.174638e-05
86	0x399d9e20	0.00030063186
87	0x38769953	5.8793765e-05
88	0xb893f7c4	-7.055656e-05
89	0x389b1d4a	7.3964315e-05
90	0x3816a2c4	3.5914374e-05
91	0xb6251583	-2.4599437e-06
92	0xb899798f	-7.3182506e-05
93	0x399986b8	0.00029282807
94	0xb9830a82	-0.00024994096
95	0x3a5f70ed	0.0008523602
96	0x396e3cc5	0.00022720087
97	0xbaa71973	-0.0012748673
98	0x39bbbc7f	0.0003580786
99	0xb7827683	-1.5552394e-05
100	0x38023a78	3.104887e-05
101	0xb9a01fe6	-0.00030541344
102	0xba099ca6	-0.00052494777
103	0x381caf24	3.735641e-05
104	0xb8ce2cf2	-9.831217e-05
105	0x3970e39c	0.00022972975
106	0xba1c0890	-0.00059522036
107	0xb8f76913	-0.000117974494
108	0x38da3db3	0.000104065424
109	0xb8b4e42c	-8.625569e-05
110	0xb8e8041b	-0.00011063387
111	0xba2758a3	-0.00063837523
112	0x38cfcc0a	9.9085344e-05
113	0x381ffc28	3.8143393e-05
114	0x3920709e	0.00015300742
115	0x399aa4d8	0.00029495987
116	0x38b23098	8.496753e-05
117	0xb87b40f6	-5.9903563e-05
118	0xb906a8f7	-0.0001284218
119	0xbabaf24c	-0.0014262884
120	0x37fe7ee8	3.0338255e-05
121	0x38ae62e9	8.31539e-05
122	0x38014744	3.0822368e-05
123	0x397560b9	0.00023401053
124	0xb883b774	-6.2807376e-05
125	0xb822440b	-3.868718e-05
126	0x383a9819	4.4487508e-05
127	0x394134f5	0.00018425642

network.1.weight f4 [128]
0	0x3f86467e	1.0490263
1	0x3f776c42	0.96649563
2	0x3f73cf7b	0.95238465
3	0x3f87b41b	1.0601839
4	0x3f7badbe	0.98311985
5	0x3f8696c3	1.0514759
6	0x3f6c25aa	0.9224497
7	0x3f807b68	1.0037661
8	0x3f8156c6	1.0104606
9	0x3f76ca22	0.9640218
10	0x3f998b13	1.1995567
11	0x3f6e0c2d	0.9298733
12	0x3f80f2cf	1.0074099
13	0x3f885e95	1.0653864
14	0x3f6e1895	0.9300626
15	0x3f73a638	0.95175505
16	0x3f6e01a3	0.9297125
17	0x3f75dad1	0.9603701
18	0x3f7b4bfb	0.9816281
19	0x3f80fadd	1.0076557
20	0x3f6886c7	0.90830654
21	0x3f80ae70	1.0053234
22	0x3f7e3372	0.9929725
23	0x3f6c4bff	0.9230346
24	0x3f915226	1.1353195
25	0x3f7b56ea	0.98179495
26	0x3f7e0040	0.9921913
27	0x3f7e1158	0.99245214
28	0x3f8225b9	1.0167762
29	0x3f7e2764	0.99278855
30	0x3f83538f	1.0259875
31	0x3f8cdcd9	1.1004897
32	0x3f8449bc	1.0335002
33	0x3f7fe539	0.9995914
34	0x3f77ff09	0.9687353
35	0x3f6e7ed2	0.9316226
36	0x3f83c92b	1.0295767
37	0x3f924bcb	1.142938
38	0x3f8c1f27	1.0947007
39	0x3f81f58c	1.015306
40	0x3f7b2f63	0.9811918
41	0x3f783514	0.9695599
42	0x3f79cbab	0.975764
43	0x3f7cba72	0.9872199
44	0x3f800499	1.0001403
45	0x3f7517ba	0.9573933
46	0x3f7cb622	0.9871541
47	0x3f717eb2	0.94333947
48	0x3f82a895	1.0207697
49	0x3f882c96	1.0638607
50	0x3f8446e5	1.0334135
51	0x3f7a6021	0.9780293
52	0x3f67515c	0.9035852
53	0x3f77b4fd	0.9676054
54	0x3f86e803	1.0539554
55	0x3f70b2ee	0.94023025
56	0x3f7d21ab	0.988795
57	0x3f7eda85	0.99552184
58	0x3f728e40	0.94748306
59	0x3f7dc814	0.9913342
60	0x3f7d71f4	0.99002004
61	0x3f83ffdc	1.0312457
62	0x3f78aa6e	0.97135055
63	0x3f906860	1.1281853
64	0x3f72d65e	0.9485835
65	0x3f6cb684	0.92465997
66	0x3f755054	0.95825696
67	0x3f736fcd	0.9509247
68	0x3f8223cc	1.0167174
69	0x3f7b7867	0.98230594
70	0x3f7d470b	0.9893653
71	0x3f8647d5	1.0490671
72	0x3f8131e0	1.0093346
73	0x3f95499b	1.1663088
74	0x3f8a6d8b	1.081468
75	0x3f774eb8	0.9660449
76	0x3f80c13d	1.0058972
77	0x3f7a65ef	0.9781179
78	0x3f7d3bb9	0.98919255
79	0x3f72f48d	0.94904405
80	0x3f7523ed	0.95757943
81	0x3f804da7	1.0023698
82	0x3f788cb2	0.97089684
83	0x3f748a50	0.9552355
84	0x3f931621	1.1491128
85	0x3f7cc0fc	0.9873197
86	0x3f79c806	0.97570837
87	0x3f80bcf6	1.0057666
88	0x3f7e40ae	0.99317443
89	0x3f7c8a55	0.9864858
90	0x3f84d70c	1.0378127
91	0x3f6bf0dd	0.92164403
92	0x3f7b0b7b	0.9806439
93	0x3f814e14	1.0101953
94	0x3f6cb0c5	0.9245723
95	0x3f6f90d5	0.9358037
96	0x3f780fc7	0.96899074
97	0x3f99e426	1.202275
98	0x3f734449	0.9502607
99	0x3f7431e8	0.9538865
100	0x3f82fe4d	1.0233856
101	0x3f7eb520	0.99495125
102	0x3f745b81	0.95452124
103	0x3f7594f9	0.9593044
104	0x3f875e2c	1.0575614
105	0x3f7e5ad2	0.9935733
106	0x3f722e83	0.9460222
107	0x3f7270a1	0.9470311
108	0x3f8b4ec6	1.0883415
109	0x3f7f9757	0.998403
110	0x3f73ec12	0.9528209
111	0x3f75624a	0.958531
112	0x3f730997	0.9493651
113	0x3f7a0460	0.97662926
114	0x3f6d35a3	0.9265997
115	0x3f79a5fc	0.975189
116	0x3f7c9051	0.9865771
117	0x3f82e94b	1.0227445
118	0x3f84518e	1.0337389
119	0x3f8d9155	1.1059977
120	0x3f81bff3	1.0136703
121	0x3f83fc98	1.031146
122	0x3f77b051	0.9675341
123	0x3f6f2504	0.93415856
124	0x3f76cc14	0.9640515
125	0x3f6edf50	0.933095
126	0x3f7e08a6	0.99231946
127	0x3f768241	0.962925

network.1.bias f4 [128]
0	0x3e0f7fde	0.14013621
1	0xbcc7225b	-0.024308374
2	0xbcb21236	-0.0217372
3	0xbcd8b8db	-0.026455333
4	0x3d4e687e	0.05039262
5	0xbc436be4	-0.011927579
6	0xbcfd1482	-0.030893568
7	0xbdb54fa5	-0.088530816
8	0xbdb2c3ec	-0.087287754
9	0xbdd3b2fb	-0.10336872
10	0x3dc4466c	0.095837444
11	0xbe15ef44	-0.14642054
12	0xbe4ef96e	-0.20212337
13	0xbd800ea2	-0.06252791
14	0xbddd13ae	-0.10794769
15	0xbe11e4d9	-0.14247455
16	0xbe2127c3	-0.15737824
17	0x3c996d5f	0.01872891
18	0xbdbdd013	-0.09268203
19	0x3bf3daba	0.0074418457
20	0xbce7fc98	-0.028318688
21	0x3d2432da	0.04008756
22	0xbde9dadd	-0.11418698
23	0xbdbbe11b	-0.09173795
24	0x3e01a468	0.12660372
25	0xbd513273	-0.051073503
26	0x3d60061a	0.05469332
27	0x3c45d2f8	0.012074225
28	0x3e0c06f2	0.13674524
29	0x3cc0efcd	0.023551846
30	0xbe3034b4	-0.17207605
31	0xbcd436c8	-0.025905028
32	0xbdd543f8	-0.10413355
33	0x3c943658	0.01809232
34	0xbd8ec3b2	-0.0697092
35	0xbe05963a	-0.13045588
36	0xbd89b5d6	-0.067241356
37	0x3d91efbd	0.071258046
38	0xbcc73a8b	-0.024319908
39	0xbd2b7230	-0.041856945
40	0xbd352079	-0.04422042
41	0x3d0cde53	0.034391712
42	0xbd1e8f9a	-0.038711168
43	0xbdd524da	-0.104074195
44	0xbd1607b7	-0.03662845
45	0xbac4fc0c	-0.0015028729
46	0xbd2095b4	-0.039205268
47	0xbd63903b	-0.05555747
48	0xbdf0a5a3	-0.11750343
49	0x3e4374bd	0.19087501
50	0xbd1d2522	-0.03836549
51	0x3b19c07c	0.0023460677
52	0xbdb03766	-0.086043164
53	0x3b7d9418	0.0038693007
54	0x3cb858c9	0.022503274
55	0x3a24e4dd	0.0006290207
56	0xbd0c74e6	-0.03429117
57	0xbbeaf79a	-0.0071706297
58	0xbb5933ab	-0.0033142369
59	0xbd70ba82	-0.058771618
60	0xbd07c254	-0.03314431
61	0xba715da3	-0.00092073734
62	0xbc094679	-0.008378618
63	0x3c94fd76	0.018187266
64	0xbc86919b	-0.016426852
65	0xbde2870e	-0.11060916
66	0xbd565312	-0.052325316
67	0xbdbdae4c	-0.0926176
68	0xbd9aece4	-0.075647146
69	0x3c217c1a	0.009856248
70	0xbd3df136	-0.046372615
71	0xbda0bd92	-0.07848658
72	0x3e01e298	0.12684095
73	0x3e654b39	0.22391976
74	0x3d32c034	0.04364033
75	0xbd873633	-0.066021346
76	0xbcd79e1f	-0.026320515
77	0xbd729d1e	-0.05923187
78	0xbd7bd318	-0.06148061
79	0x3db4cf1c	0.088285655
80	0xbd10d662	-0.0353607
81	0x3bb73d84	0.00559205
82	0x3c255a07	0.010092265
83	0xbd5fa118	-0.05459699
84	0x3e3f3167	0.18671189
85	0xbc4fad4d	-0.0126755955
86	0x3d201e26	0.03909125
87	0xbd1b5938	-0.037926883
88	0xbcc92678	-0.024554476
89	0x3a9baab4	0.0011876435
90	0xbdbbba02	-0.091663375
91	0xbd747c93	-0.059689116
92	0xbd9ed58c	-0.077555746
93	0x3cb42afd	0.021993155
94	0xbdf6a0fa	-0.120424226
95	0x3d20089d	0.039070714
96	0xbd3bcbbb	-0.04584859
97	0x3e2a74bf	0.16646098
98	0xbdb6d2d7	-0.08926933
99	0x3d826f07	0.06368833
100	0xbd4a9ebb	-0.049467783
101	0x3cbd7468	0.023126796
102	0x3d60dbbc	0.054897055
103	0xbd0ed5c2	-0.034871824
104	0xbdbae82f	-0.09126317
105	0x3be648ec	0.007027736
106	0xbd9c149c	-0.076211184
107	0xbbd78229	-0.0065767956
108	0xbd392ac5	-0.045206804
109	0xbd0febc3	-0.03513695
110	0xbd84acac	-0.06478247
111	0xbdda2456	-0.10651462
112	0xbd65463f	-0.055975195
113	0xbcc8f935	-0.024532894
114	0xbcf622c5	-0.030045876
115	0xbcbb77fc	-0.022884361
116	0xbd1d4d24	-0.038403645
117	0x3cc52a99	0.024068164
118	0xbd85ce82	-0.06533529
119	0x3da9a609	0.08283622
120	0xbd9310c8	-0.07180935
121	0xbd7adf44	-0.06124808
122	0xbda1b8d0	-0.07896578
123	0xbd34744a	-0.044056214
124	0x3d96f23d	0.07370422
125	0xbd763be0	-0.060115695
126	0xbe036141	-0.12830068
127	0xbdbb69c0	-0.091510296

network.1.running_mean f4 [128]
0	0xbe5257bb	-0.20541279
1	0xbf8438c3	-1.0329822
2	0x3fa28c86	1.2699134
3	0x3d27e53e	0.040990107
4	0x3fb3a4c1	1.4034654
5	0xc053b79c	-3.3080816
6	0xbe9183a4	-0.28420746
7	0xbf5cd5db	-0.8626382
8	0xbfe6d51c	-1.8033786
9	0xc018a6f7	-2.3851907
10	0x4004d1b1	2.0752985
11	0x402fbf8d	2.7460663
12	0xbeeebcbb	-0.46628365
13	0xc078736e	-3.8820453
14	0x3de16df6	0.110073015
15	0x3fc3d90e	1.5300615
16	0x3ffdf4c4	1.9840322
17	0x3f7f2e47	0.9967999
18	0x3ff2cec0	1.8969345
19	0x3e78c1e8	0.2429272
20	0x3f41797d	0.75576
21	0x3ef271f9	0.4735258
22	0x3e97587f	0.29559705
23	0xbf31ae43	-0.6940653
24	0xbf6ab006	-0.9167484
25	0x3d90138a	0.07034977
26	0xbd511219	-0.05104265
27	0xbee2346e	-0.44180626
28	0x403beba3	2.9362571
29	0xbfb1afe5	-1.3881804
30	0x3e6e0cd7	0.23247086
31	0xbfc6dacf	-1.5535525
32	0xc0108a69	-2.258448
33	0x404428ab	3.0649822
34	0x3daf7054	0.08566347
35	0xbf22fe2b	-0.6366908
36	0xc019ed87	-2.4051225
37	0xbfc10afe	-1.508148
38	0xbfdd8329	-1.7305652
39	0xbfe4db0b	-1.7879347
40	0x3e9bdab6	0.304403
41	0xbfb04733	-1.3771728
42	0xbedc4ae2	-0.4302588
43	0xbffafaba	-1.9607766
44	0x40080dfc	2.1258535
45	0x3fbeb486	1.4898841
46	0xbf63423f	-0.8877296
47	0xbfa73f76	-1.3066242
48	0xbf920d02	-1.141022
49	0x401840b6	2.3789496
50	0xbf607433	-0.87677306
51	0x3f2d6ab1	0.67740923
52	0x3ede16cd	0.4337677
53	0x3f91d29e	1.13924
54	0x405615e9	3.3450873
55	0x3f973802	1.1813967
56	0xc00edd60	-2.2322617
57	0xbfa2de9e	-1.2724187
58	0x3f96360e	1.1735246
59	0x3fedd7e0	1.8581505
60	0x400f1606	2.2357192
61	0xbea3b2fc	-0.31972492
62	0xbef0cd4d	-0.47031632
63	0xbf2ac003	-0.66699237
64	0xbfb8b271	-1.4429456
65	0x3eae58f3	0.34052238
66	0x3f61fb73	0.88274306
67	0x3fb0794b	1.3787016
68	0x3dbc283a	0.0918736
69	0xbec522d9	-0.3850315
70	0x3f781d38	0.96919584
71	0xbf2daefb	-0.67845124
72	0xc0198329	-2.3986304
73	0xbfe6f2b0	-1.8042812
74	0x4006eef3	2.1083343
75	0xbec0ec65	-0.37680355
76	0xbfc8c6cf	-1.5685672
77	0xc002bd64	-2.0428095
78	0xc006c282	-2.1056218
79	0x3f409790	0.75231266
80	0x400ccb71	2.199917
81	0x40074b66	2.113977
82	0xbddb7dde	-0.10717367
83	0xbe67b481	-0.2262745
84	0xbfeffb7e	-1.8748624
85	0xbdd002bb	-0.10156771
86	0x3f6ddfc5	0.9291957
87	0x4008d80b	2.1381862
88	0xc050c588	-3.2620564
89	0x3f4c69cb	0.7984893
90	0xc00ec321	-2.2306597
91	0x3fdee509	1.7413646
92	0xbe57ffb2	-0.21093634
93	0x3fcd8e58	1.6059065
94	0xbe30d04c	-0.17266959
95	0xbf074246	-0.528355
96	0xbfabfd59	-1.343669
97	0xbea673a7	-0.3251011
98	0x3fb6026a	1.4219487
99	0x401cea97	2.4518182
100	0xc0132e80	-2.2997131
101	0xbec6a71b	-0.38799366
102	0x404a5fcb	3.1620967
103	0x3f8d4a84	1.1038365
104	0xbf58b8b1	-0.84656817
105	0x3ef2dd96	0.47434682
106	0xbf5d2bc9	-0.86394936
107	0x3e9fdb40	0.31221962
108	0xbffffe99	-1.9999572
109	0x3f6806bf	0.90635294
110	0x3fbd9e01	1.4813844
111	0xbfaf70cc	-1.3706298
112	0x3e86480e	0.26226848
113	0xbffe3d7e	-1.9862516
114	0xc0048299	-2.070471
115	0xbf1e40b2	-0.6181747
116	0xbfa8e4ff	-1.3194884
117	0xbf50c053	-0.81543463
118	0xbf9ff6c1	-1.2497178
119	0x402d20b3	2.7051208
120	0xbf9bbd8f	-1.2167224
121	0xbfd1a5c0	-1.6378708
122	0x3b46c3a6	0.0030329018
123	0x3d9cc74b	0.076551996
124	0x3f7351dc	0.9504678
125	0x3fff6f93	1.9955925
126	0x3fefe9c6	1.8743217
127	0x3f8af8c4	1.0857167

network.1.running_var f4 [128]
0	0x41b3b6ee	22.464321
1	0x43f940ce	498.5063
2	0x445322fe	844.54675
3	0x43db6a20	438.8291
4	0x43611973	225.09941
5	0x4441a904	774.64087
6	0x42ed8309	118.75593
7	0x43f2f236	485.89227
8	0x431885fe	152.5234
9	0x43aef889	349.94168
10	0x419be110	19.484894
11	0x44a8d405	1350.6256
12	0x44175da3	605.4631
13	0x43842268	264.2688
14	0x4373ef0a	243.93375
15	0x4365a917	229.6605
16	0x44045012	529.2511
17	0x4438d74e	739.36414
18	0x451c8f66	2504.9624
19	0x43a48e45	329.11148
20	0x44c5df2e	1582.9744
21	0x430fb00c	143.68768
22	0x431b04da	155.01895
23	0x43ce60ec	412.7572
24	0x4252adef	52.669857
25	0x4324ceb6	164.80746
26	0x44877a58	1083.8232
27	0x44b3e125	1439.0358
28	0x42bc48a2	94.14186
29	0x44358769	726.1158
30	0x4405bb9b	534.93134
31	0x43ecc3e7	473.5305
32	0x4511c9ec	2332.62
33	0x43220634	162.02423
34	0x42b14cca	88.64998
35	0x441cf832	627.87805
36	0x446ff5c0	959.83984
37	0x43688cd7	232.55016
38	0x43e4839c	457.0282
39	0x45040f00	2112.9375
40	0x427d3991	63.306217
41	0x437150f6	241.31625
42	0x43e9d24b	467.6429
43	0x44f7710f	1979.5331
44	0x417d84e1	15.844941
45	0x438f58bb	286.6932
46	0x4457d28e	863.2899
47	0x4448f45d	803.8182
48	0x4461c836	903.1283
49	0x42c51780	98.5459
50	0x4333480b	179.28142
51	0x441d40f9	629.0152
52	0x44151435	596.31573
53	0x4309f6e7	137.96446
54	0x420cd559	35.208347
55	0x43968361	301.0264
56	0x453ed92d	3053.5735
57	0x4462ac38	906.6909
58	0x4422628d	649.53986
59	0x43a42562	328.29205
60	0x43d90eb4	434.11487
61	0x4380708c	256.87927
62	0x445b2503	876.5783
63	0x426690af	57.641293
64	0x440b7f61	557.9903
65	0x44898820	1100.2539
66	0x42cf3725	103.607704
67	0x43b578bb	362.9432
68	0x42e89511	116.291145
69	0x4456e718	859.61084
70	0x4268dc3f	58.215084
71	0x44d816be	1728.7107
72	0x421eb48f	39.676327
73	0x4200e542	32.223885
74	0x422974ec	42.36418
75	0x42e545eb	114.63656
76	0x43f7f7c4	495.93567
77	0x44ad149a	1384.6438
78	0x442d60fe	693.5155
79	0x4212369f	36.55334
80	0x43c420f5	392.25748
81	0x42bdffa2	94.99928
82	0x42a0ecaf	80.46227
83	0x4452869c	842.1033
84	0x43232525	163.1451
85	0x4463921b	910.2829
86	0x4334fd2e	180.98898
87	0x44509875	834.38214
88	0x4403e8d3	527.6379
89	0x435aac20	218.67236
90	0x450ebb7f	2283.7185
91	0x44a2166c	1296.7007
92	0x436beb1f	235.91844
93	0x4340b6ae	192.7136
94	0x43849c9a	265.22345
95	0x42e6efab	115.4681
96	0x43eb8555	471.04166
97	0x4135e680	11.368774
98	0x4397673c	302.80652
99	0x441ada45	619.41046
100	0x43f976e4	498.92883
101	0x427c0ef3	63.0146
102	0x429e4461	79.13355
103	0x4387df85	271.74625
104	0x445e0efa	888.234
105	0x438d707d	282.8788
106	0x437fb24f	255.69652
107	0x441d9d89	630.4615
108	0x4233c29a	44.94004
109	0x43008721	128.52785
110	0x448f4a07	1146.3134
111	0x4312105b	146.06389
112	0x450974fa	2199.311
113	0x43e5faa7	459.95822
114	0x42d7ac0b	107.83602
115	0x430e99aa	142.60025
116	0x43a20e00	324.10938
117	0x43fd9aaf	507.20847
118	0x42a83e89	84.12214
119	0x421c36d7	39.053555
120	0x4402b9db	522.904
121	0x44230e5a	652.22424
122	0x43770b62	247.04446
123	0x4310e6e8	144.90198
124	0x4360ee86	224.93173
125	0x432ff962	175.97415
126	0x437ab9f6	250.72641
127	0x42e670b8	115.22015

network.4.weight f4 [64, 128]
0	0x3ddeb98a	0.108752325
1	0x3dba80b1	0.09106577
2	0x3d5f34f4	0.05449386
3	0xbe730652	-0.2373288
4	0xbe1b091a	-0.1514019
5	0x3ce70aed	0.028203452
6	0xbd8ebe36	-0.069698736
7	0xbda0d0ca	-0.07852323
8	0x3e0712f4	0.13190824
9	0xbda879ab	-0.08226331
10	0x3d96cd15	0.07363335
11	0x3da59001	0.08084107
12	0xbdf7c77d	-0.12098596
13	0xbdb04176	-0.08606236
14	0x3e1b9e1c	0.15197033
15	0x3cc7c6f9	0.02438687
16	0x3d01cc38	0.0316889
17	0x3af54150	0.0018711481
18	0xbe4f8ceb	-0.202686
19	0x3e1d3ffe	0.15356442
20	0xbd9761c5	-0.07391695
21	0xbd0c0d1b	-0.034192186
22	0x3e2b36cc	0.16720122
23	0xbe1f09b6	-0.15531048
24	0x3d37f56b	0.044911783
25	0x3da8d603	0.082439445
26	0xbb0b8eff	-0.002129495
27	0x3e226b2b	0.15861194
28	0x3d782408	0.060581237
29	0xbda95b54	-0.082693726
30	0x3db71ab4	0.0894064
31	0x3df946ed	0.12171731
32	0x3db54a8a	0.08852108
33	0x3d248d96	0.04017409
34	0x3dea110d	0.114290334
35	0x3d823ebf	0.06359624
36	0x3db5d1ed	0.08877931
37	0xbcf577fc	-0.02996444
38	0xbe173a0f	-0.14768241
39	0x3daff94b	0.08592471
40	0xbddd7f96	-0.10815351
41	0x3d9c4534	0.07630387
42	0xbdc34351	-0.09534324
43	0xbda0f379	-0.07858939
44	0x3dddfd63	0.10839345
45	0xbcd823c7	-0.026384247
46	0x3c03d9e1	0.008047552
47	0x3d9e56c6	0.077313945
48	0xbe048e20	-0.12944841
49	0x3dca9225	0.09891156
50	0x3deb9fc2	0.11505081
51	0x3e2a346d	0.16621561
52	0xbe436a96	-0.19083628
53	0x3d42f2a7	0.047594693
54	0xbde65ae2	-0.11247803
55	0x3e31f6c3	0.17379288
56	0xbdd369c3	-0.10322907
57	0xbc10c6c9	-0.008836457
58	0x3e0a44c1	0.1350279
59	0x3dcdd98f	0.10051262
60	0xbe0ced0e	-0.13762304
61	0x3de5ccd6	0.1122071
62	0x3e167276	0.14692101
63	0xbe439a4f	-0.19101833
64	0xbbbdd723	-0.0057934686
65	0xbd4afed0	-0.049559414
66	0xbe1baf21	-0.15203525
67	0xbe3341e3	-0.17505603
68	0x3d9338eb	0.071885906
69	0x3d60701b	0.054794412
70	0xbe6084b5	-0.21925624
71	0x3bcf7e71	0.0063322117
72	0x3d9916de	0.07475065
73	0xbe103f95	-0.14086755
74	0xbd630061	-0.055420283
75	0x3d3aa920	0.045571446
76	0xbdc44ce1	-0.09584976
77	0x3e1eda9d	0.15513082
78	0xbe148467	-0.14503632
79	0x3dbbfd68	0.09179193
80	0xbd768f4b	-0.06019525
81	0x3d2fd578	0.04292819
82	0x3bc70ea9	0.0060747457
83	0xbe1e38aa	-0.15451303
84	0xbe1a4263	-0.15064387
85	0xbe641e92	-0.22277287
86	0xbc97bebd	-0.018523568
87	0xbd80a3d3	-0.06281247
88	0xbd8b29a8	-0.06795055
89	0xbcb6d0f7	-0.02231644
90	0x3ddae819	0.106888
91	0x3d898c77	0.06716245
92	0x3dfd1b18	0.12358683
93	0x3d80d665	0.062908925
94	0x3e19cabe	0.15018746
95	0x3e109fea	0.14123502
96	0xbbf35749	-0.0074261767
97	0x3d7418fe	0.059594147
98	0x3b2b9d93	0.002618645
99	0xbe25e5e6	-0.1620098
100	0xbc8b88a0	-0.017032921
101	0x3e0c4545	0.13698299
102	0x3d92a18c	0.07159719
103	0xbe15c9fb	-0.1462783
104	0x3e0dd99d	0.13852544
105	0xbd50775b	-0.050895076
106	0xbe020809	-0.12698378
107	0x3d9b176f	0.07572829
108	0xbda4f50e	-0.08054553
109	0x3e52e4db	0.20595114
110	0x3dc18e76	0.094510004
111	0xbdf1ef91	-0.11813272
112	0x3d23fac8	0.040034086
113	0x3d74b67a	0.059744336
114	0xbc52ddb3	-0.01287024
115	0xbda51dc0	-0.08062315
116	0x3db1d8d3	0.08683934
117	0xbde8d60f	-0.113689534
118	0x3e0a9e35	0.13536914
119	0x3d4549f2	0.048166223
120	0xbe40e46b	-0.18837135
121	0x3e141769	0.14462055
122	0xbd326354	-0.043551758
123	0x3e006da3	0.12541823
124	0x3c558ccf	0.01303406
125	0xbcb7e008	-0.022445694
126	0x3cda49f8	0.0266466
127	0xbe292149	-0.16516604
128	0x3de52f84	0.111907035
129	0x3c88cb42	0.016698483
130	0xbda189b7	-0.07887595
131	0xbd8ad8b4	-0.06779614
132	0xbd8b3f99	-0.0679924
133	0x3e38301f	0.17987107
134	0xbc1411ce	-0.009037448
135	0xbc1c04e0	-0.009522647
136	0xbde38f7d	-0.111113526
137	0xbdb192ef	-0.086706035
138	0x3d24d327	0.040240433
139	0xbd2d4e3a	-0.04231093
140	0xbc29910d	-0.010349524
141	0xbe34b19f	-0.17645882
142	0xbdc08512	-0.09400381
143	0x3dd12599	0.10212249
144	0xbd443c8f	-0.047909316
145	0xbe1c1266	-0.15241393
146	0x3d98587b	0.07438751
147	0x3d52fc05	0.051509876
148	0xbe06750a	-0.13130584
149	0xbe1c3bce	-0.15257189
150	0xbdfcc8d1	-0.1234299
151	0xbd6e7d7e	-0.058225147
152	0xbbb7b46a	-0.005606224
153	0x3e1bdda4	0.15221268
154	0xbdea7e31	-0.1144985
155	0x3e0e301d	0.13885541
156	0x3d9bc182	0.07605268
157	0x3c9d483f	0.019199489
158	0x3de38259	0.11108846
159	0x3bdf29bc	0.006810395
160	0xbd51e224	-0.051241055
161	0xbe33c5c1	-0.17555906
162	0x3cc67466	0.024225425
163	0x3cd5c4de	0.02609485
164	0x3e1d2d58	0.15349329
165	0x3e0d3566	0.13789901
166	0x3c0f1793	0.008733648
167	0xbcc4c975	-0.024021843
168	0x3db5c093	0.08874621
169	0x3e3c72fa	0.18403235
170	0xbc9cc637	-0.019137485
171	0xbd35dc4b	-0.04439954
172	0xbd14b91b	-0.036309343
173	0xbde6509d	-0.112458445
174	0xbdca3e23	-0.09875133
175	0x3d559f3b	0.052153807
176	0xbd51625c	-0.051119193
177	0x3d0d2166	0.03445568
178	0x3d938284	0.07202628
179	0xbd1f2f14	-0.038863257
180	0xbd536388	-0.051608592
181	0x3d40ab17	0.047038164
182	0xbde8784f	-0.11351072
183	0xbc497dfe	-0.012298105
184	0xbdfeaccb	-0.124353014
185	0x3e118f93	0.14214925
186	0xbdb48659	-0.08814687
187	0x3e4e31b9	0.20136155
188	0x3d6d4750	0.057929337
189	0xbd9d394f	-0.07676946
190	0x3e3d8253	0.18506746
191	0xbe80fafb	-0.25191483
192	0x3b4458ab	0.0029960077
193	0xbe45659e	-0.19277045
194	0xbced95e7	-0.029002143
195	0xbe0cf7d1	-0.1376641
196	0x3df04834	0.11732522
197	0xbdc6556b	-0.09684261
198	0xbdd287f1	-0.10279835
199	0x3d83105a	0.06399603
200	0xbdb9de3d	-0.09075592
201	0x3d83cbce	0.06435357
202	0xbdd93a52	-0.10606827
203	0x3da808d2	0.08204807
204	0x3e2a330e	0.16621038
205	0x3e115ae6	0.14194831
206	0xbd64d885	-0.05587055
207	0xbd8df0bc	-0.06930682
208	0xbcb821e6	-0.022477102
209	0x3daab1b3	0.08334675
210	0xbdec6442	-0.1154256
211	0xbbc48471	-0.0059972336
212	0xbe532ead	-0.20623274
213	0xbdf65108	-0.12027174
214	0xbd7fee96	-0.062483393
215	0x3e16dde0	0.14733076
216	0x3e43a46f	0.19105695
217	0xbdd73888	-0.10508829
218	0xbcbb33e3	-0.02285189
219	0xbe05f093	-0.13080053
220	0xbe14348a	-0.14473167
221	0xbdf1aa57	-0.11800068
222	0x3d6902c8	0.056887418
223	0xbcb0a7b0	-0.021564335
224	0x3e040216	0.1289142
225	0x3e17cf03	0.14825062
226	0xbdeabf8a	-0.114623144
227	0xbd12f9ee	-0.035882883
228	0x3e4d1904	0.20029074
229	0x3dc1039a	0.09424515
230	0x3dc7b90f	0.09752094
231	0x3df40b5f	0.11916231
232	0x3dd5f5ec	0.104472965
233	0xbd4b3272	-0.049608655
234	0x3d5f6505	0.0545397
235	0x3ca0464f	0.019564776
236	0xbda5683b	-0.08076521
237	0x3dbe2968	0.09285241
238	0x3b2c0e2e	0.002625357
239	0x3db680fc	0.089113206
240	0xbe317606	-0.17330179
241	0x3e09cd1b	0.13457148
242	0x3d98b9de	0.07457326
243	0x3dcd4190	0.10022271
244	0xbdae9f28	-0.085264504
245	0x3e1a013c	0.15039533
246	0xbca37e1b	-0.019957593
247	0x3e0ed158	0.13947046
248	0x3d8c8c12	0.06862654
249	0x3d14723f	0.036241766
250	0x3e00fd23	0.12596564
251	0xbd7ba770	-0.061438978
252	0xbdbf51e4	-0.09341791
253	0x3c9c1deb	0.019057235
254	0x3d0466ef	0.032324728
255	0xbe30e1ed	-0.17273684

network.4.bias f4 [64]
0	0x390adfbf	0.00013244057
1	0xbb023678	-0.0019868892
2	0x3c107e28	0.0088191405
3	0xba1c3499	-0.00059587654
4	0x3b5ba35b	0.0033514115
5	0x3955b921	0.00020382229
6	0x3b8fcd72	0.0043885047
7	0x3b30f398	0.0027000662
8	0x3b17bb33	0.002315235
9	0x3b57b494	0.003291403
10	0xba6e3161	-0.00090863375
11	0x3b6100a6	0.0034332662
12	0x3b7a4d97	0.003819322
13	0x3b59c773	0.0033230453
14	0x3b3af19f	0.0028525365
15	0xba0c4313	-0.0005350571
16	0x3c4b60d6	0.012413224
17	0xbb45cfee	-0.003018375
18	0xbb84fd16	-0.0040584905
19	0xbb46b83f	-0.0030322222
20	0xbb47e575	-0.0030501757
21	0xbaa5d1e8	-0.0012651058
22	0x3b2390b8	0.0024958085
23	0xbc17b2cd	-0.009258938
24	0xbba8b727	-0.0051487866
25	0x3a8d6775	0.0010788279
26	0x39f60875	0.00046927077
27	0xbb894583	-0.0041891946
28	0x3b809bfd	0.0039248453
29	0xbbce6e76	-0.006299789
30	0x3b52bd17	0.0032156163
31	0x3b7a7f68	0.0038222913
32	0xbac8519e	-0.0015283113
33	0x3b40e2a1	0.0029431956
34	0xb9c96e1c	-0.00038419745
35	0x39012e4a	0.00012319643
36	0x3b8537bb	0.0040654815
37	0x3b7c0e70	0.0038460754
38	0xbb2264dd	-0.0024779357
39	0x3a8158a4	0.0009868336
40	0xb8b43893	-8.5936066e-05
41	0xba97b979	-0.0011575661
42	0x3afd0074	0.0019302503
43	0xbad75185	-0.0016427493
44	0xbac0fdc3	-0.0014724064
45	0x3bd60e5b	0.006532473
46	0x3bd3b320	0.0064605623
47	0xbb93d5ab	-0.004511555
48	0x3c082031	0.008308456
49	0x3b2d0cac	0.0026405258
50	0x3bb61325	0.0055564814
51	0x3b470879	0.003037004
52	0xbbc6e90b	-0.0060702614
53	0xbbb5ffca	-0.005554174
54	0x3ad3ef9e	0.0016169434
55	0x39b9607d	0.0003535784
56	0x3b9d8ab6	0.0048077954
57	0x3b806794	0.0039185975
58	0xbc16f225	-0.009213005
59	0x3b15c93e	0.0022855545
60	0xbab5cea4	-0.0013870788
61	0x3b2d5b65	0.002645218
62	0x3bfea53e	0.0077711632
63	0xbbfd955a	-0.0077387514

network.5.weight f4 [64]
0	0x3f808785	1.0041357
1	0x3f6a8575	0.9160989
2	0x3f8d0fce	1.1020448
3	0x3f868db3	1.0511993
4	0x3f867dd9	1.0507156
5	0x3f8812de	1.0630758
6	0x3f8adf3d	1.0849377
7	0x3f81ae4e	1.0131319
8	0x3f826a39	1.0188667
9	0x3f8830ec	1.063993
10	0x3f78d021	0.9719258
11	0x3f7ebf73	0.9951088
12	0x3f793b44	0.9735606
13	0x3f81c6c3	1.0138782
14	0x3f82b29e	1.021076
15	0x3f678530	0.90437603
16	0x3f8623a0	1.0479622
17	0x3f763c40	0.96185684
18	0x3f727671	0.9471198
19	0x3f7cb5df	0.98715013
20	0x3f7b7d45	0.9823802
21	0x3f712df8	0.9421077
22	0x3f919a0e	1.1375139
23	0x3f7725de	0.96542156
24	0x3f892db6	1.0717075
25	0x3f5d88f6	0.8653711
26	0x3f57b592	0.8426143
27	0x3f7a20c4	0.97706246
28	0x3f86c099	1.0527526
29	0x3f80c2db	1.0059465
30	0x3f87d4c6	1.0611808
31	0x3f7b0e8a	0.9806906
32	0x3f82bf1c	1.0214572
33	0x3f82aa85	1.0208288
34	0x3f608626	0.87704694
35	0x3f7b210a	0.9809729
36	0x3f601917	0.87538284
37	0x3f8f51fd	1.1196896
38	0x3f7cfef4	0.9882653
39	0x3f6dbd44	0.9286692
40	0x3f7b0440	0.9805336
41	0x3f7a81e7	0.97854465
42	0x3f7231b0	0.9460707
43	0x3f8d170d	1.102266
44	0x3f86281e	1.0480993
45	0x3f7a8f5e	0.9787501
46	0x3f69502e	0.9113797
47	0x3f6df574	0.92952657
48	0x3f6ed61a	0.93295443
49	0x3f8e4128	1.1113634
50	0x3f680826	0.90637434
51	0x3f860647	1.0470666
52	0x3f7e30b9	0.99293095
53	0x3f82e3f8	1.022582
54	0x3f6d8fc4	0.92797494
55	0x3f750aa4	0.9571936
56	0x3f764315	0.9619611
57	0x3f880909	1.0627757
58	0x3f8167a8	1.0109758
59	0x3f8902a8	1.0703936
60	0x3f937605	1.1520392
61	0x3f6a534c	0.9153335
62	0x3f78a01d	0.97119313
63	0x3f832c30	1.024786

network.5.bias f4 [64]
0	0x3d1234c4	0.035694852
1	0xbca690bc	-0.020332687
2	0x3dbe68d9	0.09297342
3	0x3bebec01	0.0071997647
4	0x3da49857	0.08036869
5	0x3cf16e45	0.029471526
6	0xbd891285	-0.066929854
7	0x3d8cc9d5	0.06874434
8	0x3c9d63eb	0.019212684
9	0x3e336ede	0.17522761
10	0xbd53dfd9	-0.05172715
11	0x3d01850b	0.03162102
12	0xbc241e10	-0.010016933
13	0xbe0e59a8	-0.13901389
14	0xbcb51b24	-0.022107668
15	0xbdfc43b8	-0.12317604
16	0x3d8b90fc	0.06814763
17	0x39db71e8	0.00041855802
18	0xbdb41610	-0.087932706
19	0xbd41b71b	-0.047293764
20	0xbddda4f3	-0.10822477
21	0xbd39f0b3	-0.045395564
22	0x3dc6a362	0.096991315
23	0xbca81896	-0.020519536
24	0xbdf69994	-0.120410115
25	0xbe01a6f1	-0.1266134
26	0xbde073cf	-0.10959589
27	0xbcdcf046	-0.02697004
28	0x3bf838e1	0.00757514
29	0x3c9ccdbd	0.019141072
30	0xbd304d27	-0.04304233
31	0x3c3a2666	0.011361694
32	0x3d9dd3c5	0.077064075
33	0xbcb0f795	-0.021602431
34	0xbdd22d7b	-0.10262581
35	0xbccf24ae	-0.025286045
36	0xbdd0b8c5	-0.10191492
37	0xbb7df1bf	-0.0038748828
38	0xbba3cc07	-0.004998687
39	0xbca682af	-0.020325987
40	0x3b3e9851	0.0029082487
41	0xbd1e006d	-0.038574625
42	0x3cffc716	0.031222861
43	0x3a89c9e3	0.0010512437
44	0x3dd3432b	0.10315546
45	0xbd12dca3	-0.035854947
46	0xbd1a83f4	-0.037723497
47	0xbd3602cf	-0.044436272
48	0xbdfbb373	-0.122900866
49	0x3d8ffbb1	0.07030428
50	0xbdb4f44e	-0.0883566
51	0x3d724080	0.059143543
52	0x3c8fe93b	0.017567268
53	0x3ca07766	0.019588184
54	0x3c0ee520	0.00872162
55	0xbd965d21	-0.07341982
56	0xbdaefe44	-0.08544591
57	0x3da89442	0.08231403
58	0xbbd83466	-0.0065980433
59	0x3d47e8fe	0.048806183
60	0x3e12287f	0.1427326
61	0xbd0fe848	-0.03513363
62	0xbc9be880	-0.019031763
63	0xbbd4f8f6	-0.006499405

network.5.running_mean f4 [64]
0	0x3e07d002	0.13262942
1	0x3d6de7b6	0.058082305
2	0xbe681b13	-0.22666578
3	0x3f554952	0.83315
4	0x3f143939	0.57899815
5	0x3f3f7d68	0.7480073
6	0x3f963827	1.1735886
7	0x3f0d1559	0.551107
8	0xbef4bee8	-0.478019
9	0xbe4e483d	-0.20144744
10	0xbf240a76	-0.6407846
11	0xbf5978ff	-0.8495025
12	0xbed5b0b8	-0.41736388
13	0x3fcad837	1.5847234
14	0xbf842577	-1.0323933
15	0x3d335650	0.043783486
16	0xbe08b301	-0.13349535
17	0x3d980ad9	0.07423944
18	0x3f9695c8	1.176446
19	0xbfb188da	-1.3869889
20	0xbf9092aa	-1.1294758
21	0xbf1b52e3	-0.6067335
22	0x3e80dbcf	0.251677
23	0x3eeda35a	0.4641369
24	0x3f7d4452	0.98932374
25	0xbf9a0e23	-1.2035564
26	0xbec5b60a	-0.38615447
27	0x3f3eafd5	0.7448705
28	0x3e61e955	0.22061665
29	0xbf2cda50	-0.6752062
30	0x3fdf7614	1.745791
31	0xbf2f6342	-0.6851083
32	0x3cf08c04	0.02936364
33	0xbf1d691b	-0.61488503
34	0xbfd08148	-1.6289454
35	0xbfd85b80	-1.6902924
36	0xbf68f037	-0.9099154
37	0xbf41ae56	-0.7565664
38	0xbf8d30d4	-1.1030526
39	0xbf69fca2	-0.9140111
40	0xbf39bf55	-0.72557575
41	0x3f00c55e	0.5030116
42	0x3ecd5b93	0.40108928
43	0x3fb62572	1.4230177
44	0xbf52367d	-0.8211439
45	0xbde8de81	-0.11370564
46	0xbef06e3f	-0.4695911
47	0xbf1b10d2	-0.6057254
48	0xbeceaf29	-0.40368012
49	0xbc704aa6	-0.014666235
50	0xbf2f8fd5	-0.68578845
51	0xbf007504	-0.5017855
52	0xbefd3683	-0.49455652
53	0x3f855152	1.0415442
54	0x3f3c8874	0.7364571
55	0x3d36ec7e	0.04465913
56	0xbe9cbf99	-0.30614927
57	0xbeffffe3	-0.49999914
58	0x3f3ee44c	0.74567103
59	0x3f850701	1.0392762
60	0x3f24b482	0.64337933
61	0xbf0eb8fb	-0.5575101
62	0xbf5854b2	-0.84504235
63	0xbd434dab	-0.04768149

network.5.running_var f4 [64]
0	0x405d2e92	3.4559674
1	0x40068a70	2.1021996
2	0x4045c623	3.0902183
3	0x406a571e	3.6615672
4	0x403abde6	2.9178405
5	0x40b16464	5.5435047
6	0x407556e3	3.8334281
7	0x404aaeb8	3.166914
8	0x403468bf	2.8188932
9	0x40bc66e8	5.887562
10	0x3faf1eb8	1.368125
11	0x40b169e0	5.544174
12	0x405055e5	3.2552426
13	0x40a0c73a	5.0243196
14	0x40582a56	3.377584
15	0x40653a43	3.581681
16	0x3ffb2bf8	1.9622793
17	0x4005d902	2.09137
18	0x3ffc9769	1.9733707
19	0x3fc2fb41	1.5232927
20	0x3fd17d14	1.6366296
21	0x3fbc7854	1.4724221
22	0x4068bc46	3.6364913
23	0x40790e2a	3.8914895
24	0x401d503c	2.458022
25	0x3fe1b770	1.7634106
26	0x3f94cc0a	1.1624768
27	0x40207943	2.5074012
28	0x407d51ad	3.95811
29	0x40df26ee	6.973502
30	0x40d0930b	6.5179496
31	0x3ffd2414	1.9776635
32	0x40a6a8ab	5.2080894
33	0x3fcad63f	1.5846633
34	0x40215579	2.5208418
35	0x40726f4f	3.7880437
36	0x4056e5a6	3.3577666
37	0x402fbdb5	2.7459538
38	0x40612339	3.5177748
39	0x4033cd87	2.8094194
40	0x40362750	2.8461494
41	0x40562feb	3.3466747
42	0x4048700c	3.1318388
43	0x40ceb934	6.460108
44	0x4087b5b0	4.2409286
45	0x400283e4	2.0393
46	0x408c52bf	4.385101
47	0x406d50c4	3.7080545
48	0x3f850168	1.0391054
49	0x3feee117	1.8662442
50	0x3f98cc41	1.1937333
51	0x3fcba0b7	1.5908421
52	0x40773769	3.862757
53	0x4002f637	2.0462778
54	0x4052a683	3.291413
55	0x40214141	2.5196078
56	0x3ff715db	1.9303545
57	0x4047eaf9	3.1237166
58	0x407f7f8f	3.9921606
59	0x4091da1c	4.5578747
60	0x40a3f3b8	5.123501
61	0x410fe520	8.993439
62	0x3fce5a16	1.6121242
63	0x3fd9691b	1.6985201

network.8.weight f4 [32, 64]
0	0xbe84cf0a	-0.25939208
1	0x3e157924	0.14596993
2	0xbe42f6c2	-0.19039443
3	0x3df2d85d	0.11857674
4	0x3da839a6	0.082141206
5	0xbe3d457e	-0.1848354
6	0xbdb57bf2	-0.08861531
7	0x3d4e7c60	0.050411582
8	0xbe3f947b	-0.18708985
9	0xbe8c65e8	-0.27421498
10	0xbcb9cc25	-0.022680352
11	0xbe435661	-0.1907592
12	0xbceef053	-0.02916733
13	0x3e369bd1	0.17832877
14	0x3e3650c3	0.17804246
15	0x3de3bc0e	0.11119853
16	0xbdaf19ae	-0.0854982
17	0xbe9e77cb	-0.3095077
18	0x3d8c9cf0	0.06865871
19	0x3dcc3c66	0.099724576
20	0xbde1f773	-0.11033525
21	0xbd3d41ba	-0.04620526
22	0xbe6fb745	-0.23409756
23	0x3d031d84	0.03201057
24	0xbc9182f8	-0.017762646
25	0x3e02c33d	0.1276979
26	0x3de05e73	0.10955515
27	0x3e527bdd	0.20555063
28	0xbdb49eac	-0.08819327
29	0x3d8e0d3f	0.0693612
30	0xbe50b2cf	-0.2038071
31	0xbd3c4620	-0.045965314
32	0xbe31dd1c	-0.17369503
33	0xbe692cce	-0.22770998
34	0xbd9f36b9	-0.077741094
35	0x3d97605c	0.07391426
36	0x3de78313	0.11304297
37	0xbe30e650	-0.17275357
38	0xbe0d3f7b	-0.13793747
39	0xbd9110c8	-0.07083279
40	0xbde6f4b0	-0.11277139
41	0xbdfaefba	-0.122527555
42	0x3d96b979	0.07359595
43	0xbe13bc04	-0.14427191
44	0x3d5cfd97	0.05395278
45	0xbddc34b3	-0.10752239
46	0x3e161290	0.14655519
47	0xbdcf3b3e	-0.101187214
48	0xbe3a238b	-0.18177621
49	0xbdeb1714	-0.11479011
50	0x3e1088a9	0.14114632
51	0xbe231e1a	-0.15929452
52	0x3cdd8875	0.027042607
53	0x3cfc1d1e	0.030775603
54	0x3c595e80	0.013267159
55	0x3dc96534	0.09833756
56	0x3d7e892a	0.06214253
57	0x3e09886d	0.13430949
58	0xbe303ca7	-0.17210637
59	0x3e5e2f76	0.21697792
60	0xbe1df6b5	-0.15426143
61	0x3df19fc1	0.11798049
62	0x3dd55d75	0.10418216
63	0xbe5233fb	-0.20527641
64	0x3de8c8c1	0.11366416
65	0xbe62555c	-0.22102875
66	0xbeb18036	-0.3466813
67	0x3db8aeda	0.09017725
68	0xbc522559	-0.012826287
69	0xbea3bd53	-0.3198038
70	0xbd88b62c	-0.066753715
71	0xbe8cae52	-0.27476746
72	0x3e53a185	0.20667084
73	0x3d1a4e7c	0.037672505
74	0xbdc716c5	-0.0972114
75	0xbe725754	-0.23666126
76	0x3d847f07	0.06469541
77	0x3d915b1d	0.070974566
78	0x3a1b60cb	0.0005927204
79	0x3d34a34b	0.04410104
80	0x3e319199	0.17340697
81	0xbe169e2f	-0.1470878
82	0x3ce1639a	0.027513314
83	0x3cb572f0	0.022149533
84	0x3d0bb4ea	0.03410808
85	0xbe00e077	-0.12585627
86	0x3e3d4e57	0.18486916
87	0x3d57aa35	0.052652556
88	0xbe631f04	-0.221798
89	0x3cbc6453	0.022997057
90	0x3d49d955	0.04927953
91	0x3e34d9f1	0.17661263
92	0xbe810d56	-0.25205487
93	0x3dfdae16	0.1238672
94	0xbe975992	-0.29560524
95	0x3dee0e96	0.11623876
96	0x3d554ef1	0.052077238
97	0x3dbf079c	0.09327623
98	0xbdb1a728	-0.08674461
99	0xbe19b70b	-0.15011232
100	0xbe6f466e	-0.2336671
101	0x3e8cc0e9	0.2749093
102	0xbd97a0cf	-0.07403719
103	0xbcabf87e	-0.020992514
104	0x3e3311f8	0.17487323
105	0xbe10d836	-0.14144978
106	0xbdbb037d	-0.09131525
107	0x3c1373a2	0.008999737
108	0x3dfa797a	0.12230201
109	0x3cf9ffac	0.030517422
110	0x3e1edec2	0.15514663
111	0x3d6e6ee2	0.058211215
112	0x3dad6d2d	0.08468089
113	0xbe5115e4	-0.20418507
114	0x3e20e1fe	0.15711209
115	0x3dc9598f	0.09831535
116	0xbe037971	-0.12839295
117	0xbd4410ac	-0.047867462
118	0x3e3b872e	0.18313286
119	0x3dc5b4f3	0.09653654
120	0xbe276844	-0.16348368
121	0x3e1bbd0a	0.15208831
122	0xbd950147	-0.07275634
123	0x3d299c90	0.041409075
124	0x3b156e01	0.0022801163
125	0x3d67787e	0.056511395
126	0x3da63c8d	0.08117018
127	0xbd58db85	-0.052943725
128	0x3e81fad6	0.25386685
129	0x3db69419	0.08914966
130	0x3de1a496	0.110177204
131	0x3dedb79a	0.11607285
132	0x3e006bc4	0.1254111
133	0x3e812be3	0.25228795
134	0x3dcf5b53	0.101248406
135	0xbc1bef50	-0.009517506
136	0xbc8f0dc1	-0.017462613
137	0x3e0f0204	0.13965613
138	0xbe8cdbd0	-0.27511454
139	0x3e33caf9	0.17557897
140	0x3df0f5e2	0.117656484
141	0x3d9ed3a8	0.07755214
142	0xbe07d4e5	-0.13264807
143	0x3daae5a3	0.08344581
144	0xbda7574a	-0.08170946
145	0xbdaf2430	-0.08551824
146	0xbe0976fa	-0.13424292
147	0xbdba6cbb	-0.0910277
148	0x3ddbaf55	0.10726801
149	0xbe23ca11	-0.15995051
150	0x3e83f8f5	0.25775877
151	0xbcd9140b	-0.026498815
152	0x3e6b6b8c	0.22990245
153	0x3dbf161c	0.09330389
154	0x3e4c006a	0.19922033
155	0xbe0d2593	-0.13783865
156	0x3e2172e2	0.1576648
157	0x3e45a4c8	0.1930114
158	0x3d7d68de	0.061867587
159	0x3e938355	0.28811136
160	0xbe41a530	-0.1891067
161	0x3e364f2a	0.17803636
162	0xbd3d6af7	-0.046244588
163	0xbd77c2d6	-0.060488544
164	0xbddd6a8d	-0.108113386
165	0x3dcd46be	0.100232586
166	0x3ca2fa6d	0.019894803
167	0x3da500af	0.08056771
168	0x3e4ee879	0.20205869
169	0x3e731573	0.23738651
170	0x3d69d173	0.057084512
171	0xbda561ba	-0.080752805
172	0x3e229ed0	0.15880895
173	0xbd69dd1b	-0.05709563
174	0x3e13ec71	0.14445664
175	0x3debbb71	0.11510361
176	0x3eaa9515	0.33316866
177	0x3e41fd51	0.18944289
178	0xbd92d4a3	-0.071694635
179	0x3e8fe53b	0.28104576
180	0xbd31508a	-0.0432897
181	0xbde04e59	-0.10952444
182	0x3e301452	0.17195252
183	0x3ddd5fee	0.10809313
184	0x3e93d032	0.28869778
185	0x3d750e5a	0.05982814
186	0x3df1d46b	0.11808094
187	0x3b7fde7e	0.0039042528
188	0xbce084fd	-0.027407164
189	0x3ddde162	0.10834004
190	0xbe647d6f	-0.22313474
191	0x3e6783d2	0.22608879
192	0x3de6e878	0.11274809
193	0xbe3f37ba	-0.18673602
194	0x3e2124dd	0.15736718
195	0xbd3cd4e0	-0.04610145
196	0xbd56015c	-0.05224739
197	0xbd2c942e	-0.042133503
198	0x3d8824ca	0.06647642
199	0x3e4c1eb5	0.19933589
200	0xbe4b487f	-0.19851874
201	0x3e4cc718	0.19997823
202	0xbdd2d089	-0.10293681
203	0x3dfd5dd7	0.12371414
204	0xbe83c1d2	-0.2573381
205	0xbdffdb1c	-0.12492964
206	0x3d8f16fd	0.069868065
207	0x3d7ca8e1	0.061684493
208	0x3dc61e0a	0.09673698
209	0x3d848546	0.064707324
210	0x3d5a095a	0.053231575
211	0xbe1c5bc8	-0.15269387
212	0xbb7da8c9	-0.003870534
213	0x3da33c63	0.07970502
214	0x3e5e248a	0.21693626
215	0xbe2f96b9	-0.1714734
216	0xbd8ff53c	-0.070291966
217	0xbe5d989b	-0.21640246
218	0x3e53d548	0.20686829
219	0x3d98a32c	0.074529976
220	0xbc930e2c	-0.017951094
221	0x3e718801	0.23587038
222	0x3ddea9b8	0.10872215
223	0xbdc067e3	-0.09394815
224	0xbe94cd33	-0.29062805
225	0xbe4fa49a	-0.20277634
226	0xbdba3ed8	-0.09094018
227	0x3d880742	0.06642009
228	0xbe0e6a7c	-0.13907808
229	0x3e27263a	0.16323176
230	0x3d4a6df4	0.049421266
231	0xbd9d8acc	-0.07692489
232	0x3e624f53	0.22100572
233	0xbd90ae05	-0.070644416
234	0x3daaaf47	0.08334213
235	0x3da8f980	0.08250713
236	0x3da113fb	0.07865139
237	0x3d3988dc	0.045296535
238	0x3e82c925	0.25544086
239	0x3d945b81	0.072440155
240	0xbd518dc2	-0.05116058
241	0xbd8d1538	-0.06888813
242	0xbd661f54	-0.05618222
243	0x3dbe8d39	0.0930428
244	0xbed59c96	-0.41721028
245	0xbe1f10ac	-0.15533704
246	0x3da67e8c	0.08129606
247	0xbe850af5	-0.25984922
248	0x3e18e827	0.14932309
249	0x3d52a9c3	0.05143143
250	0xbe82120c	-0.25404394
251	0xbe04e87b	-0.1297931
252	0xbdf99a3d	-0.12187622
253	0xbeabd7f1	-0.33563188
254	0xbe036d59	-0.12834682
255	0xbce843ab	-0.02835258

network.8.bias f4 [32]
0	0x3b8a3dde	0.004218801
1	0xbbdece21	-0.006799475
2	0xbbda04c4	-0.0066534
3	0xbbcc3fef	-0.0062332074
4	0xbb04984d	-0.002023238
5	0xbb1551e8	-0.0022784416
6	0x3bd9be59	0.0066450057
7	0xbb0c1d18	-0.0021379646
8	0xbb612c54	-0.0034358697
9	0x3c4372ca	0.011929223
10	0x3b259c3a	0.002527012
11	0x3c47b974	0.012190212
12	0xbb967508	-0.004591588
13	0x3a899240	0.0010495856
14	0x3c17e2e5	0.009270404
15	0x3bfdb42e	0.0077424264
16	0xba6ab2d2	-0.0008953038
17	0xbb51b35b	-0.0031997773
18	0xbc04151a	-0.008061672
19	0x3b88094e	0.0041515
20	0x3bc45d5a	0.0059925737
21	0x3b6ba268	0.0035954956
22	0x3bd90a60	0.0066235512
23	0x3bd8b83a	0.0066137584
24	0xbb18c4c0	-0.0023310632
25	0xb9f72bf3	-0.00047144256
26	0x3c3f0c70	0.01166068
27	0x3b8cd7a0	0.0042981654
28	0xbb38e8b1	-0.0028214867
29	0x3c2f34b1	0.010693715
30	0xbb2d4e34	-0.0026444318
31	0x3b33b386	0.0027420237

network.9.weight f4 [32]
0	0x3f4dc29e	0.8037509
1	0x3f57f586	0.84359014
2	0x3f482039	0.7817417
3	0x3f3d28e1	0.738905
4	0x3f4a2cbb	0.78974503
5	0x3f613619	0.8797317
6	0x3f520612	0.8204051
7	0x3f417107	0.7556309
8	0x3f534c44	0.8253825
9	0x3f5974f0	0.8494406
10	0x3f60c538	0.8780093
11	0x3f3c5546	0.73567617
12	0x3f56e9da	0.8395058
13	0x3f54c086	0.8310627
14	0x3f43c208	0.76467943
15	0x3f38b506	0.7215122
16	0x3f4ec60e	0.8077096
17	0x3f675161	0.9035855
18	0x3f562633	0.8365204
19	0x3f3fdd99	0.74947506
20	0x3f46275f	0.77403826
21	0x3f247a11	0.6424876
22	0x3f4a5ba5	0.7904609
23	0x3f5216d6	0.82066095
24	0x3f59b583	0.8504259
25	0x3f4f91cc	0.81081843
26	0x3f691566	0.91048276
27	0x3f3fd935	0.74940807
28	0x3f33a1ab	0.7016856
29	0x3f37a380	0.71733856
30	0x3f450900	0.7696686
31	0x3f260e3c	0.6486547

network.9.bias f4 [32]
0	0xbd907401	-0.07053376
1	0xbe370983	-0.17874722
2	0x3dc1aeeb	0.09457191
3	0xbc8bf51f	-0.017084656
4	0xbc80619a	-0.01567154
5	0xbc8f8da2	-0.01752359
6	0xbe9f3683	-0.31096277
7	0xbdb3f9b9	-0.08787865
8	0xbce9f175	-0.028557518
9	0x3b86e3cc	0.004116511
10	0xbe632136	-0.22180638
11	0xbe69f485	-0.22847183
12	0xbd5bae62	-0.0536331
13	0xbca09cfa	-0.019606102
14	0xbe124c17	-0.14286838
15	0xbe592243	-0.21204476
16	0xbdea43bf	-0.11438703
17	0xbdabae76	-0.08382885
18	0xbe45d70d	-0.19320317
19	0xbd28252d	-0.04105108
20	0xbe0e0547	-0.138692
21	0xbecce7db	-0.40020642
22	0xbd86a0b6	-0.06573622
23	0xbc7bb4ba	-0.015362913
24	0xbe163bcf	-0.14671253
25	0xbd254d01	-0.04035664
26	0xbdb134cb	-0.086526476
27	0xbcb14cde	-0.021643098
28	0xbdc657d9	-0.09684724
29	0xbe01985a	-0.12655774
30	0xbdcb1df5	-0.09917823
31	0xbebb0733	-0.3652893

network.9.running_mean f4 [32]
0	0xbf5fb3aa	-0.8738352
1	0xbe814016	-0.25244206
2	0x3fc8f039	1.569831
3	0xbe4e00d7	-0.20117508
4	0xbfbe7233	-1.4878601
5	0xbe6c3ea9	-0.23070778
6	0xbf0382b8	-0.51371336
7	0xbe073f15	-0.13207658
8	0x3f019dcc	0.50631404
9	0xbfe9f2c4	-1.8277211
10	0xbf9153a4	-1.135365
11	0xbf6d5a4b	-0.927159
12	0xbfa69b67	-1.3016175
13	0xbfb9341f	-1.4469031
14	0xbfcfb148	-1.6225977
15	0xbf98cee5	-1.1938139
16	0xbf698e51	-0.9123278
17	0xbf240122	-0.6406423
18	0xbf6aea7c	-0.91764045
19	0x3d867982	0.065661445
20	0xbeec79b1	-0.46186593
21	0xbf7e860e	-0.994233
22	0xbf9a4a8a	-1.2053998
23	0xbf6dd25a	-0.92899096
24	0xbed4f27b	-0.41591248
25	0xbfa58a67	-1.2932862
26	0xbf895e8d	-1.073198
27	0xbfb67e63	-1.425732
28	0xbfa83bbd	-1.3143231
29	0xbfbd81c6	-1.4805229
30	0xbf83e08d	-1.0302902
31	0xbe184864	-0.14871365

network.9.running_var f4 [32]
0	0x403963c6	2.8967147
1	0x3fd19fd6	1.6376903
2	0x40d7850a	6.73499
3	0x4053aeff	3.307556
4	0x4067cf2e	3.6220202
5	0x404b4ff1	3.1767542
6	0x40442807	3.064943
7	0x408e5d00	4.4488525
8	0x40520d0e	3.2820468
9	0x40f36a46	7.606723
10	0x40941dc3	4.628633
11	0x40cb52d4	6.353861
12	0x40bcfee5	5.906115
13	0x405faef1	3.4950526
14	0x410d802c	8.843792
15	0x4082be24	4.0857105
16	0x40275e3a	2.6151261
17	0x40b561a6	5.66817
18	0x405f7f1f	3.4921339
19	0x409f9e0f	4.9880443
20	0x4080a836	4.0205336
21	0x40599910	3.3999672
22	0x40a90dc8	5.2829323
23	0x4058131e	3.3761668
24	0x4015041f	2.3283765
25	0x40a2d0fd	5.0880113
26	0x407cc5d2	3.949574
27	0x405a9f56	3.415975
28	0x4054487e	3.3169246
29	0x40e482d1	7.140969
30	0x404d9fff	3.2128904
31	0x3ffa1ee1	1.9540673
