soil_salinity_multi_sensor/outputs/models/stage1/stage1_final_model.pth (torch, 72378 bytes, 20 tensors)

network.0.weight f4 [128, 36]
000000 52 cd 31 bf 39 71 e0 be 40 d8 6d bf f4 29 24 bf
       -0.6945392 -0.43836382 -0.92908096 -0.64126515
000010 a3 76 a3 bc 81 bb fa 3c 97 d5 0d 3e e8 5e a1 3d
       -0.019954031 0.030606987 0.1385101 0.0787943
000020 d6 c3 2d 3e 8a 72 a6 3c af 7d 8e be 82 dd 31 be
       0.16969237 0.020318288 -0.27830264 -0.17369655
000030 f8 20 0e 3e d7 41 f0 3d 4e 40 42 3d 36 c5 20 bd
       0.13879764 0.11731308 0.047424607 -0.039250575
000040 d9 59 da be ce cb 6f bf 4b e0 0f bf f9 d3 69 bf
       -0.42646673 -0.93670356 -0.5620162 -0.9133907
000050 36 9d 76 3d 11 a1 ba bc 83 bc 26 3d 04 44 3a 3d
       0.06020852 -0.02278188 0.040707123 0.04547502
000060 e3 bf a7 be 87 08 86 be e3 40 38 3e 46 ca 01 bc
       -0.32763585 -0.2617838 0.17993502 -0.007921761
000070 a4 ac d9 bd 04 0f 5d be 2f 59 4c 3d d2 1b c6 bd
       -0.10628632 -0.2158776 0.04988974 -0.09673275
000080 db 10 3d 3d 0b cd 64 3d 48 32 8f 3d dd bf 34 3e
       0.046158653 0.055859607 0.06992012 0.17651315
000090 6f 66 b0 bd 77 a6 af bd 8e 82 87 3d 45 82 61 bd
       -0.08613288 -0.085766725 0.06616698 -0.055055875
0000a0 80 e4 c3 bd 0c 43 e9 bd 6b 90 94 3d 82 9f e4 bd
       -0.09565067 -0.11389741 0.07254108 -0.11163236
0000b0 27 7e b6 bd 02 bf b9 bd f2 d9 39 be 95 6b bc 3c
       -0.089107804 -0.09069635 -0.18149546 0.023000518
0000c0 12 6c 18 be 21 0d 15 bc 27 39 10 be f5 d2 1b 3d
       -0.14884976 -0.009097368 -0.14084302 0.03804298
0000d0 0d af 89 bd 4d 81 e1 bd 6c 3e 52 3e c7 35 3f 3e
       -0.067228414 -0.1101099 0.20531625 0.18672858
0000e0 56 d1 24 3e 54 cf ae 3d 51 33 96 3d 20 e6 5f 3e
       0.1609548 0.085356385 0.073340066 0.2186513
0000f0 ba 6f f8 bd 73 d2 b5 bd 6a a0 b9 bc 4f cc 23 bc
       -0.12130685 -0.08878031 -0.0226595 -0.009997441
000100 21 a0 a5 bd be 5f 41 3e e4 42 d9 3d 50 80 71 bb
       -0.08087183 0.18884179 0.106084615 -0.0036850162
000110 76 86 12 3e 5d 30 3b be 0b d1 9a bd f3 21 39 be
       0.14309105 -0.18280168 -0.07559403 -0.18079357
000120 71 55 79 3e b3 1e 7b 3e e1 21 c0 bd 6e 88 0d be
       0.24349 0.2452343 -0.09381462 -0.13821575
000130 6b 86 5c be 2a 2c 16 be 0f f2 b6 bd 1e bf 1f 3e
       -0.21535651 -0.14665285 -0.08932888 0.15600249
000140 ef 8f fd 3d 19 a2 37 3e 8e da c0 3d f0 27 50 3e
       0.12380969 0.17932929 0.09416686 0.20327735
000150 27 da 2a be d0 7d e1 3b c0 8a 56 3e 98 ed 61 bd
       -0.16684781 0.006881453 0.20951366 -0.055158228
000160 6a 77 73 bd 27 c2 ba 3d 28 d7 90 bd a9 1e 51 3e
       -0.059440054 0.09119063 -0.07072288 0.20421852
000170 e4 38 ab 3d 3b 11 54 3d 7b c5 da bd e1 5c 00 3e
       0.083604604 0.051774245 -0.10682198 0.1253543
000180 b6 7d 18 bc 97 b7 b2 bd 09 e4 01 be 24 5b 50 be
       -0.009307316 -0.08726423 -0.12684645 -0.20347267
000190 2e 51 42 bc 85 c3 0c be 56 ec 30 bd d1 f6 4b 3e
       -0.011860175 -0.1374646 -0.043194138 0.19918372
0001a0 3a e7 3b be db 59 c9 3b 4e aa a4 bd 1c 02 0b be
       -0.18349925 0.006144745 -0.080402955 -0.13575023
0001b0 09 8c 75 3d 4e 45 11 3e dc 12 2f 3d aa af 4d 3d
       0.059948 0.14186594 0.042742595 0.050216354
0001c0 24 5b 1d 3e c5 2f 5c 3e 0f 40 12 3e e4 da e0 3d
       0.15366799 0.21502598 0.14282249 0.1097925
0001d0 ff 5e 7d 3e 0e 97 3b 3e 2f 11 9b 3d 89 60 54 bd
       0.2474327 0.18319342 0.07571637 -0.051849876
0001e0 a0 2c 89 3e 35 07 32 bd ad 96 33 bd 64 9f 37 3e
       0.2679186 -0.043463904 -0.043844867 0.17931896
0001f0 d1 9b 0d 3d ac b5 26 3e e2 1d 52 3e 0a 7a 98 3d
       0.034572426 0.1628024 0.20519212 0.07445152
000200 f9 e7 13 be 6c 35 33 bd ee 5a 49 be c6 a1 0f be
       -0.1444396 -0.04375212 -0.19663593 -0.14026555
000210 6b de 44 3d 2c 2f 4b bd 74 17 ff 3d ad be 0c be
       0.048063677 -0.049605533 0.12455645 -0.13744612
000220 e3 99 75 bd 0d 60 1e 3e c0 cf af be 32 84 9d 3e
       -0.05996121 0.15466328 -0.34338188 0.3076492
000230 27 48 d6 bd cb ec dc 3c c0 71 95 3c 3a c3 f0 3d
       -0.10462981 0.02696838 0.018242717 0.117559865
000240 58 48 de 3e 6a 33 af 3e ca 6f c0 3e fd 0f c8 3e
       0.4341457 0.34218913 0.37585288 0.39074698
000250 4f cf 85 3d 23 e8 73 3d 87 74 40 3e bd 33 3f 3d
       0.065336816 0.059547555 0.18794452 0.0466802
000260 4c 98 95 3d 11 79 53 3e 91 91 b8 3e 0c 17 99 3e
       0.07304439 0.20651652 0.36048558 0.29900396
000270 3f 1a d8 3d 14 32 e2 3c 12 f3 e1 3d 84 e4 cb bd
       0.10551881 0.02761177 0.1103269 -0.09955695
000280 4c d2 55 3e 6a 33 4c 3e 82 cf fb 3e 21 3c 8e 3e
       0.20881003 0.19941488 0.49181753 0.2778025
000290 de 6c f0 bd 5c 50 07 be 93 26 b9 3c 22 cd 6e bd
       -0.11739515 -0.13214248 0.022601401 -0.0583011
0002a0 db eb 22 3e 1e 5d 37 3e e0 aa 68 bd 78 d6 aa 3d
       0.15910284 0.17906615 -0.056803584 0.08341688
0002b0 08 5e 66 3e f9 f0 e7 bd 85 c9 b5 be f7 7b 83 3e
       0.22496808 -0.11325259 -0.3550531 0.25680515
0002c0 92 8d c1 bc cb 4c 59 3d 50 cc 8a be 27 69 d8 bd
       -0.023627076 0.05305175 -0.27109003 -0.10566931
0002d0 f1 03 b7 be 5b 75 ab be 6c fa 8f be 47 ce d4 be
       -0.35745195 -0.33487973 -0.28120744 -0.41563627
0002e0 f3 68 1a be 90 e1 e8 bd be 34 20 39 a2 d6 00 be
       -0.15079097 -0.11371148 0.00015278437 -0.12581876
0002f0 5b e6 00 bf a6 d3 a8 3c 95 9b b5 be 79 32 b3 be
       -0.50351495 0.020608734 -0.35470262 -0.34999445
000300 f2 20 29 bf 89 e9 81 be 9a 8f 19 be c7 60 3b 3d
       -0.66065896 -0.25373486 -0.14996186 0.04574659
000310 18 48 9e be 47 46 b5 be 2b 3a e3 be e5 5c 2c bf
       -0.30914378 -0.3540518 -0.44380316 -0.67329246
000320 71 4a 0e 3e d3 a8 0a bd da 21 b1 bc e1 9a b6 bc
       0.13895585 -0.03385241 -0.021622587 -0.022290649
000330 40 02 15 bf 01 19 8b be e6 90 80 be 58 9c 07 3e
       -0.5820656 -0.27167514 -0.2511055 0.13243234
000340 0e 6f fd bd 98 a4 0b be a1 7c 98 3e c5 47 28 bd
       -0.123746976 -0.13637006 0.29782584 -0.04108407
000350 95 0f f5 ba 99 80 d4 bd 21 18 73 3e 5e 35 02 3e
       -0.001869666 -0.103760906 0.23739673 0.1271567
000360 e2 8c b6 bc b7 91 4d bc 64 4b 40 bd 06 3a 16 be
       -0.022283975 -0.012546948 -0.046946898 -0.14670572
000370 43 70 d6 bd 24 62 c2 bd 4c c3 29 be 5b 44 38 3c
       -0.10470631 -0.09491375 -0.16578406 0.011246766
000380 f5 9c 11 3e 99 41 69 3d fe dd b8 3d b9 64 e4 3c
       0.1422003 0.056947324 0.09026717 0.02788006
000390 c1 f3 0e 3e fc 73 50 3e 43 b0 63 bd fa 28 82 3c
       0.13960172 0.20356745 -0.05558802 0.01588868
0003a0 3c 9c 0f be f4 ae 8c be 7e 56 b8 bd 8a 4c b6 be
       -0.14024442 -0.2747723 -0.09000872 -0.3560527
0003b0 b1 c5 e0 bd f9 c9 e9 bc fd b6 f5 3d ae 0e a4 3d
       -0.10975207 -0.02853869 0.11997793 0.080106124
0003c0 7c d1 39 be 20 20 b0 3c 73 95 8c bd e5 cf de 3c
       -0.18146318 0.021499693 -0.06864443 0.027198741
0003d0 bf 9d 8e bd ab 06 21 be fe 99 a1 3d 33 40 0b be
       -0.069636814 -0.157252 0.078907 -0.13598709
0003e0 4e 32 42 be 15 b4 30 be 75 b0 b2 bd 00 09 2b be
       -0.18964502 -0.17256196 -0.08725063 -0.16702652
0003f0 b0 93 93 be e2 4a db bd 12 68 a2 be c9 7c 8c be
       -0.28823614 -0.10707642 -0.31720024 -0.27438954

network.0.bias f4 [128]
000000 06 75 39 39 8f fd f5 b8 97 5e b1 38 6e 8c 7a 39
       0.0001768657 -0.00011729739 8.4576364e-05 0.00023894172
000010 52 3e 44 39 aa 86 63 39 93 df 9b 3a 4e 1f d2 37
       0.00018715233 0.00021698573 0.0011892192 2.5048528e-05
000020 6c 60 0d 38 d2 dc 82 39 84 b1 48 39 ac 2b 86 38
       3.370682e-05 0.00024960056 0.00019139616 6.3977524e-05
000030 49 62 29 b7 e6 d7 14 3a 21 fa a1 39 17 62 49 b9
       -1.0096069e-05 0.00056779233 0.00030894674 -0.00019205395
000040 14 50 a4 b8 ef 95 16 39 e4 5f 80 b8 c1 26 da 38
       -7.835045e-05 0.0001436097 -6.121377e-05 0.000104022685
000050 2b 27 65 39 e5 7f 9e b8 83 de 69 39 9d de 22 b8
       0.00021853733 -7.557849e-05 0.00022303504 -3.8831135e-05
000060 f7 50 ed ba b3 30 49 38 63 16 0f 39 de ed 81 37
       -0.0018105794 4.796749e-05 0.00013645882 1.5488764e-05
000070 3e 9a 17 39 80 a9 a3 b8 11 1d 3f 39 d7 95 bb b8
       0.00014457942 -7.8040175e-05 0.00018226008 -8.944765e-05
000080 ca 2e 4c 36 c3 50 07 ba d7 f3 41 38 d9 49 4c b8
       3.0425604e-06 -0.0005161876 4.624188e-05 -4.8706166e-05
000090 15 15 df 37 af a3 2c 38 52 17 88 b7 b6 6c 1c 39
       2.6593489e-05 4.1160438e-05 -1.6223323e-05 0.00014917817
0000a0 5b 43 9d 3a ed af 28 b4 50 83 ce 36 1d 02 0c 38
       0.0011998223 -1.571022e-07 6.154565e-06 3.338057e-05
0000b0 b8 cc 67 39 ec 6d d1 b8 c5 82 59 39 bc 17 10 b7
       0.0002210614 -9.986371e-05 0.00020743448 -8.588595e-06
0000c0 b2 07 1a 38 2a 7a ff 39 f9 48 88 39 e4 25 9f 38
       3.6723628e-05 0.0004872841 0.0002599431 7.5887685e-05
0000d0 e2 bf 7b 39 8b 18 46 ba 44 70 95 b8 1a ec 7d 39
       0.00024008707 -0.0007556758 -7.125785e-05 0.00024215915
0000e0 3b 31 c0 38 b2 91 73 b8 5e ee 02 37 59 99 3e ba
       9.164443e-05 -5.8071404e-05 7.804103e-06 -0.00072707754
0000f0 b2 85 ff b8 52 29 df b8 af 0d b6 b8 f7 d1 66 3a
       -0.0001218425 -0.00010641165 -8.680985e-05 0.0008805091
000100 ed 55 f3 b7 f6 1a 6a b9 80 a5 9b b9 7b f6 05 3a
       -2.900787e-05 -0.00022326023 -0.0002968721 0.0005110276
000110 35 c7 a3 b9 f0 57 9c 38 13 09 4f 3a cc 33 97 b7
       -0.00031238204 7.455039e-05 0.00078977755 -1.8024723e-05
000120 f5 22 07 39 6d 29 9d ba 61 91 a6 ba eb e3 3e 3a
       0.00012887626 -0.0011990495 -0.0012708121 0.0007281887
000130 8f 0e cc b7 a1 5b 0d b8 60 c0 90 38 e4 47 61 b9
       -2.4325474e-05 -3.3702356e-05 6.902288e-05 -0.00021484453
000140 c9 c9 e2 37 01 17 22 3a 3e 3b 75 37 e0 9d 8a b9
       2.7035263e-05 0.00061832374 1.4616931e-05 -0.00026439037
000150 cb b3 bf 3a c3 98 62 b8 b8 9d c5 39 9e 1d b3 38
       0.0014625726 -5.402487e-05 0.00037692278 8.540902e-05
000160 b3 f7 c7 b7 a7 ee b7 36 9f 58 2c 38 79 12 0b b8
       -2.3837993e-05 5.481608e-06 4.109053e-05 -3.3157386e-05
000170 92 b5 49 b7 5b 42 8a 39 aa 77 95 b9 17 93 53 3a
       -1.2022809e-05 0.0002637085 -0.0002850865 0.00080709293
000180 c5 49 50 39 db 3a 25 bb 67 ba 99 39 70 bb f9 b7
       0.00019863907 -0.0025212083 0.00029321315 -2.9770395e-05
000190 50 82 14 38 0b 27 f4 b9 aa ae 02 ba b2 85 2b 36
       3.5407313e-05 -0.00046568396 -0.00049851334 2.5558807e-06
0001a0 8f 02 9d b8 a1 47 92 39 3b e3 17 ba fa b0 a0 b8
       -7.48682e-05 0.00027900658 -0.0005794053 -7.662359e-05
0001b0 f1 96 94 39 fc 5e 8a b8 ec 14 e2 b8 2e 66 24 ba
       0.0002834122 -6.598045e-05 -0.00010780417 -0.00062713295
0001c0 c5 3f e2 38 d3 14 49 38 5b 9f 25 39 b4 f8 54 39
       0.00010788398 4.794153e-05 0.00015794991 0.00020310545
0001d0 6c 68 8b 38 2c c2 53 b8 c2 ad c9 b8 32 28 d2 ba
       6.6474866e-05 -5.0487157e-05 -9.616792e-05 -0.0016033708
0001e0 09 15 44 38 f8 00 ff 38 5f 28 0b b8 91 8f 54 39
       4.6749632e-05 0.00012159528 -3.317778e-05 0.00020271378
0001f0 dc 5b 80 b9 56 70 e1 b5 f8 43 33 37 49 8a a9 39
       -0.00024482503 -1.67965e-06 1.0685057e-05 0.00032337222

network.1.weight f4 [128]
000000 62 f8 89 3f ae be 76 3f 15 9d 71 3f d2 98 84 3f
       1.0778925 0.96384704 0.94380313 1.0359137
000010 13 08 7b 3f e6 17 87 3f ab 38 6a 3f c8 ee 7d 3f
       0.98059195 1.0554168 0.9149272 0.99192476
000020 c2 c4 82 3f 87 72 78 3f cb 31 99 3f c1 25 63 3f
       1.0216296 0.97049755 1.1968321 0.8872948
000030 4e dc 7c 3f e6 5f 88 3f 76 40 6f 3f 29 74 74 3f
       0.9877366 1.0654266 0.93457735 0.95489746
000040 0b 84 71 3f d2 2a 72 3f 07 4d 7a 3f ab e6 82 3f
       0.94342107 0.9459659 0.97773784 1.0226644
000050 fd ab 61 3f 2b 6c 7f 3f e8 d5 7e 3f 7b e3 6d 3f
       0.8815306 0.99774426 0.99545145 0.9292523
000060 9c 47 91 3f be 71 79 3f 98 8d 76 3f 7b a2 77 3f
       1.1349978 0.9743918 0.96309805 0.967323
000070 c3 b2 83 3f 78 d1 80 3f 90 6b 83 3f d4 f9 8f 3f
       1.0288929 1.0063925 1.02672 1.1248116
000080 41 b5 84 3f 23 0b 77 3f df d2 76 3f 47 e8 70 3f
       1.0367814 0.9650137 0.96415514 0.9410443
000090 a4 e2 81 3f 60 d5 94 3f 27 eb 89 3f 0a 36 81 3f
       1.014729 1.1627617 1.0774888 1.0094616
0000a0 37 76 74 3f 26 09 7c 3f 41 e6 78 3f 2d 86 80 3f
       0.9549288 0.9845146 0.9722634 1.0040947
0000b0 6c 0a 82 3f 6a 96 78 3f af 3a 7c 3f 0b 03 70 3f
       1.015943 0.97104514 0.98527044 0.93754643
0000c0 92 9b 84 3f 88 2d 87 3f 67 57 86 3f 3e dd 7b 3f
       1.0359976 1.056077 1.0495423 0.98384464
0000d0 11 08 62 3f 4b 04 78 3f c8 75 88 3f 4c 19 6e 3f
       0.8829356 0.9688155 1.0660944 0.9300735
0000e0 ff f5 77 3f 83 a2 7c 3f 29 ce 71 3f f9 b9 78 3f
       0.96859735 0.98685473 0.944552 0.9715877
0000f0 c1 1d 73 3f 71 2b 85 3f 83 1a 77 3f fa e8 8f 3f
       0.94967276 1.0403882 0.9652483 1.1242974
000100 54 98 6e 3f 5b 3a 6e 3f 58 a1 70 3f b6 20 75 3f
       0.93201184 0.93057793 0.9399619 0.9575304
000110 7d bd 81 3f 64 95 76 3f d2 22 7d 3f bd dd 87 3f
       1.0135952 0.963217 0.98881257 1.0614544
000120 49 ae 77 3f 3d 67 95 3f 19 af 8a 3f 70 0e 79 3f
       0.96750313 1.1672131 1.0834686 0.97287655
000130 ab a2 80 3f ec 1b 7e 3f da 1f 7c 3f 46 67 7b 3f
       1.0049642 0.99261355 0.984861 0.9820446
000140 c8 23 79 3f a2 de 80 3f 7c 1b 78 3f d9 dc 6b 3f
       0.9732022 1.0067942 0.9691694 0.9213386
000150 c5 9c 97 3f da 2c 7b 3f cf 49 7e 3f f9 0e 81 3f
       1.1844717 0.98115313 0.9933137 1.0082694
000160 81 df 7f 3f 32 6e 7e 3f 34 7f 82 3f 47 9d 69 3f
       0.99950415 0.99386895 1.0195069 0.9125561
000170 06 24 7e 3f 92 d3 80 3f 93 9e 69 3f 9e 61 6d 3f
       0.9927372 1.0064566 0.9125759 0.92727077
000180 00 c3 7d 3f 76 63 9b 3f da 8c 77 3f 65 c5 69 3f
       0.9912567 1.2139728 0.966993 0.91316825
000190 8c 18 82 3f 58 09 78 3f 1d ee 74 3f 3e 86 79 3f
       1.0163741 0.9688926 0.9567583 0.9747046
0001a0 b2 6b 87 3f 6a 22 7e 3f 78 be 75 3f 2d 8f 6d 3f
       1.0579741 0.9927126 0.9599376 0.92796594
0001b0 48 97 90 3f 03 26 75 3f 61 ee 74 3f 96 c0 7b 3f
       1.1296167 0.95761126 0.9567624 0.9834074
0001c0 33 b9 76 3f f3 25 79 3f 19 40 72 3f 0e bb 76 3f
       0.9637634 0.9732353 0.94629055 0.9637917
0001d0 44 85 7b 3f 1f 5a 84 3f 30 51 85 3f 34 57 8e 3f
       0.9825022 1.0340003 1.0415401 1.1120362
0001e0 fd b7 81 3f d3 9d 86 3f 47 ab 79 3f 3c e5 67 3f
       1.0134274 1.0516914 0.97526973 0.9058416
0001f0 3b c3 6c 3f 37 5e 70 3f 98 c2 7e 3f a3 4f 7b 3f
       0.924854 0.9389376 0.99515676 0.9816839

network.1.bias f4 [128]
000000 34 82 46 3e 53 a3 42 bc 88 03 d5 bc e9 08 d1 bd
       0.19385606 -0.01187976 -0.02600266 -0.102067776
000010 01 c8 92 3d 5a d1 d4 bc 13 ee 62 bd 94 2d 04 be
       0.07167054 -0.025978733 -0.055402827 -0.12908012
000020 fe ae e3 bd cf fb c8 bd 57 9c 98 3d 13 60 4d be
       -0.111173615 -0.09813654 0.074516945 -0.2005618
000030 f6 b1 80 be cc c3 d4 bd 22 d6 ca bd 2a be 36 be
       -0.25135773 -0.10388908 -0.09904124 -0.1784598
000040 f8 41 36 be f6 d5 8d 3b d6 0f f5 bd 8f fe 70 bc
       -0.17798603 0.0043284846 -0.11965911 -0.014709129
000050 bf 91 22 bd e1 74 6c 3d a8 4a 15 be 22 4b 0d be
       -0.039689776 0.057728652 -0.1457926 -0.13798192
000060 d8 7b 0d 3e 5c d6 64 bd dc dc 83 3d 8e 09 ac 3b
       0.13816774 -0.05586849 0.0643861 0.0052501624
000070 39 df 2a 3e 46 05 37 3d 4f 04 5e be 17 95 5e bd
       0.16686715 0.044682764 -0.21681331 -0.054341402
000080 ec da d5 bd 06 a2 ac bc 3c 26 97 bd 23 9f 17 be
       -0.10442147 -0.021073353 -0.073803395 -0.148068
000090 ca 8e 9f bd 3f 7c d0 3d 3e b8 5a bd f1 32 35 bd
       -0.07790907 0.10179948 -0.053398363 -0.044238035
0000a0 38 8d 9e bd fa 7c 0b 3d 4a fc 4b bd f8 c9 bd bd
       -0.07741779 0.034054734 -0.04980115 -0.09267038
0000b0 41 12 25 bc 90 e9 52 3c 87 a3 42 bd f4 0c 83 bd
       -0.010075153 0.012873068 -0.047519233 -0.06398955
0000c0 07 ef 00 be aa ef 56 3e f9 6f 89 bd eb e9 45 3b
       -0.12591182 0.20989862 -0.0671081 0.003019924
0000d0 15 84 eb bd 27 38 b4 3c da 45 81 3c 58 30 78 bc
       -0.11499802 0.021999432 0.015780378 -0.015148245
0000e0 85 05 89 bd 9a ac ed 3b aa 8c f0 3c 9d 02 8c bd
       -0.06690506 0.0072532417 0.029363949 -0.06836436
0000f0 a3 45 54 bd 43 45 a1 bb 2d 08 a6 bb 25 f5 b8 3c
       -0.051824223 -0.0049215867 -0.0050668926 0.022577832
000100 ab 6d 07 bd a9 3b 0a be 6f 2d 52 bd 62 f3 e1 bd
       -0.033063572 -0.13499321 -0.05131286 -0.1103275
000110 73 ae e3 bd f3 87 a8 bc 67 12 61 bd 0c f8 73 bd
       -0.11117258 -0.020572638 -0.05494919 -0.059562728
000120 47 45 a4 3d 4a 98 6f 3e 01 56 e3 3c 83 35 89 bd
       0.08021026 0.23397937 0.02775097 -0.0669966
000130 d7 2a 20 bd ae d8 53 bd 38 24 62 bd d0 ee 2c 3e
       -0.039103355 -0.051720314 -0.055210322 0.16887975
000140 2c 16 79 bd 6e 8e c0 3c db 83 7d 3c e2 d3 ce bd
       -0.06081216 0.023505416 0.015473331 -0.10099007
000150 c0 99 6a 3e d8 24 c6 bc 7c 6a e7 3c 4d 96 0a bd
       0.22910213 -0.02418749 0.028249018 -0.033834744
000160 fc 3d 00 bd 38 a8 16 bd 7a 8a c4 bd 3c 2b e4 bd
       -0.031309113 -0.03678152 -0.09596725 -0.11141059
000170 11 81 a5 bd 17 a6 06 3d bf 1a 0f be de 83 9d 3c
       -0.08081258 0.03287324 -0.13975047 0.019227918
000180 16 65 1c bd ee 67 2e 3e b2 30 aa bd 86 a0 74 3d
       -0.03818234 0.17031834 -0.08310069 0.0597234
000190 83 d9 9e bd 1f ae 34 3a 3d a8 76 3d df aa 85 bc
       -0.07756331 0.0006892401 0.06021904 -0.01631683
0001a0 f0 f4 e4 bd b1 01 c2 bc 04 c9 87 bd 0a a6 e0 bb
       -0.111795306 -0.023682447 -0.066301376 -0.006855731
0001b0 5b 3a 7a bd 3b 77 4d bd dd 7f a7 bd 92 59 a6 bd
       -0.06109081 -0.050162535 -0.08178685 -0.08122553
0001c0 7d 79 4e bc 02 83 fe bc 24 55 82 bc 73 35 37 bd
       -0.012602207 -0.031068329 -0.015909739 -0.044728708
0001d0 4e ad a4 bd 26 49 52 3c 8e 68 b7 bd 77 83 96 3d
       -0.08040868 0.012834823 -0.08955489 0.07349294
0001e0 6a be 00 be a4 f6 ec bd bf 0a b3 bd 94 bc 80 bd
       -0.12572637 -0.115704805 -0.08742284 -0.062859684
0001f0 e7 e0 94 3d a3 a3 48 bd b6 7d 12 be 4b e2 09 be
       0.07269459 -0.04898418 -0.14305767 -0.1346523

network.1.running_mean f4 [128]
000000 28 d4 b2 be 7a 3c b4 3f 46 75 47 c0 b4 12 c3 bf
       -0.34927487 1.4080956 -3.1165328 -1.5240083
000010 dc dc f8 3e 6d 4a c5 bf 6f 38 74 3f 66 f9 ed 3f
       0.48606002 -1.5413338 0.9539861 1.8591735
000020 ae 61 34 bf c4 47 62 bf ee bc 0f 40 b7 59 cc bf
       -0.7046155 -0.88390756 2.2459064 -1.5964879
000030 56 b3 0f 40 25 01 14 c0 0c a9 2c 3d 22 3b 8f 3f
       2.2453208 -2.3125699 0.042153403 1.1189921
000040 32 e5 d9 3e 26 23 1a c0 07 c7 19 c0 bb b5 3b 3f
       0.42557675 -2.4083953 -2.4027727 0.73324174
000050 7f dd 4d c0 53 b2 07 40 31 a0 83 3f 06 8d 81 c0
       -3.216644 2.120259 1.0283262 -4.048465
000060 81 16 93 bf 4f a9 5b be 89 42 68 c0 12 f5 eb 3f
       -1.1491243 -0.21451305 -3.629061 1.8434165
000070 f8 c8 81 40 85 25 7b c0 c6 41 3e 40 02 4a ba 3e
       4.0557823 -3.924165 2.9727645 0.36384588
000080 b2 9a 30 3f cd 76 cf 3f 0b 95 26 3d bf 6a ce 3f
       0.68986046 1.620813 0.040669482 1.6126326
000090 39 8c 96 bf 1b c7 c1 bf e1 0c 43 3e 56 71 e1 3f
       -1.1761543 -1.5138887 0.19047882 1.7612712
0000a0 e0 30 44 3f 16 3a 94 bf 63 ea 20 bf 8d 13 76 3f
       0.7663708 -1.1580226 -0.62857646 0.9612358
0000b0 16 15 35 40 aa bb 60 3e 2f 96 0e 3f 27 62 76 3f
       2.829412 0.21946588 0.5569791 0.9624352
0000c0 36 70 0e 40 4c c6 86 40 4b aa 91 bf ce 2f 54 3f
       2.2255988 4.211706 -1.1380094 0.82885444
0000d0 2b 3b 31 c0 22 89 52 be 6c 0f 61 40 28 1a f4 3d
       -2.7692363 -0.20560125 3.5165663 0.119190514
0000e0 ba ac 1e 40 95 94 e7 3f e7 e8 07 c0 37 a5 3b 40
       2.4792924 1.8092219 -2.1235902 2.931959
0000f0 98 ba 9a 3e ce 57 ef bf fa 69 2d 3f 97 2b 5f bf
       0.30220485 -1.8698671 0.6773983 -0.8717589
000100 a6 d4 06 3f 47 bf a5 bf c0 b3 15 40 08 c7 ad 3e
       0.52668226 -1.2948998 2.339096 0.3394091
000110 05 11 d1 3f 33 e0 69 40 75 dc fe 3e 30 6f 3d 40
       1.6333319 3.654309 0.4977757 2.9599113
000120 47 be b9 bf a4 03 2c c0 e3 8a 13 40 ae 7f 28 bf
       -1.4511193 -2.6877222 2.305352 -0.65819824
000130 19 ab a6 3f 3f b7 0b 40 fe 71 18 40 a5 e0 9d 3f
       1.3020965 2.1830595 2.3819575 1.2334181
000140 93 c5 8d be f8 19 73 3f f3 9a e6 bc fc 02 3b 40
       -0.276898 0.949615 -0.028150057 2.9220572
000150 8f 8d d0 bf 5b 3b 58 c0 db f5 f8 3f 11 d6 e1 3e
       -1.62932 -3.3786228 1.9450029 0.44108632
000160 a4 d4 91 be d1 8a 8c 3e 64 08 b5 3f dc a0 6d bf
       -0.28482544 0.2744966 1.4143186 -0.92823577
000170 65 30 25 3f e6 81 df 3f 23 10 c0 bf 38 4f a3 3d
       0.6452697 1.7461517 -1.5004925 0.07974094
000180 54 1e 05 bf 94 c5 9c be b1 a0 a9 3f 69 5f 87 bf
       -0.519994 -0.3061949 1.3252164 -1.0575992
000190 3b f1 a1 bd c2 62 be bf 1f 7c 49 40 be d1 9c 3f
       -0.07907339 -1.4873888 3.1482008 1.2251508
0001a0 ff d3 63 3d 29 d2 4e 3f aa 54 24 c0 de 88 19 c0
       0.055622097 0.8078943 -2.5676675 -2.3989787
0001b0 90 b6 07 c0 49 66 48 3e dd db 3a bf e4 63 02 c0
       -2.1205177 0.19570269 -0.72991735 -2.0373468
0001c0 10 f3 7a c0 f0 f8 bf bf f2 26 15 c0 8c c3 7a be
       -3.9210854 -1.4997845 -2.330502 -0.24488658
0001d0 76 bc 41 3f 90 ad 85 3f 30 c9 5c bf a9 4d 38 40
       0.75678194 1.0443592 -0.8624449 2.87974
0001e0 09 f6 93 3f a4 09 0e 3f e1 f7 c3 3f 72 90 ad 3e
       1.1559459 0.5548346 1.5310022 0.33899266
0001f0 d1 e9 f3 3e 36 cd 23 40 26 78 00 40 74 85 f3 3f
       0.47639325 2.5594 2.0073333 1.9025102

network.1.running_var f4 [128]
000000 68 90 8c 42 ec 11 ff 43 89 39 92 44 b5 f2 99 44
       70.28204 510.14 1169.798 1231.5846
000010 6b d0 81 43 81 b6 f4 43 35 d4 a9 43 42 da 67 44
       259.62827 489.4258 339.65787 927.4103
000020 ec 64 98 43 36 99 e2 43 b2 3e 07 42 e7 68 b3 44
       304.78845 453.19696 33.811226 1435.2782
000030 d1 53 8e 44 a2 d8 91 43 a1 ca 41 44 eb 4e 1a 44
       1138.6193 291.69244 775.1661 617.2331
000040 c8 31 70 43 c5 f4 6f 44 ae be 28 45 b4 a8 99 43
       240.19446 959.8245 2699.9175 307.318
000050 03 37 dc 44 27 5d 95 44 68 c2 10 44 51 6b b8 44
       1761.7191 1194.911 579.0376 1475.3536
000060 d1 4f fc 42 6d 53 21 43 c7 62 74 44 ae b9 96 44
       126.15589 161.32588 977.5434 1205.8025
000070 7d ed 02 44 43 e4 a3 43 36 b6 1d 44 dc ac fb 43
       523.71075 327.7833 630.84705 503.35046
000080 30 51 02 45 c0 84 2d 43 a4 96 c2 42 f1 ea 34 44
       2085.0742 173.51855 97.29422 723.67096
000090 dc bf db 44 78 59 1b 44 83 e2 0a 44 9c af 11 45
       1757.9956 621.39795 555.53925 2330.9756
0000a0 78 46 22 43 95 cc c8 43 a0 ae 01 44 0f 5f 02 45
       162.27527 401.5983 518.7285 2085.9412
0000b0 de 95 08 42 d3 43 9c 43 af f6 14 44 5a b6 7e 44
       34.146355 312.52988 595.85443 1018.84924
0000c0 e9 e6 82 44 ba 2e 41 44 b1 e4 7b 44 fb d6 98 44
       1047.216 772.7301 1007.5733 1222.7181
0000d0 31 22 55 44 4e b6 7c 43 6a 14 3e 42 df e7 27 44
       852.53424 252.71213 47.519936 671.623
0000e0 30 35 3a 45 f8 58 61 44 b3 10 62 44 e1 e7 c1 43
       2979.3242 901.39014 904.2609 387.81155
0000f0 82 41 d5 43 3c c1 e7 44 66 b0 87 44 1b d9 d7 42
       426.51178 1854.0386 1085.5125 107.924034
000100 e8 48 d6 43 ef 2d 72 44 68 0f 68 44 fe 86 e5 43
       428.56958 968.7177 928.2407 459.05463
000110 bb d8 6f 43 9d 0d d5 44 93 aa e7 42 8b ee ef 44
       239.8466 1704.4254 115.83315 1919.4545
000120 09 2e de 42 c7 b4 91 42 5e a5 31 43 8b 6f c5 43
       111.08991 72.85308 177.64597 394.87143
000130 74 19 13 44 60 52 c1 44 64 20 c4 44 08 88 55 43
       588.3977 1546.5742 1569.0122 213.53137
000140 b2 4a c7 43 cb 76 0c 43 09 4e e4 42 14 9d 81 44
       398.58356 140.46404 114.15241 1036.9087
000150 17 d0 fb 43 74 55 75 44 d2 50 65 43 99 57 6c 44
       503.6257 981.3352 229.3157 945.3687
000160 8a 91 7e 44 b0 0d 19 44 ac b5 ea 44 aa 76 5d 44
       1018.27405 612.21387 1877.6772 885.8541
000170 d7 e2 73 43 f5 f5 a1 43 96 07 bf 43 f4 db ef 42
       243.8861 323.92154 382.05927 119.929596
000180 bf 49 ae 44 2d d2 6d 42 6a 1f b4 43 e6 65 67 44
       1394.3046 59.45525 360.24542 925.59216
000190 1f c5 0a 44 8d 21 cf 42 81 73 fc 42 2b ca 39 44
       555.08 103.56553 126.22559 743.1589
0001a0 33 23 8f 43 55 3b ba 43 9b 47 77 43 46 0e 33 44
       286.275 372.46353 247.27971 716.223
0001b0 37 48 a6 42 3e 95 f3 43 60 8a 83 44 12 39 6b 44
       83.141045 487.16595 1052.3242 940.8917
0001c0 c4 7b 05 45 75 13 b9 44 de 9b f3 43 6f dd d2 43
       2135.7354 1480.608 487.2177 421.72995
0001d0 fa 28 ba 43 de cc e2 43 25 59 e4 42 c2 b3 07 42
       372.32013 453.60052 114.17411 33.925545
0001e0 a2 5d c5 43 85 3f 89 43 3d ef 9e 43 8c 99 68 44
       394.7315 274.49625 317.86905 930.3992
0001f0 d0 94 ab 43 72 85 26 43 29 7a dd 43 70 6a ba 42
       343.1626 166.52127 442.95438 93.207886

network.4.weight f4 [64, 128]
000000 85 24 ed 3d 6a a0 c4 3d c0 a4 5f 3d 0a 38 73 be
       0.11579231 0.09600909 0.054600477 -0.23751846
000010 fe 45 e6 bd 1b 24 8c 3c 51 98 44 bd 29 27 9e bd
       -0.11243819 0.01710706 -0.047996823 -0.07722313
000020 f9 55 04 3e 24 64 a0 bd 56 c0 83 3d 9f d9 94 3d
       0.12923421 -0.078316 0.064331695 0.072680704
000030 76 33 f7 bd f8 12 af bd ed 5c 32 3e 27 17 10 3d
       -0.12070362 -0.0854854 0.17418261 0.03517833
000040 93 07 53 3d d9 6d 11 3c d2 6b 3c be 16 e4 36 3e
       0.051520895 0.008876287 -0.18400505 0.17860445
000050 11 47 a6 bd 18 84 21 bb ac 2b 2f 3e 8d d5 1a be
       -0.081190236 -0.0024645384 0.17106503 -0.15120526
000060 d3 8c 0d 3d c0 2d 9b 3d c0 a6 79 3c ea 1a 08 3e
       0.03455813 0.075770855 0.01523751 0.13291517
000070 d9 ec cc 3d 51 28 d0 bd 3a bd 8b 3d 9d a4 ee 3d
       0.100061126 -0.1016394 0.068232015 0.11652491
000080 cf 88 99 3d 1b 2c 18 3d 3f 75 0d 3e 8f 6f 78 3d
       0.07496797 0.037151437 0.13814257 0.060653266
000090 f2 98 a5 3d b6 da 2e bd 04 1f 31 be a3 91 ca 3d
       0.08085813 -0.042689048 -0.17296988 0.09891059
0000a0 bb b1 b4 bd 3b 83 92 3d ae 8f e6 bd a9 ff 90 bd
       -0.08822962 0.071539365 -0.112578735 -0.07080013
0000b0 58 af fc 3d 40 2c 02 bd 8c 33 c9 3c fd 0f bd 3d
       0.12338132 -0.03178048 0.024560712 0.09231565
0000c0 f1 f9 01 be 43 d3 f7 3d f1 38 a3 3d b0 0f 29 3e
       -0.12693001 0.12100842 0.07969845 0.1650989
0000d0 9d f9 3f be b8 20 89 3d c5 a3 04 be a3 8c 43 3e
       -0.18747564 0.06695694 -0.12953098 0.19096617
0000e0 6a 93 c2 bd af c0 d7 bc e2 f7 0a 3e 20 cb cb 3d
       -0.09500773 -0.026336996 0.13571122 0.099508524
0000f0 0c cd 02 be 67 d4 00 3e 55 f7 16 3e f6 57 59 be
       -0.12773532 0.12581025 0.14742787 -0.2122496
000100 b4 aa 52 bc bf aa 2e bd e4 2e 1f be 93 39 29 be
       -0.012858082 -0.042643305 -0.15545231 -0.16525869
000110 d5 92 70 3d dd 64 31 3d cd 1e 56 be 2f 9e f1 3b
       0.05873378 0.04330908 -0.20910187 0.0073735933
000120 69 bf b0 3d 1a a8 18 be 3e 97 99 bd cb fb 99 3d
       0.086302586 -0.14907876 -0.0749955 0.07518729
000130 f8 fb cc bd bd f4 14 3e 53 ed 17 be a2 d3 d0 3d
       -0.10008997 0.14546485 -0.14836626 0.10196616
000140 82 fe 61 bd 6f f0 c4 3c b1 eb 29 3c 85 7c 24 be
       -0.05517436 0.024040429 0.010371135 -0.16063125
000150 1c 4e 1c be 1b 8d 54 be d2 cc c6 bb c0 62 66 bd
       -0.15264171 -0.20756952 -0.006066897 -0.05624652
000160 f4 52 80 bd e2 a7 49 3c 95 2f a0 3d 23 e9 c7 3d
       -0.06265822 0.012308093 0.078215756 0.09761264
000170 70 f4 cc 3d f4 69 89 3d ab a4 24 3e d3 6d 02 3e
       0.1000756 0.06709662 0.16078441 0.12737207
000180 27 d3 b4 bc 47 4e a8 3d 8c 5b 21 3d 03 b5 20 be
       -0.022073342 0.08218055 0.039393947 -0.1569405
000190 ec 5f 12 bd b6 50 18 3e 60 05 b1 3d b7 21 ea bd
       -0.03573601 0.14874539 0.08643603 -0.11432212
0001a0 91 5c 0c 3e 8c 79 45 bd 91 54 ca bd 8d 5c 99 3d
       0.13707186 -0.04821162 -0.09879411 0.07488356
0001b0 9f 9e d4 bd 97 4c 41 3e ab 15 de 3d 02 13 07 be
       -0.10381817 0.18876873 0.108439766 -0.13190845
0001c0 7e ab 58 3d f1 3d 7f 3d 5e 6d 53 bc 48 d1 a9 bd
       0.052897923 0.06231493 -0.012904493 -0.0829187
0001d0 cd 7c bf 3d 58 35 e3 bd 81 28 ff 3d 66 fa 35 3d
       0.09349976 -0.11094159 0.124588974 0.04442825
0001e0 e5 b9 40 be 5e 75 df 3d f6 76 33 bd 0c 00 1f 3e
       -0.18820913 0.10911058 -0.043814622 0.15527362
0001f0 b3 ff 23 3c 35 a4 b4 bb 0b df 36 3d 2c 18 1f be
       0.010009694 -0.005512739 0.044646304 -0.15536565
000200 7d 25 f2 3d ad ff 5b 3d c3 69 c6 bd 72 3c 96 bd
       0.118235566 0.05371063 -0.09688141 -0.07335748
000210 e4 65 aa bd d3 25 49 3e 6b de 15 bc af 6e ca bb
       -0.08320215 0.19643335 -0.009147267 -0.0061777453
000220 2b c6 cb bd 8a 8e ac bd da 3a 16 3d 55 a4 77 bd
       -0.09949907 -0.08425625 0.03667722 -0.060459454
000230 0d df 37 3c 74 0e 30 be 7b 16 d9 bd 31 c2 a0 3d
       0.011222613 -0.17193013 -0.10599991 0.07849539
000240 9e ee 5d bd 02 bd 31 be fb cb 75 3d 80 fe 81 3d
       -0.05418264 -0.17357257 0.060008984 0.0634737
000250 19 70 1b be 91 c2 18 be b8 56 be bd 81 98 93 bd
       -0.1517948 -0.14917971 -0.09293884 -0.07206822
000260 57 2f ed bb 0f f4 21 3e b3 8a 13 be c7 d2 15 3e
       -0.0072383094 0.15815757 -0.14408378 0.14631186
000270 84 92 a3 3d 1f 6d a2 3b 94 4e 10 3e 80 16 da 3c
       0.0798693 0.004956856 0.14092475 0.026622057
000280 07 db 39 bd 39 3c 3c be 83 a4 aa 3c 85 f0 0e 3d
       -0.045374896 -0.18382348 0.020830398 0.034897346
000290 d4 3a 0c 3e 4b 37 05 3e 6b 70 c9 bc 53 12 01 bd
       0.13694316 0.13009374 -0.024589738 -0.031511616
0002a0 35 c4 d1 3d 15 10 38 3e 98 6d a3 bc 97 cf c6 39
       0.10242502 0.17974885 -0.01994972 0.0003792017
0002b0 fd 7c cd bc dd 90 20 be 99 42 b7 bd e8 ba 72 3d
       -0.025084013 -0.15680261 -0.08948249 0.05926028
0002c0 4f 60 f8 bc ab 0a 0d 3d 50 b7 92 3d 96 f5 f2 bc
       -0.030319361 0.034434002 0.0716387 -0.02965812
0002d0 63 d5 90 bd c0 91 a3 3c 24 a4 d1 bd eb e7 24 bd
       -0.0707195 0.01996696 -0.102363855 -0.040260237
0002e0 9f eb db bd de 49 1f 3e 9c 6b f3 bd eb 5a 40 3e
       -0.107383005 0.15555522 -0.11885759 0.18784682
0002f0 08 b0 d9 3c e1 af 72 bd 65 63 36 3e 6b 12 6c be
       0.026573196 -0.059249762 0.17811354 -0.23053901
000300 b6 51 d7 3c fb ee 5a be 36 3e a3 bc de 95 21 be
       0.02628408 -0.21380226 -0.019927125 -0.15779826
000310 a8 9c ee 3d cd 4c a1 bd 63 72 c5 bd d4 a1 9a 3d
       0.116509736 -0.07875977 -0.09640958 0.075503975
000320 cf 80 82 bd 25 17 9e 3d 92 6e b4 bd ff 11 78 3d
       -0.063722245 0.07719258 -0.08810152 0.060564037
000330 be 79 26 3e a9 25 19 3e 49 c0 3a bd 08 39 ba bd
       0.16257378 0.14955772 -0.045593534 -0.09092909
000340 3a ba 2e bd f4 a2 95 3d d5 1f 0f be 87 45 eb 3c
       -0.04265807 0.073064715 -0.13976987 0.028719677
000350 f0 37 41 be 3b 20 0e be e8 4b 7d bd 88 fe 12 3e
       -0.18868995 -0.13879482 -0.061839968 0.14354908
000360 27 4e 47 3e 74 3b e1 bd 5b 4f 53 bc 23 af 26 be
       0.19463407 -0.10997668 -0.012897338 -0.16277747
000370 92 f9 14 be 84 23 be bd 20 09 89 3d a5 87 9e bc
       -0.14548329 -0.09284118 0.066911936 -0.01935179
000380 17 72 06 3e 99 90 fb 3d 8d cc b5 bd c6 bc 81 bd
       0.1312946 0.12283439 -0.088769056 -0.06334834
000390 3a 52 59 3e 85 11 c4 3d 57 f6 cd 3d b2 03 dd 3d
       0.21222773 0.09573654 0.10056751 0.107917204
0003a0 40 83 ec 3d 51 31 4b bd 19 b3 28 3d bf 5d 7b bb
       0.115484715 -0.04960758 0.041186426 -0.0038355438
0003b0 2a 29 9c bd 76 70 cc 3d d2 32 e0 bb 4f 94 d0 3d
       -0.07625039 0.09982388 -0.0068419958 0.101845376
0003c0 fe bf 4a be 6d 95 cc 3d 30 03 b8 3d c4 a2 d6 3d
       -0.19799802 0.09989438 0.08984983 0.10480264
0003d0 70 74 a1 bd 0b cf 26 3e 97 d7 c0 bc 15 f9 01 3e
       -0.07883537 0.16289918 -0.023540301 0.12692674
0003e0 2e 4b b0 3d 2a 3d 33 3d 29 17 f0 3d bb dd 92 bd
       0.086080894 0.043759502 0.117231674 -0.07171198
0003f0 b4 ba af bd f9 cd d3 3c af ff d9 3c 22 8e 49 be
       -0.08580533 0.025855051 0.026611177 -0.19683126

network.4.bias f4 [64]
000000 1f 2c 37 3a 4e de 20 bb c8 b0 11 3c 35 ea 89 ba
       0.00069874706 -0.0024546566 0.008892246 -0.001052207
000010 0d 0a 8a 3b 0a f5 89 b9 d6 91 86 3b c1 df 85 3b
       0.004212624 -0.00026313245 0.0041067405 0.0040855114
000020 5b 28 b7 3a 65 d3 37 3b cc 75 2b bb 2a 40 51 3b
       0.0013973819 0.0028049585 -0.0026162742 0.0031929114
000030 29 9a 41 3b f7 ca 65 3b 87 24 71 3b 74 31 ab 3a
       0.002954135 0.0035063603 0.0036795454 0.0013061003
000040 57 f9 71 3c 0b e8 76 bb 4d 2c 7e bb dd 02 99 bb
       0.01476892 -0.003767493 -0.003878373 -0.004669531
000050 73 96 dd ba 7f 1b 84 3a 7a ea 6e 3b f3 10 13 bc
       -0.0016905799 0.0010078995 0.0036455677 -0.008976209
000060 9c f9 b0 bb 99 0d 82 3a aa 7c 8a 3a 2f 7c 26 bb
       -0.0054008495 0.0009922265 0.0010565717 -0.002540361
000070 ed 61 7a 3b 13 53 d1 bb 6b 2e 45 3b 90 54 72 3b
       0.003820534 -0.006388077 0.0030087482 0.0036976673
000080 2a de ed ba f5 41 e1 b8 f1 c3 23 ba af 51 3d ba
       -0.0018147875 -0.000107411215 -0.0006247154 -0.00072219496
000090 78 94 86 3b 04 fa cb 3b 93 18 02 bb 8c ce 1d 3a
       0.0041070543 0.0062248725 -0.0019851073 0.00060198526
0000a0 5f 5f 52 39 4a 37 31 ba fe dd af 3a b1 5c 8f ba
       0.00020062689 -0.0006760253 0.0013417599 -0.0010937658
0000b0 0b 28 0c bb cb fe e7 3b 2c 83 c1 3b f2 ee 63 bb
       -0.0021386172 0.0070799342 0.0059055295 -0.0034779874
0000c0 53 bd f7 3b 59 b2 5c 3b 1b 47 87 3b 11 65 5e 3b
       0.007560411 0.003367564 0.0041283495 0.0033934752
0000d0 5b 2c bc bb c5 ce b1 bb d4 45 d5 3a f4 52 f5 b9
       -0.0057425923 -0.00542626 0.0016271421 -0.00046791846
0000e0 d9 92 c0 3b 9f 9a ca 3b 9b 37 3b bc 8a 5c 25 3b
       0.0058768806 0.006182983 -0.011426832 0.002523216
0000f0 8e 17 8f ba 92 6d 35 3b 92 92 f3 3b 84 ec de bb
       -0.0010917054 0.0027683717 0.007433244 -0.006803097

network.5.weight f4 [64]
000000 fe 78 7f 3f fb a6 68 3f 60 51 8b 3f 4a d3 87 3f
       0.99793994 0.9087979 1.0884209 1.0611355
000010 4c 66 86 3f a4 bf 87 3f d0 d2 8c 3f 4e cc 81 3f
       1.0499969 1.0605359 1.1001835 1.0140474
000020 02 83 79 3f 71 23 88 3f 39 01 75 3f 73 3a 80 3f
       0.9746553 1.0635816 0.9570499 1.0017837
000030 61 c9 76 3f 67 2b 80 3f a9 81 85 3f df 96 66 3f
       0.9640103 1.0013245 1.0430194 0.9007396
000040 b6 f6 84 3f 85 50 7d 3f e9 02 74 3f da 1b 78 3f
       1.038779 0.9895099 0.9531694 0.969175
000050 17 5c 7d 3f 9d eb 6d 3f 67 34 92 3f f5 18 7b 3f
       0.9896864 0.9293764 1.1422242 0.98084956
000060 8f 23 88 3f c3 1f 60 3f ab ce 5a 3f 49 bf 74 3f
       1.0635852 0.87548465 0.854716 0.9560438
000070 ef e7 86 3f 8a 45 87 3f 6a a0 88 3f 09 56 80 3f
       1.053953 1.0568097 1.0673954 1.0026256
000080 54 0c 80 3f 2a 13 82 3f 70 8d 74 3f 1f 35 84 3f
       1.0003762 1.0162098 0.95528316 1.0328711
000090 bf 06 6c 3f c7 5e 92 3f 7f e8 83 3f 70 6d 6a 3f
       0.92197794 1.1435174 1.0305327 0.9157324
0000a0 06 ff 81 3f 92 05 78 3f 51 28 73 3f a4 6f 8e 3f
       1.0155952 0.968835 0.9498339 1.112782
0000b0 bb 07 86 3f ac b6 71 3f 45 82 72 3f f6 1c 6c 3f
       1.0471109 0.9441936 0.94730026 0.9223169
0000c0 b6 d0 67 3f 27 52 8b 3f c6 89 67 3f a5 bf 87 3f
       0.9055284 1.0884446 0.904446 1.060536
0000d0 72 8f 77 3f 99 93 7d 3f 4a 87 6b 3f 65 42 70 3f
       0.96703255 0.9905334 0.9200331 0.9385131
0000e0 d4 22 71 3f 99 1e 8d 3f e1 24 7a 3f 01 57 8c 3f
       0.9419377 1.1024963 0.9771252 1.0964051
0000f0 fb 2c 94 3f 23 e2 6a 3f 60 f5 6c 3f ec fe 84 3f
       1.1576227 0.9175131 0.9256191 1.0390296

network.5.bias f4 [64]
000000 43 d3 11 3d e6 ad 20 3c ee 05 93 3d b4 66 42 3d
       0.035601866 0.009807086 0.071788654 0.047461227
000010 7f b1 95 3d d3 a3 80 3c f1 09 b2 bd 0e 82 df 3d
       0.07309245 0.015703117 -0.086933024 0.10913478
000020 26 82 fd bc 68 22 4f 3e 3d 41 37 bd 54 a9 af 3c
       -0.030945849 0.20227969 -0.04473995 0.021443047
000030 c5 bd 0a 3b 06 8c 32 be 0f 4c 0f 3c f3 8b 1e be
       0.002117024 -0.17436227 0.008746161 -0.15483074
000040 f6 10 86 3d b3 2b e5 3c 4d 51 8c bd de b0 87 bd
       0.06546204 0.027974939 -0.068514444 -0.066255316
000050 40 34 f8 bd 67 d5 87 bd da b4 dc 3d e4 5f 9e ba
       -0.12119341 -0.066325 0.10776682 -0.0012083021
000060 0d 21 2c be 71 2c 01 be 5b ef 9d bd 05 70 83 bc
       -0.16809483 -0.1261461 -0.07711669 -0.016044626
000070 ef 67 04 3d 8a 5d 5e 3d b6 80 09 bd 83 ca 3d 3c
       0.03232568 0.054288425 -0.033570014 0.011583927
000080 9f f1 4c 3d 11 22 dd bc 53 7c 21 bd a8 8a be 3c
       0.050035115 -0.026993783 -0.039425205 0.023259476
000090 0d 26 53 bd 50 a5 21 3c c1 3a f9 3c 37 94 25 bd
       -0.05154996 0.009866074 0.030423524 -0.04042455
0000a0 a9 48 28 3d ed 08 4b bd 44 89 ef 3b 53 b6 9e 39
       0.04108492 -0.04956906 0.0073100645 0.0003027195
0000b0 20 15 df 3d 2a ea 81 bd 2f fd e6 bb b3 26 0d bd
       0.10892701 -0.063434914 -0.007049225 -0.034460735
0000c0 84 e5 19 be fe b5 64 3c 3e f4 b9 bd a3 78 bf 3d
       -0.1502896 0.013959406 -0.090797886 0.093491815
0000d0 b8 e6 c6 bc b2 d8 43 bd e9 d7 9b 3c 9b c7 d5 bd
       -0.024279937 -0.04781408 0.019023852 -0.10438462
0000e0 ac 72 e2 bd 7e df f7 3d 6f 57 fa bc 97 36 d2 3d
       -0.11057028 0.121031746 -0.03055927 0.102643184
0000f0 a0 8f 25 3e c9 61 40 bd fd f8 8a bd e5 63 cd 3c
       0.1616807 -0.046968255 -0.06785772 0.025072047

network.5.running_mean f4 [64]
000000 0d 74 94 3e 1b ed 12 3b 11 11 14 be 17 a6 ef 3e
       0.2899479 0.0022419158 -0.14459635 0.46806404
000010 db 3f f9 3e 51 3e 2f 3f 43 b3 91 3f 90 28 0d 3f
       0.4868153 0.6845446 1.1382831 0.5514002
000020 ff db 8f be 5e 50 a6 be f6 45 43 bf 3c c0 c5 be
       -0.2809753 -0.3248319 -0.76278627 -0.38623226
000030 75 3f 29 bf c4 f0 c7 3f 6d 84 c7 bf 4d 8a 8a bb
       -0.6611245 1.5620351 -1.5587288 -0.0042279125
000040 47 74 21 be ac 17 03 3d 6e ee 87 3f 91 68 be bf
       -0.15767013 0.032004997 1.0619638 -1.4875661
000050 f5 5f 78 bf 4e ed 4c bf db 75 1a 3d 81 4d 34 3f
       -0.9702142 -0.800496 0.037710052 0.7043076
000060 f9 bb 7a 3f 9c 63 3e bf aa 16 ca be d3 ef 6d 3e
       0.97943074 -0.7437074 -0.39470416 0.23236017
000070 70 88 5e be 9f f1 75 bf bc 91 b6 3f b4 94 d9 be
       -0.21731734 -0.9607181 1.4263225 -0.42496264
000080 dc 50 bb bd 92 11 a0 be d7 8f 07 c0 ea e3 09 c0
       -0.09146282 -0.31263405 -2.1181543 -2.1545358
000090 36 ab b7 bf 05 cb 26 bf ec b8 b4 bf c5 f1 1a bf
       -1.4349124 -0.65153533 -1.4118934 -0.6052516
0000a0 d6 b6 b6 be 93 f5 90 3e 9d 6f 51 3f ee b6 a4 3f
       -0.35686368 0.28312358 0.81810933 1.2868326
0000b0 a0 f2 1c bf 11 5d 73 be 42 ba ab be 5d 34 83 bf
       -0.61307716 -0.23765971 -0.3354054 -1.0250355
0000c0 52 4f e3 be ea 9a 29 3d 04 77 39 bf 2b f4 94 be
       -0.44396454 0.041407503 -0.7244723 -0.29092535
0000d0 ea 52 90 bd a6 55 97 3f ab 6a 13 3f 8d a5 01 bd
       -0.070470646 1.1823013 0.5758464 -0.031652022
0000e0 f4 0e 16 bf f9 85 a0 be 45 19 7a 3f e6 7d 42 3f
       -0.58616567 -0.31352213 0.9769481 0.75973356
0000f0 5e 24 52 3f 1a e3 f7 be 13 f9 86 bf 6f 71 10 bc
       0.8208674 -0.48415452 -1.0544761 -0.008816107

network.5.running_var f4 [64]
000000 13 c5 77 40 d0 c2 7e 40 27 94 4d 40 aa 27 57 40
       3.8714035 3.9806404 3.2121675 3.361796
000010 fe ec 47 40 3e 0f a2 40 59 49 9f 40 8c 59 74 40
       3.1238399 5.0643606 4.9777036 3.8179655
000020 49 fa 4f 40 92 3d b5 40 0d cf 12 40 ae cd fe 40
       3.2496512 5.663766 2.2938874 7.9626074
000030 69 5f 67 40 be 35 c1 40 1b 2e 95 40 2d b9 8c 40
       3.6151984 6.0378103 4.661878 4.3976045
000040 77 d7 17 40 4b 32 00 40 8a 88 e7 3f 82 d5 0d 40
       2.372526 2.0030696 1.8088543 2.2161565
000050 a7 08 d2 3f 41 6b 10 40 cf 83 82 40 d2 1b da 3f
       1.640889 2.2565463 4.07859 1.703974
000060 73 68 31 40 ce 2f b4 3f 0b 58 52 3f 1c 9c 67 40
       2.772 1.4077089 0.8216559 3.6189032
000070 42 4e 4c 40 a5 b0 e0 40 a1 16 c5 40 72 59 2d 40
       3.1922765 7.021563 6.1590123 2.7085843
000080 47 8e bd 40 d4 1b 01 40 e2 52 af 40 ed ee c7 40
       5.923618 2.0173235 5.4788675 6.2479157
000090 1b be 95 40 b0 ab 13 40 41 1a 99 40 fe f3 5e 40
       4.679456 2.307354 4.784455 3.483642
0000a0 de da 13 40 85 ce 91 40 03 29 10 40 66 2a da 40
       2.3102336 4.55646 2.2525032 6.8176756
0000b0 64 14 a0 40 b2 97 04 40 6a 96 94 40 b7 05 82 40
       5.002489 2.0717587 4.643361 4.0631976
0000c0 9f 1a 1f 40 83 e6 1a 40 1a d9 97 3f 7b da e0 3f
       2.4859998 2.4203193 1.1863129 1.7566675
0000d0 dc d0 75 40 52 41 0e 40 cc f1 0e 40 17 6f 3b 40
       3.8408728 2.2227368 2.233508 2.9286554
0000e0 61 18 ca 3f 25 50 5f 40 bb 43 50 40 28 c0 93 40
       1.578869 3.4892666 3.254134 4.6172066
0000f0 ae 67 e5 40 b5 e2 e5 40 fb 84 17 40 ac 69 f3 3f
       7.168906 7.183924 2.3674915 1.9016623

network.8.weight f4 [32, 64]
000000 c5 86 87 be 7e 10 0d 3e c4 24 46 be 7d 39 e5 3d
       -0.26470008 0.13775823 -0.19349962 0.11192606
000010 5d 64 64 3d 77 17 47 be b1 99 b0 bd a5 24 88 3d
       0.055759776 -0.19442545 -0.08623064 0.066476144
000020 98 15 3c be 7f ab 7b be 69 15 c4 bc 7f f6 35 be
       -0.18367612 -0.2457714 -0.02393599 -0.17769812
000030 4a 59 2f bd 16 cc 38 3e 39 c6 35 3e a3 fb 08 3e
       -0.042809762 0.18046603 0.17751397 0.13377242
000040 11 ee df bd 56 ab a2 be 1e a4 b8 3d 1c 70 bf 3d
       -0.109340794 -0.31771344 0.09015678 0.09347555
000050 27 a2 f2 bd 92 81 a8 b9 c4 27 7b be bb 7a 30 3d
       -0.11847334 -0.00032139994 -0.24526888 0.043085795
000060 59 66 72 bc a9 8d c4 3d 53 f4 c6 3d 2a f9 49 3e
       -0.014794909 0.09597332 0.0971457 0.19723955
000070 e3 45 db bd 58 c7 90 3d 9c 39 3f be c2 b0 89 bd
       -0.10706689 0.07069272 -0.1867432 -0.06723167
000080 ac 6b 4c be 96 bd 70 be 75 4d 8e bd 75 29 7d 3d
       -0.19962949 -0.23509821 -0.069483675 0.061807115
000090 e9 4c ec 3d 67 7b 3b be d9 1f 13 be 72 d1 a9 bd
       0.11538107 -0.18308793 -0.14367618 -0.08291902
0000a0 78 5e ff bd d3 2d 06 be dc 42 a5 3d 41 7b 08 be
       -0.1246919 -0.13103418 0.08069393 -0.13328268
0000b0 eb bd 9e 3d a0 a0 e0 bd e4 60 09 3e 25 2e e0 bd
       0.07751068 -0.10968137 0.13415867 -0.10946301
0000c0 af 2c 49 be 60 65 f7 bd 5b 16 0c 3e ab 4d 26 be
       -0.19645952 -0.120798826 0.13680403 -0.16240565
0000d0 11 10 75 bb 92 f0 12 3d 36 a0 dc 3c 7c 3d b9 3d
       -0.003739361 0.035873957 0.026931863 0.0904493
0000e0 0b e9 6d 3d c4 89 02 3e 08 85 23 be c4 9e 5f 3e
       0.058083575 0.12747866 -0.15968716 0.21837908
0000f0 68 f4 08 be 60 e0 01 3e cd 88 c9 3d 45 2c 6c be
       -0.13374484 0.12683249 0.09840546 -0.23063762
000100 12 e1 f5 3d 72 82 69 be 19 8f ac be d8 8d c6 3d
       0.120058194 -0.22803667 -0.33702925 0.09695023
000110 68 ac 9f bb f3 0d a1 be 0e f3 bf bd 7e d7 91 be
       -0.0048728473 -0.31455955 -0.09372531 -0.2848472
000120 b8 e8 47 3e 06 a4 09 3d f9 cb dd bd 4c 19 73 be
       0.19522369 0.03360369 -0.1082992 -0.23740119
000130 13 d0 42 3d be e7 81 3d c3 e8 35 bc 81 2b c4 3b
       0.047561716 0.063430294 -0.011102858 0.0059866314
000140 fb 4f 2e 3e 4f 42 ea bd 7b 2b 68 3c 3a 42 e5 3a
       0.17022698 -0.114384286 0.014170523 0.001749105
000150 a9 fc 1d 3d 99 58 d9 bd 4c 48 43 3e 70 47 e3 3c
       0.038571034 -0.10612602 0.19070548 0.027744025
000160 38 86 79 be 54 3e 2f 3d 46 89 94 3d b8 e7 28 3e
       -0.24367607 0.04278405 0.07252745 0.16494644
000170 d8 fb 7b be cc e6 00 3e 55 15 a0 be 5d 71 e9 3d
       -0.2460779 0.12588042 -0.31266275 0.113985755
000180 f7 ee 39 3d 31 72 aa 3d 08 df e0 bd bc 42 40 be
       0.04539391 0.083225615 -0.1098004 -0.18775457
000190 a5 d8 85 be e4 77 92 3e cb 43 ea bd e7 f6 2c 3c
       -0.2614185 0.28607094 -0.11438712 0.010556913
0001a0 42 41 43 3e 40 57 21 be b3 4c ca bd d6 4b d3 3b
       0.19067863 -0.1575594 -0.098779105 0.0064482493
0001b0 5a ce f6 3d d1 fc ed 3c 4f e6 1d 3e 05 0a b0 3d
       0.12051077 0.029051216 0.15419887 0.08595661
0001c0 01 31 a3 3d 3e 24 4c be e9 fd 27 3e a1 51 c0 3d
       0.07968331 -0.199357 0.16405453 0.093905695
0001d0 f7 28 fd bd 94 1f bb bd b7 77 34 3e dc 42 92 3d
       -0.12361329 -0.091368824 0.17623793 0.07141659
0001e0 49 43 36 be 75 fa 2e 3e 1c 18 c4 bd 08 0a 01 3c
       -0.17799105 0.1708773 -0.09574911 0.007875927
0001f0 22 67 e5 bb 26 f2 38 3d 92 20 8b 3d 69 f3 3f bd
       -0.00700082 0.045152806 0.06793322 -0.046862993
000200 22 28 6f 3e 18 43 a1 3d b2 5f b1 3d 32 8e 24 3e
       0.23355153 0.07874125 0.086608306 0.16069868
000210 58 d4 1c 3e 3d ac 7c 3e 52 7c b6 3d 7e 4a 35 bd
       0.15315378 0.24675079 0.08910431 -0.044260494
000220 05 ac 9b 3b 32 c2 0e 3e 23 83 62 be 36 50 26 3e
       0.004750731 0.13941267 -0.22120337 0.16241536
000230 6b d9 ee 3d 34 5f a1 3d 1b de 2a be 0f 80 92 3d
       0.11662563 0.07879487 -0.16686289 0.071533315
000240 5c 59 41 bd f9 49 43 bc 59 c1 35 be db 6b 33 bd
       -0.04720436 -0.011919492 -0.17749538 -0.04380403
000250 4d 05 16 3e be 83 33 be 68 92 83 3e 5a 7a 8f bd
       0.1465046 -0.17530724 0.25697637 -0.070057586
000260 21 4f 30 3e e6 ff 20 3e ac bd 58 3e ff 0a 23 be
       0.17217685 0.15722618 0.21166104 -0.15922163
000270 9a 5f cd 3d 84 4d 34 3e 66 41 e5 3c b9 2e a3 3e
       0.10028 0.17607695 0.027985286 0.31871584
000280 0c a8 16 be 62 d6 56 3e 85 7a a0 bd fe 7d cd bd
       -0.14712542 0.20980218 -0.07835869 -0.10033797
000290 38 af 20 be 1a a7 5f 3e 33 d5 87 bc 12 db 79 3d
       -0.1569184 0.21841088 -0.016581153 0.060999937
0002a0 5f 25 47 3e 74 74 70 3e 46 e4 2c 3d bd 14 60 bd
       0.1944785 0.23481923 0.042209886 -0.054707278
0002b0 99 8b 09 3e b5 79 60 bd 51 75 f8 3d 2d 62 d9 3d
       0.13432159 -0.05480357 0.12131751 0.10614429
0002c0 4e b3 92 3e 3f ef 49 3e 39 e7 a5 bd e9 10 94 3e
       0.28652424 0.19720171 -0.08100743 0.2891915
0002d0 22 f8 04 bc fb 2f 13 be 7b 1e 5d 3e c5 1e f0 3d
       -0.0081158 -0.14373772 0.21593659 0.11724619
0002e0 61 87 8b 3e 9e 47 55 3d c2 0f a9 3d b9 9b 31 bc
       0.27251723 0.052070253 0.08254959 -0.01084035
0002f0 80 09 86 bd fb a5 e5 3d ab e1 6d be 82 ab 7a 3e
       -0.06544781 0.11213299 -0.23230617 0.24479488
000300 0b 8e e5 3d 81 bc 34 be a6 c8 07 3e 5a f8 9b bc
       0.11208733 -0.17650034 0.13260135 -0.019039322
000310 b7 2d 6b bd 32 f2 c8 bc 84 1a 92 3d 99 e6 3f 3e
       -0.057416644 -0.02452955 0.07133964 0.1874031
000320 b0 b4 4a be 43 42 3b 3e fc 0d d4 bd a1 34 10 3e
       -0.1979549 0.18286996 -0.1035423 0.14082576
000330 79 09 89 be 18 9d ee bd cd 32 76 3c 98 b9 30 3d
       -0.2676504 -0.11651057 0.01502676 0.043145746
000340 de 55 db 3d dc 09 a1 3d 03 74 63 3d ed bb 25 be
       0.10709737 0.07863209 0.05553056 -0.16184969
000350 76 92 bc 3b ed f6 30 3d 33 59 4e 3e c2 20 3e be
       0.005754764 0.043204237 0.20151214 -0.18567184
000360 fd 7d 4d bd 4e d0 70 be cd 66 4f 3e 48 47 73 3d
       -0.05016898 -0.23516962 0.20254059 0.05939415
000370 81 68 36 bc f5 d5 66 3e 91 d4 d0 3d 0d d8 cd bd
       -0.011133314 0.22542556 0.10196794 -0.10050974
000380 09 bf a0 be 55 7b 33 be 4f 9e 10 be dd f7 8b 3c
       -0.31395748 -0.17527516 -0.1412289 0.017085964
000390 8e 54 24 be 52 2e 17 3e fe bd af 3c 7d 7e 90 bd
       -0.1604788 0.14763764 0.0214529 -0.07055376
0003a0 81 1a 69 3e 55 7d 56 bd f5 ac 9a 3d 98 2c e7 3d
       0.22764017 -0.05236562 0.0755252 0.112878025
0003b0 06 b0 97 3d 73 06 5c 3d 2b 02 8a 3e 8e 25 8d 3d
       0.07406621 0.053717088 0.2695478 0.068919286
0003c0 c2 c3 f3 bc e8 b4 a1 bd 5a e0 3c bd ea 36 c4 3d
       -0.02975643 -0.07895833 -0.046112396 0.095807865
0003d0 3b c4 e1 be 53 92 17 be a0 7b 8a 3d 34 bd 89 be
       -0.44095024 -0.14801912 0.06761861 -0.26902163
0003e0 5f 6f 0f 3e dd a1 4b 3d 84 e5 86 be bd bb f7 bd
       0.14007328 0.04971491 -0.26346982 -0.12096355
0003f0 80 a9 fd bd 28 b8 b7 be 7c df 23 be 93 7a 89 bb
       -0.12385845 -0.35882688 -0.16003221 -0.00419552

network.8.bias f4 [32]
000000 6c 58 d1 3b eb a4 af bb 4c 57 ef bb 34 1f d4 bb
       0.0063887145 -0.005360236 -0.007304108 -0.0064734463
000010 09 2b b9 bb 4e 80 d0 ba 24 03 f5 3b d4 d3 2d bb
       -0.005650882 -0.0015907378 0.007477181 -0.0026523964
000020 28 13 87 bb 0a c3 42 3c 4f f1 bd 3b ac 80 3e 3c
       -0.0041221566 0.011887321 0.0057965885 0.011627357
000030 62 a8 e6 bb a5 46 3d 3b f8 47 f0 3b 5b b6 ec 3b
       -0.0070391158 0.0028881219 0.007332798 0.007223887
000040 4b a0 88 b9 cd ee 92 bb a2 e0 25 bc 16 2b 90 3b
       -0.0002605937 -0.0044840337 -0.010124357 0.0043996675
000050 92 92 d2 3b b7 3a 66 3b 16 96 f9 3b ff ef 0c 3b
       0.006426164 0.0035130212 0.0076167686 0.0021505354
000060 bc b0 1e bb bc dc 08 bb ad 53 71 3c d2 1c 87 3b
       -0.0024214229 -0.002088352 0.0147294225 0.0041233087
000070 2d d7 85 bb 61 88 24 3c 86 6a ab bb 46 a0 0f 3b
       -0.004084489 0.010042281 -0.0052312044 0.0021915599

network.9.weight f4 [32]
000000 a8 ad 48 3f 9b 93 59 3f 71 2a 46 3f a6 70 3b 3f
       0.7838998 0.84990853 0.7740851 0.7321876
000010 dd 3e 43 3f f1 50 5e 3f 12 ed 4f 3f 51 1c 40 3f
       0.76267797 0.86842257 0.81221116 0.7504321
000020 90 36 50 3f 11 72 55 3f 39 f3 5a 3f df f4 3a 3f
       0.81333256 0.83377177 0.8552738 0.73029894
000030 d0 87 59 3f 8c 13 53 3f c2 8e 43 3f ea 62 3b 3f
       0.8497286 0.824517 0.76389706 0.73197806
000040 22 a4 50 3f a7 31 64 3f 96 45 58 3f 7a 3a 3c 3f
       0.81500447 0.89138263 0.8448118 0.7352673
000050 15 4d 45 3f ad 3f 1d 3f 93 57 44 3f 61 c0 4f 3f
       0.7707074 0.61425287 0.7669613 0.8115292
000060 7b 42 58 3f a2 b7 4a 3f b9 8b 68 3f 68 bf 3e 3f
       0.8447644 0.7918645 0.908382 0.7451081
000070 d7 36 32 3f 4e 45 31 3f e0 50 47 3f 5a bb 28 3f
       0.6961493 0.69246376 0.7785778 0.65910876

network.9.bias f4 [32]
000000 9c c5 80 bd be 86 4e be 6a a5 1f 3e d7 54 57 bc
       -0.06287691 -0.20168588 0.15590444 -0.013142786
000010 df 1d 47 bc d6 66 c2 bc de e5 af be 32 1f 8a bd
       -0.012153118 -0.023730677 -0.34355062 -0.06744231
000020 63 ee 5e 3c 79 80 88 3c 8e 2d 7d be e0 5e 5f be
       0.0136066405 0.016662823 -0.24724409 -0.21813536
000030 9c 8e 67 bd 64 bd 8d 3a 43 69 09 be 08 42 34 be
       -0.056532487 0.0010813889 -0.1341906 -0.17603314
000040 91 52 b4 bd 82 ab e7 bd 9e 99 44 be d2 ac 32 bd
       -0.08804811 -0.113120094 -0.19199225 -0.043621846
000050 74 05 0d be ae 21 da be f5 5c 4e bd 20 b3 b3 bc
       -0.13771611 -0.4260382 -0.05038162 -0.021936
000060 59 23 1a be 52 c5 18 bd b6 d5 c6 bd b4 85 12 3a
       -0.15052547 -0.037297554 -0.09708731 0.00055893813
000070 71 f5 bc bd 37 6b fa bd 96 6d 5a bd 3b 19 ab be
       -0.09226502 -0.12227481 -0.053327166 -0.33417687
