soil_salinity_multi_sensor/outputs/models/stage1/stage1_epoch_70.pth (torch, 72297 bytes, 20 tensors)

network.0.weight f4 [128, 36]
00000000: 5363 453e dbe2 1a3e 6000 1a3f 7c6d a03e
00000010: 5d93 6d3d 9a0e 283d 9516 c73d 118d b7bd
00000020: c1e1 a03d ebe1 88be 31e9 563e 633d d73d
00000030: f44a 443e ddb4 db3d a7d3 0d3d 4c8f 3abe
00000040: a49f a53e e90c 653e 8a20 f73e 9995 303f
00000050: f943 f33d d4e2 02be 1c8b 3fbd bfae ad3d
00000060: 8937 c13e 1848 9a3e b778 fabc 6e5d b4bc
00000070: 484e 2cbe 6c69 1d3e 69b6 e6be 4968 f83e
00000080: 2678 353e 6459 2bbe 8a22 d8be 2b08 203d
00000090: b6a1 4d3e a18b 533d f60d a43d a7bb 673e
000000a0: 01de 03bc 6985 163d 03cc 943d 8361 923d
000000b0: 091a 29be 1082 9c3d 0ec8 efbc 7f7a f6bd
000000c0: 4685 c3bd 7b63 52be 03b5 c93d 40de 27bd
000000d0: 12ca 703e 4e0e 2a3e c0f5 5e3d 2457 2a3d
000000e0: b073 83bb 6470 a6bb 604e 553e 982b 773d
000000f0: ff5e b03d 2d7f f73d 5d94 9bbe b0ce 7a3e
00000100: 79d9 03bc 1767 88bd cafb f2be f117 bf3e
00000110: 4705 433e 6016 fcbc b7ea fbbe bcb1 8e3d
00000120: dc2f ee3e 92a9 dd3e b538 a63e cc3f 003f
00000130: dd87 8cbe dc29 c23b 0bf8 03be 2c62 91bc
00000140: cecf 8e3b 1850 363e 08a0 913e 2d02 993e
00000150: 8c80 6b3e de38 303e 9466 c6bc 5d4d aa3d
00000160: fa0f f03e 40c5 1f3f 15c0 a63e 72d0 1c3f
00000170: 284a 283d 6002 63bd 8e37 f0bb af9a 4e3d
00000180: d228 af3b f49e f4bd a0bb 1bbe d5e6 95bc
00000190: f21b ca3d b6b5 6c3e c56c 44bf 58e0 1e3f
000001a0: 7352 113d 9863 a33d a0ef 0cbf 8386 c2bd
000001b0: 09a1 cb3e 5844 073f 19b2 d93e d8b9 1d3f
000001c0: ef86 433d 640d 603c 4c61 02be 6c1e 00be
000001d0: 9c53 183e d337 0a3f 94c2 e53e 5a55 dd3e
000001e0: d890 b53e fe1c c53e 536a 903d 665f c3bd
000001f0: 50b3 183f 0a50 cf3e 127f 493f 7ce3 2e3f
00000200: 0a6f 2d3e e828 3bbe 477a 91bd 2a6b cabd
00000210: fbff e03e b8bf e43e 1cfc 28be 4adb 1c3d
00000220: e902 c7bd 728a bbbd 9732 703d 0f23 793e
00000230: 6033 a13c e440 3a3e 5976 86be c552 f6bd
00000240: 5689 88bd 881b 303e d118 923e b596 d33d
00000250: 9638 c03d 773d d23d 6dc3 10be 1e4e 2b3b
00000260: f442 3abf 1f52 3abe ce6e 09be 89f3 93be
00000270: d48a 1dbf c793 aabe 82b7 37be 4430 173d
00000280: 41bf 6f3e e30e 403e ccd0 eb3d 819c 733d
00000290: f7d8 333d bb19 4d3d 55fc bbbd f921 6a3c
000002a0: cc3f 44bd e99e afbd 24c0 cd3d 0cb1 803c
000002b0: 0b0c 1fbe 827a c53d fd7a cc3e 423d 12be
000002c0: 911b 2ebe 615d e5bd e9c0 573e ba6e c3bd
000002d0: 2f49 f5bc 5ea4 ff3d 47ea 3fbd 6126 c7ba
000002e0: be73 353b 42f3 04be 52f8 fabd da73 52bd
000002f0: 0f9d 0d3e 6a02 24bd 3c5c 28bd 4c0d 0bbe
00000300: 3cc2 e6bd 3e65 433d f8c0 213e 8437 1d3e
00000310: 05b5 4abd a985 9d3e 4a94 913b 9a5b 3e3d
00000320: a86b f03c 71e7 293d 9ab2 07be b7d5 8dbd
00000330: d83f acbc 39ef ddbc 7b5d 963d 64f8 56bd
00000340: 308a 923d e073 41be 92fc 62be 31fb 123e
00000350: 471d 413e 47f9 253e b055 8ebe aaa4 8b3d
00000360: ef28 043f b2de f23e f13f f13e 2e0f c23e
00000370: 629d 7bbe f180 343e e684 12be 9cd5 6b3c
00000380: cf32 89bc 18ab 9c3d 7697 5c3e b714 963e
00000390: 2bb0 0a3e e7f0 803e d126 063e ec28 bbbd
000003a0: 9c95 d83e d72e 7f3e ce03 1c3f 8482 a93e
000003b0: 39dd 0b3e 568e 0dbd b496 05be b758 a5bd
000003c0: 3e84 cd3e 9812 a63e 8cd3 81bc abb5 ddbd
000003d0: 0c60 ddbd d0b9 343e 4c7b 5cbe e773 cc3e
000003e0: 4bcd 993d 13f3 27be 532c 8bbe d7c4 0ebe
000003f0: ce12 ecbe 346e e9be d913 03bf fd33 3ebf
0.1927617 0.15125601 0.6015682 0.3133353 0.058001865 0.04102955 0.09721104 -0.08962453
0.07855559 -0.26734862 0.20987393 0.105097555 0.19169217 0.10727856 0.034625676 -0.18218726
0.3234836 0.22368206 0.48267013 0.6897827 0.11878199 -0.1278184 -0.046763524 0.08480596
0.37737682 0.30133128 -0.03057514 -0.022017207 -0.16826737 0.15372247 -0.45061043 0.48517063
0.17721614 -0.16733319 -0.4221385 0.03907029 0.20081219 0.051646832 0.08010475 0.22630177
-0.008048535 0.036748324 0.07265475 0.07147505 -0.16513838 0.07641995 -0.029270198 -0.12035083
-0.09546904 -0.20545761 0.09848978 -0.04098344 0.23514584 0.1660702 0.054433584 0.04158701
-0.0040115938 -0.005079316 0.20830679 0.06034431 0.08611869 0.12084804 -0.3038663 0.24492908
-0.008047455 -0.06660288 -0.47457725 0.37322953 0.19044982 -0.030772388 -0.4920251 0.06967494
0.4652089 0.43293434 0.3246514 0.50097346 -0.27447405 0.0059254 -0.1288759 -0.017747007
0.0043582683 0.17803991 0.28442407 0.29884472 0.22998255 0.17209193 -0.024218835 0.08315537
0.4688719 0.62410355 0.32568422 0.6125556 0.041086346 -0.055422187 -0.0073308414 0.050440487
0.0053454423 -0.119443804 -0.15208292 -0.018298546 0.098686114 0.23116192 -0.7672847 0.6206107
0.03547902 0.079779804 -0.5505314 -0.09498312 0.39771298 0.5283866 0.4251869 0.616117
0.047736105 0.013675068 -0.12732428 -0.12511605 0.14875644 0.5399143 0.44875014 0.4322918
0.3546207 0.38498682 0.0705153 -0.0953968 0.5964861 0.40490752 0.7870952 0.68315864
0.1693689 -0.18277323 -0.07103401 -0.09883721 0.43945298 0.4467752 -0.16502422 0.038295068
-0.09717352 -0.09157266 0.058641996 0.2432978 0.019677818 0.18188816 -0.26262167 -0.12027506
-0.0666682 0.17198002 0.28534558 0.103314795 0.09385793 0.1026563 -0.14137049 0.002613909
-0.7275841 -0.18195389 -0.13421175 -0.2889674 -0.6153996 -0.3331587 -0.17941096 0.036911264
0.23412801 0.18755679 0.11514434 0.059475426 0.043908086 0.050073367 -0.09178988 0.014290326
-0.047912404 -0.085752316 0.100464135 0.015709423 -0.15531938 0.09642507 0.39937583 -0.1428118
-0.17002703 -0.11199451 0.21069683 -0.09542604 -0.029942123 0.124825224 -0.046854284 -0.0015193933
0.0027687396 -0.1298342 -0.122543946 -0.051380016 0.13829444 -0.040041365 -0.041103587 -0.13579291
-0.11267516 0.047703974 0.15796268 0.15353209 -0.04948904 0.30766037 0.0044427263 0.046474077
0.02934821 0.041480485 -0.13251725 -0.069255285 -0.021026537 -0.02709161 0.07342049 -0.052482978
0.071552634 -0.18891859 -0.2216666 0.14353634 0.18858825 0.16208373 -0.2779975 0.068185166
0.5162496 0.47435528 0.47119096 0.37902206 -0.24571756 0.17627312 -0.14308509 0.01439419
-0.01674786 0.07649821 0.21542153 0.2931268 0.13543765 0.25183794 0.13100745 -0.091386646
0.42301643 0.24920212 0.60943305 0.33107388 0.13658608 -0.03455957 -0.1304577 -0.08073562
0.40139955 0.3243606 -0.015847944 -0.10825666 -0.10809335 0.17649007 -0.21531409 0.39932176
0.0750986 -0.16401319 -0.27182254 -0.13942276 -0.46108097 -0.4559189 -0.5120216 -0.7429808

network.0.bias f4 [128]
00000000: 8dd6 8ab9 9385 0737 a448 54b8 597e 2aba
00000010: 3413 bcb7 6202 a4b7 2b7c 9a39 6c40 cdb7
00000020: 5b93 9fb8 523f ad38 4a45 b8b9 b08d 8b39
00000030: 6c23 abb9 50d2 5139 e3a7 9037 a4ae d139
00000040: 0f4a 5b37 8356 85b9 b243 5137 dba0 5bb8
00000050: 913c 2539 cd84 2b38 fbde 84b9 3ac2 f438
00000060: 1eed 27b9 ef81 8fb9 7a11 40bb 2a5e f8b8
00000070: 9f27 9a38 e420 ecb9 2734 0e38 f553 82b9
00000080: 3875 0a38 ae7a cab9 73d5 0bb9 677d 0839
00000090: 86f6 56ba 7fb9 5b35 034c 0aba c7c7 0739
000000a0: 31e9 9439 a748 ba39 dea8 92b8 4574 a8b8
000000b0: 9a30 ce37 bcd7 8a37 7547 e337 c980 94b8
000000c0: 3000 b7b9 1064 a4b6 6b10 72b9 4966 1bb8
000000d0: b5a0 68b7 46e9 96ba 06d3 fa38 3a0f 64b9
000000e0: 78fd d139 14ea 6eb7 3dfb 6239 b90e 6a3a
000000f0: 097d 9639 241f c736 586b 40b9 4776 3d38
00000100: 248e 60b8 2e1c 5439 92e6 18ba 3928 25ba
00000110: d155 ce39 b15f fe38 de1a 38b9 c803 4339
00000120: 558c 183a 0023 25b9 e78c 4a36 3e8c f539
00000130: 60eb cd39 d13f 2e38 c502 f138 611a 10b9
00000140: 241d 0939 43fe dfb9 bf8b a9b9 af25 2cb9
00000150: 3ffb da39 52bd 76b7 63c3 333a 6126 44ba
00000160: af4d 16ba c02e 8c3a 8f63 f4b8 a616 96b8
00000170: 59c2 0a39 8625 1139 0403 1639 f6b4 d338
00000180: 5f61 dc39 ef51 553a 8a56 c6b6 c7a2 96b8
00000190: cc0d 8138 23e8 0139 7d37 24b7 cfe9 d639
000001a0: 1acb 5e3a 7a8a 9038 d645 0b39 f0b8 8238
000001b0: 929f 9d39 60f4 7a38 890d 63b9 dd38 da39
000001c0: 74a8 beb8 9ebb 9739 117f 4739 d03a f938
000001d0: 1d24 4638 0b08 7db8 dc80 60b9 2f57 1038
000001e0: fd00 eb38 4c89 44b7 8876 a0b9 c057 27b9
000001f0: 1241 033a 9f52 9cb9 15a7 b1b9 5d2b 3739
-0.00026481264 8.077727e-06 -5.061239e-05 -0.00065038126 -2.2420289e-05 -1.9551433e-05 0.0002946568 -2.4467903e-05
-7.609158e-05 8.261077e-05 -0.0003514684 0.0002661771 -0.00032642053 0.0002001014 1.7244316e-05 0.00039993704
1.307066e-05 -0.00025432193 1.2473132e-05 -5.2363477e-05 0.00015758189 4.0893257e-05 -0.00025343135 0.00011671004
-0.00016014694 -0.00027371894 -0.0029307292 -0.00011843101 7.350672e-05 -0.00045037933 3.390401e-05 -0.00024858085
3.3010932e-05 -0.00038619846 -0.00013335589 0.00013016687 -0.0008200187 8.185379e-07 -0.0005275609 0.00012949026
0.000284025 0.00035530815 -6.9932765e-05 -8.032521e-05 2.4579746e-05 1.6551341e-05 2.7093784e-05 -7.081178e-05
-0.0003490462 -4.8992297e-06 -0.00023085035 -3.705014e-05 -1.3865695e-05 -0.0011513613 0.00011960235 -0.00021749447
0.00040052435 -1.4240406e-05 0.00021646633 0.00089285854 0.00028703388 5.9342874e-06 -0.00018350536 4.5171266e-05
-5.353814e-05 0.00020228393 -0.00058326975 -0.0006300244 0.0003935532 0.00012129488 -0.00017557616 0.00018598058
0.0005819251 -0.00015748665 3.0182362e-06 0.0004683453 0.00039276015 4.1544266e-05 0.000114922914 -0.00013742737
0.00013076194 -0.00042723314 -0.0003233831 -0.00016417236 0.00041767393 -1.4706822e-05 0.0006857423 -0.00074825255
-0.00057336217 0.0010695085 -0.00011653371 -7.156776e-05 0.00013233106 0.00013842256 0.00014306238 0.00010094971
0.00042034217 0.0008137514 -5.9109343e-06 -7.182877e-05 6.153769e-05 0.00012388876 -9.788081e-06 0.00040991462
0.00084988924 6.892248e-05 0.00013282089 6.23333e-05 0.00030064263 5.9832237e-05 -0.00021653449 0.00041622567
-9.091283e-05 0.0002894075 0.00019025455 0.000118842 4.724051e-05 -6.032739e-05 -0.00021410309 3.441347e-05
0.00011205857 -1.1714477e-05 -0.0003060589 -0.0001595905 0.00050069497 -0.00029816196 -0.00033884557 0.00017468394

network.1.weight f4 [128]
00000000: 5653 813f 0e4f 6f3f 41b6 713f bcb0 6c3f
00000010: 235a 813f 2911 813f 2fd7 673f baee 8d3f
00000020: 4a3f 643f 08d1 843f def3 923f be8a 7e3f
00000030: 7bf4 843f 4805 8e3f f27f 943f ba66 7a3f
00000040: ec42 803f 2077 663f d019 7b3f 3f37 863f
00000050: f233 813f 03be 833f 42ad 873f 5cad 843f
00000060: ea22 783f a841 843f 83ca 8a3f abe8 773f
00000070: b902 893f 2098 7b3f 8690 713f b6c7 753f
00000080: fa13 723f 686a 803f 8981 713f f34e 803f
00000090: 6f3e 903f 93aa 7a3f 8335 8a3f bd28 643f
000000a0: 222e 8b3f 8e68 883f 94eb 7d3f 9cfc 8c3f
000000b0: 8ea1 703f fafd 823f 518d 6d3f 0511 6d3f
000000c0: accb 7e3f 15c3 8a3f 9e9e 643f 94b4 633f
000000d0: 590a 713f 6f78 913f 02a1 8e3f 007f 8a3f
000000e0: ac72 6d3f ca6b 7e3f 0cbc 813f c99e 893f
000000f0: 8fa3 6e3f 6d2f 7a3f f313 903f 914d 823f
00000100: a7d6 6d3f 58c3 8b3f f307 7e3f f4b1 8e3f
00000110: 4c05 803f 8eab 7a3f 4cd1 743f 9540 783f
00000120: 515b 683f a288 853f 4986 783f c320 813f
00000130: ba1e 723f 90ad 883f f467 843f def3 8b3f
00000140: f511 8a3f a44c 7c3f 489b 633f b52e 6d3f
00000150: c9f1 703f e55c 833f 0153 933f 56c9 8d3f
00000160: e870 953f 1e57 893f 87cd 803f 5498 6f3f
00000170: aad7 763f b358 723f 1979 623f 4a56 843f
00000180: 4f56 733f 2746 7d3f 8258 8a3f aaf2 763f
00000190: 872c 703f 651c 7a3f 4f23 703f dd76 913f
000001a0: e46c 683f d9bd 813f 0e64 813f a825 853f
000001b0: 34f1 813f 3d91 763f 27dd 823f 2a21 893f
000001c0: 2d6c 6e3f 652e 833f f627 713f 3993 783f
000001d0: 17aa 8f3f b2e3 733f 7ec3 813f 5d73 853f
000001e0: 6a73 633f bffb 683f 94c6 793f 3b10 663f
000001f0: fabb 743f 3247 7a3f e216 803f d2e4 663f
1.0103557 0.9348 0.9441872 0.92457175 1.0105633 1.0083362 0.9056272 1.1088479
0.8915907 1.0376291 1.1480672 0.99430454 1.038711 1.1095362 1.1601546 0.97813
1.0020423 0.9002552 0.9808626 1.048561 1.0093977 1.0292362 1.0599749 1.0365405
0.96928275 1.0332537 1.0843052 0.968394 1.0703956 0.98279 0.9436115 0.9600786
0.9456173 1.0032473 0.9433828 1.0024093 1.1269053 0.97916526 1.079758 0.8912466
1.0873454 1.0656908 0.9918759 1.101459 0.9399651 1.0233757 0.92793757 0.92604095
0.9952953 1.0840784 0.8930453 0.88947415 0.94156414 1.1364878 1.1142886 1.0820007
0.927531 0.99383223 1.0135512 1.0751582 0.9321832 0.97728616 1.1256088 1.0179921
0.9290566 1.0918989 0.9923088 1.1148057 1.0001616 0.9791802 0.9563186 0.96973544
0.9076434 1.0432322 0.970799 1.0088123 0.94578135 1.0677967 1.0344224 1.0933797
1.078673 0.98554444 0.88908815 0.92649394 0.94118935 1.0262724 1.1509706 1.1077068
1.1675081 1.0729711 1.0062722 0.9359181 0.9642283 0.94666594 0.8846603 1.0338833
0.9505357 0.9893517 1.080826 0.96464026 0.93817943 0.97699577 0.93803877 1.1364399
0.90791154 1.0136062 1.0108659 1.0402117 1.0151734 0.96315366 1.022374 1.0713246
0.93133813 1.0248533 0.942016 0.97099644 1.1223782 0.9526931 1.0137784 1.0425831
0.8884798 0.91009134 0.9756863 0.89868516 0.9559933 0.97764885 1.0006983 0.901929

network.1.bias f4 [128]
00000000: 7ac8 e8bd bbef 9ebd 20f8 33bc a07c 4b3d
00000010: c477 713c 9883 adbc d149 d63c f9bd 35be
00000020: f6fe 71be bfcf 9b3d a422 d53d 168b 423c
00000030: 9ab5 91bd 7183 f33c 9065 5f3d 735e 7cbd
00000040: fe2e 46be 6be9 74bd 3d2a 53bd 5f5b 093c
00000050: 8912 b73d 9b5e 0ebe 620d 763d 1fde 4fbd
00000060: 347d 5cbe 0055 68bd 9503 6b3d b1e1 e9bd
00000070: c80b 86bd d195 00bd aace 66bd aecf 54be
00000080: a415 43be 32fd a3bd 069e 2bbd f314 46bd
00000090: e65a 57bd 4268 983d b45c ad3d 55c0 1bbe
000000a0: 61c0 d73d 1568 a9bd dc9f f7bd 8b75 c4bd
000000b0: 7f8a 7abd 3ab3 3abd 12e0 74be c71c 46bd
000000c0: a0f2 82bd b0ec eabd 3e6a 51be 2181 d13c
000000d0: 5cbd 1bbe b49d 4abd 54d4 ea3d 3e02 fcbd
000000e0: 3a82 19be 9f03 033e 87e0 60bd af11 833e
000000f0: 604f 8a3d 9e49 ed3d b7af 84bd 3861 00be
00000100: 7a01 aebd b072 cebd e4e9 bbbc 7ad2 f83d
00000110: da67 25bd 0f91 843b 72dd a8bb efc1 09bd
00000120: 4caf 423e 1542 efbd f7b9 5cbe 0feb eabd
00000130: 6a4d aebd 4a43 87bd 9dc6 f2bd 629b b83c
00000140: f18a a7bb b9fd ccbb 8907 b63c 5204 28bd
00000150: 7093 44bd b1d8 a63d e646 fb3d a2af 063e
00000160: b323 d73c 19bd 1cbe 8075 b53c d262 4c3d
00000170: 5b68 6cbd eb57 64be 6a42 d03d afa4 823d
00000180: 9cbb cd3d 8af1 95bd c2fe f8bc 57e1 87bc
00000190: cba8 e73c eac7 493c b8f4 f6bd 74c3 3f3e
000001a0: bc23 9f3d bfa1 97bd 2e16 a33d abab 80be
000001b0: 83a6 54bd 9a1f 1dbd 7ab9 663c 5aaa 1b3c
000001c0: 8521 d1bd ace8 ef3c 6316 85bd 00c7 2abe
000001d0: d18e 883d a449 a7bd b1c5 7cbd 02f9 8d3d
000001e0: 49ec 30be 3940 893c f38a c33c 28c3 9f3d
000001f0: 8483 cabc 40f5 79bd 1700 b93b a93a 57be
-0.11366363 -0.07760569 -0.010984451 0.0496794 0.014738027 -0.021180913 0.026158245 -0.1774825
-0.23632416 0.07607984 0.10406998 0.011873981 -0.07114716 0.029725762 0.054540217 -0.06161351
-0.19353864 -0.059792917 -0.051553953 0.008383601 0.08939082 -0.13903277 0.060071357 -0.05074894
-0.21532136 -0.056721687 0.057376463 -0.1142 -0.06545216 -0.031392876 -0.056349434 -0.20782349
-0.19051224 -0.080072775 -0.04189875 -0.048359822 -0.052576922 0.074417606 0.08464947 -0.15210088
0.1053474 -0.08271805 -0.12091038 -0.09592732 -0.061167236 -0.04558108 -0.23913601 -0.048367288
-0.06393933 -0.11470926 -0.20450684 0.025574269 -0.15208954 -0.049466804 0.114662796 -0.12305115
-0.14991084 0.1279435 -0.054901626 0.2559943 0.06753421 0.11586307 -0.064788274 -0.12537086
-0.084963754 -0.10080469 -0.022938676 0.1214952 -0.040382244 0.0040456126 -0.0051533515 -0.033632215
0.19012183 -0.11682526 -0.21555315 -0.11470615 -0.08510859 -0.06604631 -0.11854289 0.02253503
-0.0051129987 -0.006255832 0.02222039 -0.041019745 -0.04799217 0.08146799 0.12269382 0.13152936
0.02626214 -0.1530651 0.022150755 0.04989893 -0.05771671 -0.22299163 0.101689175 0.06379067
0.10045549 -0.073214605 -0.030394915 -0.016586943 0.028278729 0.01231573 -0.12058395 0.18726903
0.07770488 -0.074038975 0.07963215 -0.25130972 -0.05191661 -0.038360216 0.014082307 0.009501064
-0.102114715 0.029285751 -0.064984106 -0.16677475 0.06667865 -0.08168343 -0.06171197 0.0693226
-0.17277636 0.016754257 0.023869967 0.07800895 -0.024720915 -0.061024904 0.0056457627 -0.21018471

network.1.running_mean f4 [128]
00000000: fae2 e63f 0006 babe d99c 5c3f b0b9 5a40
00000010: c851 eabf 42f8 5abf def5 bb3f 2407 14be
00000020: 3727 443e 204a eebf 6324 e63c 9fd1 09bf
00000030: c99b 35c0 cae5 33c0 5c82 3fc0 8116 143f
00000040: 0458 393f 78f1 4dbf 750a 4f3f 071f c9bf
00000050: 397d f8bf ff6a 96bf 88a7 2240 eeb6 d1bf
00000060: 69d7 823f c786 40bf 0036 f0bf bdcd 893f
00000070: 553e f6bf 96d7 3d40 4c71 d9bf 342d 683f
00000080: 8d81 0740 87c0 783e b36c 34bf 43fa 8abf
00000090: f4f3 d7bf fe26 343f 5205 09c0 75f9 9cbe
000000a0: 30b2 18c0 a189 e13f 0404 573d 3deb 42bf
000000b0: 94aa a23e 420b 80be 1d16 733e 0f33 9d3f
000000c0: 5fe4 21c0 79bf e8bf 4bcd 843f c43f 11bf
000000d0: 57bc 773e b05d febf 742d f83f 0e79 eebf
000000e0: 9ad1 1e40 14a5 40c0 70bd 09c0 5d59 1340
000000f0: 10db 0240 7fe3 05c0 0f90 bbbe 9f5d 58be
00000100: 8db4 02be 4522 b2bf d41f c5be 60f1 4e40
00000110: 22e4 60bf dc45 98bf 55b0 8fbf 86d0 a23f
00000120: 26d3 6940 1e03 7a3f c1c1 a1be 9d35 d03f
00000130: 63f8 033e c28b 3abf 6b13 523f b437 05c0
00000140: c4c1 5fbf 9d29 86bf 01e3 a53d ce32 913f
00000150: b02f 38c0 3962 25c0 57e8 08c0 2ebb 88c0
00000160: 646e e9bf b397 4940 7c1f 5140 6325 42bf
00000170: 550d e13f 34de b0bf a58d 8e3f 1540 00c0
00000180: 15cd ba3f ccf0 b3be 1e3f 693f 624c 443d
00000190: 528f 44c0 dd44 ffbf 964b 7dbe 35d7 47c0
000001a0: c678 f03f efb5 c53f 855d 0ec0 6682 b4be
000001b0: d9ac 09c0 242c ccbf aed5 18c0 3b09 2040
000001c0: 4ae2 e0be fa53 dabf c122 2bbf 6ddd 51bf
000001d0: 168f 24c0 1590 e93e 0c32 aebf d4a1 15c0
000001e0: 7f87 923f cff0 49be 054a 4cbd 0a9a ec3f
000001f0: 00d3 493f dc10 933f 8080 07bf 20ff 16be
1.8038018 -0.36332703 0.8617683 3.4175835 -1.8306208 -0.8553506 1.4684408 -0.14455849
0.19155584 -1.8616371 0.028093522 -0.5383548 -2.8376334 -2.8109002 -2.9923315 0.5784684
0.72399926 -0.8044658 0.8087533 -1.5712594 -1.9413215 -1.1751403 2.5414753 -1.6383951
1.0221988 -0.75205654 -1.876648 1.0765911 -1.9237772 2.9662833 -1.69877 0.90693974
2.1172822 0.24292193 -0.7047836 -1.0857624 -1.6871324 0.70372 -2.1409497 -0.3065907
-2.3858757 1.7620126 0.052494064 -0.76140195 0.31770766 -0.2500859 0.23738904 1.2281207
-2.5295637 -1.8183433 1.037515 -0.56737924 0.2419294 -1.9872341 1.9388871 -1.8630693
2.481543 -3.0100756 -2.1521873 2.3023293 2.0446205 -2.0920103 -0.36633345 -0.21129464
-0.12764187 -1.3916708 -0.38500845 3.2334824 -0.87848103 -1.1896319 -1.1225687 1.2719886
3.6535125 0.97661006 -0.31593135 1.6266361 0.12887721 -0.72869503 0.8206088 -2.0815248
-0.8740504 -1.0481449 0.08099938 1.1343629 -2.8779106 -2.58412 -2.139181 -4.272849
-1.8236814 3.149884 3.2675467 -0.758383 1.7582194 -1.3817811 1.1136976 -2.0039113
1.4593836 -0.3514465 0.91111934 0.047924407 -3.0712476 -1.994289 -0.24735865 -3.1225102
1.8786857 1.5446147 -2.224458 -0.35255736 -2.1511748 -1.5950971 -2.388042 2.5005634
-0.43922645 -1.7056878 -0.66849905 -0.81978494 -2.5712333 0.45617738 -1.3609023 -2.3380022
1.14476 -0.19720767 -0.049875278 1.8484509 0.78837585 1.148952 -0.5293045 -0.1474576

network.1.running_var f4 [128]
00000000: 6356 ba43 13b4 6c43 ed0c d442 9a4d dc42
00000010: aa37 2144 60b9 0945 ec92 8643 99c3 c544
00000020: 4970 f542 2e23 7244 d00f e742 674e 2742
00000030: 307d 1c43 add6 bf43 6545 bf42 9fea 2443
00000040: 76ae b343 bbef 2843 d2e1 0e43 dfd3 5944
00000050: a11c ec42 e823 7e44 be7f 8942 d320 5e44
00000060: 1fcf 8e44 93f2 8544 7e71 4e42 3a07 b943
00000070: e0cd e743 13ae f741 1810 3c45 1bc1 8343
00000080: e8fe 0343 2e1a e242 74e1 b444 b6ec 9e43
00000090: 551a bf42 25ea 8543 83d8 6f42 537a d842
000000a0: 0c81 8a42 de1d 4143 0dbc b543 5b8a de42
000000b0: 7c54 9244 510e f044 e619 3343 a72a 1e44
000000c0: b2f6 cb42 19e9 e843 a31d 0544 8d5a 8b44
000000d0: 630d 2245 81aa 0a43 8b2d dd41 e0a3 ac43
000000e0: 953c 0843 e21d 0043 dabc b942 3875 5042
000000f0: 7d02 1b43 ccc1 6643 8c94 a144 8b78 8544
00000100: 9ce9 4845 2333 f143 99a6 d942 2d8e 4a42
00000110: 259d 2343 e9f0 4e44 92fa 8743 ea6e b943
00000120: 9a85 df42 abae 2743 c618 a143 8519 0743
00000130: 3580 4a43 bfca 6e43 7b0b b242 cfe2 7543
00000140: 391f c342 90cb be42 11a4 4344 2274 a443
00000150: 03cf 4643 d21c 8642 9e1c c842 21a9 1f42
00000160: 84c0 0d43 a7ea 4942 8627 0e42 569d fa44
00000170: 8aab d242 ef3a dd44 68b0 b942 25e1 9a42
00000180: feb2 9843 a342 9643 d44e e842 66bf 1845
00000190: c4f8 0743 8f38 9543 9231 eb44 878e 9442
000001a0: 4c62 1743 868f c343 a9c5 a143 48f7 b843
000001b0: ae26 7843 3a1e f343 cdac 8542 6324 1e43
000001c0: 7d7e 3945 513a 1444 4de4 3644 9039 ed43
000001d0: 1fd7 6042 757b 8743 a60a d042 8bbc d642
000001e0: 4699 8d43 6813 2f44 c387 0b43 244e 1143
000001f0: 160b 9743 86b8 cb43 6e93 0c43 c7b8 3c44
372.6749 236.70341 106.025246 110.151566 644.86975 2203.586 269.14783 1582.1124
122.71931 968.5497 115.53088 41.826565 156.48901 383.67715 95.63554 164.91649
359.36298 168.93645 142.88211 871.3105 118.055916 1016.56104 68.7495 888.5129
1142.4725 1071.5804 51.610832 370.05646 463.6084 30.959997 3009.0059 263.50864
131.99573 113.05113 1447.0454 317.8493 95.55143 267.82925 59.961437 108.238914
69.252045 193.11667 363.46915 111.270226 1170.6401 1920.4474 179.10117 632.66644
101.98183 465.82108 532.4631 1114.8297 2592.8367 138.66603 27.647238 345.28027
136.23665 128.11673 92.86885 52.11447 155.00972 230.75702 1292.6421 1067.767
3214.6006 482.3995 108.825386 50.638844 163.61385 827.7642 271.95758 370.86652
111.76094 167.6823 322.19354 135.09969 202.50081 238.79198 89.02242 245.88597
97.56098 95.39758 782.56354 328.9073 198.80864 67.05629 100.05589 39.915165
141.75201 50.479153 35.538597 2004.9167 105.33504 1769.8417 92.84454 77.439735
305.39838 300.5206 116.15396 2443.9624 135.97174 298.44186 1881.5491 74.27837
151.38397 391.12128 323.54422 369.9319 248.1511 486.23615 66.8375 158.14214
2967.9055 592.9112 731.5672 474.4497 56.21008 270.9645 104.0208 107.36825
283.19745 700.3032 139.53032 145.30524 302.0866 407.4416 140.5759 754.88715

network.4.weight f4 [64, 128]
00000000: 3156 96bd 994c a0bd 916d 073e 9bf4 1fbe
00000010: 69f7 1dbe 49f5 bfbd 2b41 5a3d 4d45 9abd
00000020: 754a 963c 80d0 7dbe aaa6 f7bd 1cf8 923c
00000030: 0f90 bcbc 4263 a8bd 32d9 773d e1d5 c0bd
00000040: 94c0 9cbd 2066 b33c ce16 b6bd 44af e8bd
00000050: df63 47be 19cd 54be 97e3 4b3e 637a 31be
00000060: cc02 9fbd 0909 e23c 038f 17bd a992 a03d
00000070: 926c 08be e7be 493d 6321 ad3c 9cf1 8c3d
00000080: 32c3 143e af80 c9bd 356a 3d3d e4a5 acbd
00000090: 0644 debd c893 9a3d 6c2e bebd a29e 9b3d
000000a0: 59f8 c6bd 7381 d73d bdef ee3d 4790 4fbe
000000b0: 8207 983d 5d74 fb3c 3ae7 22be 0c22 52be
000000c0: 8a8a f6bc 3772 e5bd e5eb cdbd 86bd 18be
000000d0: 100a 01bd 57c5 213e e3a3 8c3e 4789 adbd
000000e0: 2dfd 493d bd4a ad3d a7f6 5cbe 602a d33b
000000f0: 56cb babd 606f 4ebd 7e03 c6bd 1e48 b3bd
00000100: f76d cd3d f99c 55be 6f6b ddbc 2fcc db3d
00000110: 80d4 8ebd de93 adbd 41f3 24be 2268 04be
00000120: 6cc0 1b3e 4b4d 68bd 4bed cfbd 10d7 a43c
00000130: 4e1c 1cbe 7506 c0bd 9166 ba3c 2534 adbd
00000140: afc3 99bc 8329 09bd cfca 0abc a894 a3bd
00000150: c816 c7bd 0169 afbc 0116 93bd 9b73 bdbd
00000160: ad24 a9bd eb71 ef3d 5b1c 713d 2dec 94bb
00000170: f881 833c 71ea 3fbe 315e 8bbd bc02 323d
00000180: 5f31 11bd d06e 4cbe 1dc6 273d 0e57 51bd
00000190: 6816 d6bc 665a 0d3d 7020 22bd 9610 ae3d
000001a0: d6d0 6c3d d1da bbbc ae05 bfbd f1ff 84bd
000001b0: 9331 82bd d9ec 4d3d 769e b43d 088f b9bd
000001c0: 4a19 d53d 95e6 04be 572c d1bb c4a8 25be
000001d0: 1f00 0cbe 1702 1dbd a361 babd d450 29be
000001e0: 212e 7b3d e6e5 81bd 15f3 cebd a5db da3d
000001f0: f660 7a3d 87f2 1ebc d622 b1bc a643 1ebe
00000200: 3fb4 323e 610b 67bb e95d e13d ed3b 123c
00000210: 4668 63bd f323 a2bd 3221 5dbd 0746 60bc
00000220: 344b bf3b 4caf 843c 1d9c 07be ecd6 b93d
00000230: a468 0ebe 3047 2abe ab08 3dbe 2a2a 293d
00000240: 7700 a53d c85e a13d cdfc 6bbe d9dd 08bd
00000250: ba04 46bd 0270 9fbd 6126 f53d e855 533d
00000260: 30c9 253c 3c31 993c 39db 16be 5cc0 18bd
00000270: 4c52 053d 2061 a9bc d106 bcbd 4550 213e
00000280: 7583 2a3e 7a09 2b3e 2eae fdbd 4f2c 7b3d
00000290: b21b 93be 3712 cb3d fa3e a23d cd85 bfbd
000002a0: fab4 c7bb b172 d03d 476f a13c ab3d 45be
000002b0: 32f5 0ebd 180d 2ebe 06a4 8d3d 12ad 0bbd
000002c0: c5c8 e13b 5233 96bd 8ab6 913d dc50 573d
000002d0: 6a71 eb3d 2b2f 433d 64c0 f0bd 0dea fcbd
000002e0: b103 09bd fe69 78bd 2c5f 163c bb56 f9ba
000002f0: b9e8 163c b355 1cbe 7641 0cbd 7b24 2abe
00000300: dc2a 403b 3498 0ebc 764e cb3d 1d25 123e
00000310: 2421 8d3d 0241 08be 0b1b 713c 37dd d53c
00000320: f28e 083e dac1 843d 01e2 113d 3405 653d
00000330: f09b 253e 4b3c d9bd 73dd 4fbd 913f 77be
00000340: 6b5e 1dbe dcdf 8b3d 5a50 8abd 00ee a93d
00000350: dcf9 07be e89e 0fbd 82df a4bd b05d 38bd
00000360: 0fdf 10bd 428d 8dbe 14f1 0e3e 59cd 54bd
00000370: 673d 1ebe 0037 14be 4a94 933d e7c3 5e3d
00000380: 3ee0 9ebd d15e 143e 5d16 1b3e bae2 5dbd
00000390: b8dc 953d 9c43 1ebe 3564 28be c27e da3d
000003a0: 09d2 b13d 6a3d 3e3e 0c32 0d3c a5de 53bd
000003b0: b658 fd3d dfa1 31be 76ce 513e 4f5c 943d
000003c0: 2497 1d3c 4c87 f8bd d661 673d a50f 18be
000003d0: 95ee 00bd cb2c 073d fb26 b93d 0371 683d
000003e0: 3450 2bbe c1d9 8fbd 87ea 3bbd 3756 8f3d
000003f0: e8d5 123e 7be7 12bd 195b 4d3e 046a 71bd
-0.073406585 -0.0782711 0.1322539 -0.15620653 -0.1542641 -0.09372956 0.053284805 -0.07532749
0.01834605 -0.24786568 -0.120923355 0.017940573 -0.023017911 -0.08222057 0.060509868 -0.09415794
-0.07653919 0.021899283 -0.088910684 -0.11361554 -0.19471692 -0.20781364 0.19911037 -0.17331843
-0.07764205 0.027592199 -0.03700162 0.07840473 -0.13322666 0.049254324 0.021134084 0.06882021
0.14527586 -0.098389976 0.046243865 -0.084300786 -0.10852818 0.07547718 -0.09286198 0.07598616
-0.09715337 0.10522737 0.1166682 -0.20269881 0.07423307 0.030695135 -0.15908518 -0.205208
-0.030095357 -0.112034254 -0.10054759 -0.14916047 -0.031503737 0.15797935 0.27468786 -0.08473449
0.049313713 0.08461521 -0.21578465 0.0064442605 -0.091208145 -0.050399184 -0.09668635 -0.0875399
0.1003074 -0.20860662 -0.027028767 0.10732304 -0.06974125 -0.08475469 -0.16108419 -0.12930349
0.15210122 -0.056714337 -0.10152682 0.020122081 -0.15245172 -0.093762316 0.022753986 -0.084572114
-0.018770067 -0.033486854 -0.008471205 -0.07987338 -0.09721142 -0.021412374 -0.07181931 -0.092505656
-0.082589485 0.1169165 0.058864933 -0.004544756 0.016053185 -0.18741776 -0.06805075 0.04345964
-0.035447475 -0.19964147 0.04096042 -0.051108412 -0.026133731 0.03451004 -0.039581716 0.08499257
0.05781635 -0.022931488 -0.09327255 -0.064941294 -0.06357112 0.050274704 0.088192865 -0.09060484
0.10405214 -0.12978585 -0.0063834595 -0.1617766 -0.13671921 -0.03833207 -0.09100654 -0.1653474
0.06132329 -0.06342678 -0.10104958 0.10686425 0.061127625 -0.009701378 -0.021623056 -0.15455493
0.17451571 -0.0035254585 0.1100424 0.00892542 -0.055519365 -0.07917013 -0.053986736 -0.013688571
0.0058378223 0.01619687 -0.13243146 0.09074196 -0.13907105 -0.16628718 -0.18460338 0.041299976
0.08056729 0.07879406 -0.23045655 -0.033414695 -0.04834435 -0.07785036 0.11970211 0.0515956
0.010118768 0.018700235 -0.14732064 -0.037292823 0.032549188 -0.020676196 -0.091809876 0.15753277
0.1665171 0.16702834 -0.12386738 0.061321553 -0.28732067 0.099155836 0.07922168 -0.09351692
-0.006094572 0.10178126 0.019706381 -0.19261806 -0.034901805 -0.16997182 0.069160506 -0.0341006
0.0068903887 -0.07334007 0.07114895 0.052567348 0.114962414 0.047652405 -0.117554456 -0.12349329
-0.033450786 -0.060647957 0.009177964 -0.001902304 0.009210759 -0.15267067 -0.034242116 -0.16615479
0.0029322421 -0.00870328 0.099270746 0.1427197 0.06891087 -0.13306049 0.01471592 0.02610646
0.1333578 0.06482287 0.035615925 0.055913165 0.16172767 -0.10607203 -0.0507483 -0.24145342
-0.15368049 0.06829807 -0.06753607 0.08297348 -0.13278908 -0.035063654 -0.08050443 -0.045011222
-0.035368975 -0.27646834 0.13959152 -0.051953647 -0.1545311 -0.14474106 0.07206018 0.054386046
-0.077576146 0.14489295 0.1514525 -0.0541713 0.073174894 -0.15455478 -0.16444476 0.106687084
0.08682639 0.18578115 0.008617889 -0.051726002 0.12370436 -0.17346905 0.20488915 0.07244169
0.009618554 -0.12135181 0.056489788 -0.14849718 -0.03147753 0.033001702 0.09040638 0.0567484
-0.16729814 -0.07023955 -0.04587796 0.06998866 0.14339411 -0.03586529 0.20054282 -0.058938995

network.4.bias f4 [64]
00000000: e91b c53b 60e3 0d3c 8b37 aabb c69e 19bb
00000010: fcf2 d23b 5fbc da3a b0cc 293b f4f8 1b3b
00000020: aa19 efba 3731 0ebb 5802 20bb 7bd2 133c
00000030: 2734 423a aa79 b63b 316c 98ba a964 aa3b
00000040: a3f8 0abb 061d b9ba 8b53 993a 5ea6 7a3b
00000050: 31b1 023a 28dd 723b 7298 aa3a 494b ebba
00000060: 4ca3 893a e9a5 26ba 04f6 98bb 9439 5ebc
00000070: 316b 263b e3cd 89ba 8705 bf3a 75a2 953b
00000080: 9b73 ffba 4ecd ae38 8c04 babb abdd 44bb
00000090: d8fd c73a 789f d6b9 3c91 653b 6416 4b3b
000000a0: e97c f43b b0aa 213c e22b c03a ddb1 c7ba
000000b0: 0117 563a 9e46 8eba 6420 2dbb 0e06 debb
000000c0: f92c 3c3b ded5 eaba cb2d f43b cab6 e63a
000000d0: 6b46 813a 8d42 9c3b 5c92 2d3b 36f5 803a
000000e0: 1645 b53b 3580 9c3b 45f0 063b d1d1 f43a
000000f0: 3bdb a9bb 117e 883a 26a6 9c39 084d 4bbb
0.00601529 0.008660167 -0.0051946095 -0.0023440584 0.0064376574 0.0016688219 0.0025909357 0.002379951
-0.0018241901 -0.0021696815 -0.002441546 0.00902235 0.0007408284 0.0055687027 -0.0011628923 0.005199988
-0.0021205328 -0.001412303 0.0011697871 0.0038246135 0.000498551 0.003705809 0.0013015403 -0.0017951514
0.0010500937 -0.000635712 -0.004667999 -0.013563532 0.002539348 -0.001051363 0.0014573791 0.0045664855
-0.0019489409 8.3352075e-05 -0.0056768116 -0.003003935 0.0015258146 -0.00040936074 0.0035029193 0.0030988688
0.0074611795 0.009867355 0.0014661516 -0.0015235503 0.000816688 -0.0010854786 -0.0026417011 -0.006775624
0.002871333 -0.0017916521 0.007451748 0.0017602083 0.0009862905 0.0047686757 0.0026484942 0.0009838704
0.0055319173 0.0047760257 0.002058999 0.0018678253 -0.005183605 0.0010413547 0.0002987843 -0.0031021256

network.5.weight f4 [64]
00000000: 0774 6d3f 9c3e 683f 15d2 7e3f e341 8a3f
00000010: 5cf3 703f b3fd 5d3f 74bf 7e3f e9bc 9a3f
00000020: efbb 813f 5860 703f 42d4 8a3f 134a 6d3f
00000030: f30b 653f 1867 6c3f 3d64 7c3f 7a96 833f
00000040: e9b6 6b3f 619e 763f 0752 823f 3090 943f
00000050: cd8c 7c3f 66b3 7e3f 0118 6c3f 3450 803f
00000060: b554 873f e3e3 863f bfeb 743f 4330 7a3f
00000070: b845 973f 45d7 663f 60ea 8d3f 118d 7d3f
00000080: f71b 913f d209 5f3f 2e0f 7d3f 7bd0 763f
00000090: b3af 583f 725c 883f c2b3 7b3f e20f 743f
000000a0: 5af5 753f f4fa 933f 0da1 813f 1dc5 9a3f
000000b0: d0a6 7e3f aace 823f 0a3b 6a3f 705e 6f3f
000000c0: 7831 713f c015 7b3f 78a3 7b3f d610 873f
000000d0: f89f 9e3f e70e 6d3f 4fde 583f ba8d 693f
000000e0: 9f2f 7d3f 928e 623f bd07 793f 8734 763f
000000f0: c65a 7f3f c35c 8e3f e38d 933f fbfc 873f
0.9275517 0.90720534 0.9953931 1.0801357 0.94121337 0.8671524 0.99510884 1.2088901
1.0135478 0.9389701 1.0846026 0.92691153 0.8947136 0.9234481 0.9859045 1.0280297
0.92075974 0.9633542 1.0181283 1.1606503 0.98652345 0.9949249 0.9222413 1.0024476
1.0572726 1.0538296 0.9567222 0.9772989 1.1818151 0.90172225 1.108715 0.99043375
1.1336659 0.8712436 0.9885129 0.96411866 0.84643096 1.0653212 0.98321164 0.95336735
0.960775 1.156096 1.0127274 1.2091404 0.99473286 1.0219319 0.91496336 0.93503475
0.9421611 0.9808006 0.9829631 1.0552013 1.2392569 0.92600864 0.84714216 0.9123188
0.9890079 0.88498795 0.9727743 0.961739 0.99747884 1.1122059 1.1527675 1.0624079

network.5.bias f4 [64]
00000000: b2ab 243b 979c 21bc 6160 abbd bec1 b7bd
00000010: 8b65 993c 0898 a8bd 3e15 e53c 662e 0e3e
00000020: e04f 813d 02c0 9ebd 0feb fa3d 1b84 d0bc
00000030: 778b 03be bcb3 3dbd 5ddf ed3c c4a6 e4bc
00000040: df4c b6bd 210c f8bd 84fd d1bc 7cea 6b3e
00000050: 0611 173e 6321 a1be aa00 7bbd ff3e 99bd
00000060: ecc0 c83d 3f24 063e adcf dfbd 41eb d03d
00000070: bf2a 983e 1889 1cbd af0a ab3d b19f 0d3a
00000080: 73e0 4abd b640 e1bd 56c0 c73d 2de9 4ebd
00000090: d590 97bd 44f6 183e ff53 793c 310e 1cbd
000000a0: 6a58 c0bd e7c1 b23d 214f 4dbd 023a a33e
000000b0: 212c edbd 73af c7bc 65f8 a5bd 9ba7 53be
000000c0: c553 d7bd 8ee3 3b3b 5f22 66bd 18c5 503d
000000d0: 01ca 3e3e a9be 9abd 7e89 98bd b288 49bd
000000e0: 0500 4cbd 951e febd 264b 33bd aaf1 b5bd
000000f0: a499 a6bd e1af a33d 6a70 643e d03b 39bd
0.0025126752 -0.009863994 -0.08367992 -0.089725 0.018725177 -0.08232123 0.02796423 0.13884887
0.06314063 -0.07751466 0.12251865 -0.025453618 -0.1284617 -0.046313986 0.029037172 -0.027911551
-0.08901381 -0.121116884 -0.025633581 0.23038667 0.14752588 -0.31470785 -0.06127993 -0.07482719
0.09802422 0.13099764 -0.10928283 0.10201121 0.29720113 -0.03821668 0.08351647 0.0005402519
-0.049530458 -0.10998671 0.09753482 -0.050515343 -0.074006714 0.14937693 0.01521778 -0.03809947
-0.09391864 0.0872839 -0.05012429 0.31880194 -0.115806825 -0.024375653 -0.08104018 -0.20669405
-0.10514025 0.0028669569 -0.056185123 0.050969213 0.18631746 -0.07555897 -0.074480996 -0.04920263
-0.049804706 -0.12408177 -0.04377284 -0.088839844 -0.081347734 0.079925306 0.22308508 -0.045223057

network.5.running_mean f4 [64]
00000000: fa50 d2bf 220b d1be 62b5 80bf 1873 c1bf
00000010: aa46 7bbe 5b3e 7ebf 9838 1c3e bf9c 553f
00000020: 8c7d 79bf 70cf 8ebf 8c6a 423f d73c 46bf
00000030: 7ce9 15bf 528a c13e a070 033e d4b3 603f
00000040: 65f6 083d fa69 acbf a5ec bcbf 7833 d4be
00000050: 07e8 d4bd 78a8 c93f 6ded 1f3f 12cc c63f
00000060: 87f3 723f 8e19 bb3e 50e3 ee3e 890f 823d
00000070: 42ad aa3e 1dd8 cc3d f45e 493f 6d90 eabe
00000080: 16fb c43f 0f48 583e c599 9abe 3ba2 54bf
00000090: 4f8a 32bf e7be a53e 3fab bbbf a8ce b1be
000000a0: b918 22bf 9799 35be 7c62 2bbf 7a77 103f
000000b0: 051d 92bf b064 dc3e b0da d53e 3ba6 003f
000000c0: 5e5f 6b3f 8ea2 553f dc72 16be 7ca9 a9bf
000000d0: 9cee 853f 7a10 83be 6362 9abf 98a7 cebf
000000e0: 20f7 a5bf 0b83 71bf 0c7e 8bbd bb97 8ebf
000000f0: bc4c 513f 2b45 58bd 50e4 3c3f 9e48 e23c
-1.6430962 -0.40828806 -1.0055354 -1.5113249 -0.24538675 -0.99313897 0.15255964 0.834423
-0.97457194 -1.1157055 0.7594383 -0.77436584 -0.58559394 0.37800843 0.12835932 0.87774396
0.033438105 -1.3469841 -1.4759718 -0.41445518 -0.10395818 1.5754538 0.6247166 1.5531027
0.94902843 0.36542934 0.466578 0.06350619 0.3333531 0.10002158 0.7866051 -0.45813313
1.5389125 0.21121238 -0.30195442 -0.83060044 -0.6974229 0.3237221 -1.4661635 -0.3472798
-0.63318974 -0.17734371 -0.6694715 0.56432307 -1.1415106 0.43045568 0.41768408 0.5025365
0.91942394 0.83451164 -0.14692253 -1.3254848 1.0463443 -0.25598508 -1.2061275 -1.6144896
-1.2966042 -0.9434058 -0.06811151 -1.1140054 0.8175771 -0.05280034 0.7378588 0.027622517

network.5.running_var f4 [64]
00000000: b9bc 5840 730e bf3f 3dfa 2a40 57bf 8940
00000010: abcc b440 e73b e93f 8410 6840 3d72 c040
00000020: bfac 6340 8680 1940 b2de 1140 d840 a540
00000030: ea6c d640 fb32 4b40 7a37 6540 672d a540
00000040: 9f9b 1b40 1bfb 3840 a493 0540 222d 1841
00000050: 51b5 8140 af54 cc40 1a2a 5340 dfd3 5540
00000060: 74c2 7c40 c620 2140 80fd 6d40 95e1 3740
00000070: af82 e640 c684 a13f 09b8 a540 757c 8640
00000080: b90c e040 3975 1440 f5ea 3340 37c2 3e40
00000090: 8a2b 1a40 5cfd 8b40 9759 9d40 d94f 4e40
000000a0: c733 6940 b161 4040 2c7f 1f40 aa59 b340
000000b0: cb0b 6640 97ff 4440 daa0 2640 155a 4840
000000c0: 433a 8a40 fb25 7740 33cd ba40 2dc1 d240
000000d0: 9c56 9340 d712 3a40 d161 9340 325b 9740
000000e0: 932a e43f 036a b33f 2fa0 5640 0f86 a83f
000000f0: 78bd 5440 ac89 6b40 251b 8840 0272 4d40
3.3865187 1.4926285 2.6715233 4.304607 5.649984 1.8221406 3.626008 6.013945
3.5574186 2.3984694 2.2792172 5.1641655 6.700795 3.1749866 3.581511 5.1617923
2.4313734 2.8903263 2.0871363 9.511019 4.0533834 6.3853374 3.2994447 3.3410566
3.9493685 2.5176253 3.7185974 2.8731434 7.2034526 1.2618644 5.178715 4.2026925
7.001553 2.3196547 2.8112156 2.980604 2.4089074 4.3746777 4.9171863 3.2236235
3.6437852 3.0059626 2.492137 5.6046953 3.5944698 3.0781 2.6035676 3.1304982
4.319612 3.8616931 5.8375487 6.586081 4.6043224 2.9074 4.6056905 4.7298822
1.7825493 1.4016727 3.3535268 1.3165911 3.3240643 3.6802778 4.2533135 3.2100835

network.8.weight f4 [32, 64]
00000000: 3c53 2a3e 8296 3dbe 21df 7ebd e553 7c3d
00000010: 00fd 8cbc 9616 45be 9e2b 4bbe 2542 3d3e
00000020: cd61 54bd 2ac3 cebd 1e01 18be cd59 433c
00000030: d82f cabd 4191 26be 5872 813e ae4f 7ebe
00000040: 8642 2abd 1822 a73d a12a 283d eabc 5fbe
00000050: 138d f5bd 7ae6 cd3d f450 8a3b 44d4 25be
00000060: f68b 6abe 9c77 cdbe fc16 1ebe 9f2b 6fbe
00000070: a110 a6be 0fc7 e439 89d4 85be 57e1 25be
00000080: 0d64 8abe 3e6c 0bbe 58a7 0dbe 8a62 bd3d
00000090: 2d85 09be 28f3 b8bd 5513 8fbd e307 2ebc
000000a0: 534a 96bd 3f8d 8abe b6e5 983d 6b06 25be
000000b0: c4b7 c3bd 7a3d 0ebe 2141 26be 41f3 5f3d
000000c0: d7f3 dd3c 34f0 cf3b 6956 7dbe 1957 89bd
000000d0: a7f2 583d 4842 cc3d 04c5 e63c c788 19be
000000e0: 338b 75be 7a1e 7abe e36c afbd 5bc1 8fbd
000000f0: feb9 09be c07f 1bbe 5107 4d3e dc4d 243d
00000100: 17d1 4b3c 8363 26bc 7bd3 303e 1b77 803c
00000110: 96a1 c4bd c3c0 03bd 3b92 a6ba c1fe a2bd
00000120: d985 983c e027 f0bb b1aa 1b3e 29d4 d13c
00000130: 59d4 173e cca8 213e 9f85 9cbb fbdc 3abe
00000140: e15b 1fbd eea0 873d 08f5 6abe 88ac a3bb
00000150: 51e1 45bc c023 93be f571 4c3e 38bf 893b
00000160: 71b3 343c 44dd e53d 4217 c13d 2e9e 38bd
00000170: b6d3 e3bd d062 05bd e27b 4cbe 415e bdbd
00000180: 9595 8abe dd3c 2a3e 08cf 223e 58b0 eb3c
00000190: 4863 903d 819c 0ebe a7d0 0bbe dc9c 153e
000001a0: 7fd5 a0bd d249 84be f526 75be 3768 9bbe
000001b0: d086 0dbd c06e 683e e5e3 013d 9c8a 853e
000001c0: c0f5 fc3c 8538 b63d e3ce 75bc dfaa aabc
000001d0: 9209 e1be 3e6e 77bc 5082 403e 5334 0cbe
000001e0: e9f0 01be 0c51 12be 0670 1b3d 82af 85bd
000001f0: bfcc 6c3e e303 023e 7bbe 4d3d 50b9 dcbd
00000200: da79 eb3c 5e8a 06bd c3d7 bebd 61fa 093d
00000210: 21b7 4abc dd97 203d 2c69 96bd 516c d43b
00000220: 2f2c 48bc 1c02 7bbd 7404 cbbd 34f6 a6bd
00000230: ce4f 50be e6c7 f73d ed7e 23be 89e7 483d
00000240: 6bd9 283e 7908 103e 2f10 7b3e 865a d43d
00000250: 1a34 b53d 6e51 09bc aaed 993d 34c9 643c
00000260: e301 fb3c a3bc 393e 3a72 4d3e 500c 763e
00000270: ad84 873d 8a41 ff3c 0c97 52bd 695b ebbd
00000280: 31d7 b73d e3b3 803d 956d 323e 0a08 19be
00000290: 22dc d43c 6551 473e a414 ce3d 79c3 393e
000002a0: 0dce 993e 302c 083e 56a8 873e 0e33 2bbe
000002b0: bf63 d2be 97e0 63be ab61 8f3e 2a43 8f3d
000002c0: dc13 9dbb a410 23bd 3c64 3e3c 0fd5 48be
000002d0: 0e1c fa3c f68e 68bd 26e0 183e da68 b63d
000002e0: 3cc5 ac3e 54a1 1fbd d869 603e 6e23 aa3d
000002f0: 6d87 923c e4dd ea3d 1a1a 25b9 748c 823e
00000300: 1f98 54be 9f2f 4cbe 1fac 943d 1a5c 153e
00000310: 8e58 343e 9134 35be 4ef4 41be 2dc8 683e
00000320: 76a2 e63d 9414 43be 6eb8 8c3e 7d13 99bc
00000330: cb03 43be bb38 a1bd fe28 9abe d3c9 e0bd
00000340: f41e 183e 016c ac3c d257 adbd a110 cfbd
00000350: f70d 1abd 9a34 edbd 2ee7 003e abb1 8bbd
00000360: fca6 0d3d 4e72 40bd 07e7 8a3e f83c 8ebe
00000370: cbaa e5bd 8dfe 39be ef27 22be 5eea 643e
00000380: fd15 8cbe 9424 ae3d 19b4 33be 118f 0dbe
00000390: 74c1 12bd 303e ad3b 0f9d 78bc 7f04 62be
000003a0: 29e0 bebd e1f2 c3be 3b31 983d 9304 d93d
000003b0: 8e11 493e ba56 55be 2676 7d3d bfc9 933d
000003c0: 0bc2 a9bd 9437 28be 8ecc 513c b0d0 493e
000003d0: 9269 ef3d b559 bf3d 5dc5 82bd 109b ef3c
000003e0: 1e2a 1cbd b27a 5dbe 666a e3bd 2ae8 08be
000003f0: 14b9 c93d cc61 43be aa8a 02be f252 5ebe
0.16633314 -0.18514445 -0.06222451 0.061603446 -0.017210484 -0.19246897 -0.19840857 0.18482263
-0.051851083 -0.10095818 -0.14844176 0.011923266 -0.09872407 -0.16266347 0.2528255 -0.24835083
-0.041567348 0.081608 0.04105628 -0.21849409 -0.119897984 0.100537255 0.004221076 -0.16194254
-0.22904953 -0.40130317 -0.15438455 -0.23356484 -0.32434562 0.0004363586 -0.26138714 -0.16199242
-0.27029458 -0.1361551 -0.13833368 0.092473105 -0.13429709 -0.090307534 -0.06986109 -0.0106219975
-0.07338395 -0.27060887 0.07465689 -0.1611573 -0.09556535 -0.13890639 -0.16235782 0.054675344
0.027093811 0.006345773 -0.24739994 -0.06706066 0.052965786 0.0997358 0.028170116 -0.14993583
-0.23978882 -0.24425688 -0.0856569 -0.070193015 -0.13449857 -0.15185452 0.20022322 0.040113315
0.012439988 -0.010155561 0.17268173 0.015681794 -0.096011326 -0.032166254 -0.0012708375 -0.07958747
0.018618511 -0.007328972 0.15201832 0.025613861 0.14827098 0.15787047 -0.004776671 -0.1824836
-0.038905982 0.06622492 -0.22945035 -0.0049949326 -0.012077645 -0.28738213 0.19965346 0.0042037033
0.01102911 0.11223844 0.09428264 -0.045072727 -0.11124365 -0.032564938 -0.19969133 -0.09246493
-0.27067247 0.1662478 0.15899289 0.02877061 0.070501864 -0.13926889 -0.13653813 0.14610618
-0.07853221 -0.2583757 -0.23940642 -0.30352947 -0.034552395 0.22698498 0.031711478 0.26082313
0.030878901 0.08897499 -0.015002939 -0.02083343 -0.43952614 -0.015101967 0.1879971 -0.13691835
-0.12689556 -0.1428873 0.03794863 -0.06527616 0.2312498 0.12696795 0.050230484 -0.10777533
0.028744627 -0.0328468 -0.09318497 0.033686046 -0.012372763 0.039207328 -0.07344279 0.006482639
-0.012217565 -0.06128131 -0.09912959 -0.08152428 -0.20342943 0.120986745 -0.15966387 0.049048934
0.16489188 0.14065732 0.24517892 0.103688285 0.08847828 -0.008381231 0.07516034 0.013963986
0.030640548 0.18138365 0.20063105 0.24028134 0.06617103 0.031159181 -0.05141358 -0.114920445
0.089765914 0.06284311 0.17424615 -0.14944473 0.025983874 0.19464643 0.10062531 0.18140973
0.30040017 0.13298106 0.26495618 -0.16718695 -0.41091725 -0.22253643 0.28004202 0.069952324
-0.004793627 -0.03981079 0.011620577 -0.19612525 0.030530956 -0.056776963 0.14929256 0.089067176
0.33744228 -0.038972214 0.21915376 0.08307539 0.017886842 0.114681035 -0.0001574535 0.25497782
-0.20761155 -0.19940041 0.07259392 0.14585915 0.17611906 -0.17695834 -0.18940851 0.22732611
0.11261456 -0.19050819 0.2748446 -0.01868605 -0.19044416 -0.078721486 -0.301094 -0.10975995
0.14855558 0.021047594 -0.08464016 -0.101105936 -0.037610974 -0.115822986 0.12588188 -0.06820997
0.034583077 -0.04698401 0.27129385 -0.2778089 -0.11214217 -0.1816351 -0.15835546 0.22355029
-0.27360526 0.085030705 -0.1754917 -0.13824107 -0.035829023 0.0052869543 -0.015174164 -0.22072028
-0.09320099 -0.3827124 0.07431265 0.105965756 0.19635603 -0.20833865 0.061880253 0.072162144
-0.08288964 -0.16427451 0.012805117 0.19708514 0.11690058 0.09343282 -0.063853 0.029248744
-0.038126104 -0.21628836 -0.11104278 -0.13369814 0.09849754 -0.19080275 -0.12748209 -0.21711329

network.8.bias f4 [32]
00000000: 500d 813c a4bb b3ba e824 4dbb d6a4 64bb
00000010: 3f08 bc3b 2f91 d9bb 22e7 24bc 8e68 103a
00000020: 0251 04bb 4433 da3b 8d75 743c 72fd cebb
00000030: 711f d0ba abff 8fbb a51e 8dbb de05 4b3b
00000040: 4e62 bc3b 9803 823c 2b27 703a 131b e53b
00000050: d703 213c aefe e0ba 3b58 25bb 0351 e2bb
00000060: 1d39 383b c7ae ff3b 6386 81ba 39f2 d7bb
00000070: 300e e6ba e908 c43b bfd1 2fbc de3a 043c
0.015753418 -0.0013712537 -0.0031302515 -0.003488829 0.0057382877 -0.0066396217 -0.010064872 0.0005508744
-0.0020189886 0.0066589434 0.014920604 -0.006316834 -0.0015878511 -0.0043944917 -0.0043066316 0.003097884
0.0057490235 0.015870854 0.000916111 0.006991753 0.009827576 -0.0017165744 -0.0025229591 -0.00690663
0.0028110214 0.0078028175 -0.0009881969 -0.0065901545 -0.0017551836 0.0059825075 -0.01073116 0.008070676

network.9.weight f4 [32]
00000000: 4370 413f 92aa 393f 5249 503f f924 3f3f
00000010: 1de9 493f 9407 263f 19ae 423f b533 413f
00000020: 3b75 3a3f b2a9 533f 5af2 4c3f 0452 5e3f
00000030: 78a5 263f 5129 423f 8777 4a3f b998 3d3f
00000040: 0dd4 413f a8a9 593f 1bac 403f 3a9a 3f3f
00000050: a01d 5a3f a3ac 4a3f 6e0d 343f 533e 443f
00000060: 692f 563f 4447 443f 091a 6a3f c9ec 3e3f
00000070: 657a 353f 014e 3c3f 625c 483f dccb 313f
0.7556192 0.72525895 0.8136188 0.7466579 0.7887133 0.64855313 0.760469 0.75469524
0.7283513 0.8268081 0.800573 0.86843896 0.65096235 0.75844294 0.79088634 0.7406116
0.7571419 0.850245 0.7526261 0.74844706 0.85201454 0.7916967 0.7033299 0.766576
0.8366609 0.7667124 0.91445976 0.74580055 0.70889884 0.73556525 0.78265965 0.6945169

network.9.bias f4 [32]
00000000: 09c7 11be b6c8 2abe 03a9 c83d a302 d3bc
00000010: 1582 57bd 087c 8ebe b6df 84be f369 33be
00000020: 6ae6 59be c2cb e0bd f268 81be be5a 0cbe
00000030: 1ff0 50be 8dde 9abd 7133 45bc 234e 85bd
00000040: 34c1 0dbe 4838 813d 23ef 81be 3dbf 3abd
00000050: 3e3e 0dbe cc7a 90bd 04f3 303c 451e 2cbe
00000060: febf 5dbe 91c3 3ebe bffa 9dbd abe9 cdbe
00000070: a500 36be a9db 4c3c e8a9 a4be b25a d1bd
-0.14236082 -0.16678128 0.097978614 -0.025758093 -0.05261429 -0.27829003 -0.25951928 -0.17520885
-0.21279302 -0.10976364 -0.2527538 -0.1370649 -0.20404099 -0.075619794 -0.01203619 -0.06509044
-0.13843232 0.06309563 -0.2537776 -0.045592535 -0.13793275 -0.07054672 0.010800127 -0.16808422
-0.2165527 -0.1862929 -0.07713842 -0.40217337 -0.17773683 0.012503543 -0.32160878 -0.10222377

network.9.running_mean f4 [32]
00000000: 8c17 08c0 8df7 33bf d569 7c3f c8f8 81bf
00000010: d3ff c9bf 294f e5be 5e33 30bf a610 0ebf
00000020: 83cd d6bf 4a33 84bf 5268 95bf 996b 41bf
00000030: 3405 9ebf f64e 64bf e123 cabf 12dc a6bf
00000040: 5700 a0be ddde c9bf 8b6d b4bd e65e d9bf
00000050: 84a2 46bf a5a9 3dbf d292 e9bd 96c3 99bf
00000060: 0b87 17bf 2319 9fbf 5f39 60bf f002 40bf
00000070: eb77 acbf 017c f0bf 163a 2cbf 938d 92bf
-2.1264372 -0.7029961 0.98598987 -1.0154047 -1.5781196 -0.44786957 -0.6882838 -0.55494153
-1.6781467 -1.0328152 -1.1672461 -0.75554806 -1.2345338 -0.89182985 -1.5792199 -1.303591
-0.3125026 -1.5771137 -0.08809956 -1.6982086 -0.7759173 -0.7408698 -0.11404957 -1.2012813
-0.59190434 -1.2429546 -0.8758754 -0.7500448 -1.3474096 -1.8787843 -0.6727613 -1.1449455

network.9.running_var f4 [32]
00000000: 990d 6b40 a391 8a40 33ed 8c40 7242 7040
00000010: 5bc4 b140 45b4 4740 87a4 ca40 8447 8940
00000020: ec75 0141 256a 8940 22de c740 3601 df40
00000030: ac3c c340 e955 aa40 9c64 b040 a167 8d40
00000040: 16c2 4540 3a14 9040 5d09 c93f 93f2 aa40
00000050: 5610 8740 223f 8940 ce7d 6f40 c304 bd40
00000060: e0f3 1440 f3da 8440 3f02 ad40 f1e1 8d40
00000070: 992a eb40 21d1 a040 7c50 7e40 376c 8140
3.672705 4.330278 4.403955 3.7540555 5.555219 3.1203778 6.332584 4.28998
8.0912895 4.294207 6.245866 6.968898 6.101156 5.322987 5.5122814 4.4189
3.089971 4.502469 1.5705982 5.342111 4.220744 4.2889566 3.7420535 5.9068313
2.327385 4.151727 5.406524 4.4338307 7.34895 5.0255284 3.9736624 4.04446

network.12.weight f4 [4, 32]
00000000: ce13 17be e7bd 913d 48a5 af3d 53c8 bbbd
00000010: 74c3 d9bd a86c b5bb 4c5a 483e a7e8 9f3c
00000020: 6872 2b3e 79b6 833b 2600 3f3e 537a 103e
00000030: 4057 32bd 20d8 c0bb eda1 f4bd 5395 e2bd
00000040: c7ca 663d f5b9 b9bd 69aa e83d 9a40 e8bd
00000050: a810 bd3d 663d b9ba 5341 313b a720 e93d
00000060: 79b9 143e ace8 da3c 65ed b53d 57e0 383e
00000070: 83e3 0d3e 6dec f3bd 9713 473e f439 efbd
00000080: 61d1 01be b078 aa3d b705 853d e4dc aebd
00000090: 064b 8fbd 1903 593d f831 4d3e 29f2 acbc
000000a0: 717f 633e 0f8f debc 97eb 2f3e f6ac 103e
000000b0: 47d0 763d 23b8 19bd 341e e6bd 405a f5bd
000000c0: c168 c43c e4ef a4bd 9d28 bf3d ee2b aabd
000000d0: 759a cd3d 3cd0 0fbd 888a c7bc 9e5b 073e
000000e0: 4e33 0f3e ae3c ccbc 508c ca3d 9ed1 583e
000000f0: 5689 103e ce1e f8bd 2292 183e c755 eebd
00000100: 30c2 0dbd f148 95bd a55b c63d 1e34 ffbd
00000110: c766 a4bd b24f 0bbe 64ce 743d 6d7f 913d
00000120: 419d 203e b0d7 173d 9956 083e 5039 b63d
00000130: c85b 08be 1085 0b3d 4f11 bcbd b464 12be
00000140: e7c6 d43d 2362 9cbd a3d8 f43d 1f7b 69bd
00000150: 207c 803d ad15 3e3d 4e61 163d 71c5 783c
00000160: 0fa6 f93d a936 b33d c224 023d de57 133e
00000170: 184f d83c 20e7 afbd 5e25 0a3e 69cf 04be
00000180: 09b9 63bd f876 1bbe 02a5 8e3d 4c60 f4bd
00000190: a775 25be 71ef 4abe 3370 8dbd 2f9e 513e
000001a0: 28e9 debd 7e58 393e ee7e 54bd da50 18bd
000001b0: 8f62 4bbe 51ea 3d3e d65e 343c 2c7b 0a3c
000001c0: 5606 0d3e e6ac 723b b84d 2b3d 9bc5 11be
000001d0: 573b 1ebd 7976 243e 0368 093e 5fe3 babd
000001e0: 6cd0 d0bc c59b 733e 1453 86bd ae06 303c
000001f0: c053 50be 8f50 5b3d 5c18 45bd 62ba 2f3d
-0.14753649 0.07116299 0.08576447 -0.09169068 -0.10632983 -0.0055366345 0.19565696 0.019520117
0.16742861 0.004019555 0.186524 0.14109163 -0.04354024 -0.005885139 -0.119449474 -0.110636376
0.056345727 -0.090686716 0.11360628 -0.11340447 0.092316926 -0.0014132678 0.0027046993 0.11383181
0.14523877 0.026722275 0.0888317 0.18054329 0.1385632 -0.11910329 0.19441067 -0.116809756
-0.12677528 0.083238006 0.06495231 -0.08538225 -0.069967315 0.05298147 0.20038593 -0.021111565
0.22216584 -0.027167825 0.17179714 0.1412848 0.060257223 -0.037529122 -0.112362295 -0.119801044
0.023975732 -0.08053568 0.09333918 -0.0830916 0.10039226 -0.035110697 -0.024358049 0.13218543
0.13984415 -0.024931278 0.09890044 0.21173713 0.1411489 -0.121152505 0.14899495 -0.116374545
-0.03460902 -0.07289303 0.096854486 -0.124611124 -0.08027416 -0.1360462 0.059767142 0.07104383
0.15684988 0.03707093 0.13314284 0.0889765 -0.13316262 0.034062445 -0.09182989 -0.14296228
0.103895 -0.076359056 0.11955383 -0.057002183 0.06273675 0.04640739 0.03671389 0.015183792
0.12189876 0.0875066 0.031773336 0.14388987 0.026404902 -0.085890055 0.13490817 -0.12969746
-0.055596385 -0.15182102 0.069650665 -0.1193243 -0.16158162 -0.19817902 -0.06906166 0.20470499
-0.10884315 0.18100163 -0.051878862 -0.03718648 -0.19861816 0.18546416 0.011008939 0.008452218
0.13771948 0.0037029325 0.041822165 -0.14235537 -0.03863081 0.16060819 0.13418584 -0.09125399
-0.025490008 0.2378989 -0.06558815 0.01074378 -0.20344448 0.053543624 -0.048118934 0.042902358

network.12.bias f4 [4]
00000000: 47ef d1bd cf7a c6bd 9aca 55bd 8512 8bb9
-0.10250717 -0.09691393 -0.05219517 -0.00026525944
