soil_salinity_multi_sensor/outputs/models/stage1/stage1_epoch_10.pth (torch, 72297 bytes, 20 tensors)

network.0.weight f4 [128, 36]
0	0x3c8712b9	0.01648842
1	0x3c65c610	0.014024273
2	0x3dcd6d24	0.100305825
3	0xbd8dedf2	-0.0693015
4	0xbdd317b3	-0.10307255
5	0x3d0d89ca	0.034555234
6	0x3d9bdd30	0.076105475
7	0xbdb37720	-0.08762956
8	0x3de72dd2	0.112880364
9	0xbd7010fa	-0.05860994
10	0x3ddc6893	0.107621334
11	0xb7d9b3be	-2.5952115e-05
12	0x3e43ccde	0.1912112
13	0x3e412d44	0.18864924
14	0x3d9935eb	0.07480987
15	0xbe2bfbd7	-0.16795288
16	0x3e29a610	0.16567254
17	0xbd49b108	-0.049241096
18	0x3e519d59	0.2047018
19	0x3e790a12	0.24320248
20	0x3e0f3eae	0.13988754
21	0xbe04edd5	-0.1298135
22	0xbd57ba0f	-0.052667674
23	0x3d9d7746	0.07688765
24	0x3e725124	0.23663765
25	0x3e07a4a4	0.13246399
26	0x3d3e757a	0.046498753
27	0xbd75b511	-0.05998713
28	0xbe55741f	-0.20845078
29	0x3e0ed5ff	0.1394882
30	0xbe4d8155	-0.20068868
31	0x3e70e514	0.23524886
32	0x3e3572de	0.177196
33	0xbe2b5eac	-0.16735333
34	0xbe305997	-0.17221676
35	0x3d1ff302	0.03905011
36	0x3d9dd859	0.07707281
37	0xb98c6ad1	-0.00026782465
38	0xbb8532a2	-0.004064874
39	0x3e16d82f	0.14730905
40	0xbd015431	-0.03157443
41	0xbbeabc7c	-0.0071635824
42	0x3d8a2549	0.06745393
43	0x3da8eb47	0.082480006
44	0xbdd85e8e	-0.1056491
45	0x3db720a4	0.089417726
46	0x3cc4c6b6	0.024020534
47	0xbd6d68bb	-0.057961207
48	0xbd16729b	-0.03673039
49	0xbdf544d2	-0.11976017
50	0x3e363e63	0.17797236
51	0xbd159254	-0.036516502
52	0x3e14177b	0.14462082
53	0x3d3847fd	0.04499053
54	0xbd185a70	-0.037195623
55	0xbd935fb2	-0.07195987
56	0x3a9bda77	0.0011890669
57	0xbc83c362	-0.016084377
58	0x3e20dd7f	0.15709494
59	0x3e1929fc	0.14957422
60	0x3e07d97d	0.13266559
61	0x3e27cd65	0.16386946
62	0xbe150a62	-0.14554742
63	0x3e3b3eb2	0.18285635
64	0xbdb33bd2	-0.08751644
65	0xbd918be8	-0.07106763
66	0xbd71e79d	-0.059058774
67	0xbd2d363d	-0.042288054
68	0x3e42fefb	0.1904258
69	0xbcfc48c2	-0.030796412
70	0xbd9caf69	-0.07650644
71	0x3d8ea517	0.06965082
72	0x3e12fe88	0.14354908
73	0x3e8bf053	0.2733179
74	0x3e097a69	0.13425602
75	0x3e8c923e	0.27455324
76	0xbdbd05fb	-0.09229656
77	0xbd841294	-0.06448856
78	0xbd8db08b	-0.069184385
79	0x3caee1a5	0.02134783
80	0xbc17fd3b	-0.009276683
81	0x3e03da12	0.12876156
82	0x3e552dcd	0.20818253
83	0x3e865f99	0.2624481
84	0x3e5372f1	0.20649315
85	0x3e6b1926	0.22958812
86	0x3cdbdbe1	0.026838245
87	0x3e32117d	0.17389484
88	0x3e65be4c	0.22435874
89	0x3e9f020e	0.31056255
90	0x3d72b4f9	0.05925462
91	0x3ea38ded	0.31944218
92	0xbc986a76	-0.018605452
93	0xbdc19236	-0.09451716
94	0x3cd0601c	0.025436454
95	0xbdb97554	-0.09055582
96	0xbd29203c	-0.041290507
97	0xbd948af4	-0.07253066
98	0xbdcaf0cb	-0.09909209
99	0xbce1dd9c	-0.027571492
100	0x3d431861	0.04763067
101	0x3e0fcc9d	0.14042898
102	0xbe34a1e2	-0.17639878
103	0x3cf37fdf	0.02972406
104	0x3d0ed2ce	0.034869008
105	0x3da223ab	0.079169594
106	0x3d254bb9	0.040355418
107	0xbdc3c670	-0.09559333
108	0x3d470ccb	0.048596185
109	0x3e984032	0.29736477
110	0x3deb46ae	0.114880905
111	0x3eb1dc46	0.34738368
112	0x3d4434bf	0.047901865
113	0xbdf23d06	-0.118280455
114	0xbdbc67ed	-0.0919951
115	0xbe0c460c	-0.13698596
116	0x3c11ade9	0.008891561
117	0x3e45bc1c	0.1931004
118	0x3e46996c	0.19394463
119	0x3e0cc49c	0.13746876
120	0x3e4736fc	0.19454569
121	0x3e58ba49	0.21164812
122	0x3e097f9e	0.13427588
123	0xbdf58d82	-0.11989881
124	0x3e9a3817	0.30120918
125	0x3d74fa07	0.059808757
126	0x3edb3f1b	0.42821583
127	0x3e907280	0.28212357
128	0x3e0941a3	0.13403945
129	0xbe2f0149	-0.17090334
130	0xbddc493a	-0.10756154
131	0xbd92567f	-0.07145404
132	0x3e3d2b9f	0.18473671
133	0x3dbc1515	0.091837086
134	0xbdec1e2b	-0.115291916
135	0xbdb9c51c	-0.09070799
136	0xbe24cb8b	-0.1609327
137	0xbd895cc2	-0.06707145
138	0x3e17851e	0.14796874
139	0x3e1daad0	0.15397191
140	0x3ca4908c	0.020088457
141	0x3e3aac9e	0.1822991
142	0xbe317446	-0.17329511
143	0xbdf57b9f	-0.119864695
144	0xbda29aba	-0.07939668
145	0x3d46a6b0	0.04849881
146	0x3e2e81ae	0.17041656
147	0x3b74e919	0.0037370382
148	0x3e051239	0.12995233
149	0x3d5307b5	0.051521022
150	0xbdf0beb8	-0.11755127
151	0x3d6df13d	0.05809139
152	0xbe0004fa	-0.12501898
153	0x3e45519b	0.19269411
154	0x3e33ca35	0.17557605
155	0xbd9f1fa3	-0.07769706
156	0xbd0cc15e	-0.034364097
157	0x3e1873e9	0.14887966
158	0xbe51e324	-0.20496804
159	0x3c8c4024	0.017120428
160	0x3e2b18f4	0.16708738
161	0x3ddf77f9	0.10911555
162	0x3ce08618	0.02740769
163	0xbd2faae9	-0.042887602
164	0x3ca49188	0.020088926
165	0xbbb11531	-0.0054041375
166	0xbda1a119	-0.07892055
167	0x3cd41cda	0.025892664
168	0x3e1ef645	0.15523632
169	0xbda7e7f7	-0.08198541
170	0x3dc7a6f1	0.097486384
171	0xbc10bef1	-0.0088345865
172	0xbe04e444	-0.12977701
173	0x3dee009c	0.1162121
174	0x3e32cb6c	0.17460412
175	0x3da7da5a	0.08195944
176	0xbe2e086b	-0.16995399
177	0xbde53731	-0.111921676
178	0xbc669717	-0.014074109
179	0xbdc3488a	-0.0953532
180	0xbdf2753c	-0.11838767
181	0x3d4c3d0c	0.049862906
182	0xbe017dcd	-0.12645645
183	0xbda94fd2	-0.08267178
184	0xbc317bd0	-0.010832742
185	0xbe16c5be	-0.1472387
186	0xbde12d65	-0.109949864
187	0xbdb7f55b	-0.08982345
188	0x3ddf7926	0.10911779
189	0xbd3d4e00	-0.046216965
190	0xbdad1469	-0.084511586
191	0xbe194016	-0.14965853
192	0xbe196021	-0.14978077
193	0x3d355872	0.0442738
194	0x3e06add4	0.13152248
195	0x3e1501fb	0.14551537
196	0xbe06f5f5	-0.13179763
197	0x3e54e5fc	0.20790857
198	0xbda69550	-0.08133948
199	0xbd4b5ac5	-0.04964711
200	0x3c89404d	0.016754294
201	0x3da3af2c	0.07992396
202	0xbddaa16b	-0.10675319
203	0xbdb42066	-0.08795242
204	0xbd9dc9a9	-0.07704479
205	0xbbaf2bbe	-0.0053457906
206	0x3d3435f3	0.043996762
207	0xbdbd065d	-0.09229729
208	0x3dc8aef2	0.09798993
209	0xbe393e08	-0.1809007
210	0xbd41259f	-0.04715502
211	0xbcfdbfa3	-0.030975169
212	0x3e413871	0.18869187
213	0x3e261471	0.16218735
214	0xbdd3f02d	-0.10348544
215	0x3d8bdae3	0.06828859
216	0x3e6b5b19	0.2298397
217	0x3e891716	0.26775426
218	0x3e87dbb3	0.26534805
219	0x3e47609f	0.19470452
220	0xbe0c4889	-0.13699545
221	0x3e1e04b8	0.15431488
222	0xbdee7662	-0.116436735
223	0x3d6f3e10	0.058408797
224	0xbd9395ce	-0.07206307
225	0xbd89ddf7	-0.067317896
226	0x3ce77565	0.02825422
227	0x3dccc854	0.09999147
228	0x3d81200d	0.06304941
229	0x3e6c6363	0.23084788
230	0x3e133056	0.14373907
231	0xbdcba055	-0.0994269
232	0x3e303ee3	0.1721149
233	0xbc10b79a	-0.0088328365
234	0x3eafe781	0.3435631
235	0x3d54d942	0.051965006
236	0x3de12711	0.109937795
237	0xbda0eb8b	-0.07857426
238	0xbe2c662c	-0.1683585
239	0xbce1d70f	-0.027568368
240	0x3e361403	0.17781071
241	0x3d310a99	0.043222997
242	0x3da59fa1	0.080870874
243	0xbe1db517	-0.15401112
244	0xbdf772ee	-0.12082468
245	0x3e3cf558	0.18452966
246	0x3d9730ed	0.07382379
247	0x3de1a83e	0.11018418
248	0x3d994a59	0.07484884
249	0xbe283494	-0.16426307
250	0x3c8dd8f7	0.017315371
251	0xbe0f0658	-0.13967264
252	0xbd2778f2	-0.040886827
253	0xbd9fe859	-0.07807989
254	0x3ce9fd43	0.028563147
255	0xbe64c9c1	-0.22342588

network.0.bias f4 [128]
0	0xb8c6f902	-9.487757e-05
1	0xb85bc0f2	-5.2393363e-05
2	0x38e90a48	0.00011112221
3	0xb9800529	-0.00024417907
4	0xb5e5413b	-1.7080814e-06
5	0x380fdef6	3.4301505e-05
6	0x3899f594	7.341351e-05
7	0xb72a8be9	-1.0165365e-05
8	0xb92ebd99	-0.00016664564
9	0x39158a73	0.00014261324
10	0x38587353	5.1605817e-05
11	0x38759428	5.8550533e-05
12	0xb9a61a5c	-0.00031681627
13	0x38b81e52	8.779451e-05
14	0xb782971e	-1.5567577e-05
15	0x3a25491e	0.0006305146
16	0xb808fd0d	-3.26606e-05
17	0xb90f1243	-0.00013644346
18	0x387b51a5	5.99191e-05
19	0xb86ef137	-5.696827e-05
20	0x39855386	0.00025429967
21	0xb7440af6	-1.1685062e-05
22	0xb7da7b37	-2.6045002e-05
23	0x39428eb7	0.00018554447
24	0xb8b623fa	-8.6851374e-05
25	0xb94ef3ca	-0.0001973651
26	0xba9ae80a	-0.0011818421
27	0xb94864c6	-0.00019111027
28	0x36ab9596	5.113611e-06
29	0xb9b244a6	-0.00034001953
30	0x37bee598	2.2756678e-05
31	0xb976d71c	-0.00023540523
32	0xb912accb	-0.00013988015
33	0xb94e7840	-0.00019690488
34	0xb91f7d5b	-0.0001521012
35	0xb8d2d818	-0.00010053831
36	0x3907a901	0.00012937562
37	0xb8ca11a5	-9.635397e-05
38	0x39ca1a01	0.00038547817
39	0x3943a343	0.00018657469
40	0xb7ffdeee	-3.0502179e-05
41	0x391faff5	0.00015228971
42	0x381c921a	3.7329366e-05
43	0xb8e25b56	-0.000107935324
44	0x388febef	6.8627174e-05
45	0x372e4c56	1.03889815e-05
46	0x38aa0719	8.107554e-05
47	0xb8cdca85	-9.812884e-05
48	0xb9da12c9	-0.00041594196
49	0xb7c289ba	-2.3190736e-05
50	0xb9929b65	-0.00027963068
51	0x380d4b93	3.3687404e-05
52	0xb72a4598	-1.0148993e-05
53	0xb9253c53	-0.00015758099
54	0x3a05757b	0.00050910533
55	0x37677fe6	1.3798452e-05
56	0x3920f34d	0.00015349426
57	0x3901996c	0.00012359553
58	0x38969dbb	7.181937e-05
59	0x39c36988	0.00037271925
60	0x37b256f5	2.1259746e-05
61	0x38221bbe	3.8649647e-05
62	0xb8d7ac8d	-0.00010284139
63	0xb726ba6d	-9.937777e-06
64	0xb90a7379	-0.00013203722
65	0x390337e4	0.00012513954
66	0xb90977b3	-0.0001310993
67	0xb967cf3f	-0.00022107082
68	0xb847c272	-4.762639e-05
69	0x387599c3	5.8555754e-05
70	0xb9ad018f	-0.00032998293
71	0x39276cb6	0.00015966859
72	0xb880f07a	-6.148308e-05
73	0xb9834250	-0.00025035674
74	0x38a422de	7.826624e-05
75	0xb8a2b052	-7.757604e-05
76	0x3a04e7b8	0.0005069929
77	0x373b5f6b	1.1168285e-05
78	0x38e71b2c	0.000110199995
79	0x3714c6f3	8.867809e-06
80	0x388b212e	6.634217e-05
81	0x3914917e	0.0001416858
82	0xb9929e69	-0.00027965315
83	0x38a1d844	7.717361e-05
84	0x37ab3bfe	2.0412725e-05
85	0x38295fb7	4.038188e-05
86	0x39454a31	0.00018815022
87	0x391b22d9	0.00014794934
88	0x38f121d3	0.00011498076
89	0x39a9fbcf	0.00032421804
90	0x38cb4e11	9.694335e-05
91	0x3571d6bf	9.0091993e-07
92	0xb8e3fae1	-0.00010870933
93	0x38258f45	3.9472496e-05
94	0x383f1ed1	4.556665e-05
95	0xb8141196	-3.5302328e-05
96	0x3a3a92ee	0.0007117231
97	0x3a2a9795	0.0006507573
98	0xb90f787c	-0.00013682427
99	0x37007b8a	7.658158e-06
100	0x3797023e	1.8001647e-05
101	0x38abc32f	8.190271e-05
102	0x37ec33af	2.815746e-05
103	0x386a9021	5.5924178e-05
104	0x3a845d18	0.0010098545
105	0x380792d3	3.232325e-05
106	0x38d99988	0.00010375964
107	0x3814f18a	3.55109e-05
108	0x3704c1fb	7.912978e-06
109	0xb85e01ac	-5.293048e-05
110	0xb8b9cded	-8.859844e-05
111	0xb8b1cdfa	-8.478384e-05
112	0xb737829e	-1.0938062e-05
113	0x39805892	0.00024480053
114	0x38778e39	5.9021844e-05
115	0x37f74633	2.9477384e-05
116	0x39b9fc27	0.00035473818
117	0xb8ec8c0c	-0.00011279443
118	0xb7a748d0	-1.9941857e-05
119	0x37f3be6c	2.905653e-05
120	0x38e2fe17	0.00010823848
121	0x37b5ff02	2.1695629e-05
122	0xb8abe8b0	-8.197257e-05
123	0x37897661	1.6386797e-05
124	0x39009b9d	0.00012265002
125	0xb88f2a30	-6.8266294e-05
126	0xb96c2ce8	-0.00022523443
127	0x3961be93	0.00021528667

network.1.weight f4 [128]
0	0x3f850873	1.0393203
1	0x3f7a0126	0.97658
2	0x3f7c973e	0.9866828
3	0x3f7f321c	0.99685836
4	0x3f7fd5f5	0.9993585
5	0x3f82a979	1.0207969
6	0x3f7b3936	0.9813417
7	0x3f85b172	1.0444777
8	0x3f7c78b7	0.98621696
9	0x3f8395ba	1.0280068
10	0x3f87cde0	1.0609703
11	0x3f7f66bf	0.99766153
12	0x3f7cd982	0.9876939
13	0x3f81210e	1.0088212
14	0x3f87dd31	1.0614377
15	0x3f826596	1.0187252
16	0x3f73f1a8	0.95290613
17	0x3f7e8792	0.99425614
18	0x3f74d97a	0.9564434
19	0x3f83a037	1.0283269
20	0x3f78efb5	0.97240764
21	0x3f827d30	1.0194454
22	0x3f7c9c9a	0.98676455
23	0x3f81e7ea	1.01489
24	0x3f76e272	0.9643928
25	0x3f83cf5b	1.0297655
26	0x3f7f526e	0.9973515
27	0x3f776396	0.9663633
28	0x3f8395c7	1.0280083
29	0x3f80116d	1.0005318
30	0x3f803c60	1.0018425
31	0x3f76d971	0.9642554
32	0x3f787272	0.9704963
33	0x3f7c8e02	0.98654187
34	0x3f7f26c2	0.99668515
35	0x3f80fa3a	1.0076363
36	0x3f7a3598	0.9773803
37	0x3f781b2e	0.9691647
38	0x3f7e067d	0.9922865
39	0x3f7d323d	0.9890478
40	0x3f81e7b3	1.0148834
41	0x3f855afc	1.0418391
42	0x3f81b66a	1.0133793
43	0x3f8559af	1.0417994
44	0x3f80cc45	1.0062338
45	0x3f7e1118	0.99244833
46	0x3f820251	1.0156957
47	0x3f829743	1.0202411
48	0x3f767279	0.9626842
49	0x3f88261e	1.0636632
50	0x3f7bdc4d	0.9838303
51	0x3f796571	0.9742041
52	0x3f821008	1.0161142
53	0x3f7c1cb5	0.98481303
54	0x3f83fd81	1.0311738
55	0x3f873fc7	1.0566338
56	0x3f7f8204	0.99807763
57	0x3f7f56a4	0.9974158
58	0x3f873af4	1.0564866
59	0x3f830a70	1.023756
60	0x3f804f80	1.0024261
61	0x3f7d8e4a	0.9904524
62	0x3f8908e3	1.0705837
63	0x3f77e11f	0.9682788
64	0x3f7be25c	0.9839227
65	0x3f873664	1.0563474
66	0x3f7771b0	0.9665785
67	0x3f81b032	1.0131896
68	0x3f7bbe73	0.9833748
69	0x3f7da3d5	0.9907811
70	0x3f76270c	0.9615333
71	0x3f7ae8c9	0.9801145
72	0x3f812114	1.008822
73	0x3f8058c9	1.0027095
74	0x3f7ebf7c	0.9951093
75	0x3f877a9e	1.0584295
76	0x3f7d1748	0.9886365
77	0x3f83aaec	1.0286536
78	0x3f774b13	0.9659893
79	0x3f80e321	1.0069314
80	0x3f7f285f	0.99670976
81	0x3f76a7f4	0.96350026
82	0x3f7a3aa6	0.9774574
83	0x3f803d66	1.0018737
84	0x3f808d70	1.0043163
85	0x3f82d09c	1.0219913
86	0x3f7c59ef	0.9857473
87	0x3f7f15e0	0.99642754
88	0x3f7e42e4	0.99320817
89	0x3f7f1175	0.9963601
90	0x3f7cc3ed	0.9873646
91	0x3f7bbf7a	0.98339045
92	0x3f811505	1.008454
93	0x3f835539	1.0260383
94	0x3f8054b9	1.0025855
95	0x3f7e0bfd	0.9923704
96	0x3f822891	1.016863
97	0x3f74e0d1	0.9565554
98	0x3f86e24c	1.053781
99	0x3f804030	1.0019588
100	0x3f7de80e	0.9918221
101	0x3f7ee00e	0.9956063
102	0x3f80972d	1.0046135
103	0x3f822689	1.016801
104	0x3f798e04	0.97482324
105	0x3f827d28	1.0194445
106	0x3f818203	1.0117801
107	0x3f8317c3	1.0241627
108	0x3f800438	1.0001287
109	0x3f803077	1.001479
110	0x3f80fbc9	1.0076839
111	0x3f8090d5	1.0044199
112	0x3f7d8ef2	0.9904624
113	0x3f8739d5	1.0564524
114	0x3f7dd99a	0.9916016
115	0x3f7c9e03	0.98678607
116	0x3f85a104	1.0439763
117	0x3f7df033	0.9919464
118	0x3f8004b7	1.0001439
119	0x3f77e95a	0.9684044
120	0x3f70c18a	0.9404532
121	0x3f7a8d5e	0.9787196
122	0x3f79902d	0.9748562
123	0x3f7fd662	0.999365
124	0x3f8003b6	1.0001132
125	0x3f838010	1.0273457
126	0x3f78ceb0	0.9719038
127	0x3f7d39fb	0.98916596

network.1.bias f4 [128]
0	0x3c4da33e	0.012551127
1	0xbcc7a4cf	-0.024370579
2	0xbcbc40d0	-0.022980124
3	0x3bbe669c	0.005810572
4	0xbcb28109	-0.021790044
5	0xbb49376e	-0.0030703205
6	0xbc2c9b49	-0.01053507
7	0xbbe9e06e	-0.00713735
8	0xbd2db710	-0.04241091
9	0x3d03955a	0.032124855
10	0x3d9ddacf	0.0770775
11	0xbc3d0a01	-0.01153803
12	0xbd4a7475	-0.04942747
13	0xbb8ae2c9	-0.0042384607
14	0xbc3fd2f0	-0.011708006
15	0xb9340ede	-0.00017171676
16	0xbcf7e50d	-0.030260587
17	0xbc2fffce	-0.010742141
18	0xbd1cf19d	-0.038316358
19	0x3c31c5be	0.010850368
20	0xbc95e4b1	-0.018297525
21	0xbbf3800b	-0.0074310354
22	0xbd070e11	-0.0329724
23	0xbc410591	-0.011781112
24	0xbd1e3bdc	-0.038631305
25	0x3c3dc439	0.011582428
26	0xbad6dfcf	-0.0016393604
27	0xbcf6557b	-0.030070057
28	0xbd088c1f	-0.033336755
29	0xbc55e8fe	-0.013056038
30	0xbbc76be5	-0.00608586
31	0xbd2a6026	-0.0415956
32	0xbd69972e	-0.05702894
33	0xbd85acbd	-0.06527088
34	0xbb99c8e8	-0.0046931393
35	0xbb4b68ae	-0.0031037736
36	0xbd16ab6c	-0.036784574
37	0xbbe33159	-0.006933373
38	0xbc168159	-0.009186112
39	0xbc0e55c5	-0.008687441
40	0xbbfd4d39	-0.007730153
41	0xbbfe8e0d	-0.0077683986
42	0x3bc1f433	0.0059190034
43	0xbc71d1e1	-0.014759512
44	0xbc14720c	-0.009060394
45	0xbc880fc4	-0.01660908
46	0xbc2f9756	-0.010717234
47	0x3c449d45	0.012000387
48	0xbcb68c22	-0.022283617
49	0x3c84c0f3	0.016205287
50	0xbcdaa3c7	-0.026689423
51	0xbbc11eba	-0.0058935555
52	0x3c170b60	0.009219021
53	0x3b8ee096	0.004360269
54	0x3c3e313d	0.011608419
55	0x3c563362	0.013073774
56	0xbca18888	-0.019718423
57	0x3b130143	0.0022431172
58	0x3b6ba5de	0.003595702
59	0x3c536a98	0.012903832
60	0x3bff960b	0.007799869
61	0xbc1e2616	-0.009652635
62	0x3cd79695	0.02631692
63	0xbd0cb158	-0.034348816
64	0xbc59e838	-0.013299994
65	0xba87c11d	-0.0010357235
66	0xbd29736f	-0.04136985
67	0xbd30ba33	-0.043146323
68	0xbc650d93	-0.013980287
69	0xbc7b2652	-0.0153289605
70	0xbd0c80d8	-0.034302562
71	0xbbe3e078	-0.006954249
72	0x3c96066a	0.018313605
73	0xbca0ea0e	-0.019642856
74	0xbc880656	-0.016604584
75	0x3cef3fc3	0.029205209
76	0xbc76e28d	-0.015068662
77	0x3bcc809c	0.0062409174
78	0xbc8f6451	-0.01750389
79	0x3bbf82a8	0.005844433
80	0xbc3dc1f1	-0.011581884
81	0xbca49560	-0.020090759
82	0x3c1e5c9d	0.009665635
83	0xbbe25d1b	-0.0069080717
84	0x3b827774	0.003981525
85	0x3c08cd3a	0.008349711
86	0xbd1cc96e	-0.038278036
87	0xbcd36dac	-0.025809132
88	0xbb710f36	-0.0036782748
89	0xbd17af19	-0.03703222
90	0xbc52ba9b	-0.012861873
91	0x3cb867fd	0.022510523
92	0x3c5cb68a	0.013471255
93	0xbcb259f9	-0.021771418
94	0x3d02eb22	0.03196252
95	0xbc172df1	-0.009227262
96	0x3cf6b3db	0.030115059
97	0xbd25d4c4	-0.040486112
98	0x3caacfa0	0.020850956
99	0x3bf10f94	0.0073565934
100	0xbcd396c1	-0.025828721
101	0xbd23dd21	-0.040005807
102	0xb988b412	-0.00026074104
103	0x3cdb7982	0.026791338
104	0xbc891246	-0.016732346
105	0xbc83231a	-0.016007949
106	0xbc4c330a	-0.012463341
107	0xbca0da92	-0.019635472
108	0xbc6e5e06	-0.014548784
109	0x39f39166	0.00046456902
110	0x3ce1d185	0.027565727
111	0xbd110f6e	-0.035415106
112	0xbc0e0bed	-0.0086698355
113	0x3d03bb0e	0.03216081
114	0xbc939a97	-0.01801805
115	0xbcf14077	-0.029449685
116	0xb894312b	-7.066348e-05
117	0xbd32b924	-0.043633595
118	0xbc67527b	-0.014118786
119	0xbd060668	-0.032720953
120	0xbd7b3d34	-0.061337665
121	0xba6ee4a4	-0.00091130496
122	0x3c1e5b23	0.009665283
123	0x3cd0be23	0.02548129
124	0xbc8c8ca7	-0.017156912
125	0xbbbbee35	-0.0057351836
126	0x3b6c0a52	0.0036016894
127	0xbcf344ee	-0.029695954

network.1.running_mean f4 [128]
0	0xbe86639b	-0.26247868
1	0x405b4954	3.4263506
2	0x403196a9	2.7748206
3	0xbdefd4ee	-0.11710535
4	0xc01eb128	-2.4795628
5	0x3f95d3db	1.1705278
6	0xbec89c5c	-0.39181793
7	0xc0a63bd7	-5.1948047
8	0x403cc73f	2.949661
9	0xc004a9fe	-2.0728755
10	0xbf04b7e0	-0.5184307
11	0xc0019ed9	-2.0253203
12	0xbf0a723c	-0.5408056
13	0xc03f350e	-2.9876132
14	0xc03695e3	-2.8528984
15	0x3fce1dcd	1.6102844
16	0xbf4acc0c	-0.792176
17	0xbf920ec3	-1.1410755
18	0xbee60472	-0.44925267
19	0xbfe40841	-1.7815019
20	0xbf175b29	-0.59123474
21	0xc047a569	-3.1194708
22	0x3fa59df9	1.2938834
23	0xc087a285	-4.238589
24	0xc059b9cb	-3.401965
25	0xbfb1a253	-1.3877662
26	0x3ef9a315	0.48757234
27	0xbe6ce960	-0.231359
28	0xc0a26861	-5.0752416
29	0x400aa727	2.1664522
30	0x4050e75e	3.2641215
31	0x4002d063	2.043969
32	0x3f79a150	0.9751177
33	0xc01cc297	-2.4493768
34	0x403fb05d	2.9951394
35	0x3e8bdd91	0.2731748
36	0x3f7c226e	0.98490036
37	0x407fd697	3.9974725
38	0xbfd169fd	-1.636047
39	0x4010986c	2.259303
40	0xbf907f5d	-1.1288868
41	0xbfa2e531	-1.2726194
42	0x3fbb86e7	1.4650544
43	0xbf96f919	-1.1794769
44	0x40553270	3.3312035
45	0xc0413837	-3.019056
46	0xbc9b10e6	-0.018928956
47	0xbe710ef8	-0.23540866
48	0xc0067cfb	-2.1013782
49	0xc0233788	-2.5502644
50	0x400b2bc2	2.1745458
51	0x401947bb	2.395003
52	0xc0b24d3a	-5.571927
53	0xbf479e25	-0.77975684
54	0x3f58bff2	0.84667885
55	0xbfb3d0c0	-1.404808
56	0x40459915	3.0874684
57	0x3eaf8a43	0.34285173
58	0xc0067211	-2.100712
59	0x40085f7b	2.1308277
60	0x3fc9bd81	1.5760957
61	0x3ea3c7cd	0.31988373
62	0xc0331a64	-2.7984858
63	0xbff48d3c	-1.9105601
64	0x40a7e71d	5.246962
65	0xc003e292	-2.0607038
66	0x3fd2fa80	1.6482697
67	0x3fe0a39d	1.7549931
68	0x4045b8a4	3.0893946
69	0xbf175693	-0.59116477
70	0x3f478055	0.77930194
71	0x3f577dbf	0.8417625
72	0x3f9680ad	1.1758019
73	0xbf848828	-1.0354052
74	0xbef683cc	-0.48147428
75	0xbe29bffd	-0.16577144
76	0xbfd524cf	-1.6651858
77	0xbfed421c	-1.85358
78	0xc0153200	-2.3311768
79	0xbe76b07d	-0.24090762
80	0xbfc40467	-1.5313843
81	0x3eb5d5d4	0.355147
82	0xbf75bec6	-0.9599422
83	0x400dad74	2.2137117
84	0x3cd4e7b7	0.025989396
85	0xc012d8f4	-2.2944918
86	0x3fa58cf2	1.2933638
87	0xbe28a718	-0.16469991
88	0xbfc658be	-1.5495832
89	0x3f86bb0e	1.0525835
90	0x4005b5dc	2.0892248
91	0x4080fba0	4.030716
92	0x3f0e5724	0.55601716
93	0xc092204b	-4.566442
94	0x3e6444ec	0.22291917
95	0x3f616c24	0.88055634
96	0x3fa45fee	1.2841775
97	0xc00a0aeb	-2.1569164
98	0xbf2bca9a	-0.6710602
99	0x409e74de	4.951766
100	0x404f3986	3.237886
101	0xbfbad56c	-1.4596381
102	0x402d68e5	2.7095273
103	0x3f8ec7ec	1.1154761
104	0x3f2572e3	0.6462843
105	0xc038acd8	-2.8855495
106	0x3e5fde9c	0.21862262
107	0xc0552e73	-3.33096
108	0xc03750c8	-2.8643055
109	0xc05b5f75	-3.4277012
110	0x3fd5e711	1.6711141
111	0x3f8d766a	1.1051762
112	0x4087f2ee	4.2484045
113	0xbf8bf229	-1.0933276
114	0x404a099d	3.1568367
115	0xbebbddd7	-0.36692688
116	0xbfc88694	-1.566607
117	0xbf038459	-0.5137382
118	0xbf42f029	-0.76147705
119	0x400a023d	2.1563866
120	0x3f1c167e	0.6097182
121	0xbeb27a5d	-0.3485898
122	0x3f8a15cf	1.0787905
123	0xbed261c2	-0.41090208
124	0x3e088776	0.13332924
125	0xbf746798	-0.9547057
126	0x3f96d0f2	1.1782515
127	0x3e8e718b	0.27821

network.1.running_var f4 [128]
0	0x43649b9f	228.6079
1	0x44896974	1099.2954
2	0x44496b53	805.67694
3	0x440b53a3	557.3068
4	0x448ab1a4	1109.5513
5	0x44f93b80	1993.8594
6	0x44670525	924.0804
7	0x4514837e	2376.2183
8	0x44047679	529.85114
9	0x44ce731f	1651.5975
10	0x43951c4d	298.2211
11	0x43fb7343	502.90048
12	0x444b7c6a	813.944
13	0x44a2daf7	1302.8427
14	0x448acbbe	1110.367
15	0x4373ac2b	243.67253
16	0x43df60d8	446.7566
17	0x440809c4	544.1526
18	0x4421e303	647.54706
19	0x44dbcf4f	1758.4784
20	0x447ce4ed	1011.57697
21	0x4500ecd4	2062.8018
22	0x43c332ed	390.39786
23	0x44e05feb	1794.9974
24	0x44ab0db5	1368.4283
25	0x441f74e9	637.8267
26	0x432c1730	172.09058
27	0x44c07404	1539.6255
28	0x451d48f2	2516.559
29	0x4408e7b7	547.62054
30	0x4533f607	2879.3767
31	0x43b56d7e	362.8554
32	0x43e4874e	457.05707
33	0x44d7ee43	1727.4457
34	0x44dcba73	1765.8265
35	0x4418e693	611.6027
36	0x43f3b525	487.4152
37	0x447c307c	1008.75757
38	0x43116253	145.38408
39	0x44c4de2a	1574.9426
40	0x4406de80	539.47656
41	0x43ebc9a2	471.57526
42	0x449e6d91	1267.424
43	0x43bf7f26	382.99335
44	0x44b3f386	1439.6101
45	0x4534fd2f	2895.824
46	0x44a3fe6d	1311.9508
47	0x44577fe2	861.99817
48	0x43e158eb	450.69467
49	0x44b70890	1464.2676
50	0x43fe7a7d	508.95694
51	0x448ef090	1143.5176
52	0x456806bc	3712.421
53	0x43246a9e	164.41647
54	0x423f07a5	47.757465
55	0x44a9173f	1352.7264
56	0x44083173	544.77264
57	0x4421340e	644.81335
58	0x44b0afdd	1413.4957
59	0x437a5a28	250.35217
60	0x43a4a2c0	329.27148
61	0x44a10e66	1288.45
62	0x44a216d1	1296.713
63	0x44c17bef	1547.8729
64	0x45290284	2704.1572
65	0x441eb205	634.78156
66	0x432656bf	166.33885
67	0x43ca0a16	404.0788
68	0x44a0c635	1286.194
69	0x443e09fc	760.156
70	0x440370c3	525.7619
71	0x4484fc61	1063.8868
72	0x43b74634	366.54846
73	0x440157cb	517.37177
74	0x43c3fbe8	391.96802
75	0x431d6a01	157.41408
76	0x43fa2f50	500.36963
77	0x4411e3fa	583.56213
78	0x4434fca1	723.9473
79	0x43de7049	444.87723
80	0x4441d825	775.37726
81	0x440176a5	517.8538
82	0x444a6139	809.5191
83	0x441ca29f	626.54095
84	0x449f40aa	1274.0208
85	0x443e0c01	760.18756
86	0x43a07f00	320.9922
87	0x4399248c	306.28552
88	0x4349eb53	201.91924
89	0x42d7faa9	107.98957
90	0x43453533	197.20781
91	0x4509d7d5	2205.4895
92	0x43ac9111	345.13333
93	0x452e13a0	2785.2266
94	0x44253d58	660.9585
95	0x4483289d	1049.2692
96	0x44102e5a	576.72424
97	0x441dc27a	631.0387
98	0x4376f7fc	246.96869
99	0x451dda39	2525.639
100	0x44a4509b	1314.5189
101	0x44dde059	1775.0109
102	0x45088bac	2184.7295
103	0x44234078	653.0073
104	0x440d7543	565.8322
105	0x44a434fa	1313.6555
106	0x44d9d6a8	1742.708
107	0x449eb02d	1269.5055
108	0x444d5fe5	821.49835
109	0x4496bcc9	1205.8995
110	0x4434a06c	722.5066
111	0x444f94d8	830.3257
112	0x453aa638	2986.3887
113	0x44496255	805.53644
114	0x450c4f9c	2244.9756
115	0x44b5cb51	1454.3536
116	0x438c2f39	280.36893
117	0x43442a3c	196.16498
118	0x441fedf5	639.7181
119	0x441c0134	624.0188
120	0x448088f9	1028.2804
121	0x44a1fbef	1295.8729
122	0x44062fea	536.74866
123	0x441cb267	626.78754
124	0x440c6b69	561.6783
125	0x43f8502b	496.6263
126	0x43d7bb8d	431.46524
127	0x44974d5d	1210.4176

network.4.weight f4 [64, 128]
0	0xbda89271	-0.082310565
1	0xbd96c006	-0.07360844
2	0x3e11b33d	0.1422853
3	0xbe226864	-0.15860134
4	0xbda46d75	-0.0802869
5	0xbdb068a3	-0.08613708
6	0x3d74f20f	0.059801158
7	0x3ca22758	0.019794151
8	0x3d94308d	0.07235823
9	0xbe214f14	-0.15752822
10	0xbd981544	-0.07425931
11	0x3d4b71b9	0.049669
12	0x3cd785e9	0.02630897
13	0x3cacf416	0.021112483
14	0x3de34361	0.11096836
15	0xbddf5f08	-0.10906798
16	0xbd7ef9aa	-0.062249817
17	0xbb07f382	-0.0020744507
18	0xbd0293eb	-0.031879347
19	0xbd65b741	-0.056082968
20	0xbe041232	-0.12897566
21	0xbe044b4b	-0.12919347
22	0x3e14ad4d	0.14519234
23	0xbda6a032	-0.081360236
24	0x3cd1ae32	0.025595758
25	0x3dc58884	0.09645179
26	0x3d40ec75	0.047100503
27	0x3dd88e55	0.10574023
28	0xbd307588	-0.043080837
29	0x3d0fd857	0.035118427
30	0x3d8275ee	0.063701496
31	0x3d5f6e4d	0.05454855
32	0x3e27dc3c	0.16392606
33	0xbddde505	-0.10834698
34	0x3da3b1a4	0.07992867
35	0xbd933e78	-0.07189649
36	0xbd87ce5f	-0.06631159
37	0x3ded05a0	0.115733385
38	0xbd16d0db	-0.036820274
39	0x3e100e90	0.14068055
40	0xbe049340	-0.12946796
41	0x3d16445a	0.03668628
42	0x3db7a141	0.089663036
43	0xbde6c7c5	-0.11268572
44	0x3dd298c5	0.10283045
45	0x3e05d909	0.13071074
46	0xbdd09358	-0.101843536
47	0xbe2743c0	-0.16334438
48	0x3cedcd20	0.029028475
49	0xbd04005a	-0.032226898
50	0xbe1076bb	-0.14107792
51	0xbdff90f0	-0.124788165
52	0x3d3bdf5a	0.0458673
53	0x3e058ae6	0.13041267
54	0x3e401290	0.18757081
55	0xbcec2981	-0.028828384
56	0x3d1b9bb2	0.03799028
57	0x3e1cd258	0.15314615
58	0xbdea9907	-0.11454969
59	0xbd4b0ddc	-0.049573764
60	0xbd809110	-0.062776685
61	0x3d8ab5c5	0.06772951
62	0x3c9ca324	0.01912076
63	0xbc2b27c6	-0.010446494
64	0x3dfc7175	0.12326328
65	0xbe052c53	-0.1300519
66	0xbd814787	-0.06312471
67	0x3b87008b	0.004119938
68	0xbcd4572d	-0.025920475
69	0xbcf28b8a	-0.029607553
70	0xbe086c85	-0.13322647
71	0xbde4f392	-0.1117927
72	0x3e2c12e0	0.16804075
73	0xbd7fcfdd	-0.062454093
74	0xbd4e7318	-0.05040273
75	0x3cddd01e	0.027076777
76	0xbe316efc	-0.17327493
77	0x3c81997d	0.01582026
78	0x3df20574	0.11817446
79	0xbe0b30cc	-0.13592833
80	0x3c7e6270	0.015526399
81	0x3cb372a4	0.02190525
82	0xbcad8695	-0.021182338
83	0xbdd0dd5c	-0.10198471
84	0xbd9c52f7	-0.07633012
85	0x3c4a5ac9	0.012350746
86	0x3cd26ae9	0.025685744
87	0xbc4a6f8b	-0.0123556955
88	0xbd8f1bc5	-0.069877185
89	0x3e014c79	0.12626828
90	0x3ccad425	0.024759362
91	0xbb516ffe	-0.0031957622
92	0x3d1d8924	0.038460866
93	0xbdbcfd1d	-0.09227965
94	0xbe01f31f	-0.126904
95	0x3d98da25	0.07463483
96	0xbd404042	-0.04693628
97	0xbdd3914a	-0.10330446
98	0xb882d376	-6.238271e-05
99	0xbc6e1b12	-0.014532821
100	0x3ce58146	0.028015744
101	0x3dd0dfee	0.10198961
102	0xbccb335e	-0.024804767
103	0x3dcdb429	0.100441284
104	0x3dc194f4	0.09452239
105	0xbcf140a9	-0.029449778
106	0xbd3c8a3a	-0.04603026
107	0x3d2adaf7	0.041712727
108	0x3cfd6f51	0.030936869
109	0x3e0e21d9	0.138801
110	0x3e1a92bc	0.15095037
111	0xbe0dbad5	-0.13840802
112	0x3e06367c	0.13106722
113	0xbdb7af18	-0.08968943
114	0x3c61bda5	0.013778125
115	0xbdbd299b	-0.09236451
116	0xbd8da3d9	-0.06916017
117	0xbd9cb4f3	-0.07651701
118	0xbc39d5a0	-0.011342436
119	0xbe17add6	-0.14812407
120	0x3e195068	0.14972079
121	0xbdb2508c	-0.08706769
122	0xbdc1554e	-0.09440099
123	0x3e11a7ee	0.14224216
124	0x3d103d7d	0.03521489
125	0xbc537476	-0.012906184
126	0xbb3d6fba	-0.0028905706
127	0xbddf7efa	-0.10912891
128	0x3e0b56b0	0.13607287
129	0xb97c8071	-0.00024080441
130	0x3dbbd8db	0.09172221
131	0x3d712b46	0.05887916
132	0xbcc8c168	-0.024506286
133	0xbd88ec9f	-0.06685757
134	0x3b41ea83	0.0029589243
135	0xbce8902d	-0.02838906
136	0x3d4db1c7	0.05021837
137	0x3c873197	0.016503138
138	0xbd9e92c2	-0.077428356
139	0x3df8f61e	0.12156318
140	0xbd9113a1	-0.07083822
141	0xbdd22294	-0.102605015
142	0xbe1d4dba	-0.15361682
143	0x3ddeabff	0.108726494
144	0x3db773d9	0.08957643
145	0x3de92496	0.11383931
146	0xbe2ac134	-0.16675264
147	0x3d26924e	0.04066687
148	0xbd892828	-0.06697112
149	0xbd80e5c5	-0.06293825
150	0x3e05bd5f	0.1306052
151	0x3d2e027b	0.042482834
152	0x3d0e1a02	0.03469277
153	0x3d4ed98a	0.05050043
154	0xbdbf5f77	-0.0934438
155	0xbda6f022	-0.081512704
156	0x3d4ef831	0.050529663
157	0xbd395c01	-0.045253757
158	0xbdc19551	-0.09452308
159	0x3e0d5826	0.13803157
160	0x3e1f20d4	0.15539867
161	0x3e05d211	0.13068415
162	0xbe0d6a5e	-0.13810107
163	0x3d926d8b	0.071498
164	0xbe11775b	-0.14205687
165	0x3dd40288	0.10352045
166	0x3d6089ed	0.054819036
167	0xbddda86f	-0.10823142
168	0x3ddda20a	0.10821922
169	0x3dacbbac	0.08434233
170	0xbc0d2d58	-0.008616768
171	0xbe1db43f	-0.1540079
172	0xbc6d0784	-0.014467124
173	0xbe1724fc	-0.14760202
174	0x3da17590	0.078837514
175	0xbd705e03	-0.058683407
176	0xbd6b6973	-0.05747361
177	0xbd1ac661	-0.037786845
178	0x3d28ed3b	0.041241866
179	0x3e038da0	0.12846994
180	0x3dd328e9	0.10310537
181	0x3df09caf	0.11748635
182	0xbdeee4e2	-0.1166475
183	0xbd13577b	-0.0359721
184	0x3c5f7926	0.013639724
185	0xbcc25ad2	-0.023724947
186	0x3ba62ee7	0.005071509
187	0xbce08cb6	-0.027410846
188	0x3d86f024	0.06588772
189	0xbdb4b86c	-0.08824238
190	0x3c2a9130	0.010410592
191	0xbddadbe9	-0.10686476
192	0x3bc5e53a	0.006039289
193	0xba5ddbd2	-0.0008463237
194	0x3e1642fc	0.1467399
195	0x3de69d23	0.1126044
196	0x3da7d9a1	0.08195806
197	0xbe0339fa	-0.12815085
198	0xbdae46f7	-0.08509629
199	0x3c59f68a	0.013303408
200	0x3e00a56b	0.12563102
201	0x3dc5bbaf	0.096549384
202	0x3da24eb1	0.079251654
203	0x3d8763b0	0.06610811
204	0x3e17bbb8	0.14817703
205	0xbda19128	-0.078890145
206	0xbc8ceeaa	-0.017203648
207	0xbde655c1	-0.11246825
208	0xbdce1123	-0.10061862
209	0x3e2707d3	0.16311578
210	0xbd78fcf6	-0.060788117
211	0x3de03392	0.10947336
212	0xbddf9f6d	-0.1091908
213	0xbce67c39	-0.028135406
214	0x3c997bf9	0.018735873
215	0xbd914757	-0.07093685
216	0x3d898995	0.06715695
217	0xbe2bda92	-0.16782597
218	0x3e1154bf	0.14192484
219	0xbcd25458	-0.025674984
220	0xbe088e49	-0.13335527
221	0xbde4c318	-0.11170024
222	0x3cdf098a	0.027226228
223	0x3dfa9479	0.1223535
224	0xbd172555	-0.036900837
225	0x3df77e92	0.12084688
226	0x3dd5f273	0.10446634
227	0xbd70535b	-0.058673244
228	0x3cd0dac6	0.025494944
229	0xbdc93d51	-0.09826148
230	0xbe41ce0c	-0.18926257
231	0x3e0892a7	0.13337193
232	0x3e000e7f	0.1250553
233	0x3e159aa0	0.14609766
234	0x3cbe82f6	0.023255806
235	0xbd101d71	-0.035184328
236	0x3d9ba697	0.07600134
237	0xbe3281d1	-0.17432334
238	0x3e1cbf73	0.15307407
239	0x3d61f0c2	0.055161245
240	0x3d1180ab	0.035523098
241	0xbd9f4878	-0.07777494
242	0x3daa1f06	0.083066985
243	0xbe0c7bd8	-0.13719118
244	0xbdaab507	-0.083353095
245	0x3c9d3c68	0.019193843
246	0x3de008c7	0.10939174
247	0xbbc22f0c	-0.0059260186
248	0xbe135497	-0.14387737
249	0xbd05e7af	-0.032691654
250	0xbd6efa42	-0.058344133
251	0x3deb5073	0.11489954
252	0x3e2e3fea	0.17016569
253	0xbde4777e	-0.11155604
254	0x3e1a3d5f	0.15062474
255	0x3c367ab6	0.011137655

network.4.bias f4 [64]
0	0x3bd66ab9	0.006543484
1	0x3c02a9e9	0.00797508
2	0x381cabb5	3.7353213e-05
3	0x3a6db7b7	0.0009068208
4	0x3b5d5723	0.0033773861
5	0xb912c715	-0.00013997809
6	0x39651984	0.00021848647
7	0x3b23c78c	0.0024990765
8	0xba52d6b5	-0.0008042858
9	0xbac06a43	-0.0014680106
10	0xb9cc14cf	-0.00038925416
11	0x3be4ef25	0.006986516
12	0x3a6e3018	0.0009086146
13	0x3b9b70e7	0.0047436836
14	0xbb5dec99	-0.0033862947
15	0x3babd75b	0.005244178
16	0xbabee2c5	-0.0014563432
17	0xbaf3563e	-0.0018565131
18	0x3b6ab5b2	0.0035813865
19	0x3a9c1d8a	0.0011910659
20	0xba858bfc	-0.0010188813
21	0x3b1a28ea	0.0023522922
22	0x3af38571	0.0018579197
23	0x3a5bdf09	0.0008387422
24	0xba410bbd	-0.0007364115
25	0x391ed371	0.00015146822
26	0xba978a0d	-0.0011561528
27	0xbb5be005	-0.0033550274
28	0x3af0d3fe	0.0018373725
29	0xbb1beada	-0.0023791105
30	0xba5a2ee3	-0.00083230267
31	0x3b46d265	0.0030337807
32	0xbace1f76	-0.0015725929
33	0x3ae5c9fa	0.0017531507
34	0xbbedc5aa	-0.0072562294
35	0xba4a4120	-0.0007715393
36	0x3b326c7b	0.0027225304
37	0x3a28e94a	0.0006443454
38	0x3b712095	0.0036793102
39	0x3b78592e	0.0037894952
40	0x3b4bcd52	0.0031097722
41	0x3b70f3b5	0.0036766354
42	0xbaac9aa9	-0.0013168651
43	0xb9b78dcd	-0.0003501013
44	0xba06bc2c	-0.0005139734
45	0xbb065882	-0.0020499532
46	0xba640ef6	-0.0008699739
47	0xbb83dd6e	-0.004024199
48	0x3b0dbf03	0.0021628744
49	0xbb0d785c	-0.0021586632
50	0x3b799e80	0.0038088858
51	0x3b9969ec	0.0046818163
52	0x3b2def7d	0.0026540451
53	0x3b1a6b27	0.0023562403
54	0x3b04b962	0.0020252098
55	0x3aef0be8	0.0018237801
56	0x3b8dcf6d	0.0043277056
57	0x391f8bd1	0.00015215507
58	0x3a7b658a	0.00095900206
59	0x3b81c446	0.003960165
60	0xbaf8ed8f	-0.0018991696
61	0xba569b34	-0.0008186579
62	0x3ab1bc93	0.0013560228
63	0xbbb0c74d	-0.0053948523

network.5.weight f4 [64]
0	0x3f7a7463	0.9783384
1	0x3f80547d	1.0025784
2	0x3f779dee	0.96725357
3	0x3f7197f0	0.94372463
4	0x3f7b5de2	0.9819013
5	0x3f76198e	0.96132743
6	0x3f80c804	1.006104
7	0x3f917ed1	1.1366826
8	0x3f78d73a	0.9720341
9	0x3f76d9d1	0.9642611
10	0x3f79b81c	0.97546554
11	0x3f6d0bc3	0.9259607
12	0x3f77a136	0.96730363
13	0x3f720f2b	0.94554394
14	0x3f788d1c	0.97090316
15	0x3f869700	1.0514832
16	0x3f769388	0.96318865
17	0x3f83c8ce	1.0295656
18	0x3f81b864	1.0134397
19	0x3f819240	1.0122757
20	0x3f7eb003	0.9948732
21	0x3f854b56	1.0413616
22	0x3f73a34c	0.95171046
23	0x3f7ef552	0.9959308
24	0x3f85474c	1.0412383
25	0x3f7f5aea	0.997481
26	0x3f7df148	0.9919629
27	0x3f7a0be6	0.97674406
28	0x3f8a1c69	1.078992
29	0x3f763a3d	0.96182615
30	0x3f8942af	1.0723475
31	0x3f8425d8	1.0324049
32	0x3f8c5e54	1.0966287
33	0x3f6e5b8a	0.9310843
34	0x3f7b0254	0.9805043
35	0x3f8349e3	1.0256923
36	0x3f6df894	0.92957425
37	0x3f7bff03	0.9843599
38	0x3f76831b	0.962938
39	0x3f7ce4ff	0.9878692
40	0x3f80c9c9	1.006158
41	0x3f888177	1.066451
42	0x3f80ce4a	1.0062954
43	0x3f90eb3b	1.1321787
44	0x3f78b3b6	0.9714922
45	0x3f821404	1.0162358
46	0x3f753558	0.9578452
47	0x3f6fdec1	0.9369927
48	0x3f836600	1.0265503
49	0x3f7b67a7	0.98205036
50	0x3f854f4c	1.0414824
51	0x3f7a2d99	0.97725827
52	0x3f8e1a88	1.1101847
53	0x3f73e9cc	0.9527862
54	0x3f72d594	0.94857144
55	0x3f6e43bf	0.9307212
56	0x3f71f219	0.94510037
57	0x3f764a57	0.96207184
58	0x3f7f93ef	0.99835104
59	0x3f6e3a4e	0.93057716
60	0x3f811875	1.0085589
61	0x3f8ba00f	1.0908221
62	0x3f86847a	1.0509179
63	0x3f812d8d	1.0092026

network.5.bias f4 [64]
0	0xbc78f24d	-0.015194488
1	0x3bb353ea	0.00547265
2	0xbcee7d3b	-0.029112449
3	0xbd210a12	-0.039316244
4	0xbca80206	-0.020508777
5	0xb7378648	-1.0938915e-05
6	0x3aeb5db0	0.0017956998
7	0x3d68222c	0.056673214
8	0xbb173787	-0.0023073868
9	0xbcd8a532	-0.026445959
10	0xbd34128c	-0.043963
11	0xbd41d558	-0.0473226
12	0xbca2c4e2	-0.019869272
13	0xbd08159d	-0.033223737
14	0xbd7896fd	-0.06069087
15	0xbc486b5a	-0.012232626
16	0xbd0df13a	-0.03465388
17	0xbd2144e7	-0.03937235
18	0x3c8f7dd0	0.017516047
19	0x3cc67150	0.024223953
20	0x3d0838ac	0.03325717
21	0xbd5f87b7	-0.054572787
22	0xbcca55d4	-0.02469913
23	0xbd3bdba9	-0.04586378
24	0x3d9c8fd9	0.07644624
25	0xbd09d36c	-0.033648893
26	0xbd0510bd	-0.032486666
27	0xbcb05ede	-0.021529611
28	0x3d85c720	0.06532121
29	0xbcbb3c69	-0.022855954
30	0x3c052583	0.008126619
31	0x3d054686	0.03253796
32	0x3d06d153	0.03291447
33	0xbd8a99d7	-0.06767624
34	0xbcd641c5	-0.026154408
35	0xbce6d8b3	-0.028179502
36	0xbd5b5dca	-0.05355624
37	0x3bf8e2c4	0.007595392
38	0xbcf8addb	-0.030356338
39	0xbd2a83be	-0.041629545
40	0xbcf1747c	-0.02947449
41	0x3d583f01	0.05279446
42	0xbb94bc7d	-0.004539071
43	0x3d8dde07	0.06927114
44	0xbcf6a5d9	-0.03010838
45	0xbc996942	-0.018726949
46	0xbd565eb7	-0.05233642
47	0xbd9166e4	-0.07099703
48	0x3c72a9c4	0.014810983
49	0xbcb1fde3	-0.021727508
50	0x3c8a6ebe	0.01689851
51	0xbc9fe031	-0.019516082
52	0x3da30826	0.079605386
53	0xbd2dafcb	-0.042403977
54	0x3cbfd78d	0.023418212
55	0xbd74f242	-0.059801348
56	0xbdc00a24	-0.09376934
57	0xbccb8775	-0.024844864
58	0xbcb815ac	-0.022471271
59	0xbdc630ad	-0.09677253
60	0xbc0c22f2	-0.0085532535
61	0x3d17508b	0.036942046
62	0x3d49c540	0.049260378
63	0xbc2ed6c7	-0.010671324

network.5.running_mean f4 [64]
0	0xbe985f06	-0.29759997
1	0x3e932bfa	0.2874449
2	0xbf809d18	-1.0047941
3	0xbf584c8e	-0.84491813
4	0x3ed15f1c	0.40892875
5	0xbe95159a	-0.29118043
6	0x3f0bf71b	0.5467393
7	0x3f8f583e	1.1198804
8	0xbf662f83	-0.8991625
9	0xbef93ab0	-0.48677588
10	0x3f103d84	0.56343865
11	0xbf9d5930	-1.2292843
12	0xbd6d635f	-0.057956096
13	0xbeec3959	-0.46137503
14	0x3e7ea4f2	0.24867609
15	0x3f8cec7f	1.1009673
16	0x3db0b3b3	0.08628025
17	0xbecfee94	-0.40611708
18	0xbf25c303	-0.6475069
19	0xbf159451	-0.5842944
20	0x3e7a394b	0.24435918
21	0x3f951009	1.1645519
22	0xbf4c6f8f	-0.79857725
23	0x3f8571b2	1.0425322
24	0x3f576d8e	0.8415154
25	0x3f37fadb	0.7186715
26	0x3ed7424b	0.42042765
27	0x3d187711	0.037222926
28	0x3f5b509f	0.85669893
29	0x3e87e2c8	0.26540208
30	0x3f29fb7e	0.6639937
31	0x3d601ec7	0.05471685
32	0x3f99b5a2	1.2008555
33	0xbf052c05	-0.52020293
34	0x3d0b05d6	0.033941112
35	0x3eb6e0d0	0.35718393
36	0xbf4dea98	-0.80436087
37	0x3e6391c2	0.22223571
38	0xbf993e75	-1.1972185
39	0xbcf33ed7	-0.02969305
40	0xbdbd2532	-0.0923561
41	0x3f8263ea	1.0186741
42	0x3de27a74	0.11058512
43	0x3f160a85	0.586098
44	0xbf47d1da	-0.78054583
45	0x3ecc1a79	0.39863947
46	0x3d0bdfbc	0.034148917
47	0xbe4f25ba	-0.20229235
48	0x3f813d48	1.0096827
49	0x3f14a3de	0.5806254
50	0x3f03f790	0.51549625
51	0xbe7e3db4	-0.24828225
52	0x3f639e7d	0.8891371
53	0x3eaa5f67	0.3327591
54	0xbea8fa23	-0.3300334
55	0xbebfb2b0	-0.37441015
56	0xbf1dc103	-0.6162264
57	0xbe2dfd18	-0.16991079
58	0xbf0fec56	-0.56219995
59	0xbe731d57	-0.23741661
60	0x3fafccff	1.3734435
61	0x3f18db0a	0.5970923
62	0x3ce870cb	0.028374096
63	0x3f83d0df	1.0298117

network.5.running_var f4 [64]
0	0x3fbeaa17	1.4895657
1	0x3f794193	0.97365683
2	0x3fbbe4ca	1.4679196
3	0x3fa0a9e5	1.2551848
4	0x3fbd0eea	1.4770176
5	0x400245d6	2.0355124
6	0x3f98a4b3	1.1925262
7	0x4036e732	2.857861
8	0x3fafbf37	1.3730229
9	0x400cf882	2.2026677
10	0x3f7fba28	0.99893427
11	0x4024dafa	2.5758653
12	0x405599de	3.3375163
13	0x3fea76b2	1.8317473
14	0x3fc052d5	1.5025278
15	0x403870c3	2.8818824
16	0x3f95973d	1.1686779
17	0x3fc475ea	1.5348485
18	0x400e2919	2.2212584
19	0x40535389	3.3019736
20	0x3fd05467	1.6275758
21	0x403116e2	2.7670217
22	0x40804df6	4.0095167
23	0x40287da4	2.6326685
24	0x3fda772e	1.7067621
25	0x3f6633e5	0.89922935
26	0x3fd92c37	1.6966618
27	0x3f46b42e	0.7761868
28	0x408a88f4	4.329218
29	0x3f3385d2	0.7012607
30	0x4015713a	2.3350358
31	0x3fe83596	1.8141353
32	0x4042df8d	3.0448945
33	0x3f764ee3	0.9621412
34	0x3f907e75	1.1288592
35	0x3fbffa65	1.4998289
36	0x3fc1f00d	1.5151383
37	0x3fab0395	1.3360468
38	0x3fcdef29	1.6088611
39	0x3f8bd562	1.0924494
40	0x3f9a6280	1.206131
41	0x3fdd7c67	1.730359
42	0x3fab9a26	1.3406417
43	0x4059d6db	3.4037387
44	0x3f990b17	1.1956509
45	0x3fdb6f32	1.7143309
46	0x3f5e18d8	0.8675666
47	0x3fd59909	1.6687328
48	0x403e48e1	2.9731982
49	0x3fc997a3	1.5749401
50	0x3fc837ed	1.5642067
51	0x3fed8d6f	1.8558787
52	0x406f6aff	3.7409055
53	0x400fa915	2.244695
54	0x4044f72f	3.077587
55	0x4035eba2	2.842507
56	0x3ff4bd27	1.9120225
57	0x3f5b5087	0.8566975
58	0x3fc46d91	1.5345937
59	0x3f4092fa	0.7522427
60	0x3ffbfccc	1.9686522
61	0x40031085	2.0478833
62	0x40044a8f	2.0670507
63	0x3ff7b649	1.9352504

network.8.weight f4 [32, 64]
0	0x3e4545b0	0.19264865
1	0xbe42bd6f	-0.19017576
2	0xbd3e13ec	-0.046405718
3	0x3d7b43ce	0.06134396
4	0x3dbf90ca	0.09353788
5	0xbe1a8363	-0.15089183
6	0xbe19544e	-0.14973566
7	0x3e152d27	0.14568006
8	0xbd1c1939	-0.03810999
9	0xbddb640a	-0.1071244
10	0xbda965f0	-0.08271396
11	0x3d4602f8	0.048342675
12	0xbd088d79	-0.033338044
13	0xbdfe7561	-0.12424732
14	0x3e6c3cd3	0.23070078
15	0xbe8b2dcd	-0.2718338
16	0xbccae3da	-0.024766851
17	0x3da3a436	0.07990305
18	0x3dcead2c	0.10091624
19	0xbe694f20	-0.2278409
20	0xbc21bcda	-0.009871686
21	0x3df021df	0.117252104
22	0x3e1668a1	0.1468835
23	0xbe34581c	-0.17611736
24	0xbe02876e	-0.12746975
25	0xbe904187	-0.28174993
26	0xbe6822af	-0.2266948
27	0xbe521a4b	-0.20517842
28	0xbe9cd11d	-0.3062829
29	0x3d695582	0.056966312
30	0xbe98fee5	-0.2988197
31	0xbe11c6b3	-0.14235954
32	0xbe8e2f41	-0.27770427
33	0xbe08ebd3	-0.1337121
34	0xbde894c0	-0.11356497
35	0x3e1d3bd4	0.15354854
36	0xbe0ed3c3	-0.13947968
37	0xbddecf9a	-0.108794406
38	0xbda64c70	-0.08120048
39	0x3c78feb5	0.015197446
40	0xbc8db519	-0.017298268
41	0xbe44e675	-0.19228537
42	0x3dedd2df	0.11612486
43	0xbe1e3476	-0.154497
44	0xbdd1b4fb	-0.102395974
45	0xbd6edc1e	-0.05831539
46	0xbe258f61	-0.16167976
47	0x3e109556	0.14119467
48	0x3daaf0c7	0.08346706
49	0xbd73c224	-0.05951132
50	0xbe549575	-0.20760138
51	0xbddee527	-0.10883551
52	0x3dabed26	0.08394842
53	0x3dde98ab	0.10868963
54	0x3d972b97	0.07381361
55	0xbe1637d5	-0.14669736
56	0xbe50a155	-0.20374043
57	0xbe8a7113	-0.27039394
58	0xbe0ea371	-0.13929535
59	0xbcc482d5	-0.023988167
60	0xbe0000c0	-0.12500286
61	0xbe05bffa	-0.13061514
62	0x3e37598c	0.17905253
63	0x3e0d81fc	0.13819116
64	0x3e1701cb	0.14746778
65	0xbcc5c111	-0.024139913
66	0x3e8189e9	0.2530053
67	0xbd260b29	-0.040537987
68	0xbe0d4bb1	-0.13798405
69	0x3db5bc5e	0.08873819
70	0xbd8a89aa	-0.067645386
71	0xbd17bd74	-0.03704591
72	0x3db2e3ba	0.08734842
73	0x3e34af37	0.17644964
74	0x3d65ea8f	0.056131896
75	0xbcad72ae	-0.021172848
76	0x3e1560ff	0.14587782
77	0x3dc1fa70	0.09471595
78	0x3cfcc0b7	0.030853612
79	0xbe5d6f01	-0.21624376
80	0xbc6277df	-0.013822525
81	0x3d91d2bb	0.07120272
82	0xbdeb9467	-0.11502915
83	0x3df51fd9	0.11968965
84	0xbd054fa8	-0.03254667
85	0xbe9d88d0	-0.30768442
86	0x3e672593	0.22572927
87	0xbd0a30d6	-0.03373798
88	0xbd9601a3	-0.07324531
89	0x3d8bac41	0.06819964
90	0x3b8d6400	0.0043148994
91	0xbcc944b1	-0.024568887
92	0xbd395ee6	-0.045256518
93	0xbd0ee73e	-0.0348885
94	0xbe114fd3	-0.14190607
95	0xbe09201a	-0.13391152
96	0xbe8acaaa	-0.27107745
97	0x3e120ce9	0.14262737
98	0x3e3601a9	0.17774071
99	0xba8e2ea3	-0.0010847639
100	0x3d04cd4f	0.03242236
101	0xbd8e8b65	-0.06960181
102	0xbc76df0d	-0.015067828
103	0x3e4935f3	0.19649486
104	0x3c7ccf8c	0.015430342
105	0xbe8f54d1	-0.27994397
106	0xbe8126b3	-0.25224838
107	0xbe7664b6	-0.24061856
108	0xbd57587d	-0.052574623
109	0x3e696f7f	0.22796439
110	0xbd8f1b1f	-0.06987595
111	0x3dbf83c5	0.09351305
112	0xbdc5f71e	-0.096662745
113	0x3dd54343	0.1041322
114	0xbdd2973d	-0.10282753
115	0xbddef82c	-0.10887179
116	0xbeb1e506	-0.34745044
117	0xbd0ae9cc	-0.033914372
118	0x3e530b65	0.20609815
119	0xbdbe66b9	-0.092969365
120	0xbc29f8a7	-0.010374225
121	0xbdf87add	-0.12132809
122	0xbc8d4e28	-0.017249182
123	0xbda2f00d	-0.07955942
124	0x3e1ddd44	0.15416437
125	0x3e128c1e	0.14311263
126	0x3e1780ad	0.1479518
127	0xbdf873c9	-0.12131459
128	0xbdf80ead	-0.12112174
129	0xbd3e6dce	-0.046491437
130	0x3cc1a5ce	0.023638632
131	0x3e37aff8	0.1793822
132	0xbd58f8f9	-0.052971814
133	0x3bf13ec8	0.0073622204
134	0x3ceb1c91	0.028700145
135	0x3d0124cb	0.03152923
136	0xbdba80a9	-0.09106571
137	0xbe90e12c	-0.28296793
138	0x3d3e9907	0.046532657
139	0x3d8c0b3b	0.068380795
140	0xbe9e6fbd	-0.30944625
141	0x3db54f96	0.088530704
142	0xbe5cd56c	-0.21565789
143	0x3e1e52f3	0.1546133
144	0x3e2b01cb	0.16699903
145	0x3e0a807e	0.13525578
146	0x3d987ffe	0.074462876
147	0x3e1a7d7f	0.15086935
148	0x3e14b5b1	0.14522435
149	0xbd401420	-0.046894193
150	0x3d36c941	0.044625524
151	0x3d46e51e	0.048558347
152	0x3d93fd8f	0.07226097
153	0x3d948f70	0.07253921
154	0x3e058a9c	0.13041157
155	0x3d13e998	0.036111444
156	0x3dcb9045	0.099396266
157	0xbd7d5703	-0.06185056
158	0x3a6a2db8	0.0008933204
159	0xbe6f6c21	-0.23381092
160	0x3dba1e90	0.090878606
161	0x3dd8f777	0.10594075
162	0xbcf37ec1	-0.029723527
163	0xbea4ea8e	-0.322102
164	0xbc0d58ac	-0.008627098
165	0x3e3ad2ca	0.18244472
166	0x3e19b98b	0.15012185
167	0x3e24b9b5	0.16086467
168	0x3e236f06	0.15960321
169	0xbcf40287	-0.029786361
170	0x3e78f321	0.24311496
171	0xbe62bdcb	-0.22142713
172	0xbe7090df	-0.23492764
173	0xbe7b6fc9	-0.24554361
174	0x3e333d15	0.1750377
175	0x3e2f2b3a	0.17106333
176	0x38cb80c5	9.7037795e-05
177	0xbd3c3744	-0.045951143
178	0xbc9dea92	-0.01927689
179	0xbdbee9af	-0.09321915
180	0x3db1b8de	0.08677839
181	0xbe2ca509	-0.16859831
182	0x3e10baf4	0.14133817
183	0x3e040bcc	0.12895125
184	0x3e404735	0.18777163
185	0xbde35035	-0.11099283
186	0x3e2a6cda	0.16643086
187	0x3d92e196	0.07171933
188	0x3d292dde	0.041303508
189	0x3dabda7d	0.08391283
190	0xbdb5c249	-0.088749476
191	0x3e27047f	0.16310309
192	0xbe5676ba	-0.20943728
193	0xbe2a6b58	-0.16642511
194	0x3c9eaa4e	0.019368317
195	0x3d93414a	0.07190187
196	0x3e0fc4b5	0.14039882
197	0xbe17380e	-0.14767477
198	0xbe57d244	-0.21076304
199	0x3e25f2a7	0.16205846
200	0x3e07f149	0.13275637
201	0xbdd01258	-0.10159749
202	0x3e5dd680	0.21663857
203	0x3ab46e75	0.0013765829
204	0xbe3eed2e	-0.18645164
205	0xbe30fda6	-0.17284259
206	0xbe8cf573	-0.27531013
207	0xbe56f9df	-0.20993756
208	0x3e4397a5	0.19100817
209	0x3d4264df	0.04745948
210	0xbca5f1e1	-0.020256938
211	0xbdcfa590	-0.101390004
212	0x3d53b4c6	0.05168607
213	0xbdddde74	-0.10833445
214	0x3dbf8a1b	0.093525134
215	0xbe50b899	-0.20382918
216	0xbcebf67c	-0.028804056
217	0xbaa87c42	-0.0012854415
218	0x3e4ec5a6	0.20192584
219	0xbe830a6b	-0.25593886
220	0xbe0637dc	-0.13107246
221	0xbe47ee75	-0.19524558
222	0xbe589a75	-0.2115267
223	0x3e637403	0.22212224
224	0xbeb2010c	-0.34766424
225	0x3d323c28	0.0435144
226	0xbdb01293	-0.08597293
227	0xbe6f7c73	-0.23387317
228	0xbdb111fc	-0.08646008
229	0xbdaa2dda	-0.08309527
230	0x3d280b6b	0.041026514
231	0xbe5f274d	-0.21792336
232	0xbc7ce7ba	-0.015436107
233	0xbe84a30d	-0.25905648
234	0x3ded9c6d	0.116021015
235	0x3d1d3e7f	0.03838968
236	0x3e0055f2	0.12532786
237	0xbe51fd3f	-0.20506762
238	0x3dd97c62	0.10619427
239	0x3cb13fc5	0.021636853
240	0xbe27cc5e	-0.16386554
241	0xbe7562d0	-0.23963475
242	0xbb264ab0	-0.0025374107
243	0x3e4a47f5	0.19754012
244	0x3df8749f	0.12131619
245	0x3d17f861	0.037102107
246	0xbddc739c	-0.10764238
247	0x3de730cf	0.112886064
248	0x3d8d6024	0.06903103
249	0xbde0828a	-0.10962398
250	0xbdf59da4	-0.11992958
251	0xbd54f4fb	-0.051991444
252	0x3c2efea3	0.010680827
253	0xbe44c9f6	-0.19217667
254	0xbe14a24d	-0.14515038
255	0xbe20e0d3	-0.15710764

network.8.bias f4 [32]
0	0x3c211abd	0.009833035
1	0xbb1e404b	-0.0024147208
2	0xbb6b3592	-0.0035890085
3	0xbaa8efdb	-0.0012888865
4	0x3be2e3c2	0.0069241235
5	0xb9d8de6f	-0.00041364456
6	0xbba2bb4d	-0.0049661756
7	0x3b256eff	0.002524316
8	0xbb6c92f8	-0.0036098342
9	0x3b067ae5	0.0020520028
10	0x3c161836	0.009161046
11	0xbb3f3ffb	-0.0029182422
12	0xb9e1ef2c	-0.0004309354
13	0xbb5bd0e7	-0.0033541264
14	0xba084405	-0.0005198124
15	0x3a8a0f40	0.0010533109
16	0x3b449ce4	0.003000074
17	0x3c36b7d1	0.011152224
18	0x3ae72503	0.0017634932
19	0xbb811782	-0.00393957
20	0x3bde434e	0.0067829257
21	0x3b3f4a5c	0.0029188609
22	0xbb1a692c	-0.0023561222
23	0xbb26e8a8	-0.0025468264
24	0xbb6b5daa	-0.0035913982
25	0x3ad9c657	0.0016614896
26	0xba143249	-0.0005653245
27	0xbc0f8332	-0.008759307
28	0xbac4df80	-0.0015020221
29	0x3b469771	0.0030302668
30	0xbc4f7162	-0.01266131
31	0x3bc2ae19	0.005941164

network.9.weight f4 [32]
0	0x3f55d5b7	0.8352923
1	0x3f5d094d	0.86342317
2	0x3f60f400	0.87872314
3	0x3f53363a	0.8250462
4	0x3f5ffa8f	0.874917
5	0x3f45ad89	0.7721792
6	0x3f58cc87	0.84687084
7	0x3f51df62	0.8198148
8	0x3f529882	0.8226396
9	0x3f5f0abd	0.8712576
10	0x3f5e1b87	0.86760753
11	0x3f68931e	0.90849483
12	0x3f4f901a	0.81079257
13	0x3f5c478f	0.8604669
14	0x3f59fc21	0.85150343
15	0x3f44d34f	0.7688493
16	0x3f564896	0.8370451
17	0x3f6612dd	0.89872533
18	0x3f541305	0.8284152
19	0x3f55132a	0.8323237
20	0x3f6a1c44	0.9144938
21	0x3f52b608	0.8230901
22	0x3f4a685e	0.790655
23	0x3f5970ee	0.8493794
24	0x3f64799c	0.8924806
25	0x3f55df45	0.8354381
26	0x3f75feec	0.96092105
27	0x3f59b3a1	0.85039717
28	0x3f4da1c7	0.8032498
29	0x3f5c18ca	0.85975325
30	0x3f594ef0	0.84886074
31	0x3f51ccda	0.81953204

network.9.bias f4 [32]
0	0xbe414c9e	-0.18876883
1	0xbd6a0890	-0.057137072
2	0xbdbaa542	-0.09113552
3	0xbdaa80e4	-0.08325365
4	0xbdf4c7bb	-0.11952158
5	0xbe3cef90	-0.18450761
6	0xbe3cfede	-0.18456599
7	0xbe493759	-0.1965002
8	0xbe3445fb	-0.1760482
9	0xbdd7902c	-0.105255455
10	0xbe15cfc5	-0.14630039
11	0xbdb9c553	-0.0907084
12	0xbe013f2c	-0.12621754
13	0xbd4e7515	-0.050404627
14	0xbde26e80	-0.110562325
15	0xbe18cef0	-0.1492269
16	0xbe1803b3	-0.14845161
17	0xbd0a3489	-0.033741508
18	0xbe26ed8c	-0.16301554
19	0xbde00e25	-0.10940198
20	0xbd92d8f0	-0.07170284
21	0xbdcb1e9a	-0.09917946
22	0xbe05ccd5	-0.13066418
23	0xbda0bf43	-0.0784898
24	0xbddc45d3	-0.107555054
25	0xbe08589b	-0.1331505
26	0x3c273ff8	0.010208122
27	0xbe46553b	-0.1936845
28	0xbe45590b	-0.19272248
29	0xbdbec49e	-0.093148455
30	0xbe40287d	-0.18765445
31	0xbdebd1ac	-0.11514601

network.9.running_mean f4 [32]
0	0xbfb04330	-1.3770504
1	0xbeca1d96	-0.39475697
2	0x3ede17a8	0.43377423
3	0xbf9a4edb	-1.2055315
4	0xbf27ba66	-0.65518796
5	0x3db26b09	0.087118216
6	0xbd8c7caf	-0.06859719
7	0xbe77695a	-0.24161282
8	0xbe514a6a	-0.20438543
9	0xbeff0d1e	-0.49814695
10	0xbeafd934	-0.343454
11	0xbd1e73d2	-0.038684674
12	0xbf05cae7	-0.5226273
13	0xbed08d98	-0.40733027
14	0xbf6c1381	-0.9221726
15	0xbebc7371	-0.36806825
16	0xbed6ce92	-0.41954476
17	0xbf2027fa	-0.62561
18	0xbeb53aa2	-0.35396296
19	0xbf72000d	-0.9453133
20	0x3e85b962	0.26117998
21	0xbe9ac868	-0.30231023
22	0x3eca7023	0.3953868
23	0xbe82d8c5	-0.25556007
24	0x3e30f912	0.17282513
25	0xbe1ac035	-0.15112384
26	0x3dcc63a8	0.099799454
27	0xbd00d270	-0.03145069
28	0xbf2686b4	-0.6504929
29	0xbfa6ddbd	-1.3036419
30	0xbd870142	-0.06592037
31	0xbf5855ad	-0.8450573

network.9.running_var f4 [32]
0	0x4024a786	2.5727248
1	0x403efb8f	2.984104
2	0x3fb47c7f	1.4100493
3	0x4053f9b6	3.3121161
4	0x4031cee8	2.7782536
5	0x3fdbd517	1.7174405
6	0x4071977b	3.7748706
7	0x3fbaf8e8	1.460721
8	0x40cc098c	6.3761654
9	0x3faf9d95	1.3719965
10	0x405485d1	3.3206675
11	0x4078eb72	3.8893704
12	0x409aada1	4.833695
13	0x4025b1ae	2.5889697
14	0x4035841a	2.8361878
15	0x3fef379a	1.8688843
16	0x3ffa6a98	1.956378
17	0x40115853	2.271016
18	0x3fac11ff	1.3442992
19	0x4046d3c5	3.1066754
20	0x3fc0e4fc	1.506988
21	0x3fcb444c	1.5880218
22	0x40276aa0	2.6158829
23	0x402a1702	2.6576543
24	0x3fb614be	1.422508
25	0x405c6615	3.4437306
26	0x400fb634	2.2454958
27	0x4047bb2f	3.1207998
28	0x4090c794	4.5243626
29	0x405031a1	3.253029
30	0x40127cd5	2.2888691
31	0x4019b02e	2.4013782
