soil_salinity_multi_sensor/outputs/models/stage1/stage1_epoch_40.pth (torch, 72297 bytes, 20 tensors)

network.0.weight f4 [128, 36]
0	0x3e201c92	0.15635899
1	0x3e06e9ba	0.13175097
2	0x3ef45e3b	0.47728142
3	0x3e4597e6	0.19296226
4	0x3cb6d6c2	0.022319201
5	0x3d9848e1	0.074357755
6	0x3decbf7e	0.11559962
7	0xbdc6dda0	-0.0971024
8	0x3df256d5	0.11832968
9	0xbe805d11	-0.25071004
10	0x3e4d3ff3	0.20043926
11	0x3da86f3b	0.082243405
12	0x3e5deca2	0.216723
13	0x3e1c3cc7	0.1525756
14	0x3d81e67a	0.06342788
15	0xbe23ef96	-0.16009364
16	0x3e9732e1	0.29531005
17	0x3e250989	0.16116919
18	0x3ed5d783	0.41765985
19	0x3f11e64b	0.56992024
20	0x3dcd9b07	0.10039335
21	0xbdf67537	-0.12034076
22	0xbd3b6464	-0.045750037
23	0x3d98abf1	0.0745467
24	0x3eb5eb51	0.35531095
25	0x3e671adb	0.22568838
26	0xbce04c00	-0.02737999
27	0xbd46b89e	-0.04851591
28	0xbe49cc7d	-0.19706912
29	0x3e06c9dd	0.13162942
30	0xbee6f1b7	-0.4510629
31	0x3ef8a397	0.4856231
32	0x3e3572f0	0.17719626
33	0xbe2b5e9a	-0.16735306
34	0xbed85dd8	-0.42259097
35	0x3d1ff391	0.039050642
36	0x3d9f26e5	0.077710904
37	0xbc133d71	-0.008986817
38	0x3ca978ee	0.020687547
39	0x3e2009fb	0.15628807
40	0xbc561369	-0.013066151
41	0x3cda0df5	0.026617983
42	0x3d492456	0.04910692
43	0x3dfeac4c	0.12435207
44	0xbe28e08c	-0.16491908
45	0x3d6997f8	0.057029694
46	0xbd195976	-0.037438832
47	0xbdf47a89	-0.11937434
48	0xbdcacb0d	-0.0990201
49	0xbe42f478	-0.1903857
50	0x3e188de3	0.14897875
51	0xbcc3664d	-0.023852492
52	0x3e10454d	0.14088936
53	0x3d6d6583	0.057958137
54	0xbd170f70	-0.036879957
55	0xbd734496	-0.05939158
56	0x3ca00a15	0.019536057
57	0xbd6d6391	-0.057956282
58	0x3e2c8e14	0.16851074
59	0x3e11834f	0.14210247
60	0x3da99838	0.082809865
61	0x3e055c1a	0.13023415
62	0xbe388482	-0.18019298
63	0x3e6839ec	0.22678345
64	0xbd6fb9c0	-0.058526754
65	0xbdab7b5d	-0.08373139
66	0xbe6f48ba	-0.23367587
67	0x3e078132	0.13232878
68	0x3e43034a	0.19044223
69	0xbcfc2664	-0.030780025
70	0xbe809344	-0.25112355
71	0x3d8eadbe	0.069667324
72	0x3ebd1a2c	0.3693403
73	0x3ed63e3d	0.4184436
74	0x3eabfeca	0.33592826
75	0x3f01a73e	0.50645816
76	0xbe1bf458	-0.15229928
77	0x3a6db0f4	0.00090672006
78	0xbdf96e11	-0.121791966
79	0xbcea7046	-0.02861799
80	0x3d3aec93	0.04563577
81	0x3e6ff229	0.2343222
82	0x3e8c4e1f	0.27403352
83	0x3ea4310f	0.3206868
84	0x3e89583f	0.2682514
85	0x3e8898bd	0.2667903
86	0xbd1d7908	-0.038445503
87	0x3db1cacd	0.08681259
88	0x3ed32a0b	0.41243014
89	0x3f0e9433	0.55694884
90	0x3e90517e	0.28187174
91	0x3f125172	0.57155526
92	0x3d0b45b7	0.034002032
93	0xbd367b68	-0.044551283
94	0xbace8559	-0.0015756293
95	0xbcc5a434	-0.02412615
96	0xbc22e822	-0.00994304
97	0xbd9384fd	-0.072031
98	0xbde9a071	-0.11407555
99	0xbcdf539b	-0.027261546
100	0x3de73eb0	0.112912536
101	0x3e68f6fd	0.22750469
102	0xbf07ef49	-0.53099495
103	0x3ec4c5a8	0.3843205
104	0x3d106fda	0.03526292
105	0x3da2f247	0.07956367
106	0xbea0e438	-0.31424117
107	0xbdc2f7d4	-0.09519926
108	0x3e9c283e	0.30499452
109	0x3effd46e	0.49966758
110	0x3eba0ce6	0.36337966
111	0x3f0f1fa6	0.55907667
112	0x3d6bc183	0.057557594
113	0x3d5a60e6	0.053315066
114	0xbe00b452	-0.12568787
115	0xbe1c2347	-0.15247832
116	0x3dd24f8f	0.10269081
117	0x3eccbc81	0.39987567
118	0x3eab3cc8	0.3344481
119	0x3e9a2c0b	0.30111727
120	0x3e99879d	0.29986277
121	0x3ea64a36	0.32478493
122	0x3dc595bd	0.09647701
123	0xbdc8aaea	-0.09798224
124	0x3f08c715	0.53428775
125	0x3ea68f49	0.32531193
126	0x3f33a456	0.7017263
127	0x3f15c7f6	0.5850824
128	0x3e2bc218	0.1677326
129	0xbe1f240e	-0.15541098
130	0xbd9f8513	-0.07789054
131	0xbd4cf860	-0.050041556
132	0x3ea13de0	0.3149252
133	0x3e90c3fb	0.2827452
134	0xbe2acb38	-0.16679084
135	0x3c8ba743	0.01704753
136	0xbdfc2e05	-0.12313465
137	0xbdb63f06	-0.088987395
138	0x3d56eb4a	0.052470483
139	0x3e7f74fa	0.24946967
140	0x3ca18e57	0.019721193
141	0x3e3a4c4b	0.18193166
142	0xbe899f4d	-0.2687935
143	0xbdf63c18	-0.12023181
144	0xbc97693f	-0.018482802
145	0x3e1392d6	0.14411482
146	0x3e8cd6a5	0.2750751
147	0x3ddf9197	0.10916441
148	0x3dbaf2f7	0.09128373
149	0x3dc3eea6	0.09567003
150	0xbde45e0d	-0.11150751
151	0x3cbc611b	0.022995522
152	0xbebff267	-0.37489626
153	0x3c640b02	0.01391864
154	0x3d558262	0.052126296
155	0xbe2b9ab4	-0.16758233
156	0xbe8ce79d	-0.27520457
157	0xbd6d2031	-0.05789203
158	0xbe69f9fd	-0.22849269
159	0x3caeeedc	0.021354131
160	0x3e7ba08d	0.24572964
161	0x3e5513dc	0.20808357
162	0x3e000c5b	0.12504713
163	0x3d9b1648	0.07572609
164	0x3c661e14	0.014045257
165	0x3cf33c30	0.029691786
166	0xbd8a03ef	-0.067390315
167	0x3ba2fda1	0.0049740826
168	0x3d9a9ae2	0.07549073
169	0xbdc190d5	-0.09451453
170	0x3d92ff9b	0.07177659
171	0xbaa6ee48	-0.0012735808
172	0xbdd99ce9	-0.10625631
173	0x3de5554c	0.1119791
174	0x3e7ef73f	0.24899004
175	0x3bf82aa4	0.0075734425
176	0xbe2e0c87	-0.16996966
177	0xbde53f3f	-0.11193704
178	0x3d770998	0.060311884
179	0xbdc35098	-0.095368564
180	0xbd006b4a	-0.03135232
181	0x3dfc9c63	0.12334516
182	0xbd7d8933	-0.06189842
183	0xbc3d3fc4	-0.011550847
184	0x3c1eb7fb	0.009687419
185	0xbde28cb1	-0.11061991
186	0xbdd122b8	-0.102117
187	0xbd54efb8	-0.051986426
188	0x3e293d12	0.16527203
189	0xbc844fd8	-0.016151354
190	0xbc593a9e	-0.013258604
191	0xbdb0730a	-0.08615692
192	0xbdb7ab14	-0.089681774
193	0x3dbb7b79	0.0915441
194	0x3e2b73dd	0.16743417
195	0x3e1535b4	0.14571267
196	0xbd50b249	-0.050951276
197	0x3e992aa4	0.29915345
198	0x3a3170e0	0.0006768834
199	0x3d18ec0d	0.03733449
200	0x3c122a9f	0.0089212945
201	0x3d2c635c	0.042086944
202	0xbdceeff4	-0.10104361
203	0xbd9f320b	-0.07773217
204	0xbadfcf4c	-0.0017075329
205	0x3d22fa19	0.039789293
206	0x3cd62f25	0.026145527
207	0xbdb6b37b	-0.08920952
208	0x3d7e4bed	0.062084127
209	0xbe397278	-0.18110073
210	0xbe25aa7f	-0.1617832
211	0x3dab523d	0.08365295
212	0x3e412148	0.18860352
213	0x3e25fd48	0.162099
214	0xbe5f591e	-0.2181134
215	0x3d8baca8	0.06820041
216	0x3ede2ac4	0.43392003
217	0x3ee35441	0.44400218
218	0x3ed47d80	0.41502
219	0x3eb9ce4e	0.3629021
220	0xbe410e52	-0.18853119
221	0x3e0966b2	0.13418081
222	0xbe17afd8	-0.14813173
223	0x3bec09ef	0.0072033326
224	0xbd04a8c2	-0.032387502
225	0xbc8c2477	-0.017107232
226	0x3e0c4c50	0.13700986
227	0x3e4c383c	0.19943327
228	0x3de985a4	0.11402443
229	0x3e765ac2	0.24058059
230	0x3e029d19	0.1275524
231	0xbdecb2c5	-0.11557535
232	0x3ebacbe4	0.3648368
233	0x3e356db3	0.17717628
234	0x3f0df787	0.5545582
235	0x3e87349d	0.26407328
236	0x3e11082b	0.14163272
237	0xbce0346b	-0.027368745
238	0xbde531e2	-0.11191155
239	0xbda0f3d3	-0.07859006
240	0x3e9a44c7	0.30130598
241	0x3e2d517f	0.1692562
242	0x3d0335ce	0.032033734
243	0xbdb88c14	-0.09011093
244	0xbdd64cc2	-0.10463859
245	0x3e4d7e78	0.20067775
246	0xbe2918ca	-0.16513363
247	0x3eb2c2a7	0.34914133
248	0x3d999806	0.07499699
249	0xbe280db5	-0.16411479
250	0xbe62f624	-0.22164208
251	0xbe0edf79	-0.13952436
252	0xbe60b7e5	-0.2194515
253	0xbe778c0a	-0.24174514
254	0xbe2a6169	-0.16638722
255	0xbeeb1db2	-0.45921093

network.0.bias f4 [128]
0	0xb98f7de7	-0.0002736889
1	0xb7bdb944	-2.2616827e-05
2	0x39b50f66	0.00034534483
3	0xb9b55638	-0.00034587248
4	0xb71f73e2	-9.50412e-06
5	0xb64e7fe4	-3.0770834e-06
6	0x3992a135	0.000279674
7	0x3779000d	1.4841568e-05
8	0x377cdf69	1.5072387e-05
9	0x38c8460d	9.549791e-05
10	0x382aae9d	4.069378e-05
11	0x38e9ea9f	0.000111540074
12	0xb99fb6c2	-0.00030463008
13	0x38e13131	0.00010737999
14	0x386584b7	5.4721455e-05
15	0x39ff035c	0.00048639893
16	0xb881486e	-6.1646904e-05
17	0xb8f9f73e	-0.00011919298
18	0xb8c70c88	-9.4913936e-05
19	0xb8056ea7	-3.1812724e-05
20	0x39ba9507	0.0003558772
21	0x3822aac2	3.878284e-05
22	0xba18e24b	-0.000583206
23	0x39255b69	0.00015769679
24	0xb8dae55d	-0.00010437772
25	0xb99b8c9e	-0.00029668672
26	0xbb0ecc91	-0.0021789412
27	0xb93a7ad8	-0.00017784105
28	0x378a7318	1.6504477e-05
29	0xb9658e54	-0.00021892163
30	0x3798aa63	1.8199155e-05
31	0xb95dea56	-0.000211635
32	0x38df8148	0.00010657549
33	0xb8b7dae8	-8.7668945e-05
34	0xb91a88e8	-0.00014737586
35	0xb7eced9d	-2.824404e-05
36	0xb9d46ff8	-0.00040519214
37	0xb94d3e44	-0.00019573519
38	0x399d5624	0.00030009553
39	0x3953e348	0.00020207197
40	0xb98fd64f	-0.00027434758
41	0x385c40ff	5.251262e-05
42	0x374825ad	1.1929701e-05
43	0xb8c41685	-9.350203e-05
44	0x37a4d165	1.964783e-05
45	0x3793f6f4	1.7638762e-05
46	0x3857919a	5.1395597e-05
47	0xb8f244d2	-0.00011552278
48	0xb9be6010	-0.00036311196
49	0xb7209366	-9.571062e-06
50	0xb9a39812	-0.00031203084
51	0xb822edd0	-3.884529e-05
52	0xb71a5e43	-9.201062e-06
53	0x3a029a83	0.00049821305
54	0xba847102	-0.001010448
55	0xb7ce64e4	-2.4604095e-05
56	0x39799657	0.00023802496
57	0x397e791d	0.00024268446
58	0x391eb042	0.00015133715
59	0x39cf482d	0.00039535892
60	0x3990eaf4	0.00027640874
61	0x3959161f	0.00020702973
62	0xb936f325	-0.00017447451
63	0x3853ba17	5.047963e-05
64	0xb8dd20bd	-0.00010544199
65	0x38cbcd59	9.718043e-05
66	0xb97c0c74	-0.00024037232
67	0x3955876a	0.00020363709
68	0xb88e3cd6	-6.782419e-05
69	0x3916df31	0.0001438826
70	0xb9629a12	-0.00021610435
71	0x394af6ab	0.00019356112
72	0x39e10fa3	0.00042926995
73	0xb8e31ff4	-0.00010830155
74	0x386c938b	5.6404195e-05
75	0x396b6978	0.00022450637
76	0x3a177c75	0.00057787384
77	0xb8050b12	-3.171998e-05
78	0x38941467	7.06099e-05
79	0xb7bca5b4	-2.2488508e-05
80	0x348ac961	2.5851025e-07
81	0x387b766b	5.995335e-05
82	0xb9ccf32a	-0.00039091083
83	0xb930e2aa	-0.00016869107
84	0x39cb5b69	0.00038787283
85	0x385ba0a6	5.2363284e-05
86	0x39a10732	0.00030713674
87	0xb966e72c	-0.00022020628
88	0xb9aaa17c	-0.00032545242
89	0x3a7b7dfc	0.0009593663
90	0xb78c7b3c	-1.6746686e-05
91	0xb7b647cd	-2.1729526e-05
92	0xb7f49e5a	-2.9160805e-05
93	0x38d911c7	0.000103506776
94	0x38c92357	9.5910094e-05
95	0x3841fe7a	4.6251786e-05
96	0x3a252f9b	0.0006301344
97	0x3a3bf543	0.0007170031
98	0xb812c857	-3.4995694e-05
99	0xb7b8ec3d	-2.2044516e-05
100	0x381f006a	3.790894e-05
101	0x38bf99a1	9.136205e-05
102	0xb7c65f01	-2.3647679e-05
103	0x3a3bc406	0.00071626937
104	0x3a8fc150	0.0010967646
105	0xb7bbfda2	-2.2410244e-05
106	0x39090ee7	0.0001307089
107	0x38a9abd3	8.090553e-05
108	0x38ae48c8	8.310523e-05
109	0x370e48d2	8.480814e-06
110	0xb95577bc	-0.00020357867
111	0x37e807dd	2.7660217e-05
112	0xb8361b08	-4.3417356e-05
113	0x39817270	0.0002469006
114	0x389c851e	7.463455e-05
115	0x386a6872	5.588722e-05
116	0xba32d9e6	-0.00068226305
117	0xb8bd2951	-9.019918e-05
118	0x39124438	0.00013949058
119	0x38993c42	7.3068324e-05
120	0x3904740d	0.00012631733
121	0xb73471ca	-1.075533e-05
122	0xb99531e1	-0.00028456657
123	0xb9152924	-0.00014225073
124	0x3a15b77a	0.0005711239
125	0xb98372bd	-0.00025071754
126	0xb8708b4d	-5.7350193e-05
127	0x391ae85c	0.00014773145

network.1.weight f4 [128]
0	0x3f89b3ef	1.0758036
1	0x3f79d6b6	0.9759325
2	0x3f714a69	0.94254166
3	0x3f7a0b2e	0.9767331
4	0x3f806229	1.0029956
5	0x3f847002	1.0346682
6	0x3f7c1038	0.9846225
7	0x3f89e7a5	1.0773817
8	0x3f7558ea	0.958388
9	0x3f84ac19	1.036502
10	0x3f8e4528	1.1114855
11	0x3f7b6a34	0.9820893
12	0x3f7a3c71	0.97748476
13	0x3f885059	1.064952
14	0x3f8e8ff6	1.1137683
15	0x3f7da838	0.99084806
16	0x3f7199d1	0.9437533
17	0x3f7681d2	0.9629184
18	0x3f7b1c29	0.98089844
19	0x3f84c024	1.0371137
20	0x3f7be272	0.98392403
21	0x3f82b738	1.0212164
22	0x3f843f98	1.0331907
23	0x3f7eaf8a	0.994866
24	0x3f777965	0.9666961
25	0x3f83358f	1.025072
26	0x3f83091d	1.0237156
27	0x3f7929b2	0.97329247
28	0x3f84a3e7	1.0362519
29	0x3f75124f	0.9573106
30	0x3f7dffae	0.9921826
31	0x3f76fb3a	0.9647709
32	0x3f7040cd	0.9384888
33	0x3f7b629a	0.9819733
34	0x3f798ede	0.97483623
35	0x3f8399ce	1.0281312
36	0x3f83f4b7	1.0309056
37	0x3f7627c0	0.96154404
38	0x3f7d5818	0.98962545
39	0x3f71b06c	0.94409823
40	0x3f7f13f6	0.9963983
41	0x3f8b41f5	1.0879503
42	0x3f7dee47	0.9919171
43	0x3f8cb0a1	1.0991403
44	0x3f78b001	0.9714356
45	0x3f7f6253	0.99759406
46	0x3f7bbd1c	0.98335433
47	0x3f78f494	0.97248197
48	0x3f790c5d	0.9728449
49	0x3f89a3d2	1.0753119
50	0x3f70370a	0.9383398
51	0x3f6b7d1b	0.9198777
52	0x3f806a60	1.0032463
53	0x3f891033	1.0708069
54	0x3f948e31	1.1605893
55	0x3f8824c4	1.063622
56	0x3f723a8a	0.94620574
57	0x3f7ad8e7	0.97987217
58	0x3f82e1d0	1.0225163
59	0x3f88b476	1.0680072
60	0x3f7838e3	0.969618
61	0x3f77dc58	0.9682059
62	0x3f8ca23c	1.098701
63	0x3f7e64da	0.9937264
64	0x3f723a10	0.94619846
65	0x3f8d88d3	1.105738
66	0x3f780d4e	0.968953
67	0x3f986597	1.1906003
68	0x3f7b2486	0.98102605
69	0x3f7b5f8b	0.9819266
70	0x3f7c6fd3	0.9860813
71	0x3f78b919	0.97157437
72	0x3f7aa8ba	0.97913706
73	0x3f85ec22	1.0462687
74	0x3f7d9b02	0.9906465
75	0x3f875508	1.0572824
76	0x3f79fe20	0.9765339
77	0x3f88f758	1.0700483
78	0x3f7b737c	0.9822309
79	0x3f8527d4	1.040278
80	0x3f841fef	1.0322245
81	0x3f76bfc4	0.9638636
82	0x3f6b1abc	0.9183767
83	0x3f75dddc	0.96041656
84	0x3f79f6a7	0.97641987
85	0x3f82282e	1.0168512
86	0x3f87001e	1.0546911
87	0x3f842060	1.032238
88	0x3f879fea	1.0595677
89	0x3f869f4a	1.0517361
90	0x3f8194ae	1.0123498
91	0x3f768788	0.96300554
92	0x3f79026b	0.97269315
93	0x3f819d4b	1.0126127
94	0x3f7eb8c4	0.9950068
95	0x3f7e62ad	0.9936932
96	0x3f741674	0.9534676
97	0x3f78dbed	0.9721058
98	0x3f884e87	1.0648965
99	0x3f7c5054	0.9856007
100	0x3f752798	0.9576354
101	0x3f7b3e7a	0.98142207
102	0x3f784252	0.96976197
103	0x3f876105	1.0576483
104	0x3f6c3e7b	0.9228284
105	0x3f83b472	1.0289443
106	0x3f82a5f0	1.020689
107	0x3f84f2f4	1.0386643
108	0x3f7e88d6	0.99427545
109	0x3f7a0a25	0.9767173
110	0x3f7a2774	0.9771645
111	0x3f811cf0	1.0086956
112	0x3f74f339	0.9568363
113	0x3f83a75f	1.0285453
114	0x3f78f692	0.97251236
115	0x3f7a80c5	0.97852737
116	0x3f875251	1.0571996
117	0x3f798e8e	0.97483146
118	0x3f796f43	0.97435397
119	0x3f8086a6	1.0041091
120	0x3f695b28	0.9115472
121	0x3f75a9ee	0.9596242
122	0x3f7691ce	0.9631623
123	0x3f72a897	0.947885
124	0x3f7515ca	0.9573637
125	0x3f8315d3	1.0241035
126	0x3f711083	0.9416582
127	0x3f6ac319	0.91703945

network.1.bias f4 [128]
0	0xbd339988	-0.04384759
1	0xbc9d64e4	-0.019213147
2	0xbd8b8518	-0.06812495
3	0x3d99531b	0.07486554
4	0xbb48ca16	-0.003063803
5	0xbc593ecf	-0.013259604
6	0x3d1e81bd	0.038697947
7	0xbdbe2629	-0.09284622
8	0xbdfd6f4c	-0.12374744
9	0x3d0deeae	0.03465145
10	0x3e04052c	0.12892598
11	0xbc2750b1	-0.010212109
12	0xbd7bb0e2	-0.061447985
13	0x3d5f948d	0.05458503
14	0x3cba737e	0.02276015
15	0xbc071bf2	-0.008246409
16	0xbdae780c	-0.08518991
17	0xbd815f32	-0.06316985
18	0xbd0353c5	-0.03206231
19	0x3c07c332	0.008286284
20	0xbc4905ac	-0.012269419
21	0xbd8fee08	-0.07027823
22	0x3d1687e0	0.036750674
23	0xbd2bcd55	-0.041943867
24	0xbdd84ec9	-0.10561902
25	0xbd1e0db9	-0.038587306
26	0xbcd2a281	-0.025712254
27	0xbd4acb37	-0.049510207
28	0xbd8e700a	-0.069549635
29	0xbd83df6f	-0.06439101
30	0x3c2b7676	0.010465255
31	0xbe16691a	-0.1468853
32	0xbe093efb	-0.13402931
33	0xbd875358	-0.066076934
34	0xbc921d54	-0.01783625
35	0x3b2b8d7d	0.0026176863
36	0xbd33e105	-0.043915767
37	0x3d5bd82a	0.053672947
38	0x3b8652d2	0.0040992284
39	0xbda44959	-0.080218025
40	0xbb2398db	-0.0024962935
41	0xbd58b032	-0.052902408
42	0xbd7faef8	-0.062422723
43	0xbd643622	-0.055715688
44	0xbc70a016	-0.014686605
45	0xbd5ca6de	-0.053870074
46	0xbde2aec8	-0.11068493
47	0xbccf427b	-0.025300255
48	0xbd4e62bf	-0.05038714
49	0xbd4ce850	-0.050026238
50	0xbdebc894	-0.115128666
51	0xbc801840	-0.015636563
52	0xbd8a46fc	-0.067518204
53	0x3ca74e99	0.02042322
54	0x3e0e27c4	0.13882357
55	0xbd79289f	-0.060829755
56	0xbd85dfec	-0.0653685
57	0x3d417738	0.047232836
58	0xbd342454	-0.043979958
59	0x3e5d62e7	0.2161976
60	0x3cff64f9	0.031176077
61	0x3ccdcf77	0.025123341
62	0xbcd19823	-0.02558524
63	0xbda8938b	-0.082312666
64	0xbcc8938d	-0.02448442
65	0xbd743ab7	-0.059626307
66	0xbcc108f6	-0.023563843
67	0x3de8dbcc	0.11370048
68	0xbce7a468	-0.028276637
69	0xbc946865	-0.018116185
70	0xbc042cfc	-0.008067366
71	0xbd2cabe4	-0.042156115
72	0x3df41b8d	0.119193174
73	0xbd3c1dd6	-0.04592689
74	0xbdb50843	-0.088394664
75	0xbd2fc8b5	-0.04291602
76	0xbd4ec56e	-0.050481252
77	0xbc396ee5	-0.011317943
78	0xbd98f523	-0.07468631
79	0x3d9b651d	0.07587645
80	0x3c97d4d5	0.018534103
81	0xbc29b600	-0.010358334
82	0xbd41522e	-0.047197513
83	0xbcdcf459	-0.026971983
84	0xbd322328	-0.04349056
85	0x3d4b4a43	0.04963137
86	0x3c80d403	0.015726095
87	0x3c311109	0.010807284
88	0x3d78cb31	0.060740653
89	0xbdbde5a0	-0.09272313
90	0x3cc8e317	0.024522347
91	0x3d395378	0.045245618
92	0xbd0ffbd4	-0.03515227
93	0xbdeef600	-0.116680145
94	0x3dac2545	0.08405546
95	0x3cfc5573	0.030802464
96	0x3c29b65a	0.010358417
97	0xbd97c6e9	-0.07410986
98	0xbcec2a2e	-0.028828707
99	0xbc3b1198	-0.011417769
100	0xbcbe77e8	-0.023250535
101	0xbd66f670	-0.056387365
102	0xbd6e01cd	-0.058107186
103	0x3d999d6a	0.075007275
104	0x3d5596ce	0.05214577
105	0xbd3b2ff4	-0.04570003
106	0x3ce7ebb7	0.02831064
107	0xbe028502	-0.12746051
108	0xbd619fa8	-0.0550839
109	0x3b00c2ee	0.0019647437
110	0x3cd4d029	0.025978165
111	0xbbf7956b	-0.007555654
112	0xbcf20096	-0.029541295
113	0x3ce8b62f	0.028407184
114	0xbc5ca0a4	-0.013466034
115	0xbda86b9b	-0.08223649
116	0x3a27d16a	0.00064017496
117	0xbd63f313	-0.055651736
118	0xbd646620	-0.055761456
119	0x3cd07a89	0.025449054
120	0xbdcfc0f8	-0.10144228
121	0x3c879d5f	0.016554533
122	0x3d036943	0.032082807
123	0x3d851ab4	0.06499234
124	0xbd433671	-0.04765934
125	0xbc96e277	-0.018418534
126	0xbd30d195	-0.043168623
127	0xbdfd2607	-0.12360769

network.1.running_mean f4 [128]
0	0x3f5dd7a4	0.86657166
1	0x3f04ee39	0.51926
2	0x3f542e68	0.8288331
3	0x3fe7bd9d	1.810474
4	0xbf9a1d79	-1.2040244
5	0xbe135945	-0.14389522
6	0x3da40743	0.080091976
7	0xbf86be13	-1.0526756
8	0x3fa2aef6	1.2709644
9	0xbe071076	-0.13189873
10	0xbea11cc2	-0.31467253
11	0xbf843b6a	-1.0330632
12	0xbfc78b93	-1.558947
13	0xbffaa17f	-1.9580535
14	0xc0209b26	-2.5094695
15	0x3f2f00ac	0.683604
16	0xbeaf1579	-0.3419607
17	0xbe89dbc9	-0.26925495
18	0x3f8d94ab	1.1060995
19	0xbd0caeb1	-0.034346286
20	0xc010003b	-2.250014
21	0xbf9ae08a	-1.2099774
22	0x3fc5054d	1.5392243
23	0xc0188425	-2.3830655
24	0xbe7517fe	-0.23934934
25	0xbf7ea9a0	-0.9947758
26	0xbfaad32b	-1.3345693
27	0xbf62294c	-0.88344264
28	0xc0137bfd	-2.3044426
29	0x3feb1f1e	1.8368871
30	0xbf8ae1cf	-1.0850161
31	0x3eb60e9a	0.35558015
32	0x3fc2fff9	1.5234367
33	0xbf853ffd	-1.0410153
34	0xbea7736a	-0.3270524
35	0xbf859c31	-1.0438291
36	0xbf4e6c60	-0.8063412
37	0x3f52c51a	0.82332003
38	0xbfbf3a14	-1.4939599
39	0x3f33eff2	0.70288
40	0xbf7a841e	-0.97857845
41	0x3f31106c	0.6916568
42	0xbec703b7	-0.38870022
43	0xbef7ad26	-0.4837429
44	0x3ebc70cf	0.36804816
45	0x3d7fdd52	0.062466927
46	0x3f67d64d	0.9056137
47	0x3fa405d8	1.2814283
48	0xc017c89e	-2.3716197
49	0xbfca902b	-1.5825247
50	0x3feacb35	1.8343264
51	0xbf2fb865	-0.6864074
52	0xbf20d58b	-0.6282584
53	0xbf626372	-0.8843299
54	0x3fcee1d5	1.6162668
55	0xbf22f943	-0.63661593
56	0x3fe69a64	1.8015866
57	0xc0045f78	-2.068327
58	0xbfd8cf04	-1.6938176
59	0x4013a60d	2.30701
60	0x40011bbc	2.0173178
61	0xc021c2d2	-2.527516
62	0xbfa7cc2b	-1.3109182
63	0x3e180029	0.14843811
64	0x3f75035a	0.9570824
65	0xbf0d9131	-0.5529967
66	0x3f842cc8	1.0326166
67	0x40211d0c	2.5173979
68	0x3f1b8929	0.60756165
69	0xbf24568d	-0.64194566
70	0xbf827033	-1.019049
71	0x3fda0236	1.7031925
72	0x4004148c	2.063754
73	0x3f98b286	1.1929481
74	0x3d8dbcf7	0.06920808
75	0x3f685fec	0.90771365
76	0xbec6f047	-0.38855192
77	0xbf356f4c	-0.7087295
78	0x3ee001c5	0.4375135
79	0xbf952ab5	-1.1653658
80	0xbeca3cdd	-0.3949956
81	0xbe8e306b	-0.27771315
82	0xbf0e8771	-0.5567542
83	0x4000c5d7	2.0120752
84	0xc0318c26	-2.774179
85	0xbf95e5ac	-1.1710715
86	0xbf901ea0	-1.1259346
87	0xc034f026	-2.8271575
88	0xbf771b26	-0.965258
89	0x4002c33a	2.0431657
90	0x40144a08	2.3170185
91	0x3f55ea6d	0.8356083
92	0x3f963bfc	1.1737056
93	0xbfdfeacb	-1.7493528
94	0x3f42f9fc	0.76162696
95	0xbf5a3b7b	-0.8524701
96	0x3fcab161	1.5835382
97	0xbfb117c3	-1.3835377
98	0xbe9018da	-0.2814396
99	0x3fdef262	1.7417719
100	0xbebcd748	-0.36882997
101	0xbde5bb67	-0.11217385
102	0xbe8bce6e	-0.2730593
103	0xbfaa4955	-1.3303629
104	0x3f157367	0.58379215
105	0x3db7b398	0.08969802
106	0xbe98ac1a	-0.29818803
107	0xbfcf37cb	-1.6188902
108	0xc00beb85	-2.18625
109	0xc0151895	-2.3296254
110	0xbfc6c82b	-1.5529836
111	0x3f444b8f	0.76677793
112	0x3f3f539d	0.7473696
113	0xbfb98df0	-1.4496441
114	0x3f7fabb5	0.9987138
115	0xbe971089	-0.29504803
116	0xbff0102c	-1.8754935
117	0xbe0088a5	-0.12552126
118	0xbfb7760d	-1.4332901
119	0xbf385ed0	-0.7201967
120	0x3fa0fa13	1.2576317
121	0xbe543133	-0.20721893
122	0xbdaccc06	-0.08437352
123	0x3f9cb19b	1.2241701
124	0x3c6b5a16	0.01436474
125	0xbd789777	-0.060691323
126	0xbe708f20	-0.23492098
127	0x3f888b03	1.0667423

network.1.running_var f4 [128]
0	0x43683378	232.20105
1	0x448753a2	1082.6135
2	0x42c89be8	100.304504
3	0x4397f659	303.9246
4	0x44b18c94	1420.3931
5	0x4525040b	2640.2527
6	0x43f1d0ba	483.63068
7	0x44ef055b	1912.1674
8	0x43c19809	387.18777
9	0x44e77ba9	1851.8644
10	0x4302b0d7	130.69078
11	0x43cc2a6d	408.33145
12	0x44163610	600.8447
13	0x43b77004	366.87512
14	0x43c25623	388.67294
15	0x4375bea6	245.74472
16	0x43aedbf7	349.71848
17	0x43fc00ac	504.00525
18	0x43a69bab	333.21616
19	0x44b4a9b7	1445.3036
20	0x44587919	865.89215
21	0x44db2c03	1753.3754
22	0x42efb210	119.84778
23	0x44d67d82	1715.9221
24	0x44942e6e	1185.4509
25	0x445d3152	884.7706
26	0x42844f00	66.1543
27	0x44b1e6f3	1423.2172
28	0x44dede71	1782.9513
29	0x42488a96	50.135338
30	0x4551c47a	3356.2798
31	0x436aeece	234.93283
32	0x42b164f4	88.697174
33	0x4457c43e	863.0663
34	0x44c34359	1562.1046
35	0x4419e4bb	615.5739
36	0x432ca229	172.63344
37	0x43ca18f5	404.19498
38	0x42af6600	87.69922
39	0x44735e93	973.4777
40	0x43850fec	266.1244
41	0x43a53a35	330.45474
42	0x449549e0	1194.3086
43	0x4381e5b6	259.79462
44	0x448f42be	1146.0857
45	0x4549a72f	3226.449
46	0x4486737f	1075.6093
47	0x4411b431	582.8155
48	0x43961743	300.18173
49	0x4474d1f4	979.2805
50	0x44196763	613.6154
51	0x448aca7e	1110.3279
52	0x4534aef2	2890.934
53	0x42f5e181	122.94044
54	0x41a196d0	20.198639
55	0x44368631	730.09674
56	0x432ba0e0	171.62842
57	0x44592e91	868.7276
58	0x44b10c90	1416.3926
59	0x430fc041	143.75099
60	0x42eea2c0	119.31787
61	0x4496e1f1	1207.0607
62	0x44cb77cb	1627.7435
63	0x4463bdcf	910.96576
64	0x454ca4d9	3274.303
65	0x4419c74f	615.1142
66	0x432efd0f	174.98851
67	0x42cae0df	101.4392
68	0x444d164a	820.34827
69	0x4439c0df	743.0136
70	0x43baf03b	373.8768
71	0x444c47fd	817.1248
72	0x42e24c76	113.14934
73	0x4332e446	178.8917
74	0x43bcbe25	377.4855
75	0x432fcccd	175.8
76	0x4386f315	269.89908
77	0x43f1a8e7	483.31955
78	0x44269139	666.2691
79	0x4383a68f	263.30124
80	0x43a5be81	331.4883
81	0x435dae6b	221.68132
82	0x446706cb	924.10614
83	0x443817cd	736.3719
84	0x44865a2d	1074.818
85	0x43f69700	493.1797
86	0x42a6a111	83.31458
87	0x427c579e	63.085564
88	0x42afcf47	87.90484
89	0x42466b71	49.604923
90	0x422fa1c4	43.907974
91	0x4508c0fc	2188.0615
92	0x43149535	148.58284
93	0x45374d7c	2932.8428
94	0x4398ff5f	305.9951
95	0x435a8a41	218.54005
96	0x43f7dfd9	495.7488
97	0x444208ef	776.1396
98	0x43ea3732	468.4312
99	0x452d5ac0	2773.6719
100	0x4481c3f5	1038.1237
101	0x44bb0407	1496.1259
102	0x44fe0f96	2032.487
103	0x438b4211	278.51614
104	0x43f088a6	481.06757
105	0x441b6102	621.51575
106	0x44ce35ea	1649.6848
107	0x44826530	1043.1621
108	0x4402b421	522.8145
109	0x4498c98a	1222.2981
110	0x431ed25d	158.82173
111	0x4420498b	641.1491
112	0x456d3fac	3795.9795
113	0x446c92eb	946.2956
114	0x44dc8a53	1764.3226
115	0x44bff90d	1535.7828
116	0x431c123c	156.07123
117	0x4386b857	269.44016
118	0x44046e8d	529.72736
119	0x434cc8ac	204.78387
120	0x44044633	529.09686
121	0x44318b5c	710.1775
122	0x4437cf61	735.2403
123	0x43990887	306.06662
124	0x43e59918	459.19604
125	0x44259af7	662.4213
126	0x43685098	232.31482
127	0x44c0e1fb	1543.0619

network.4.weight f4 [64, 128]
0	0xbd61902f	-0.055069145
1	0xbdb7c4b4	-0.08973065
2	0x3de7f449	0.113258906
3	0xbe35d2b5	-0.1775616
4	0xbdde2eda	-0.1084878
5	0xbdc50fa4	-0.09622124
6	0x3d6f7e41	0.058470014
7	0xbcad7002	-0.021171574
8	0x3d15b410	0.036548674
9	0xbe40fa38	-0.18845451
10	0xbde7a5d8	-0.11310929
11	0x3d394b19	0.045237634
12	0x3bc85cc6	0.006114575
13	0xbcd209ab	-0.025639376
14	0x3d8bdb5a	0.06828947
15	0xbda1fd74	-0.079096705
16	0xbdb4b480	-0.0882349
17	0x3ad9e87c	0.0016625072
18	0xbd4f9658	-0.05068049
19	0xbd9f2da4	-0.07772377
20	0xbe2138d0	-0.15744328
21	0xbe2d2a38	-0.16910636
22	0x3e457b32	0.19285277
23	0xbe00ae13	-0.12566404
24	0xbcd167d3	-0.025562203
25	0x3d8de4cc	0.06928405
26	0x3c482949	0.012216874
27	0x3da619d6	0.081103966
28	0xbda51a24	-0.080616266
29	0x3cf7c0f3	0.030243373
30	0x3d47ecbe	0.04880976
31	0x3d1cf5b4	0.03832026
32	0x3e167cc1	0.14696027
33	0xbde4aad4	-0.111653954
34	0x3d2204d3	0.039555382
35	0xbd5913a1	-0.052997235
36	0xbde22aa4	-0.11043289
37	0x3db96dd0	0.09054148
38	0xbda6fdba	-0.08153863
39	0x3db5410b	0.088502966
40	0xbe0b7e13	-0.13622312
41	0x3dc61635	0.096722044
42	0x3dad97e2	0.08476235
43	0xbe2647be	-0.16238305
44	0x3d85a863	0.06526258
45	0x3dd39e5b	0.10332938
46	0xbe04ccf3	-0.12968807
47	0xbe2a2fdc	-0.1661982
48	0x3afa88d4	0.0019114264
49	0xbd8c10ce	-0.06839143
50	0xbdda5476	-0.10660641
51	0xbe0a2293	-0.13489752
52	0x3c36e17e	0.01116216
53	0x3dff6c48	0.12471825
54	0x3e94393d	0.2894992
55	0xbd54e0f5	-0.05197235
56	0x3d35445a	0.04425464
57	0x3e168194	0.14697868
58	0xbe2db150	-0.1696217
59	0x3ba28d72	0.0049607093
60	0xbd9742b4	-0.073857695
61	0x3c541674	0.012944806
62	0xbd1199b8	-0.03554699
63	0xbd360908	-0.044442207
64	0x3dc5088d	0.096207716
65	0xbe2bc47e	-0.16774175
66	0xbd00a9a4	-0.031411782
67	0x3db9c3a7	0.09070521
68	0xbd915d52	-0.070978776
69	0xbd53a01d	-0.051666368
70	0xbe2cbe15	-0.16869386
71	0xbdeee6ee	-0.1166514
72	0x3e1b46a3	0.15163665
73	0xbd4f5552	-0.050618477
74	0xbd8306df	-0.06397795
75	0x3cb8067e	0.022464033
76	0xbe2a463a	-0.16628352
77	0xbcfb62c4	-0.030686744
78	0x3d9f7bd3	0.077872895
79	0xbde4ca8e	-0.11171447
80	0x3b25cabd	0.0025297843
81	0x3be7fe9f	0.0070799137
82	0xbd3228cd	-0.043495942
83	0xbdee3280	-0.11630726
84	0xbda41574	-0.08011904
85	0xbc85d9ab	-0.016339144
86	0xbc82357e	-0.015894648
87	0xbd59d416	-0.053180777
88	0xbde916c6	-0.11381297
89	0x3e01062e	0.12600014
90	0x3d2d0127	0.042237427
91	0xbcc33f32	-0.023833845
92	0x3c6686e7	0.014070249
93	0xbe029389	-0.12751593
94	0xbdf3ad0f	-0.11898243
95	0x3d9ea4e8	0.07746297
96	0xbd39dd62	-0.045377143
97	0xbe1669dd	-0.14688821
98	0x3cb67974	0.02227471
99	0xbcda8a98	-0.026677415
100	0x3cb3c552	0.021944676
101	0x3dae0036	0.08496134
102	0xbd510e4a	-0.051039018
103	0x3d811089	0.06301982
104	0x3d81a6ae	0.0633062
105	0xbcb61771	-0.022227975
106	0xbd7af7e1	-0.061271552
107	0xbcd0ecf4	-0.025503613
108	0xbcb49cf5	-0.0220475
109	0x3dc82938	0.09773487
110	0x3df0340c	0.11728677
111	0xbe09a89a	-0.13443223
112	0x3dd0aead	0.10189567
113	0xbddcaae3	-0.107747816
114	0xbc9086a0	-0.01764232
115	0xbddef6b0	-0.10886896
116	0xbdef9a8c	-0.11699399
117	0xbd827d77	-0.06371587
118	0xbd41ee9c	-0.047346696
119	0xbe44d4fe	-0.19221875
120	0x3dfd5cf2	0.123712435
121	0xbdbd28c9	-0.09236295
122	0xbddda813	-0.10823073
123	0x3df117e9	0.117721386
124	0x3d15dc25	0.0365869
125	0xbbc5b729	-0.0060337973
126	0xbc92d494	-0.01792363
127	0xbdf943d8	-0.12171143
128	0x3e2ea444	0.1705485
129	0x3cde33f9	0.027124392
130	0x3db2873d	0.08717201
131	0x3d6a0bbc	0.057140097
132	0xbd4131e4	-0.04716672
133	0xbdb6d0a7	-0.08926516
134	0xbc67ba9d	-0.014143613
135	0xbcb59065	-0.02216358
136	0x3c1130f6	0.008861771
137	0x3cfa2eeb	0.03053995
138	0xbde6ef34	-0.11276093
139	0x3dffd3c3	0.12491562
140	0xbdcdaf4b	-0.100432
141	0xbdfe8646	-0.124279544
142	0xbe28142c	-0.16413945
143	0x3d903487	0.07041269
144	0x3d612d25	0.054974694
145	0x3de88fac	0.11355528
146	0xbe47cac4	-0.19510943
147	0x3c27ebde	0.010249106
148	0xbd92187d	-0.07133577
149	0xbd9ea528	-0.07746345
150	0x3de2bd36	0.11071245
151	0x3cf69a77	0.030102951
152	0x3cc80444	0.024416097
153	0x3c453d4c	0.01203854
154	0xbdd51170	-0.104037166
155	0xbd87b689	-0.06626613
156	0x3d1897e1	0.037254218
157	0xbd545bbd	-0.0518453
158	0xbdd07dba	-0.101802304
159	0x3e0000f9	0.12500371
160	0x3e13b38c	0.1442396
161	0x3e10583d	0.1409616
162	0xbe168701	-0.14699937
163	0x3dd2d2d4	0.102941185
164	0xbe2d57f1	-0.16928078
165	0x3de5db38	0.11223453
166	0x3d6aeb00	0.05735302
167	0xbdeb5a03	-0.11491778
168	0x3d87a266	0.06622772
169	0x3dd51559	0.10404462
170	0xbc7fa13d	-0.015602407
171	0xbe283db1	-0.16429783
172	0xbcf9c850	-0.030491024
173	0xbe19dafe	-0.15024945
174	0x3d923b1f	0.07140183
175	0xbd15ed15	-0.036603052
176	0xbd77b86c	-0.060478613
177	0xbd90be3f	-0.070675366
178	0x3d568093	0.05236871
179	0x3d49b9f8	0.04924962
180	0x3ddf80f1	0.109132655
181	0x3ceb6c1a	0.02873807
182	0xbdd3f235	-0.10348932
183	0xbd904230	-0.07043874
184	0xbbdb231b	-0.0066875345
185	0xbd62f136	-0.055405818
186	0x3baf38bf	0.005347341
187	0x3cc286ef	0.023745982
188	0x3d4e0098	0.050293535
189	0xbdea14c5	-0.11429743
190	0xbc6384b7	-0.013886622
191	0xbe075c34	-0.13218766
192	0x3cb94e71	0.022620412
193	0xbcb868b0	-0.022510856
194	0x3ddf6bc2	0.10909225
195	0x3e35fa88	0.17771351
196	0x3d926a09	0.07149131
197	0xbe0a0290	-0.1347754
198	0xbcb6f62b	-0.022334179
199	0x3cce2c8f	0.025167732
200	0x3e0458c9	0.12924494
201	0x3dcc4994	0.099749714
202	0x3d865e9b	0.06561013
203	0x3d49a0d5	0.049225647
204	0x3e30ef69	0.17278828
205	0xbdc9a0c0	-0.09845114
206	0xbd1ea613	-0.0387326
207	0xbe2c7654	-0.16842014
208	0xbdda1a99	-0.10649604
209	0x3ddbea93	0.10738101
210	0xbdab7ec9	-0.08373792
211	0x3dba1413	0.0908586
212	0xbe046cbe	-0.12932107
213	0xbc913741	-0.017726542
214	0xbd49beeb	-0.04925434
215	0xbd933212	-0.071872845
216	0x3c7aced1	0.015308098
217	0xbe5fcd8a	-0.2185575
218	0x3e24fe73	0.1611269
219	0xbd024c39	-0.031810973
220	0xbdff1483	-0.12455084
221	0xbe0e3dd4	-0.13890773
222	0x3d3847b0	0.04499024
223	0x3dfce9fb	0.12349316
224	0xbd594bf8	-0.053050965
225	0x3de65f64	0.11248663
226	0x3e00f5d7	0.1259378
227	0xbd1d047e	-0.038334362
228	0x3d46d72a	0.04854504
229	0xbdf78b39	-0.120871015
230	0xbe5133f7	-0.2042998
231	0x3dc76386	0.097357795
232	0x3de4c049	0.11169488
233	0x3e2fec04	0.17179877
234	0x3c8f85a6	0.017519783
235	0xbd659a29	-0.05605522
236	0x3dc2b049	0.0950628
237	0xbe4a8162	-0.19775918
238	0x3e1d8807	0.15383922
239	0x3dac9322	0.08426501
240	0xbc90f3e8	-0.017694429
241	0xbde38f0b	-0.11111268
242	0x3dbbe587	0.09174638
243	0xbe1413bf	-0.14460658
244	0xbc8567b6	-0.016284805
245	0x3c9faf96	0.019492906
246	0x3ded35f7	0.115825586
247	0x3cd1ce78	0.025611147
248	0xbe1c4725	-0.15261514
249	0xbd333bc1	-0.043758158
250	0xbccea3c2	-0.02522457
251	0x3e15bea5	0.14623506
252	0x3e2d451b	0.16920893
253	0xbdaaa055	-0.08331362
254	0x3e40e9ec	0.18839234
255	0xbc1fd0ce	-0.009754373

network.4.bias f4 [64]
0	0x3bc39bd9	0.005969506
1	0x3c19cef9	0.009387725
2	0xbb20b9d9	-0.0024524836
3	0xba9077d3	-0.0011022039
4	0x3bb3ab6b	0.005483081
5	0x3a93abf6	0.0011266458
6	0x3aa02ba8	0.0012220042
7	0x3b1662fe	0.0022947188
8	0xba6dfde3	-0.00090786646
9	0xba35ed84	-0.00069399946
10	0xbaf4bcf9	-0.0018672041
11	0x3c0d5de5	0.008628343
12	0xb9aaf63d	-0.0003260839
13	0x3ba02e51	0.004888334
14	0xbac8cfb5	-0.001532069
15	0x3bd218b0	0.0064116344
16	0xba7f083b	-0.00097287045
17	0x3b6197f8	0.0034422856
18	0x3b07027a	0.0020600841
19	0x3af929a0	0.0019009598
20	0xba214d8e	-0.0006153219
21	0x3b593137	0.0033140907
22	0x3a3c46ae	0.0007182163
23	0x3922b586	0.00015517147
24	0x397b83a9	0.00023986273
25	0xbba41332	-0.005007171
26	0xbb84d89b	-0.0040541417
27	0xbc240778	-0.010011546
28	0x3a617ac5	0.0008601363
29	0xbb074812	-0.0020642322
30	0x3a9d1dfa	0.0011987083
31	0x3b2e36fd	0.0026583069
32	0xbb00974f	-0.0019621437
33	0xb82e2608	-4.1520252e-05
34	0xbbbcae0c	-0.0057580527
35	0xbb0efc4e	-0.0021817866
36	0x3aca7d8f	0.0015448796
37	0x39746dad	0.00023310511
38	0x3b81cdce	0.0039613014
39	0x3b481b18	0.0030533727
40	0x3c085104	0.008320097
41	0x3c0d8db7	0.0086397445
42	0x3a38beeb	0.0007047492
43	0xbab29eac	-0.001362761
44	0xbab79a57	-0.0014007789
45	0x3a8ba1a7	0.0010653035
46	0xba6cc4c3	-0.00090320053
47	0xbc0126da	-0.007882798
48	0x3b66cb4c	0.003521639
49	0xba8daf96	-0.0010809775
50	0x3b4d7df5	0.0031355594
51	0x3b2dc1e9	0.0026513285
52	0x3ae2eb66	0.0017312586
53	0x3b25a9de	0.002527825
54	0x3b1a8843	0.0023579753
55	0x3adc9aed	0.001683084
56	0x3ba69a78	0.005084332
57	0x3b244f7e	0.0025071795
58	0x3b4165ca	0.0029510134
59	0x3b848921	0.0040446674
60	0xbb82afcb	-0.0039882413
61	0xbac93376	-0.001535042
62	0x3af94eec	0.0019020713
63	0xbb8b4c01	-0.0042510037

network.5.weight f4 [64]
0	0x3f6fca85	0.93668395
1	0x3f766526	0.9624809
2	0x3f74a05b	0.95557183
3	0x3f6cb888	0.9246907
4	0x3f72bf11	0.94822794
5	0x3f60c9dd	0.8780802
6	0x3f7ff247	0.9997906
7	0x3f95ba4f	1.1697482
8	0x3f6fba0f	0.9364328
9	0x3f724e71	0.9465094
10	0x3f81ee3c	1.0150828
11	0x3f6310e0	0.88697624
12	0x3f765589	0.96224266
13	0x3f7336a8	0.95005274
14	0x3f772b15	0.9655011
15	0x3f8598cf	1.0437258
16	0x3f6d83c8	0.9277921
17	0x3f8150a6	1.0102737
18	0x3f8760d8	1.0576429
19	0x3f8b3323	1.0874981
20	0x3f832a7d	1.0247341
21	0x3f82cb85	1.0218359
22	0x3f6d8b1f	0.92790407
23	0x3f809000	1.0043945
24	0x3f89797c	1.0740199
25	0x3f820053	1.0156349
26	0x3f795d8d	0.9740837
27	0x3f816344	1.0108418
28	0x3f908a2a	1.1292164
29	0x3f6ab7a8	0.9168649
30	0x3f8ea905	1.1145331
31	0x3f80f7b9	1.0075599
32	0x3f8d6a5e	1.1048086
33	0x3f58801e	0.8457049
34	0x3f82745f	1.0191764
35	0x3f7eeb3e	0.995777
36	0x3f59d09a	0.85083926
37	0x3f829ba9	1.0203754
38	0x3f6e2f2e	0.9304074
39	0x3f796796	0.97423685
40	0x3f7a45a4	0.97762513
41	0x3f96364e	1.1735322
42	0x3f80b385	1.0054785
43	0x3f949297	1.1607236
44	0x3f803238	1.0015326
45	0x3f82bfe6	1.0214813
46	0x3f676f99	0.9040466
47	0x3f7427b2	0.9537307
48	0x3f842e90	1.032671
49	0x3f78bea9	0.97165924
50	0x3f81566e	1.0104501
51	0x3f784c24	0.9699118
52	0x3f97a80c	1.1848159
53	0x3f72ee1f	0.94894594
54	0x3f650a00	0.89468384
55	0x3f734a53	0.95035285
56	0x3f774844	0.96594644
57	0x3f69db8f	0.91350645
58	0x3f7d0b0e	0.98844993
59	0x3f730981	0.94936377
60	0x3f80db2a	1.0066884
61	0x3f8f5d39	1.1200324
62	0x3f8d6c2f	1.104864
63	0x3f85db2a	1.0457509

network.5.bias f4 [64]
0	0xbd98d01d	-0.074615695
1	0x3b8c1be1	0.0042757844
2	0xbd89115d	-0.06692765
3	0xbdc6d15b	-0.097079
4	0xbcbac8b6	-0.022800785
5	0xbd6b2578	-0.05740878
6	0xbb2b7a44	-0.0026165405
7	0x3d0a19b0	0.033715904
8	0xbd1dd20a	-0.038530387
9	0xbd8e65df	-0.06953024
10	0x3cf9f862	0.030513946
11	0xbdc8fd1a	-0.098139
12	0xbd370af9	-0.0446882
13	0xbd0ad588	-0.033895046
14	0xbd22e802	-0.03977204
15	0xbd343b03	-0.04400159
16	0xbd5088b1	-0.05091161
17	0xbdb42cbf	-0.08797597
18	0xbc7e80bf	-0.015533625
19	0x3e0cc496	0.13746867
20	0x3e04a3e9	0.12953152
21	0xbe3768da	-0.17911091
22	0xbd4b5862	-0.049644835
23	0xbdc897d4	-0.09794584
24	0x3e0ee9b9	0.13956346
25	0x3d120fdc	0.035659656
26	0xbd6317eb	-0.05544273
27	0x3d656f65	0.056014437
28	0x3e1ce7ee	0.15322849
29	0xbcb2dc46	-0.02183355
30	0x3d4b5c8b	0.049648803
31	0x3c911f9a	0.017715264
32	0xbd8c4ace	-0.06850205
33	0xbe240732	-0.1601837
34	0x3cc6b452	0.024255905
35	0xbd4a440e	-0.04938131
36	0xbdcd213d	-0.10016105
37	0x3d217650	0.039419472
38	0xbd99dabf	-0.07512426
39	0xbca2666e	-0.019824233
40	0xbdfffb69	-0.124991246
41	0x3dda2728	0.10652
42	0xbd069c03	-0.032863628
43	0x3e3e9e63	0.18615107
44	0xbd94cf3d	-0.0726609
45	0x3c2e68de	0.0106451195
46	0xbdb6e42d	-0.0893024
47	0xbdfe1b16	-0.1240751
48	0x39fd2c3b	0.00048288875
49	0xbd64a9ff	-0.055826183
50	0xbd24b5bf	-0.04021239
51	0x3c26b7d8	0.010175668
52	0x3e04122b	0.12897556
53	0xbd288d1d	-0.0411502
54	0xbd03cd1b	-0.032178026
55	0xbca5f530	-0.020258516
56	0xbd864fe7	-0.06558209
57	0xbdd3a244	-0.10333684
58	0xbc218aa3	-0.009859714
59	0xbdad0566	-0.08448295
60	0xbdb09eeb	-0.08624061
61	0x3d9647be	0.073379025
62	0x3e0f1869	0.13974155
63	0xbcdc2d84	-0.026877172

network.5.running_mean f4 [64]
0	0xbf73f7d9	-0.9530006
1	0xbe098e0b	-0.13433091
2	0xbec8af48	-0.3919623
3	0xbf5ecf3e	-0.87034976
4	0xbcd6c7cf	-0.026218323
5	0xbf739e38	-0.951633
6	0x3ee830de	0.45349783
7	0x3f469a60	0.7757931
8	0xbef584cb	-0.47952875
9	0xbf82400b	-1.0175794
10	0x3d8c785c	0.06858894
11	0xbf22f136	-0.6364931
12	0xbdb7e742	-0.08979656
13	0xbdc8f329	-0.09812004
14	0x3e78e6c8	0.24306786
15	0x3f65fe62	0.8984128
16	0xbe18636e	-0.1488168
17	0xbef704c6	-0.4824583
18	0xbe87d011	-0.2652593
19	0xbf55bacf	-0.8348817
20	0x3e0f9b3a	0.14024058
21	0x3fbec357	1.4903363
22	0x3a5d5e57	0.00084445387
23	0x3fc9e7db	1.5773882
24	0x3f880191	1.0625478
25	0x3f1cbfa9	0.6122995
26	0x3da85c0e	0.08220683
27	0xbb43fc45	-0.0029905003
28	0x3eb6a8b9	0.356756
29	0x3e8f9b62	0.28048235
30	0x3ed2c228	0.41163754
31	0xbec21fb4	-0.37914813
32	0x3fc91a27	1.5711106
33	0xbe50c3b7	-0.2038716
34	0x3dccaebc	0.099942654
35	0xbe42791e	-0.18991515
36	0xbf1a702a	-0.603274
37	0x3ea9a08b	0.33130297
38	0xbf57867b	-0.84189576
39	0xbea46769	-0.32110146
40	0xbf130497	-0.5742888
41	0x3f0593d4	0.5217869
42	0xbe3e52db	-0.18586294
43	0x3f17b96b	0.592673
44	0xbf79c08c	-0.9755943
45	0x3e7c827a	0.24659148
46	0x3e4eb8fd	0.20187755
47	0x3f342a4d	0.70377046
48	0x3f7c1e86	0.98484075
49	0x3f22bdfd	0.6357115
50	0x3e8e06e8	0.27739644
51	0xbf414b01	-0.7550507
52	0x3f843026	1.0327194
53	0xbd62bb0c	-0.055354163
54	0xbf124891	-0.5714198
55	0xbef55b34	-0.47921145
56	0xbf82a1eb	-1.0205663
57	0xbef3d1a8	-0.47620893
58	0xbecda751	-0.40166715
59	0xbed6a061	-0.41919234
60	0x3f9ca856	1.2238872
61	0x3f0b3128	0.5437188
62	0x3d5d21eb	0.053987425
63	0x3f26b4bf	0.65119547

network.5.running_var f4 [64]
0	0x3fd8c636	1.6935489
1	0x3f731e10	0.94967747
2	0x3fb1c51e	1.388828
3	0x402dd092	2.7158551
4	0x402d8fb9	2.7118971
5	0x402b1e3d	2.6737206
6	0x3ffbfdc4	1.9686818
7	0x40a2fbcb	5.0932364
8	0x40651395	3.5793202
9	0x3fe37e62	1.7772944
10	0x4034451b	2.8167179
11	0x408e089c	4.438551
12	0x4046ce0a	3.1063256
13	0x402635ba	2.5970292
14	0x400e1391	2.2199442
15	0x407259a2	3.7867208
16	0x3fcb8bb1	1.5902005
17	0x40160aa1	2.3443987
18	0x3fa6ce63	1.3031734
19	0x40909420	4.5180817
20	0x40029878	2.040556
21	0x407ab61d	3.9173653
22	0x40614a9a	3.5201783
23	0x407664c6	3.8499007
24	0x403da8c9	2.9634268
25	0x3fc36884	1.5266271
26	0x3fde8677	1.7384785
27	0x3f9b3c5d	1.2127796
28	0x4095f313	4.685922
29	0x3ff78184	1.93364
30	0x4041f2a4	3.0304346
31	0x4038a274	2.8849154
32	0x40cae64e	6.3406134
33	0x400a3b79	2.15988
34	0x3fcc76d1	1.597376
35	0x3fbeb42a	1.4898732
36	0x3fbf5027	1.4946336
37	0x4061d58b	3.5286586
38	0x401e88b9	2.477095
39	0x401360e2	2.3027883
40	0x3fe518b8	1.7898169
41	0x40140ba0	2.3132095
42	0x3fce9969	1.6140567
43	0x408c4a88	4.384098
44	0x4000162c	2.0013533
45	0x40599b1e	3.4000926
46	0x3f8698e0	1.0515404
47	0x4013dfb6	2.3105292
48	0x40827602	4.0769053
49	0x4018787d	2.382354
50	0x403eb67a	2.9798875
51	0x4040f6dd	3.0150673
52	0x4069e397	3.654516
53	0x3f8f8961	1.12138
54	0x4048891d	3.1333687
55	0x40891f40	4.2850647
56	0x3f80d7ca	1.0065854
57	0x3fa79159	1.3091232
58	0x3ff87844	1.9411702
59	0x3fb27294	1.3941216
60	0x3fec2a68	1.8450441
61	0x404a1536	3.1575446
62	0x407bb2a6	3.9327788
63	0x401ee921	2.482979

network.8.weight f4 [32, 64]
0	0x3e445503	0.19173054
1	0xbe457f17	-0.19286762
2	0xbd431e7b	-0.04763649
3	0x3d653000	0.05595398
4	0x3cfb6cb5	0.030691484
5	0xbe2b24f7	-0.1671332
6	0xbe3bf83c	-0.18356413
7	0x3e39435e	0.18092105
8	0xbd2c466e	-0.042059354
9	0xbdaf32f3	-0.0855464
10	0xbe087c5a	-0.13328686
11	0x3cac8f0d	0.021064306
12	0xbdb71f7f	-0.08941554
13	0xbe1d3180	-0.15350914
14	0x3e869c37	0.26291057
15	0xbe865621	-0.26237586
16	0xbcf34f9b	-0.029701045
17	0x3d99a3f8	0.07501978
18	0x3d7b3465	0.061329264
19	0xbe5375ed	-0.20650454
20	0xbd31bfdc	-0.043395862
21	0x3dccc566	0.09998588
22	0x3d897d60	0.067133665
23	0xbe2ee126	-0.17078075
24	0xbe3f41d0	-0.18677449
25	0xbeb1bc4a	-0.34713966
26	0xbe6abdf8	-0.2292403
27	0xbe544444	-0.20729166
28	0xbea15b16	-0.31514806
29	0x3d08fab4	0.033442214
30	0xbe92b83f	-0.28656194
31	0xbe1fd45a	-0.1560835
32	0xbe8b137a	-0.27163297
33	0xbe01bb47	-0.12669097
34	0xbe170a3f	-0.14750002
35	0x3de89c55	0.11357943
36	0xbe00959b	-0.1255707
37	0xbdce60c6	-0.10077052
38	0xbd8239e9	-0.06358702
39	0xbbf4265c	-0.007450862
40	0xbd0a2bbe	-0.033733122
41	0xbe6cc6ca	-0.23122707
42	0x3dbc7e99	0.09203834
43	0xbe258822	-0.16165212
44	0xbd160a7b	-0.03663109
45	0xbdc4bd59	-0.09606428
46	0xbe210f73	-0.1572855
47	0x3dd30f86	0.10305695
48	0x3d465e8d	0.048430014
49	0xbce31afa	-0.027722824
50	0xbe5d531d	-0.21613736
51	0xbddc0c97	-0.10744589
52	0x3db2de13	0.087337635
53	0x3d88c742	0.066786304
54	0x3d5e1da5	0.05422749
55	0xbe1de381	-0.15418817
56	0xbe4d5b24	-0.20054299
57	0xbe76398d	-0.24045391
58	0xbe105446	-0.14094648
59	0xbd3735eb	-0.044729155
60	0xbdef5c83	-0.11687567
61	0xbe18596c	-0.14877862
62	0x3e5975ff	0.21236418
63	0x3dced88d	0.100998975
64	0x3dae26ec	0.085035175
65	0xbd2ae3f1	-0.041721288
66	0x3e54abe4	0.20768696
67	0xbb348f6e	-0.002755131
68	0xbdf37495	-0.11887471
69	0x3d19b1fc	0.037523255
70	0xbcb7d2e8	-0.022439435
71	0xbd485def	-0.048917707
72	0x3d6cab26	0.057780407
73	0x3cbe2dd7	0.023215218
74	0x3e0bc455	0.13649113
75	0x3b3063cb	0.002691495
76	0x3e2220de	0.1583285
77	0x3dea616b	0.11444362
78	0x3c4cca3f	0.012499391
79	0xbe509f6f	-0.20373319
80	0xbce77a24	-0.028256483
81	0x3d6a59cc	0.057214543
82	0xbe477e93	-0.19481878
83	0x3da68670	0.08131111
84	0xbd82fa62	-0.06395413
85	0xbe9a7c76	-0.3017308
86	0x3e5c209e	0.21496817
87	0xbd2746ae	-0.04083889
88	0x3b980c86	0.004640165
89	0x3dcd5bcd	0.10027275
90	0x3cf8e9d4	0.030384935
91	0xbdab96d7	-0.0837838
92	0xbd6f700b	-0.058456462
93	0xbd0730ae	-0.03300541
94	0xbe34b758	-0.17648065
95	0xbe1dacfd	-0.15398021
96	0xbe90db6a	-0.282924
97	0x3df5de0c	0.12005243
98	0x3e0b82e4	0.1362415
99	0x3d29f468	0.04149285
100	0x3c5593ae	0.013035698
101	0xbdbcdc22	-0.092216745
102	0xbd7245db	-0.05914865
103	0x3e2957c6	0.16537389
104	0xbd8ccc88	-0.06874949
105	0xbe9a6764	-0.30157006
106	0xbe82455d	-0.25443545
107	0xbe977ea4	-0.29588807
108	0xbc1682ec	-0.009186488
109	0x3e6ad11d	0.22931333
110	0xbd9e185c	-0.0771949
111	0x3e459df8	0.19298542
112	0xbd05329e	-0.032518975
113	0x3de0d875	0.10978786
114	0xbd6f8808	-0.05847934
115	0xbcf152ef	-0.029458491
116	0xbec823d9	-0.3908985
117	0xbc84864e	-0.016177323
118	0x3e4ce4dd	0.2000918
119	0xbe063f2b	-0.13110034
120	0xbd9ec0a7	-0.07751589
121	0xbe09a7ea	-0.1344296
122	0xbc14f3cb	-0.009091328
123	0xbdc6faaa	-0.09715779
124	0x3e3710a6	0.17877445
125	0x3de50034	0.11181679
126	0x3df1d16c	0.11807522
127	0xbe109d75	-0.14122565
128	0xbd90db12	-0.07073034
129	0xbc66b296	-0.014080664
130	0xbcdd9076	-0.027046423
131	0x3e0c4f79	0.13702191
132	0xbd4186c8	-0.047247678
133	0x3d0aa1d0	0.033845723
134	0xbbf9b472	-0.0076203877
135	0xbb0a28cc	-0.0021081446
136	0xbd15fdd9	-0.03661904
137	0xbe06cd75	-0.13164313
138	0xbc152ffb	-0.009105678
139	0xba931b86	-0.0011223413
140	0xbe9195f7	-0.28434727
141	0x3e0a25dd	0.13491006
142	0xbe588efc	-0.21148294
143	0x3daf78ed	0.08567987
144	0x3e247612	0.16060665
145	0x3e29a3fa	0.16566458
146	0x3e520f37	0.20513617
147	0x3e14b64c	0.14522666
148	0x3ddf75cf	0.10911142
149	0xbd4dc10e	-0.05023294
150	0x3d437c65	0.047726054
151	0x3c885251	0.016640814
152	0x3dbe91c5	0.09305147
153	0x3dd4cc6d	0.103905536
154	0x3e318ba5	0.17338426
155	0x3e32f8c1	0.17477705
156	0x3d4e2a18	0.050333112
157	0x3bc24250	0.005928315
158	0xbceb1566	-0.028696727
159	0xbe360b60	-0.17777777
160	0x3dcdf845	0.10057119
161	0x3d8d22e3	0.0689142
162	0x3d8cf227	0.068821244
163	0xbe86c05d	-0.26318637
164	0x3cf7ff48	0.030273095
165	0x3e34ebd8	0.17668092
166	0x3e1974d3	0.14985971
167	0x3e33cc41	0.17558385
168	0x3e78c912	0.24295452
169	0x3dc1843e	0.09449051
170	0x3e839c85	0.25705352
171	0xbe2cc6a6	-0.16872653
172	0xbe9c835d	-0.30568972
173	0xbe88e5c7	-0.26737806
174	0x3e399066	0.1812149
175	0x3e02bcf6	0.12767395
176	0xbb4f9548	-0.0031674672
177	0xbdb0d912	-0.08635153
178	0xbcf2b21f	-0.02962595
179	0xbdf25a11	-0.11833585
180	0x3d4fb43e	0.050709
181	0xbe19682b	-0.14981143
182	0x3e2c9b38	0.16856086
183	0x3df51c46	0.11968283
184	0x3e99199d	0.29902354
185	0xbda800e6	-0.08203296
186	0x3e4899a7	0.19589864
187	0x3d7dc164	0.06195201
188	0x3ca841f3	0.02053926
189	0x3d760cb4	0.06007071
190	0xbce8e139	-0.028427707
191	0x3e568555	0.209493
192	0xbe3f59d0	-0.18686604
193	0xbe328e33	-0.17437057
194	0x3d6aa3f7	0.057285275
195	0x3e065b41	0.13120748
196	0x3e19f747	0.15035735
197	0xbe0f0e20	-0.13970232
198	0xbe55da90	-0.20884156
199	0x3e570728	0.20998824
200	0x3de0c72a	0.109754875
201	0xbe226a45	-0.15860851
202	0x3e64c024	0.22338921
203	0xbcbeddbc	-0.02329909
204	0xbe34e962	-0.17667153
205	0xbdf81b82	-0.12114622
206	0xbe8976c1	-0.26848415
207	0xbe27ee1a	-0.16399422
208	0x3e2ed3bf	0.17072962
209	0x3c8e016f	0.017334668
210	0xbd884eb1	-0.06655634
211	0xbdd2d874	-0.102951914
212	0x3d0534c8	0.03252104
213	0xbdfdccc6	-0.12392573
214	0x3de2a7b6	0.110671446
215	0xbe2043e2	-0.15650895
216	0x3c72622c	0.014793914
217	0x395953e9	0.00020725992
218	0x3e64e73a	0.22353831
219	0xbe8c51f4	-0.27406275
220	0xbe07bd95	-0.13255914
221	0xbe42ecc6	-0.19035634
222	0xbe49dde2	-0.19713548
223	0x3e3cb1e4	0.18427235
224	0xbe9f0a9b	-0.3106278
225	0x3d88c74f	0.0667864
226	0xbdf5803f	-0.119873516
227	0xbe35b03f	-0.17743014
228	0xbdfc1cec	-0.12310204
229	0xbd90220c	-0.07037744
230	0xba6a93e2	-0.0008948428
231	0xbe777c9e	-0.24168631
232	0xbd4d11ea	-0.050065912
233	0xbea96d13	-0.3309103
234	0x3dbb0c10	0.0913316
235	0x3da752b8	0.08170074
236	0x3e5002b6	0.20313534
237	0xbe5978e6	-0.21237525
238	0x3dd6cdfe	0.10488509
239	0x3d1b023b	0.037843924
240	0xbe265b49	-0.1624576
241	0xbe4c1bf6	-0.19932541
242	0x3ba54f9c	0.0050448906
243	0x3e69e368	0.22840655
244	0x3dd808f5	0.105485834
245	0x3d803650	0.06260359
246	0xbdbb0e97	-0.09133642
247	0x3db2bbc1	0.087272175
248	0x3cc5df28	0.02415426
249	0xbe24e28d	-0.16102047
250	0xbe18b42b	-0.14912479
251	0xbdf3b625	-0.11899976
252	0x3d852300	0.06500816
253	0xbe4bd9e2	-0.19907334
254	0xbdfc2e01	-0.12313462
255	0xbe253c46	-0.16136274

network.8.bias f4 [32]
0	0x3c41d08d	0.011829508
1	0x3a9dc861	0.0012037867
2	0xba1c5ca2	-0.0005964731
3	0xbb06f6cd	-0.0020593882
4	0x3bfaef29	0.0076579046
5	0xbb9c3b55	-0.004767815
6	0xbc0a3522	-0.008435519
7	0xb980cf78	-0.0002456864
8	0xbb49b53b	-0.0030778188
9	0x3bd03380	0.0063537955
10	0x3c90a4ed	0.017656768
11	0xbbd49e8e	-0.0064886278
12	0xbb110d0f	-0.0022133028
13	0xbb56ceff	-0.0032777188
14	0x3acc6c3e	0.0015596224
15	0x3af69e0e	0.0018815415
16	0x3baf2bf3	0.0053458153
17	0x3c8f0138	0.017456636
18	0x394a4758	0.00019290799
19	0x3b3e540c	0.0029041795
20	0x3b93de95	0.004512618
21	0x38a32828	7.779925e-05
22	0xbb2d1297	-0.0026408785
23	0xbc095054	-0.008380968
24	0xbba91064	-0.0051594246
25	0x3bd40d24	0.006471293
26	0xbb384df0	-0.0028122626
27	0xbc38eb03	-0.0112865
28	0xba560c1c	-0.00081652566
29	0x3bdcc24a	0.0067370282
30	0xbc31babd	-0.0108477445
31	0x3bb50b71	0.0055250456

network.9.weight f4 [32]
0	0x3f441883	0.765999
1	0x3f42f2ac	0.7615154
2	0x3f546103	0.8296053
3	0x3f41631f	0.7554187
4	0x3f4bb1c0	0.795681
5	0x3f2e9479	0.681953
6	0x3f4714cf	0.77766126
7	0x3f3e18ff	0.7425689
8	0x3f3b3a5f	0.7313594
9	0x3f5aa655	0.8541005
10	0x3f50e618	0.81601095
11	0x3f60f860	0.8787899
12	0x3f2e6de6	0.6813644
13	0x3f441423	0.76593226
14	0x3f50291f	0.81312746
15	0x3f3ae778	0.73009443
16	0x3f473b10	0.778245
17	0x3f5ed6fd	0.87046796
18	0x3f46af3b	0.7761113
19	0x3f41c844	0.75696206
20	0x3f60799e	0.87685573
21	0x3f4ae4c7	0.79255337
22	0x3f37eca7	0.7184548
23	0x3f4da610	0.80331516
24	0x3f58d149	0.84694344
25	0x3f40fab6	0.75382555
26	0x3f70b380	0.94023895
27	0x3f4550c7	0.7707638
28	0x3f391a82	0.7230607
29	0x3f46dfb2	0.7768508
30	0x3f492ba0	0.7858219
31	0x3f3587ec	0.70910525

network.9.bias f4 [32]
0	0xbe523b6c	-0.2053048
1	0xbe146672	-0.14492205
2	0xbd0f42a1	-0.03497565
3	0xbd99df17	-0.07513254
4	0xbe0297ff	-0.12753294
5	0xbe7ce273	-0.24695759
6	0xbe869528	-0.26285672
7	0xbe58b60d	-0.21163197
8	0xbe5b430a	-0.21412292
9	0xbd55822f	-0.052126106
10	0xbe6e7b9a	-0.23289338
11	0xbdecd4a8	-0.115639985
12	0xbe5d24b0	-0.21596026
13	0xbcc1ff31	-0.023681255
14	0xbd225df8	-0.039640397
15	0xbdf99dfa	-0.12188335
16	0xbe0c7464	-0.13716274
17	0x3cd8bef8	0.026458248
18	0xbe7a2638	-0.24428642
19	0xbde240f7	-0.11047547
20	0xbdd3b115	-0.1033651
21	0xbd97efeb	-0.074188076
22	0xbcf86680	-0.030322313
23	0xbe04b4e5	-0.12959631
24	0xbe33bb0e	-0.17551824
25	0xbe34b558	-0.17647302
26	0xbd1ba575	-0.03799959
27	0xbeae5227	-0.34047052
28	0xbe49dd7f	-0.197134
29	0xbd06a301	-0.032870296
30	0xbe95cc7b	-0.2925757
31	0xbe12ccce	-0.1433594

network.9.running_mean f4 [32]
0	0xbfdb546e	-1.7135141
1	0xbf12b646	-0.5730938
2	0x3f354397	0.7080626
3	0xbf9128be	-1.1340559
4	0xbf862a03	-1.0481571
5	0xbefccb1b	-0.49373707
6	0xbe2e3cb7	-0.17015348
7	0xbe9fb790	-0.31194735
8	0xbf8db05a	-1.1069443
9	0xbf34fa89	-0.70694786
10	0xbf1355b5	-0.57552654
11	0xbe90acbb	-0.28256783
12	0xbf87de4d	-1.0614716
13	0xbf5e58dc	-0.8685434
14	0xbfaea69d	-1.3644596
15	0xbf614a47	-0.88003963
16	0xbe81d380	-0.25356674
17	0xbf9a09df	-1.2034262
18	0xbd43b883	-0.047783386
19	0xbfab3657	-1.3375958
20	0xbd548cda	-0.05189214
21	0xbef53f08	-0.47899652
22	0xbd2104ae	-0.039311104
23	0xbf21eda7	-0.63253254
24	0xbe659d60	-0.22423315
25	0xbf3c87d2	-0.73644745
26	0xbe99e273	-0.3005558
27	0xbe6f99b1	-0.23398472
28	0xbf8965b7	-1.0734166
29	0xbfdd7534	-1.7301393
30	0xbe6f1aef	-0.23350118
31	0xbf80708c	-1.0034347

network.9.running_var f4 [32]
0	0x403e038e	2.968967
1	0x4085e037	4.18362
2	0x4000a054	2.0097857
3	0x4059a9e2	3.4009938
4	0x40883f9e	4.257766
5	0x405b6afd	3.428405
6	0x409b5dc0	4.855194
7	0x403a10eb	2.9072826
8	0x40c86c38	6.2632103
9	0x406d29a6	3.705667
10	0x406440dd	3.566459
11	0x40a07437	5.0141864
12	0x40b44eef	5.6346354
13	0x409cf7b7	4.9052386
14	0x4071ef51	3.7802317
15	0x401439f2	2.3160367
16	0x4046c547	3.1057909
17	0x403dfb01	2.968445
18	0x3f7b37c5	0.9813197
19	0x40a24018	5.070324
20	0x3fdbad2f	1.7162226
21	0x405e0795	3.4692128
22	0x405a8770	3.4145164
23	0x4079ac6e	3.9011493
24	0x3fcdfabd	1.6092144
25	0x4085735f	4.1703334
26	0x40680b45	3.6256878
27	0x402e9091	2.7275736
28	0x40dd9a9c	6.925123
29	0x40a18c0f	5.048347
30	0x401a2c34	2.408948
31	0x402f7d80	2.742035
