soil_salinity_multi_sensor/outputs/models/stage1/stage1_epoch_30.pth (torch, 72297 bytes, 20 tensors)

network.0.weight f4 [128, 36]
0.1150008 0.09198544 0.38255176 0.14841764 -0.013227185 0.062677234 0.093993194 -0.095995374
0.11811427 -0.19836676 0.17707571 0.062834874 0.21054918 0.16522942 0.04973559 -0.18021654
0.25457332 0.10340285 0.3603812 0.489367 0.12199977 -0.12144779 -0.03695964 0.09037035
0.32378575 0.2076053 -0.0029956202 -0.045015607 -0.18337686 0.15175167 -0.38561863 0.42017883
0.17726547 -0.16728386 -0.3571467 0.039119788 0.09504957 0.016904172 0.02711427 0.15889166
-0.007927266 -0.004288004 0.052808806 0.10434923 -0.12543312 0.09068611 -0.0031385382 -0.085113905
-0.058314186 -0.14501119 0.18677367 -0.020768018 0.16232361 0.07210156 -0.020826425 -0.048451684
0.01583419 -0.037953433 0.12907438 0.15806365 0.107892334 0.14726068 -0.17098844 0.19934018
-0.09631726 -0.08681567 -0.15636337 0.05501647 0.19045225 -0.030769948 -0.17381102 0.06967735
0.32120425 0.4118181 0.2846231 0.45073488 -0.110172704 0.00257469 -0.10136438 -0.03680128
0.07028534 0.2416456 0.28276694 0.3308442 0.29010192 0.29920438 0.006399434 0.11598712
0.38426018 0.49734968 0.24014892 0.51005214 0.0135745 -0.03636803 0.011990207 -0.03600004
0.0065677767 -0.0503671 -0.124946125 -0.032667242 0.06806896 0.19833238 -0.41561222 0.26893753
0.034927346 0.07922812 -0.19885822 -0.09553481 0.24199942 0.46236116 0.30457553 0.5093454
0.04490356 -0.015883993 -0.11711264 -0.13622531 0.0832737 0.3256704 0.30156627 0.2598225
0.27601784 0.29517314 0.11097891 -0.103875995 0.4830728 0.2615001 0.6360813 0.5091037
0.15915719 -0.17166398 -0.09633714 -0.058794275 0.28625822 0.23269942 -0.13631247 -0.011166431
-0.13763636 -0.08309389 0.055528477 0.24641193 0.01953399 0.1817445 -0.26573533 -0.12041901
-0.042477902 0.10427917 0.24056043 0.06802347 0.1002814 0.11463131 -0.09527005 0.05413012
-0.268572 0.076225005 0.10187442 -0.13905258 -0.17104578 0.021694925 -0.22170785 0.02386176
0.2136733 0.1732734 0.08641444 0.032839447 -0.0021922195 -0.0014428152 -0.07324045 0.008010022
0.106138095 -0.10330496 0.07926453 0.003887485 -0.11303931 0.10947171 0.21391645 0.042647157
-0.1699805 -0.11194809 0.0252382 -0.09537961 -0.07988978 0.07815764 -0.070451386 -0.042384364
-0.009255313 -0.10608547 -0.09679362 -0.06717209 0.13028249 -0.015862415 -0.043151073 -0.10210881
-0.12564303 0.070597276 0.13086408 0.17427665 -0.09807499 0.26145267 -0.044305433 0.000980764
0.0035979107 0.057272643 -0.10217121 -0.07510809 -0.028106881 0.05334693 0.025651356 -0.10399623
0.0986488 -0.20965932 -0.112014584 0.03388426 0.18862976 0.16212524 -0.16834487 0.0682266
0.38223904 0.40982625 0.3817053 0.32910833 -0.1491526 0.13678128 -0.12804934 -0.020629218
-0.031832393 -0.037247263 0.09568681 0.15569055 0.110144615 0.24606048 0.13384926 -0.11334077
0.32091355 0.13279675 0.5060306 0.21405582 0.12155036 0.0004637973 -0.13876408 -0.04211788
0.24663146 0.10125541 0.062597625 -0.0962481 -0.11093536 0.19844322 -0.12017472 0.30418277
0.074859224 -0.16425261 -0.17668317 -0.13966218 -0.17390634 -0.19207972 -0.0961736 -0.39853045
00000000: 8a85 eb3d dd62 bc3d d3dd c33e cbfa 173e
00000010: d6b6 58bc ec5c 803d 817f c03d 3999 c4bd
00000020: e5e5 f13d a820 4bbe 5653 353e 92af 803d
00000030: 349a 573e e731 293e 8cb7 4b3d af8a 38be
00000040: 6f57 823e e0c4 d33d e283 b83e 508e fa3e
00000050: 04db f93d 9eb9 f8bd fe62 17bd 1714 b93d
00000060: 3fc7 a53e 7c96 543e 2b52 44bb 4962 38bd
00000070: 25c7 3bbe ca64 1b3e ce6f c5be ae21 d73e
00000080: 1485 353e 764c 2bbe efdb b6be 123c 203d
00000090: 59a9 c23d 9e7a 8a3c bf1e de3c 7fb4 223e
000000a0: 5de1 01bc 6282 8cbb 0c4e 583d 0db5 d53d
000000b0: 8a71 00be a4b9 b93d efaf 4dbb 3350 aebd
000000c0: dbda 6ebd d07d 14be 9941 3f3e b121 aabc
000000d0: 2938 263e fca9 933d 2e9c aabc 4675 46bd
000000e0: b4b6 813c 0f75 1bbd 132c 043e 70db 213e
000000f0: a8f6 dc3d 81cb 163e 9817 2fbe d51f 4c3e
00000100: fc41 c5bd 6acc b1bd b81d 20be f358 613d
00000110: ea05 433e 4211 fcbc 84fb 31be 00b3 8e3d
00000120: e274 a43e d2d9 d23e 1eba 913e b9c6 e63e
00000130: 3aa2 e1bd 21bc 283b 2198 cfbd f0bc 16bd
00000140: c3f1 8f3d f271 773e d4c6 903e 6964 a93e
00000150: 3d88 943e 5131 993e 58b2 d13b a88a ed3d
00000160: c0bd c43e 9ea4 fe3e 99e9 753e c792 023f
00000170: 9467 5e3c a5f6 14bd 9372 443c c774 13bd
00000180: 8136 d73b bb4d 4ebd c1e3 ffbd 16ce 05bd
00000190: bd67 8b3d a517 4b3e 20cb d4be 2eb2 893e
000001a0: fa0f 0f3d 5a42 a23d 7da1 4bbe c1a7 c3bd
000001b0: b2ce 773e 9aba ec3e 53f1 9b3e 7664 023f
000001c0: ccec 373d 261f 82bc c0d8 efbd a67e 0bbe
000001d0: 678b aa3d 45be a63e e566 9a3e 7407 853e
000001e0: 3652 8d3e ef20 973e e948 e33d f0bc d4bd
000001f0: 5155 f73e 57e3 853e 39d6 223f 9f54 023f
00000200: 1afa 223e afc8 2fbe 684c c5bd 44d2 70bd
00000210: 7090 923e c248 6e3e 7f95 0bbe 68f3 36bc
00000220: 8cf0 0cbe 212d aabd d471 633d 6953 7c3e
00000230: bf05 a03c 3b1b 3a3e 760e 88be 3e9e f6bd
00000240: 4ffd 2dbd 5190 d53d 7955 763e e44f 8b3d
00000250: 5660 cd3d d2c3 ea3d f21c c3bd 8bb7 5d3d
00000260: 4582 89be db1b 9c3d 89a3 d03d cd63 0ebe
00000270: a026 2fbe 8eb9 b13c 6207 63be bd79 c33c
00000280: 2ccd 5a3e 956e 313e 0efa b03d a882 063d
00000290: 57ab 0fbb d81c bdba 17ff 95bd 783c 033c
000002a0: ee5e d93d 8d91 d3bd 7155 a23d 2dc5 7e3b
000002b0: 2781 e7bd b432 e03d ea0c 5b3e c9ae 2e3d
000002c0: 5e0f 2ebe 0a45 e5bd 57c0 ce3c 6356 c3bd
000002d0: 419d a3bd 1d11 a03d d148 90bd 3a9b 2dbd
000002e0: 99a3 17bc 5743 d9bd bc3b c6bd 8591 89bd
000002f0: c668 053e e5f1 81bc 2ebf 30bd 6c1e d1bd
00000300: 91a8 00be 4e95 903d 3c01 063e 9475 323e
00000310: 8adb c8bd 20dd 853e 9d79 35bd fb8c 803a
00000320: edca 6b3b b896 6a3d 243f d1bd 45d2 99bd
00000330: 6740 e6bc 4f82 5a3d cb22 d23c fafb d4bd
00000340: 6208 ca3d efb0 56be e767 e5bd 39ca 0a3d
00000350: 2928 413e 2904 263e 9962 2cbe 63ba 8b3d
00000360: d6b4 c33e bfd4 d13e e16e c33e e380 a83e
00000370: 76bb 18be 6410 0c3e 5e1f 03be 9bfe a8bc
00000380: af62 02bd 9690 18bd 72f7 c33d 586d 1f3e
00000390: 8093 e13d 47f7 7b3e c80f 093e 351f e8bd
000003a0: c84e a43e dffb 073e 398b 013f 7331 5b3e
000003b0: 65ef f83d d229 f339 2c18 0ebe cc83 2cbd
000003c0: f58c 7c3e ff5e cf3d 2f33 803d b91d c5bd
000003d0: 1432 e3bd b334 4b3e 2a1e f6bd d8bd 9b3e
000003e0: cb4f 993d d631 28be 6fec 34be 9a03 0fbe
000003f0: 8114 32be 8cb0 44be aaf6 c4bd 2f0c ccbe

network.0.bias f4 [128]
-7.2750656e-05 -4.6855133e-05 0.00017193596 -0.00059407967 5.2519545e-07 1.1330866e-05 0.00015034025 -1.2686041e-05
5.3186915e-05 0.000111354624 -9.697366e-06 6.276009e-05 -0.0003461343 3.6322203e-05 -1.3821279e-05 0.00051461346
2.143906e-06 -0.00015953516 -5.975914e-05 -4.4944427e-05 0.0002690358 -4.45541e-06 -0.0002494274 0.00018116306
-7.217021e-05 -0.0002739054 -0.0012413281 -0.00016383154 -3.0565567e-05 -0.00022260293 3.0139432e-05 -0.00018116583
-9.631878e-05 -0.00016086953 -0.0001465963 -2.3620565e-05 -0.00034877218 -0.00023126026 0.00043769807 0.00019166582
-0.0006475722 3.1903215e-05 3.466941e-05 -0.00013653668 3.6888792e-05 2.0808668e-05 8.398954e-05 -0.000119445416
-0.00046894158 -4.662759e-06 -0.0004078622 3.0760655e-06 -7.339137e-06 0.00027751084 -0.00015266867 -7.163878e-05
0.0002504472 0.00040047464 0.00016420762 0.0012059108 0.0002348 0.000109063134 -9.096e-05 4.5879075e-05
-0.00012791977 0.000112690286 -0.0002317195 -0.0003596758 -1.0032186e-05 0.00010102796 -0.00029047453 0.00020268135
0.00022124921 -0.00028380906 9.534224e-05 0.0001951468 0.0005837444 4.8104426e-05 9.158716e-05 -2.7831768e-05
1.9079082e-05 7.4890313e-06 -0.00038249898 -0.0001467945 0.00020629422 7.28414e-05 0.00015904797 1.1515372e-05
-0.00028053558 0.00066358404 -0.00025423578 1.860513e-05 -7.20533e-05 8.959735e-05 0.0001065307 -6.184287e-05
0.00065007014 0.0007691806 -0.00015727016 -2.5950301e-05 -3.6012316e-05 8.715088e-05 2.3980997e-06 2.6806643e-05
0.0010540455 -3.7917514e-05 0.000116223564 5.6560628e-05 -3.9857445e-05 -1.9013677e-06 -0.000110973364 0.00020107672
-3.9874412e-05 0.00032785843 5.4261673e-05 3.944598e-05 -0.00031609146 -8.421467e-05 5.132921e-05 1.9681178e-05
0.00013403817 2.6711666e-07 -0.0002453567 5.755349e-05 0.00045518958 -0.0001720091 -4.1873463e-05 0.00017767961
00000000: b691 98b8 5186 44b8 b549 3439 03bc 1bba
00000010: 28fb 0c35 b319 3e37 a7a4 1d39 22d6 54b7
00000020: 0415 5f38 0f87 e938 dfb1 22b7 119e 8338
00000030: 5c79 b5b9 ab58 1838 f1e1 67b7 20e7 063a
00000040: 06e0 0f36 e548 27b9 e3a5 7ab8 b682 3cb8
00000050: 600d 8d39 ae7f 95b6 94c5 82b9 97f6 3d39
00000060: 165a 97b8 f69a 8fb9 0fb4 a2ba 32ca 2bb9
00000070: 8733 00b8 856a 69b9 f0d3 fc37 55f7 3db9
00000080: c0fe c9b8 16af 28b9 a5b7 19b9 c724 c6b7
00000090: 69db b6b9 747e 72b9 d77a e539 e7f9 4839
000000a0: d6c1 29ba d1cf 0538 ff69 1138 492b 0fb9
000000b0: 0ab9 1a38 468e ae37 8a23 b038 c57e fab8
000000c0: 46dc f5b9 cb74 9cb6 56d6 d5b9 676e 4e36
000000d0: b542 f6b6 e07e 9139 af15 20b9 c73c 96b8
000000e0: 744e 8339 ccf6 d139 262f 2c39 a70f 9e3a
000000f0: a534 7639 d3b8 e438 c7c1 beb8 486e 4038
00000100: 3422 06b9 2354 ec38 bbf9 72b9 de92 bcb9
00000110: e94f 28b7 f9de d338 d54a 98b9 dc86 5439
00000120: 22ff 6739 35cc 94b9 7af2 c738 52a0 4c39
00000130: 6c06 193a bcc3 4938 7b12 c038 4478 e9b7
00000140: 040c a037 4a4a fb36 258a c8b9 d9ec 19b9
00000150: af50 5839 6ec2 9838 1dc6 2639 2532 4137
00000160: d914 93b9 5ff4 2d3a f34a 85b9 3612 9c37
00000170: 521b 97b8 36e6 bb38 3c69 df38 a3b1 81b8
00000180: 7869 2a3a d6a2 493a e3e8 24b9 d9af d9b7
00000190: ee0b 17b8 c6c4 b638 0aef 2036 d4de e037
000001a0: e627 8a3a 9f09 1fb8 0dbd f338 833b 6d38
000001b0: 9b2c 27b8 7f32 ffb5 5fba e8b8 1fd8 5239
000001c0: d33e 27b8 6ae4 ab39 0797 6338 cc72 2538
000001d0: 14b9 a5b9 689c b0b8 524a 5738 0219 a537
000001e0: 998c 0c39 3c68 8f34 38a3 80b9 9765 7138
000001f0: 83a6 ee39 575d 34b9 4aa1 2fb8 824f 3a39

network.1.weight f4 [128]
1.0786426 0.9703105 0.95902556 0.9901369 1.0010697 1.0378381 0.9968357 1.0851922
0.95813656 1.0418323 1.0818084 0.991477 0.9808909 1.0398457 1.1089948 1.021827
0.94051546 0.97254837 0.9548046 1.0294893 0.9731675 1.0221537 1.0139965 1.0182533
0.9607937 1.0289487 1.0163734 0.96034414 1.0505499 0.94786763 0.9959299 0.9753085
0.9429036 0.9852001 0.9844368 1.0154618 0.99219584 0.9691281 0.95703053 0.9775419
0.9933255 1.0961294 0.9829934 1.0722681 0.97049713 0.9918672 0.9961805 0.98849016
0.9485107 1.0833488 0.9561133 0.936302 1.0034649 1.0677959 1.1345226 1.0616286
0.9544805 0.9844126 1.0389072 1.0680072 0.974311 0.9966633 1.1084794 0.9712957
0.943024 1.1096991 0.96553105 1.1710135 0.9798934 0.99533516 0.98510915 0.98448503
1.0068643 1.034655 0.98476064 1.0618583 0.99395895 1.0896316 0.9833763 1.0094416
1.0203656 0.953558 0.91003114 0.9698506 0.98421997 1.0278407 1.0227408 1.0054245
1.0469286 1.0461729 0.97839147 0.97905475 0.9720847 1.0268217 0.9943053 0.99984217
0.9709904 0.9720254 1.0749483 0.9776769 0.9692499 0.99217933 0.9678284 1.0286993
0.9409691 1.032482 1.0094539 1.043414 0.9964456 1.0071231 0.96506864 0.99241674
0.9621809 1.0501226 0.95801014 0.9952278 1.0512682 0.9770675 0.9721069 0.98959327
0.9148483 0.97086 0.97729474 0.9626733 0.9716996 1.0454111 0.92845863 0.94442004
00000000: f610 8a3f 4566 783f b382 753f 9d79 7d3f
00000010: 0d23 803f e1d7 843f a030 7f3f 94e7 8a3f
00000020: 7048 753f c35a 853f b378 8a3f 70d1 7d3f
00000030: ab1b 7b3f aa19 853f 8bf3 8d3f 3acb 823f
00000040: 9fc5 703f eef8 783f 136e 743f 4ec6 833f
00000050: 8121 793f efd5 823f a3ca 813f 2056 823f
00000060: 93f6 753f 97b4 833f 8618 823f 1dd9 753f
00000070: 6b78 863f 74a7 723f 43f5 7e3f d1ad 793f
00000080: 2162 713f 1336 7c3f 0d04 7c3f a7fa 813f
00000090: 8c00 7e3f c718 783f f4ff 743f 3040 7a3f
000000a0: 944a 7e3f f84d 8c3f 75a5 7b3f 1540 893f
000000b0: 8072 783f 02eb 7d3f af05 7f3f b10d 7d3f
000000c0: 99d1 723f 2cab 8a3f d7c3 743f 7db1 6f3f
000000d0: 8a71 803f 89ad 883f 0938 913f 72e3 873f
000000e0: d658 743f 7702 7c3f e9fa 843f 76b4 883f
000000f0: 726c 793f 5325 7f3f a7e2 8d3f d6a6 783f
00000100: 056a 713f 9f0a 8e3f 0b2d 773f c5e3 953f
00000110: 4bda 7a3f 49ce 7e3f 1d30 7c3f 3607 7c3f
00000120: eee0 803f 936f 843f 4619 7c3f f9ea 873f
00000130: 1874 7e3f 0c79 8b3f 8dbe 7b3f 6235 813f
00000140: 579b 823f 611c 743f cdf7 683f 2148 783f
00000150: d7f5 7b3f 4990 833f 2ce9 823f c0b1 803f
00000160: c201 863f fee8 853f dd77 7a3f 55a3 7a3f
00000170: 8bda 783f e56e 833f cb8a 7e3f a8f5 7f3f
00000180: d492 783f a8d6 783f e897 893f 0949 7a3f
00000190: c320 783f 77ff 7d3f 9ac3 773f 6bac 833f
000001a0: 5ae3 703f 5f28 843f c935 813f 978e 853f
000001b0: 0f17 7f3f 69e9 803f bd0e 773f 060f 7e3f
000001c0: 7d51 763f 6b6a 863f 2740 753f 40c7 7e3f
000001d0: f58f 863f 1821 7a3f ffdb 783f fc55 7d3f
000001e0: 8033 6a3f 488a 783f fd2f 7a3f c271 763f
000001f0: 4ec1 783f 08d0 853f 77af 6d3f 83c5 713f

network.1.bias f4 [128]
-0.03242064 -0.008891732 -0.06854335 0.056129202 -0.0075137387 -0.018732624 0.026236169 -0.026635177
-0.10945148 0.026366835 0.16201882 -0.026356658 -0.05419109 0.04759267 0.014262992 0.014786914
-0.05922518 -0.042056296 -0.06625236 0.005333296 -0.025355542 -0.049928136 -0.0061563966 -0.023205671
-0.07627949 -0.009780131 -0.027889807 -0.05025465 -0.034605205 -0.07274396 0.0077985083 -0.07772019
-0.10360602 -0.07742877 -0.016551211 0.012234541 -0.048735473 0.05733625 -0.039881017 -0.050600424
-0.012608778 -0.041079603 -0.051126815 -0.053317465 -0.017404323 -0.033660717 -0.08063718 -0.024034051
-0.059490122 -0.008965903 -0.060014833 -0.010730735 -0.044540368 0.035093766 0.10579959 -0.016204797
-0.054126475 0.031931177 -0.027033178 0.14809114 0.010163623 0.02392264 0.03320285 -0.049583066
-0.036910623 -0.0064372052 -0.0635398 0.08490161 -0.0036357462 -0.006993796 -0.021650441 -0.04025636
0.103650875 -0.02479574 -0.06855151 -0.043488838 -0.04619273 0.03401274 -0.029266216 0.049987912
0.0050167334 -0.03673466 -0.07689198 -0.0066289078 -0.022459792 0.04885664 0.008572935 -0.027980374
0.050660547 -0.073131934 -0.0029052577 0.040696245 -0.029339405 -0.06421623 0.04472654 0.016069269
0.02285746 -0.056617822 -0.03214161 -0.014341128 -0.02776564 -0.04271345 -0.054065656 0.07281719
0.017921947 -0.047535818 0.0049530547 -0.06562764 -0.027422212 0.030654648 0.006703868 -0.05708314
-0.025991939 0.045762006 -0.013706623 -0.048091896 0.015091375 -0.07303051 -0.044756766 -0.012244776
-0.0756812 5.194495e-05 0.014675685 0.041736756 -0.013769633 -0.020158071 -0.016456397 -0.086502224
00000000: 81cb 04bd a1ae 11bc 7560 8cbd bce7 653d
00000010: cf35 f6bb 2975 99bc 3ced d63c 0432 dabc
00000020: 1928 e0bd 43ff d73c 43e8 253e ebe9 d7bc
00000030: 7af7 5dbd 88f0 423d 53af 693c d044 723c
00000040: 1a96 72bd 3943 2cbd 51af 87bd eec2 ae3b
00000050: 6db6 cfbc 7281 4cbd 99bb c9bb d219 bebc
00000060: 6c38 9cbd d83c 20bc 2a79 e4bc d2d7 4dbd
00000070: 30be 0dbd c9fa 94bd a18a ff3b c32b 9fbd
00000080: 652f d4bd fa92 9ebd 6896 87bc 6273 483c
00000090: d99e 47bd 6ad9 6a3d 475a 23bd 6442 4fbd
000000a0: 0c95 4ebc 1643 28bd 5a6a 51bd 6a63 5abd
000000b0: 8393 8ebc d2df 09bd 1b25 a5bd 0fe3 c4bc
000000c0: eaab 73bd b9e5 12bc 1dd2 75bd f7cf 2fbc
000000d0: f66f 36bd 7bbe 0f3d 75ad d83d ecbf 84bc
000000e0: b9b3 5dbd 44ca 023d af74 ddbc 34a5 173e
000000f0: 5385 263c 6af9 c33c b6ff 073d 9d17 4bbd
00000100: 982f 17bd 31ef d2bb 2821 82bd e5e0 ad3d
00000110: b345 6ebb 372c e5bb 445c b1bc dae3 24bd
00000120: e946 d43d 7020 cbbc bc64 8cbd 5a21 32bd
00000130: 9734 3dbd f150 0b3d b4bf efbc 20c0 4c3d
00000140: 6963 a43b 1577 16bd 8b79 9dbd 4f37 d9bb
00000150: 99fd b7bc e61d 483d 7f75 0c3c 1937 e5bc
00000160: 6f81 4f3d 32c6 95bd 2366 3ebb 1bb1 263d
00000170: 3159 f0bc cc83 83bd 2d33 373d b3a3 833c
00000180: 913f bb3c 17e8 67bd eca6 03bd 0df7 6abc
00000190: c474 e3bc 4cf4 2ebd f373 5dbd 2e21 953d
000001a0: 0cd1 923c ebb4 42bd 3c4d a23b c967 86bd
000001b0: 8ca4 e0bc 751f fb3c 1fac db3b 03d0 69bd
000001c0: 0ced d4bc f170 3b3d be91 60bc 02fc 44bd
000001d0: d141 773c 0591 95bd df52 37bd 509e 48bc
000001e0: bffe 9abd 77df 5938 4972 703c 29f4 2a3d
000001f0: 079a 61bc 8a22 a5bc 91cf 86bc 1428 b1bd

network.1.running_mean f4 [128]
0.3473967 1.2297103 1.8091664 1.4744307 -1.8297976 1.3878722 0.25717238 -1.7373104
1.0638006 -1.1717428 -0.0061455662 -1.7663146 -1.8116541 -2.152215 -1.7354205 0.97873604
-0.052767284 -0.96153086 1.3289651 -1.1842717 -1.7383033 -2.2262802 0.9516129 -2.8702068
-0.8494543 -1.1956747 -1.0071172 0.27568704 -2.5537515 2.0096672 0.76941276 1.1788348
1.1221769 -1.1234282 1.2523382 -0.27482346 -0.633051 0.92177445 -1.1121366 1.4891574
-1.262048 0.56158936 0.11791825 -0.612877 1.5907301 -1.7573488 -0.031210827 0.5004573
-1.459458 -2.0625865 1.6580422 0.8393443 -1.7158926 -0.8550687 1.2515914 -0.9731211
1.68713 -0.9960814 -1.6741183 2.1687264 1.3981324 -0.7680234 -1.5468801 -0.9113099
2.3376188 -1.4280068 1.1631353 2.1374958 0.7340015 -0.768522 -0.03165999 1.2512013
1.9057913 0.72519815 -0.64284056 0.45411274 -0.53288203 -1.0064801 -0.29591522 -1.0251919
-0.9291333 -0.32180345 0.16505082 2.1550674 -1.8932588 -1.4150785 -0.39511403 -2.186227
-1.1311028 1.5082544 1.8908356 1.8070302 0.8234305 -3.1475782 0.46266246 -1.0235823
1.2776862 -1.1506507 -0.72814906 2.6596491 0.5801234 -1.4200938 1.1532457 -0.75599766
0.33771002 -0.39067772 -0.8619256 -1.736913 -1.3586336 -2.3036232 0.02076205 0.80525124
2.5423324 -1.4544207 1.7534591 -1.4200392 -1.0583223 -0.73831564 -0.9261636 0.6739861
0.17672618 0.24886365 0.42794165 1.2214743 0.23487578 -0.4712973 0.10641217 0.43279815
00000000: fbdd b13e 2667 9d3f c492 e73f 25ba bc3f
00000010: cf36 eabf cca5 b13f 19ac 833e 3060 debf
00000020: 9e2a 883f abfb 95bf bf60 c9bb 9916 e2bf
00000030: 48e4 e7bf e4bd 09c0 4222 debf 728e 7a3f
00000040: 8222 58bd e326 76bf 871b aa3f 3796 97bf
00000050: b980 debf 607b 0ec0 e79c 733f 78b1 37c0
00000060: d675 59bf de0b 99bf 37e9 80bf da26 8d3e
00000070: aa70 23c0 639e 0040 3cf8 443f 0fe4 963f
00000080: 7ea3 8f3f 7fcc 8fbf 9e4c a03f a9b5 8cbe
00000090: a10f 22bf 69f9 6b3f 7e5a 8ebf b69c be3f
000000a0: ca8a a1bf 52c4 0f3f 207f f13d 82e5 1cbf
000000b0: 0b9d cb3f cef0 e0bf d9ad ffbc f81d 003f
000000c0: 85cf babf 6b01 04c0 ba3a d43f 45df 563f
000000d0: 5ea2 dbbf c8e5 5abf 2634 a03f 771e 79bf
000000e0: e0f3 d73f 31ff 7ebf 8249 d6bf 6acc 0a40
000000f0: 01f6 b23f 2e9d 44bf 2b00 c6bf 9b4b 69bf
00000100: 8c9b 1540 edc8 b6bf 9ee1 943f bbcc 0840
00000110: 86e7 3b3f dcbd 44bf e8ad 01bd 5d27 a03f
00000120: f8f0 f33f 96a6 393f 3391 24bf 7781 e83e
00000130: f56a 08bf 57d4 80bf 3382 97be 7d39 83bf
00000140: aedb 6dbf 6cc3 a4be 1503 293e a0ec 0940
00000150: 4e56 f2bf 4b21 b5bf 634c cabe 25eb 0bc0
00000160: fac7 90bf 7b0e c13f e706 f23f c44c e73f
00000170: 57cc 523f ec71 49c0 18e2 ec3e bf04 83bf
00000180: 398b a33f 8648 93bf fa67 3abf b137 2a40
00000190: f882 143f a2c5 b5bf 8e9d 933f 1089 41bf
000001a0: 54e8 ac3e e906 c8be 28a7 5cbf 2a53 debf
000001b0: b5e7 adbf 906e 13c0 2d15 aa3c f224 4e3f
000001c0: 93b5 2240 752a babf 5971 e03f d8c3 b5bf
000001d0: 1b77 87bf 4102 3dbf 0f19 6dbf 5a8a 2c3f
000001e0: b5f7 343e 1dd6 7e3e 2b1b db3e 4559 9c3f
000001f0: 4783 703e e14d f1be a0ee d93d b897 dd3e

network.1.running_var f4 [128]
296.41464 1049.9285 328.52026 292.71198 1157.04 2151.3975 467.7746 1651.142
347.78558 1510.9822 91.026855 586.5397 473.6624 591.7647 275.721 113.678734
430.67664 528.4749 338.34894 1451.8046 574.36 2013.0962 160.65201 1736.3003
806.98816 581.9079 32.552876 1347.1083 1808.1173 237.4513 3007.4697 317.62363
117.97118 1191.4716 1425.233 497.61386 209.63313 262.9659 62.542202 822.0585
122.39458 197.92986 923.0705 310.41962 1315.6426 2844.9053 878.374 520.90466
179.01512 1409.6885 517.3873 1029.3278 2627.9014 62.917408 18.555874 840.7097
310.91266 582.3642 1113.3086 163.37567 80.035286 910.5571 1270.908 1235.5657
2913.9907 530.52686 144.9377 173.32285 350.94778 727.15295 346.8324 661.3965
145.90303 182.81165 324.12772 167.5171 177.36205 321.9985 492.23038 191.6183
356.77548 188.00671 713.6784 585.9021 540.4655 651.9334 70.77012 48.833694
74.103004 45.751144 26.674606 1609.8655 146.13199 2718.0796 420.4861 393.85645
409.2519 505.91202 353.888 2436.4297 987.7316 1534.5327 1922.2935 187.30185
449.87277 508.8586 1564.396 856.2763 405.48468 1058.658 603.39154 455.64752
2982.3696 702.5336 1595.8574 1537.8232 135.29562 153.98059 510.28665 326.62292
712.3493 636.5203 465.41547 234.72264 349.17175 539.8344 194.52837 1103.561
00000000: 1335 9443 b63d 8344 9842 a443 225b 9243
00000010: 48a1 9044 5c76 0645 26e3 e943 8b64 ce44
00000020: 8ee4 ad43 6edf bc44 c00d b642 8aa2 1244
00000030: cad4 ec43 f1f0 1344 4adc 8943 835b e342
00000040: 9c56 d743 651e 0444 aa2c a943 bf79 b544
00000050: 0a97 0f44 14a3 fb44 eaa6 2043 9c09 d944
00000060: 3ebf 4944 1b7a 1144 2536 0242 7763 a844
00000070: c103 e244 8873 6d43 84f7 3b45 d3cf 9e43
00000080: 3ff1 eb42 17ef 9444 7527 b244 93ce f843
00000090: 15a2 5143 a37b 8343 372b 7a42 be83 4d44
000000a0: 06ca f442 0bee 4543 83c4 6644 b635 9b43
000000b0: 9074 a444 7cce 3145 f097 5b44 e639 0244
000000c0: df03 3343 0836 b044 ca58 0144 7daa 8044
000000d0: 6c3e 2445 6dab 7b42 6e72 9441 6c2d 5244
000000e0: d274 9b43 4f97 1144 e029 8b44 2c60 2343
000000f0: 1112 a042 a8a3 6344 0edd 9e44 1a72 9a44
00000100: da1f 3645 b8a1 0444 0df0 1043 a652 2d43
00000110: 5179 af43 cac9 3544 8c6a ad43 6059 2544
00000120: 2de7 1143 c8cf 3643 5910 a243 6184 2743
00000130: af5c 3143 cfff a043 7d1d f643 499e 3f43
00000140: 4363 b243 b801 3c43 6b6b 3244 bc79 1244
00000150: cb1d 0744 bdfb 2244 4d8a 8d42 b455 4342
00000160: bd34 9442 2c01 3742 9865 d541 b23b c944
00000170: ca21 1243 46e1 2945 393e d243 a0ed c443
00000180: 3ea0 cc43 bdf4 fc43 aaf1 b043 e046 1845
00000190: d3ee 7644 0cd1 bf44 6449 f044 464d 3b43
000001a0: b7ef e043 e76d fe43 ac8c c344 af11 5644
000001b0: 0abe ca43 0e55 8444 0fd9 1644 e2d2 e343
000001c0: ea65 3a45 27a2 2f44 707b c744 583a c044
000001d0: ae4b 0743 08fb 1943 b124 ff43 bc4f a343
000001e0: 5b16 3244 4d21 1f44 2eb5 e843 ffb8 6a43
000001f0: fc95 ae43 67f5 0644 4387 4243 f4f1 8944

network.4.weight f4 [64, 128]
-0.06825307 -0.09353571 0.11274723 -0.1701248 -0.102116026 -0.10624085 0.06330137 -0.010023571
0.04259748 -0.17784692 -0.1108498 0.045166384 0.0070488285 -0.013268201 0.08080824 -0.08091693
-0.0849045 0.001442124 -0.035069074 -0.075948596 -0.14938387 -0.1573758 0.18644755 -0.11374681
-0.012688414 0.07226409 0.018747276 0.07538911 -0.06489825 0.019396579 0.04121321 0.024436716
0.14157404 -0.112249464 0.040939793 -0.069270074 -0.09754575 0.089493744 -0.057878956 0.08482678
-0.13560162 0.085637614 0.07862693 -0.15019086 0.0755224 0.10944598 -0.11642331 -0.17149816
0.015906984 -0.058212735 -0.12105623 -0.1419215 0.02193528 0.10970445 0.2790662 -0.045551874
0.045559503 0.15994045 -0.15698995 0.004043526 -0.07631882 0.018338213 -0.0149732325 -0.035336833
0.08370873 -0.15993845 -0.042929698 0.097659476 -0.066306904 -0.042366035 -0.15766151 -0.11442681
0.1701133 -0.044183984 -0.06519962 0.03278635 -0.16189805 -0.011472225 0.089543924 -0.12153429
0.0012869956 0.013293952 -0.03521715 -0.12074767 -0.07724075 -0.013133389 -0.019343767 -0.050941724
-0.12010562 0.1414608 0.025164071 -0.019760497 0.02763373 -0.122618705 -0.1245849 0.056428764
-0.05827098 -0.13013513 0.026064359 -0.02062521 0.016732529 0.088667355 -0.056808077 0.06476281
0.0694269 -0.030857747 -0.05291101 -0.0073957797 -0.015701458 0.11211692 0.115048446 -0.1442563
0.11469098 -0.10102051 -0.012228961 -0.10664554 -0.11371989 -0.064568065 -0.037707847 -0.1739571
0.13221072 -0.091219164 -0.10111504 0.1248865 0.020219944 0.00084186404 -0.01724599 -0.113903
0.15328538 0.018666608 0.088057175 0.072053894 -0.057219602 -0.081079274 0.02524704 -0.032221228
0.0011359806 0.014958895 -0.091838524 0.10755627 -0.092163906 -0.12149681 -0.17721133 0.08413314
0.07899983 0.11462055 -0.17366187 0.019375274 -0.07046204 -0.08402355 0.120652325 0.011826942
0.024627183 0.014837921 -0.10733327 -0.050090075 0.025363509 -0.052727528 -0.09503588 0.12694457
0.143554 0.12735492 -0.119696885 0.07567686 -0.1638279 0.116204344 0.06195003 -0.09896152
0.089098014 0.091638245 -0.011502762 -0.15394904 -0.023680955 -0.1548954 0.076231845 -0.04270856
-0.06297209 -0.06991222 0.037451748 0.07885528 0.09222246 0.04319226 -0.09535842 -0.05901106
-0.00846338 -0.028478837 -0.0005235469 0.0075835297 0.05819097 -0.13698776 -0.011021231 -0.123553514
0.009090329 -0.023438971 0.11573004 0.17580914 0.098070726 -0.13718289 -0.049988035 0.017597914
0.13456795 0.09844021 0.07974955 0.053534765 0.17192875 -0.111827165 -0.045955952 -0.13561824
-0.10658161 0.12700954 -0.06347461 0.09893526 -0.1178161 -0.027686462 -0.022376416 -0.060461517
0.019197991 -0.20330843 0.15517452 -0.01339922 -0.110400334 -0.142754 0.033125237 0.115350954
-0.0398761 0.10276003 0.1132391 -0.038672112 0.018573627 -0.11932868 -0.19191326 0.11956675
0.118782 0.14917833 0.024348393 -0.057156105 0.072033584 -0.20488513 0.15830785 0.058468927
0.043441553 -0.1108631 0.08986939 -0.14081343 -0.026152715 0.020905329 0.115064494 0.015504845
-0.14621948 -0.027923474 -0.05205664 0.13657807 0.19089146 -0.098927036 0.17752461 9.0698304e-05
00000000: 44c8 8bbd a68f bfbd 05e8 e63d 3235 2ebe
00000010: 3522 d1bd ce94 d9bd 26a4 813d e739 24bc
00000020: b27a 2e3d 811d 36be 3805 e3bd 6300 393d
00000030: dcf9 e63b de62 59bc ca7e a53d c7b7 a5bd
00000040: 69e2 adbd a705 bd3a 97a4 0fbd f08a 9bbd
00000050: 16f8 18be 1f27 21be 1bec 3e3e 16f4 e8bd
00000060: 11e3 4fbc 32ff 933d e393 993c 9b65 9a3d
00000070: 60e9 84bd 93e5 9e3c 2fcf 283d 822f c83c
00000080: c9f8 103e 0ce3 e5bd 7cb0 273d 78dd 8dbd
00000090: 11c6 c7bd 7f48 b73d 7c12 6dbd aab9 ad3d
000000a0: 27db 0abe c662 af3d 2807 a13d a2cb 19be
000000b0: 7dab 9a3d 3725 e03d 586f eebd 379d 2fbe
000000c0: 5d4f 823c 7a70 6ebd 54ec f7bd df53 11be
000000d0: 9eb1 b33c baac e03d c4e1 8e3e 9a94 3abd
000000e0: 9a9c 3a3d 6ec7 233e f9c1 20be 8e7f 843b
000000f0: 0b4d 9cbd 053a 963c 4a52 75bc 5bbd 10bd
00000100: 7c6f ab3d e8c6 23be 0dd7 2fbd b101 c83d
00000110: eacb 87bd 0288 2dbd 0572 21be 9a58 eabd
00000120: 2e32 2e3e 44fa 34bd 6187 85bd fb4a 063d
00000130: 9ac8 25be 00f6 3bbc ce62 b73d f8e6 f8bd
00000140: 68b0 a83a e0ce 593c dc3f 10bd 8e4a f7bd
00000150: 6630 9ebd 6d2d 57bc d276 9ebc 45a8 50bd
00000160: eff9 f5bd 1adb 103e e224 ce3c c4e0 a1bc
00000170: 2260 e23c 841f fbbd 5e26 ffbd d921 673d
00000180: 8dad 6ebd 2542 05be ec84 d53c 33f6 a8bc
00000190: a812 893c 3b97 b53d 96af 68bd 5da2 843d
000001a0: b12f 8e3d 63c9 fcbc 37b9 58bd 4c58 f2bb
000001b0: 58a0 80bc 8e9d e53d 859e eb3d ecb7 13be
000001c0: 1be3 ea3d d7e3 cebd fb5b 48bc fa68 dabd
000001d0: f9e5 e8bd 433c 84bd 8b73 1abd cf21 32be
000001e0: 3f62 073e 1dd1 babd 6715 cfbd 7ec4 ff3d
000001f0: 4ca4 a53c 8ab0 5c3a 7647 8dbc fa45 e9bd
00000200: d8f6 1c3e b7ea 983c 5257 b43d fe90 933d
00000210: 1a5f 6abd e40c a6bd e1d2 ce3c 68fa 03bd
00000220: 2fe5 943a 2716 753c d615 bcbd 7646 dc3d
00000230: 6ec0 bcbd 52d3 f8bd e376 35be ff4d ac3d
00000240: aaca a13d 2ebe ea3d 6bd4 31be e5b8 9e3c
00000250: 674e 90bd 8a14 acbd 9118 f73d cac5 413c
00000260: f2be c93c c01a 733c 8cd1 dbbd 402b 4dbd
00000270: 22c7 cf3c d2f8 57bd 2ca2 c2bd c2fd 013e
00000280: d2ff 123e 5469 023e a423 f5bd 78fc 9a3d
00000290: 80c2 27be 8bfc ed3d 51bf 7d3d 56ac cabd
000002a0: 0579 b63d d5ac bb3d 1576 3cbc d1a4 1dbe
000002b0: 90fe c1bc e69c 1ebe 711f 9c3d 2cef 2ebd
000002c0: 83f7 80bd 232e 8fbd 0167 193d e17e a13d
000002d0: 21df bc3d 5eea 303d 464b c3bd 95b5 71bd
000002e0: fda9 0abc 734c e9bc a33e 09ba 427f f83b
000002f0: a859 6e3d 8546 0cbe 6592 34bc a009 fdbd
00000300: 9aef 143c 1603 c0bc df03 ed3d 5007 343e
00000310: 4ed9 c83d ac79 0cbe 41c0 4cbd 8029 903c
00000320: 2ecc 093e 059b c93d bb53 a33d 4547 5b3d
00000330: 170e 303e a405 e5bd 4f3c 3cbd 82df 0abe
00000340: 7647 dabd ca0e 023e fafe 81bd 929e ca3d
00000350: 9149 f1bd b8ce e2bc bf4e b7bc 7fa6 77bd
00000360: 1b45 9d3c 1630 50be 12e6 1e3e 6788 5bbc
00000370: 9219 e2bd 1b2e 12be 54ae 073d 1f3d ec3d
00000380: 1f55 23bd da73 d23d e7e9 e73d a666 1ebd
00000390: b827 983c 9862 f4bd e984 44be 6adf f43d
000003a0: fa43 f33d 34c2 183e 4876 c73c 851c 6abd
000003b0: 5886 933d 68cd 51be 741b 223e 1d7d 6f3d
000003c0: c5ef 313d 310c e3bd 710d b83d 6531 10be
000003d0: 383e d6bc a741 ab3c efa6 eb3d 0908 7e3c
000003e0: 8fba 15be c5bf e4bc 5839 55bd 1fdb 0b3e
000003f0: 0d79 433e 429a cabd 03c9 353e 4835 be38

network.4.bias f4 [64]
0.0055721574 0.007402947 -0.0014526601 -0.0018155049 0.005026628 2.1536098e-05 0.0009542337 0.0021198725
-0.0005807749 -0.0011792106 -0.0014836503 0.008736915 0.00066249527 0.0057736393 -0.0022964992 0.0069025215
-0.0009827039 0.0005317565 0.0024837526 0.0014638039 -0.00089093763 0.003233213 0.0005594889 0.00019584574
-0.0009223587 -0.0019114523 -0.0030705736 -0.008055363 0.0015129513 -0.0020843341 0.00020180945 0.0011545544
-0.0019834482 0.00025016355 -0.0075943675 -0.0012705663 0.0017763625 0.00045689178 0.0030901958 0.003096262
0.0069803093 0.0071613053 -0.0001570769 -0.00072753953 -0.0009541444 -0.0026015514 -0.0011502202 -0.007951488
0.0037765417 -0.0016269704 0.004470223 0.00329941 0.0027634602 0.0011285521 0.0014361859 0.0017134154
0.0030111792 0.0017842457 0.0025574353 0.0044855373 -0.0027178896 -0.0005964306 0.001560809 -0.0037674839
00000000: a596 b63b 6c94 f23b 2f67 beba 3cf6 edba
00000010: 69b6 a43b 6ba8 b437 8a25 7a3a 8fed 0a3b
00000020: 253f 18ba be8f 9aba 0b77 c2ba 4725 0f3c
00000030: 4eab 2d3a cc30 bd3b dd80 16bb 8c2e e23b
00000040: 12ce 80ba 9365 0b3a 74c6 223b 1cdd bf3a
00000050: d08d 69ba 50e4 533b aaaa 123a f15b 4d39
00000060: 72ca 71ba b289 faba ad3b 49bb a4fa 03bc
00000070: 394e c63a 5399 08bb d09c 5339 6b54 973a
00000080: bdfc 01bb 6228 8339 2cda f8bb 2189 a6ba
00000090: d6d4 e83a fa8a ef39 e284 4a3b a8ea 4a3b
000000a0: 14bb e43b 62a9 ea3b 02b5 24b9 5ab8 3eba
000000b0: 8c1f 7aba ca7e 2abb fcc2 96ba f546 02bc
000000c0: db7f 773b 1140 d5ba f37a 923b ea3a 583b
000000d0: 2b1b 353b edeb 933a 673e bc3a ae94 e03a
000000e0: 3457 453b 5add e93a a59a 273b 6afb 923b
000000f0: 9f1e 32bb c859 1cba 0f94 cc3a e4e7 76bb

network.5.weight f4 [64]
0.9443785 0.98469275 0.96540207 0.9156459 0.95708334 0.907427 0.9939383 1.1765208
0.91192114 0.9470375 0.98584247 0.8842379 0.9641819 0.9534025 0.96263915 1.0432932
0.9447724 1.018291 1.0609474 1.088137 1.016591 1.0303682 0.95630753 1.0278169
1.063554 1.0108788 0.9888518 0.998201 1.1207095 0.9205369 1.0984564 1.0190451
1.114268 0.8546113 0.9858096 0.9943839 0.8704866 1.0095485 0.9401685 0.96686685
0.9945808 1.1425319 1.008514 1.139558 0.9869848 1.0308964 0.9220625 0.9523885
1.0352417 0.97334725 1.0284294 0.95485204 1.152034 0.93680894 0.9032303 0.9430329
0.9514048 0.911311 0.97680235 0.9523668 1.0099828 1.114083 1.0891731 1.0437236
00000000: cac2 713f d314 7c3f 9724 773f c567 6a3f
00000010: 6a03 753f 234d 683f be72 7e3f 3c98 963f
00000020: aa73 693f 0d71 723f 2c60 7c3f 6a5d 623f
00000030: a0d4 763f 3012 743f 856f 763f a28a 853f
00000040: 9bdc 713f 5c57 823f 20cd 873f 1348 8b3f
00000050: a71f 823f 1be3 833f 92d0 743f 818f 833f
00000060: 8a22 883f 7a64 813f 6425 7d3f 1a8a 7f3f
00000070: 6973 8f3f 4ea8 6b3f 389a 8c3f 1270 823f
00000080: 55a0 8e3f cec7 5a3f 055e 7c3f f18f 7e3f
00000090: 36d8 5e3f e338 813f e2ae 703f 9684 773f
000000a0: d99c 7e3f 7c3e 923f fd16 813f 09dd 913f
000000b0: 09ab 7c3f 6af4 833f 4a0c 6c3f bccf 733f
000000c0: cd82 843f 492d 793f 93a3 833f 2f71 743f
000000d0: da75 933f b6d2 6f3f 1a3a 673f 9b6a 713f
000000e0: 448f 733f ad4b 693f b80f 7a3f 50ce 733f
000000f0: 1e47 813f 469a 8e3f 066a 8b3f bc98 853f

network.5.bias f4 [64]
-0.06455509 0.018658118 -0.06842915 -0.10310297 -0.013753297 -0.029199433 -0.0006362837 0.032879137
-0.044310194 -0.08666743 -0.04599095 -0.08539958 -0.024099741 -0.04410996 -0.049492076 -0.045269713
-0.044725817 -0.10937711 -0.008291252 0.09070963 0.09719024 -0.13510843 -0.0289377 -0.07007587
0.1380381 -0.010343877 -0.04334711 0.008676181 0.15454386 -0.02017639 0.020863362 0.026266152
-0.049323905 -0.15341195 -0.021513745 -0.039832372 -0.10337939 0.03440609 -0.06570114 -0.043320958
-0.11193765 0.108869344 -0.039477218 0.14234285 -0.056050565 0.0057663633 -0.08702014 -0.09967068
0.019073473 -0.048397724 -0.01305343 -0.009746003 0.09913938 -0.034820415 -0.031183705 -0.038594477
-0.09829655 -0.09291435 -0.0106795365 -0.0939494 -0.058423907 0.054053072 0.111738056 -0.0045986464
00000000: 7635 84bd e9d8 983c 9524 8cbd a627 d3bd
00000010: 8255 61bc a633 efbc 47cc 26ba 46ac 063d
00000020: 9b7e 35bd b27e b1bd 0261 3cbd fae5 aebd
00000030: d26c c5bc a5ac 34bd 34b8 4abd bc6c 39bd
00000040: 6b32 37bd 1b01 e0bd 08d8 07bc f8c5 b93d
00000050: ad0b c73d dd59 0abe c10e edbc f083 8fbd
00000060: dc59 0d3e 5d79 29bc bd8c 31bd 8a26 0e3c
00000070: bf40 1e3e f548 a5bc a4e9 aa3c 1d2c d73c
00000080: dd07 4abd 0618 1dbe 983d b0bc 4527 23bd
00000090: 93b8 d3bd 66ed 0c3d 528e 86bd 5171 31bd
000000a0: 913f e5bd e4f6 de3d ddb2 21bd 53c2 113e
000000b0: 4795 65bd c3f3 bc3b 9d37 b2bd 2420 ccbd
000000c0: f93f 9c3c b13c 46bd 0ede 55bc b3ad 1fbc
000000d0: 9609 cb3d da9f 0ebd f874 ffbc 3e15 1ebd
000000e0: b44f c9bd e149 bebd 39f9 2ebc 8b68 c0bd
000000f0: e84d 6fbd c166 5d3d ecd6 e43d 3eb0 96bb

network.5.running_mean f4 [64]
-0.893568 -0.03251456 -0.1586841 -0.86709636 -0.08173602 -0.58821106 0.355574 1.1914579
-0.8867367 -0.79942197 0.23768726 -1.0450115 -0.17507553 -0.07179148 0.27708825 0.9683523
0.10916677 -0.39714903 -0.39490634 -0.33493 0.2537789 1.2125669 -0.06726247 1.3934888
0.8413114 0.9182556 0.3340308 -0.09751898 0.58299357 0.04890287 0.74851733 -0.1157081
1.58605 -0.44596452 0.2874919 -0.015140274 -0.79718846 0.28982976 -1.0004816 -0.08554872
-0.8069089 0.7618674 0.13239147 0.77010804 -0.40537244 0.29179808 0.08305393 0.44851297
1.0553458 0.657585 0.41661322 -0.758468 0.91073495 -0.19948803 -0.5122766 -0.35131323
-0.6117357 -0.39917478 -0.7283232 -0.18956791 1.5122772 0.70941496 -0.12982257 0.8750483
00000000: dfc0 64bf fd2d 05bd 167e 22be 07fa 5dbf
00000010: 3765 a7bd 0095 16bf cc0d b63e b181 983f
00000020: 2d01 63bf eba6 4cbf 4a64 733e f0c2 85bf
00000030: 0047 33be 6907 93bd 83de 8d3e f0e5 773f
00000040: d492 df3d 1e57 cbbe 2a31 cabe f27b abbe
00000050: 4fef 813e 6435 9b3f e8c0 89bd d75d b23f
00000060: 2f60 573f cd12 6b3f 1606 ab3e 08b8 c7bd
00000070: 113f 153f 604e 483d d59e 3f3f 5ef8 ecbd
00000080: b003 cb3f 7655 e4be 2332 933e e90e 78bc
00000090: 8b14 4cbf 9164 943e c80f 80bf 2b34 afbd
000000a0: 9591 4ebf be09 433f a191 073e cd25 453f
000000b0: fa8c cfbe 8f66 953e 2e18 aa3d 7ea3 e53e
000000c0: 9215 873f 7e57 283f 544e d53e f52a 42bf
000000d0: ed25 693f 9746 4cbe 8f24 03bf 54df b3be
000000e0: b69a 1cbf a360 ccbe 6473 3abf 171e 42be
000000f0: 4d92 c13f 389c 353f 35f0 04be 2a03 603f

network.5.running_var f4 [64]
1.9943748 1.5781959 1.2683336 1.9577726 2.485106 3.1762483 2.7265117 5.402533
3.160213 1.2307056 2.4159136 4.1715345 4.28461 2.4392848 1.9144999 3.6819837
1.4154055 2.6122055 1.356186 5.0746174 2.4949725 5.520146 4.52656 3.0495224
2.360694 1.792874 1.63707 0.9245208 5.168306 1.090293 4.2341833 2.630054
5.7228284 1.9452635 1.3526435 2.2965455 1.4325109 2.9227047 3.5233142 2.3400476
1.3592417 2.260933 1.200309 4.67672 1.1537408 3.6862192 0.9805505 2.3846598
4.1746964 2.2412767 2.1743107 2.9129803 5.310416 2.4567294 3.7778068 4.4524493
0.6924523 1.1766255 3.534429 1.0016503 2.2968423 4.0950394 4.327661 2.3095222
00000000: ac47 ff3f 5302 ca3f c158 a23f 4b98 fa3f
00000010: fa0b 1f40 a747 4b40 2b7f 2e40 8de1 ac40
00000020: ee40 4a40 c387 9d3f 549e 1a40 367d 8540
00000030: 861b 8940 3e1d 1c40 550e f53f 9fa5 6b40
00000040: 022c b53f 602e 2740 8197 ad3f 4463 a240
00000050: a1ad 1f40 09a5 b040 94d9 9040 602b 4340
00000060: 9c15 1740 e57c e53f 828b d13f 65ad 6c3f
00000070: c362 a540 b98e 8b3f 6e7e 8740 ce52 2840
00000080: 6921 b740 65fe f83f 6c23 ad3f 9afa 1240
00000090: 845c b73f 980d 3b40 fb7d 6140 57c3 1540
000000a0: a2fb ad3f 20b3 1040 baa3 993f b1a7 9540
000000b0: c7ad 933f 04eb 6b40 5c05 7b3f 449e 1840
000000c0: 1d97 8540 1471 0f40 e827 0b40 456e 3a40
000000d0: eeee a940 0e3b 1d40 96c7 7140 777a 8e40
000000e0: 8e44 313f aa9b 963f 1634 6240 1436 803f
000000f0: 77ff 1240 900a 8340 337c 8a40 36cf 1340

network.8.weight f4 [32, 64]
0.1864509 -0.19411922 -0.0453596 0.060543895 0.051905543 -0.16843267 -0.17436765 0.1607553
-0.023364719 -0.08919567 -0.10877762 0.015545667 -0.06850462 -0.15011236 0.24988995 -0.28000152
-0.026959881 0.07717904 0.06769527 -0.21762551 -0.031521525 0.10235326 0.09133132 -0.18356104
-0.17625949 -0.31116685 -0.22071551 -0.20397589 -0.30777586 0.04256157 -0.29912677 -0.16137424
-0.28511208 -0.117281914 -0.13750519 0.11680985 -0.13174878 -0.11095422 -0.054920588 -0.010037106
-0.028810393 -0.21644644 0.10997507 -0.16133666 -0.05266104 -0.07816999 -0.16474667 0.12130356
0.059874624 -0.0520972 -0.22065796 -0.12734672 0.083359115 0.07702629 0.053745735 -0.1501408
-0.18589173 -0.24254403 -0.1432788 -0.029315993 -0.1318127 -0.14542593 0.18931589 0.120063886
0.1116079 -0.028011937 0.23297851 -0.019458184 -0.13083626 0.054259863 -0.024975084 -0.048410214
0.06083904 0.05736722 0.10987525 -0.0075406255 0.15294649 0.12324347 0.015573671 -0.21501473
-0.027482856 0.051581595 -0.18375938 0.10100966 -0.059101503 -0.3011366 0.22863606 -0.03582466
-0.009907643 0.09378485 0.02197971 -0.07220905 -0.06218248 -0.03279478 -0.16662641 -0.1447405
-0.281249 0.1084921 0.14151785 0.03543818 0.03632928 -0.08840675 -0.05080944 0.18377985
-0.04238119 -0.29881868 -0.25399083 -0.28712133 -0.0042940862 0.23744118 -0.079224065 0.1687162
-0.05546765 0.10828522 -0.07171475 -0.05923034 -0.37636492 -0.017108338 0.20155382 -0.13131553
-0.054037772 -0.13360788 0.010790174 -0.09959467 0.16304864 0.10172044 0.12673745 -0.13590814
-0.08887057 -0.038326528 -0.012034945 0.15166456 -0.051865786 0.0062689125 -0.0045927754 -0.005714649
-0.029033689 -0.19847465 0.008632748 0.038837206 -0.31121716 0.11369064 -0.21975732 0.10670237
0.18505442 0.16892363 0.14971747 0.16193716 0.13116524 -0.047741804 0.03739587 0.040146094
0.07790609 0.09996181 0.14602314 0.11707064 0.05350458 -0.015368851 -0.012141261 -0.19664237
0.10181137 0.07256836 0.027645957 -0.3138637 -0.0015388039 0.18486977 0.156745 0.15461047
0.19667216 0.051986195 0.26617762 -0.1750139 -0.28030887 -0.2780105 0.17497958 0.14779203
-0.021087224 -0.07898429 -0.043090776 -0.10220102 0.060964517 -0.1861164 0.15179157 0.12025194
0.2466633 -0.10618934 0.18346794 0.09494981 0.032928534 0.06288378 -0.037291925 0.19314055
-0.19844395 -0.16658555 0.052236926 0.1353408 0.154347 -0.1441931 -0.21712096 0.19308953
0.12079555 -0.15308699 0.23377812 -0.02567536 -0.18559487 -0.13832323 -0.2664742 -0.19179893
0.17530367 0.025483068 -0.0625471 -0.09207167 0.04723069 -0.10994007 0.10378456 -0.17725015
0.004545385 -0.011585798 0.21371189 -0.26916924 -0.12372009 -0.1801533 -0.20256856 0.19460778
-0.3329511 0.059774823 -0.12340302 -0.17008063 -0.09312593 -0.06716079 0.027155798 -0.23014256
-0.047650382 -0.30385724 0.10398191 0.07603896 0.18699986 -0.19406156 0.10356594 0.02969612
-0.17602944 -0.21754126 -0.022470126 0.20125969 0.11146587 0.04228816 -0.10983466 0.09554363
0.03370928 -0.12788546 -0.1503969 -0.08504078 0.03629256 -0.18767506 -0.14402129 -0.165035
00000000: fcec 3e3e 30c7 46be fdca 39bd e0fc 773d
00000010: e89a 543d 9d79 2cbe 6f8d 32be 0a9d 243e
00000020: 5e67 bfbc 38ac b6bd cdc6 debd 41b3 7e3c
00000030: 264c 8cbd 0eb7 19be 27e3 7f3e 5c5c 8fbe
00000040: f8da dcbc 0b10 9e3d d1a3 8a3d 39d9 5ebe
00000050: b71c 01bd 969e d13d ea0b bb3d 6df7 3bbe
00000060: 5e7d 34be 4351 9fbe 3f03 62be 0edf 50be
00000070: cc94 9dbe 0a55 2e3d 2527 99be 4a3f 25be
00000080: 36fa 91be 8031 f0bd 29ce 0cbe 013a ef3d
00000090: 27e9 06be f73b e3bd 69f4 60bd ad72 24bc
000000a0: c603 ecbc 23a4 5dbe 9c3a e13d 7035 25be
000000b0: 1ab3 57bd 9617 a0bd 5ab3 28be 006e f83d
000000c0: 183f 753d e063 55bd 29f4 61be 2e67 02be
000000d0: 2fb8 aa3d f6bf 9d3d 7d24 5c3d 83be 19be
000000e0: 675a 3ebe 765d 78be aeb7 12be 1828 f0bc
000000f0: e9f9 06be 89ea 14be 06dc 413e 0ee4 f53d
00000100: af92 e43d 4a79 e5bc eb91 6e3e c566 9fbc
00000110: f1f9 05be 973f 5e3d 8c98 ccbc ca49 46bd
00000120: 5b32 793d e4f9 6a3d 4606 e13d 5a17 f7bb
00000130: 019e 1c3e 1367 fc3d b628 7f3c d22c 5cbe
00000140: ba23 e1bc 3947 533d 6b2b 3cbe 27de ce3d
00000150: 6b14 72bd 942e 9abe 921f 6a3e e1bc 12bd
00000160: ab53 22bc 4512 c03d cb0e b43c 57e2 93bd
00000170: 0eb3 7ebd d253 06bd 1da0 2abe db36 14be
00000180: deff 8fbe 1b31 de3d 0eea 103e a027 113d
00000190: 03ce 143d 990e b5bd 8f1d 50bd c930 3c3e
000001a0: e697 2dbd c3fe 98be 160b 82be 9101 93be
000001b0: 68b5 8cbb c823 733e 3a40 a2bd f1c3 2c3e
000001c0: 0c32 63bd a4c4 dd3d 2fdf 92bd 839b 72bd
000001d0: e7b2 c0be c926 8cbc 2064 4e3e 9477 06be
000001e0: b656 5dbd 81d0 08be 45c9 303c 4af8 cbbd
000001f0: 39f6 263e ce52 d03d 76c7 013e 812b 0bbe
00000200: c601 b6bd 47fc 1cbd 382e 45bc f44d 1b3e
00000210: 3871 54bd 736b cd3b fe7e 96bb f341 bbbb
00000220: 0fd8 edbc f03c 4bbe 5f70 0d3c c313 1f3d
00000230: db57 9fbe a3d6 e83d 1008 61be c686 da3d
00000240: e87e 3d3e 51fa 2c3e 894f 193e dbd2 253e
00000250: 2e50 063e e98c 43bd 692c 193d 3b70 243d
00000260: 3a8d 9f3d c7b8 cc3d 1787 153e bbc2 ef3d
00000270: 9e27 5b3d a2cd 7bbc 24ec 46bc 9e5c 49be
00000280: 7b82 d03d b89e 943d c679 e23c beb2 a0be
00000290: b1b1 c9ba 804e 3d3e c381 203e 3552 1e3e
000002a0: 6d64 493e 7aef 543d 6f48 883e d836 33be
000002b0: a584 8fbe 6457 8ebe d92d 333e cb56 173e
000002c0: 1dbf acbc 84c2 a1bd f47f 30bd c54e d1bd
000002d0: eeb5 793d 4c95 3ebe 406f 1b3e a646 f63d
000002e0: 4e95 7c3e cc79 d9bd 05df 3b3e 0c75 c23d
000002f0: 12e0 063d 36c9 803d 6bbf 18bd a3c6 453e
00000300: e434 4bbe 6795 2abe 63f6 553d c796 0a3e
00000310: 240d 1e3e 5ba7 13be f554 5ebe 43b9 453e
00000320: a863 f73d d6c2 1cbe 8863 6f3e 2255 d2bc
00000330: 950c 3ebe 9ba4 0dbe 4e6f 88be f066 44be
00000340: ce82 333e dec1 d03c b218 80bd 1290 bcbd
00000350: f874 413d 4228 e1bd 008d d43d 1081 35be
00000360: 74f1 943b 5cd2 3dbc 4ad7 5a3e 8dd0 89be
00000370: f560 fdbd 1b7a 38be 226e 4fbe 4347 473e
00000380: 9178 aabe 72d6 743d b9ba fcbd 9e29 2ebe
00000390: cfb8 bebd 998b 89bd d675 de3c 7eaa 6bbe
000003a0: 0c2d 43bd 2d93 9bbe 78f4 d43d 50ba 9b3d
000003b0: e47c 3f3e 13b8 46be 611a d43d 4745 f33c
000003c0: 1041 34be 23c3 5ebe 4513 b8bc 0517 4e3e
000003d0: 3848 e43d 5a36 2d3d fff0 e0bd 61ac c33d
000003e0: be12 0a3d 68f4 02be a501 1abe dc29 aebd
000003f0: 82a7 143d e42d 40be 517a 13be effe 28be

network.8.bias f4 [32]
0.01144014 -0.0022073444 -0.0001103374 0.0008621233 0.004218658 -0.0036873866 -0.007668146 0.0019176649
-0.0041561387 0.00524122 0.0131415455 -0.0063207634 -0.0017225845 -0.0033921131 0.0018777245 -0.000297725
0.0056939386 0.016927015 0.004536075 -0.0013661531 0.006798723 0.0001175689 -0.002644938 -0.008849977
-0.007035889 0.0053033885 -0.004380353 -0.0110826045 -0.0015159929 0.006493116 -0.011370597 0.005462511
00000000: 6d6f 3b3c 18a9 10bb f164 e7b8 1e00 623a
00000010: ab3c 8a3b 15a8 71bb 1245 fbbb 285a fb3a
00000020: 3830 88bb 8abe ab3b a34f 573c 681e cfbb
00000030: 58c8 e1ba 374e 5ebb fb1d f63a f917 9cb9
00000040: 3894 ba3b 86aa 8a3c 5ba3 943b 7e10 b3ba
00000050: d2c7 de3b 538f f638 b256 2dbb 7eff 10bc
00000060: 518d e6bb 0cc8 ad3b 1089 8fbb d093 35bc
00000070: 48b4 c6ba 34c4 d43b be4b 3abc ddfe b23b

network.9.weight f4 [32]
0.77661884 0.79001075 0.8331663 0.7682411 0.80616486 0.70185333 0.7940114 0.7419859
0.74531317 0.8428502 0.83363944 0.874046 0.6866644 0.79655313 0.82694274 0.70523745
0.7836668 0.8662036 0.77978903 0.78467137 0.8836971 0.8018327 0.7355245 0.80862033
0.8506422 0.76524717 0.9488967 0.7754231 0.7414085 0.7992325 0.79946774 0.7204448
00000000: 7ed0 463f 253e 4a3f 634a 553f 73ab 443f
00000010: d260 4e3f a9ac 333f 5544 4b3f caf2 3d3f
00000020: d8cc 3e3f 08c5 573f 6569 553f 7bc1 5f3f
00000030: 3dc9 2f3f e8ea 4b3f 85b2 533f 718a 343f
00000040: 639e 483f 85bf 5d3f 41a0 473f 39e0 483f
00000050: f939 623f e844 4d3f 554b 3c3f be01 4f3f
00000060: b0c3 593f 3de7 433f e5ea 723f 2182 463f
00000070: f3cc 3d3f 809a 4c3f eba9 4c3f 126f 383f

network.9.bias f4 [32]
-0.21861601 -0.119791925 -0.0960391 -0.08489469 -0.14679319 -0.23826405 -0.24068877 -0.22813095
-0.20475155 -0.061819397 -0.22297126 -0.12225938 -0.22136764 -0.016734244 -0.04817375 -0.17744866
-0.1508257 -0.010703232 -0.23998849 -0.116298236 -0.09572743 -0.07961866 -0.059522007 -0.1157051
-0.15968862 -0.16813233 -0.007253924 -0.31001696 -0.19594641 -0.050969414 -0.2809917 -0.16030402
00000000: e0dc 5fbe 7855 f5bd 26b0 c4bd 44dd adbd
00000010: f450 16be 7efb 73be 1e77 76be 299b 69be
00000020: 64aa 51be 5636 7dbd 9452 64be 2063 fabd
00000030: 33ae 62be 4116 89bc d751 45bd 1ab5 35be
00000040: 0d72 1abe 9c5c 2fbc 8bbf 75be c52d eebd
00000050: be0c c4bd 1c0f a3bd 59cd 73bd ccf6 ecbd
00000060: 6a85 23be e22a 2cbe 53b2 edbb 8bba 9ebe
00000070: 2da6 48be 4ec5 50bd 25de 8fbe bd26 24be

network.9.running_mean f4 [32]
-1.5778717 -0.5598537 0.53144145 -1.1642947 -1.0507971 -0.38039327 -0.15786897 -0.4063008
-0.78466094 -0.6844299 -0.3907179 -0.169111 -1.158891 -0.8500793 -1.3095737 -0.7062592
-0.26648962 -0.971051 -0.16333388 -1.1218983 -0.013479081 -0.38745785 0.1293372 -0.48528782
-0.1314229 -0.5464992 -0.28656873 -0.24959914 -1.0017133 -1.7437879 -0.11054202 -0.99252445
00000000: b3f7 c9bf 9252 0fbf 8c0c 083f 9c07 95bf
00000010: 8580 86bf e8c2 c2be 67a8 21be a906 d0be
00000020: 8adf 48bf cc36 2fbf 2d0c c8be 6f2b 2dbe
00000030: 8a56 94bf cc9e 59bf 1ca0 a7bf 67cd 34bf
00000040: 5471 88be cc96 78bf ff40 27be 5d9a 8fbf
00000050: 5dd7 5cbc e060 c6be f970 043e a577 f8be
00000060: ba93 06be 5fe7 0bbf 23b9 92be eb96 7fbe
00000070: 2438 80bf 7134 dfbf db63 e2bd 1516 7ebf

network.9.running_var f4 [32]
3.3287547 3.9897218 1.6683068 3.1842282 4.7807755 2.8834221 5.4133296 2.6968427
7.262516 3.8462276 3.2709434 4.96758 6.174068 3.945815 3.5884278 1.9932867
3.1099353 2.573793 0.8879244 3.769975 1.7516475 3.3093095 3.8010397 3.7605004
1.9166237 4.585391 3.783369 3.7080765 6.611217 5.0440845 2.4126642 2.5418875
00000000: 510a 5540 9a57 7f40 148b d53f 65ca 4b40
00000010: 1dfc 9840 fd89 3840 ff39 ad40 1299 2c40
00000020: 8866 e840 9828 7640 2357 5140 6af6 9e40
00000030: f791 c540 3c88 7c40 cda8 6540 0524 ff3f
00000040: 2e09 4740 06b9 2440 034f 633f 4547 7140
00000050: fc35 e03f bacb 5340 3c44 7340 0aac 7040
00000060: ed53 f53f 86bb 9240 b822 7240 2051 6d40
00000070: 178f d340 2469 a140 1769 1a40 49ae 2240

network.12.weight f4 [4, 32]
-0.22517398 0.09097791 0.06521393 -0.073514104 -0.1693661 -0.10633676 0.2482148 0.040806916
0.018158743 -0.021427082 0.21501693 0.13830404 -0.14068182 -0.06489973 -0.15480487 -0.045422073
0.071369216 -0.09020031 0.11153032 -0.14135458 0.12046381 0.020101355 0.003475168 0.13402659
0.14627197 0.01972429 0.099436045 0.07467513 0.11496635 -0.14862788 0.21085769 -0.17586587
-0.14621246 0.005722694 0.055556174 -0.13102655 -0.0787654 0.103539005 0.23185208 -0.083142914
0.20136048 -0.045421556 0.16619422 0.10828719 0.16131012 -0.11743556 -0.17877522 -0.047524285
0.014132748 -0.07268221 0.121200904 -0.14369366 0.12643938 0.0047408524 -0.02948042 0.15415357
0.120297775 0.021270823 0.11145249 0.27250868 -0.05851035 -0.16729344 0.05992465 -0.08568262
0.07361266 -0.14560576 0.102792546 -0.110926576 -0.04015874 -0.16012913 0.00071091077 0.10011725
0.23798259 0.039329253 0.1806759 0.109394565 -0.18762663 0.015929855 -0.06391282 -0.1668744
0.095251046 -0.064624295 0.1474572 -0.05535418 0.0633813 0.037871547 0.07828889 -0.033810094
0.13398848 0.09249191 0.02256657 0.051052064 0.034153458 -0.08946112 0.17006952 -0.19090508
-0.07068764 -0.18264788 0.098770365 -0.1668782 -0.19862552 -0.21112491 -0.013931094 0.17153504
-0.1940867 0.17454419 -0.07603627 -0.07120351 -0.13040128 0.19127467 0.008677852 -0.0026072138
0.17748831 0.008890648 0.038963787 -0.19678164 -0.00072747306 0.16245018 0.1527768 -0.11606976
-0.012629973 0.21805483 -0.115040086 0.07250557 -0.31905964 0.14295754 -0.03695875 0.08588486
00000000: 0294 66be a052 ba3d e28e 853d 908e 96bd
00000010: 4f6e 2dbe 16c7 d9bd 052c 7e3e 2725 273d
00000020: a5c1 943c d987 afbc 662d 5c3e 939f 0d3e
00000030: e50e 10be 26ea 84bd 2b85 1ebe 7f0c 3abd
00000040: 062a 923d f1ba b8bd 026a e43d 41bf 10be
00000050: bbb5 f63d 99ab a43c a5bf 633b 443e 093e
00000060: 52c8 153e d694 a13c 20a5 cb3d 46ef 983d
00000070: 7a73 eb3d e831 18be 14eb 573e 2f16 34be
00000080: b8b8 15be 7085 bb3b df8e 633d d32b 06be
00000090: c14f a1bd 420c d43d a26a 6d3e d546 aabd
000000a0: 7131 4e3e f40b 3abd d12e 2a3e adc5 dd3d
000000b0: 7b2e 253e 0e82 f0bd da10 37be d3a8 42bd
000000c0: 0b8d 673c 69da 94bd 2e38 f83d 6e24 13be
000000d0: 5379 013e 2759 9b3b ec80 f1bc 6fda 1d3e
000000e0: ae5e f63d 2640 ae3c 3441 e43d 4286 8b3e
000000f0: 8ca8 6fbd f94e 2bbe 8d73 753d 5f7a afbd
00000100: 3cc2 963d ad19 15be e684 d23d 792d e3bd
00000110: 7e7d 24bd e4f8 23be 6a5c 3a3a 460a cd3d
00000120: b5b1 733e b617 213d 1a03 393e 420a e03d
00000130: 3221 40be 547f 823c b9e4 82bd 1fe1 2abe
00000140: fb12 c33d be59 84bd 05ff 163e 11bb 62bd
00000150: 0ece 813d 321f 1b3d ed55 a03d 747c 0abd
00000160: 4734 093e 666c bd3d 87dd b83c f81b 513d
00000170: 7fe4 0b3d 6437 b7bd b426 2e3e 9f7c 43be
00000180: aec4 90bd 0c08 3bbe 1e48 ca3d 1ee2 2abe
00000190: 7d64 4bbe 2131 58be 3e3f 64bc e2a6 2f3e
000001a0: aabe 46be b6bb 323e e7b8 9bbd 25d3 91bd
000001b0: ea87 05be 82dd 433e 8d2d 0e3c cadd 2abb
000001c0: 7fbf 353e 15aa 113c 7e98 1f3d 2081 49be
000001d0: e4b3 3eba 5759 263e 8571 1c3e fbb5 edbd
000001e0: f2ed 4ebc c449 5f3e 239a ebbd cd7d 943d
000001f0: c95b a3be 7663 123e 0f62 17bd 67e4 af3d

network.12.bias f4 [4]
-0.055757128 -0.049441855 -0.11039068 -0.014142658
00000000: 9661 64bd 8b83 4abd 8214 e2bd 9bb6 67bc
